TWP_2/results/ArmTest5/RobotArm/checkpoint.pt (torch, 427554 bytes, 36 tensors)

network_body._body_endoder.seq_layers.0.weight f4 [128, 1]
000000 eb 0d 92 bf 28 d3 51 bf 6f 46 1f 40 ce 0c b1 bc
       -1.1410497 -0.81962824 2.488674 -0.021612551
000010 0b 64 d0 be 15 4e 98 bf ff a1 d9 bf f7 b7 8e 3e
       -0.40701327 -1.1898829 -1.7002562 0.2787473
000020 99 43 1e bf 5c 61 73 bf 01 3a 03 be 7d 52 4a be
       -0.61821896 -0.95070434 -0.12815095 -0.1975803
000030 ce a2 33 3f 51 21 c8 bf 45 be d0 bf 82 41 99 3f
       0.70170295 -1.5635167 -1.6308066 1.1973116
000040 ba 1f dd be 24 cf 02 bf 0c df 69 bd 4b 2d 88 3f
       -0.43188268 -0.5109732 -0.05709748 1.0638822
000050 42 fa 4c bf 9b 5e cc 3e bb bb 1d c0 71 5f 2e 3f
       -0.80069363 0.39915928 -2.4645832 0.6811438
000060 be b4 f5 be a5 4a ae bf 40 a5 a8 be 37 eb 0b 3f
       -0.47989458 -1.361653 -0.32938576 0.54655784
000070 06 c3 04 c0 2a 12 20 3f 8a 14 c6 3e 62 13 28 3e
       -2.0744033 0.62527716 0.38687545 0.16413644
000080 27 f9 30 bf ca 3d 2c 3f 00 38 e0 3f 4a e7 a2 be
       -0.69130176 0.6728178 1.751709 -0.31817085
000090 b0 f2 ae be 52 be b5 bf e3 8a be be ba 52 8a be
       -0.3416953 -1.4198706 -0.37215337 -0.2701624
0000a0 20 57 91 3d f2 2b ea 3f f5 b1 87 bf 5e d9 9d 3e
       0.07096696 1.8294661 -1.0601183 0.308299
0000b0 ad f5 a6 bf 31 30 7a 3f 41 fa ef 3e 01 62 24 3c
       -1.3043724 0.97729784 0.46870616 0.010033132
0000c0 f7 9b 8a be 1f 6c 66 3c 80 0a 33 3f eb d6 d7 bf
       -0.27072117 0.014063864 0.69937897 -1.6862463
0000d0 a8 96 0e bd 1e 35 24 bf 81 03 95 be 22 97 b8 3e
       -0.034811646 -0.6414355 -0.29104236 0.36052805
0000e0 a5 fd 3b bf 34 24 b0 3f 24 22 bd bf dc e3 d8 be
       -0.73433906 1.3761048 -1.4776044 -0.42361343
0000f0 79 09 48 bf 53 56 8f 3f 31 21 ca bd 3a e4 e1 be
       -0.78139454 1.1198219 -0.09869612 -0.44119436
000100 75 5a df 3f df e9 99 3f a7 29 44 3f bc c7 0c 3e
       1.744948 1.2024497 0.76626056 0.13748068
000110 f2 cb 57 3f 26 84 bd be 95 05 94 bf 14 5b 7e bf
       0.8429557 -0.37014884 -1.1564204 -0.99357724
000120 6a f9 8d bf 2b 51 16 3f 47 d3 6e 3f b4 2d 9c 3f
       -1.109174 0.587176 0.93291134 1.2201447
000130 70 95 0f 3f 1f 9f d9 bf 2e d9 00 bf 39 44 9e 3f
       0.560874 -1.7001685 -0.5033139 1.236457
000140 87 c8 24 bf 66 b4 d2 3f 95 5a 8e bf c1 a3 a1 3f
       -0.6436848 1.6461303 -1.1121393 1.2628099
000150 7d d4 0b 3f 93 48 e3 3f 9e 42 0b 3f 61 4d 2a bf
       0.54621106 1.7756523 0.54398525 -0.6652432
000160 8e 7d 0c bf 14 55 2a bf db 2b 68 3e 30 b5 39 bf
       -0.5487908 -0.6653607 0.2267298 -0.72542095
000170 46 20 81 3f 43 ec f4 3e 73 dd 87 3f 7b 1c 2b bf
       1.0087974 0.47836503 1.0614456 -0.6684033
000180 75 fd 37 3f 0a ee c9 3f 74 3c 8d bc 10 cb 11 40
       0.7187112 1.5775769 -0.01724074 2.278019
000190 2a 91 a9 3f 02 75 8b bf 95 4c 5b bf ae df d6 bf
       1.3247426 -1.0895083 -0.8566373 -1.6787012
0001a0 05 d4 21 c0 12 a9 43 3f 08 55 bd ba c5 99 8e bf
       -2.5285656 0.76429856 -0.0014444897 -1.1140677
0001b0 0d 06 32 3f b3 1c c2 bf 45 e2 4e bf bc 9e ec 3e
       0.6954048 -1.5165008 -0.8081401 0.46214855
0001c0 93 31 1f be bc 58 84 bc 26 96 2f bf 2e 16 4f bf
       -0.15546255 -0.016155593 -0.68588483 -0.8089322
0001d0 52 ae 68 bf 5b 90 a7 be 15 f2 8b 3f 78 01 a0 3e
       -0.9089099 -0.32727322 1.0933253 0.3125112
0001e0 ae 20 29 3f 27 e3 a5 3d 52 65 af bf 8c 07 1a 3f
       0.6606549 0.080999665 -1.3702796 0.60167766
0001f0 1d 25 14 bf f9 34 43 3f 0d ce 4d 3f 40 cf 8b 3f
       -0.5786913 0.76252705 0.80392534 1.0922623

network_body._body_endoder.seq_layers.0.bias f4 [128]
000000 c9 cc 35 be 96 ec f1 bd f1 87 11 3d 9d ed 03 be
       -0.177539 -0.11812703 0.035530034 -0.12883611
000010 1c 45 2a be 11 cb 8c bd 2c a4 21 be f5 a0 54 be
       -0.16627926 -0.06874669 -0.15785283 -0.20764525
000020 87 43 ea bd 10 0c d5 bd 77 8e 20 bd b0 5e ce bd
       -0.11438661 -0.10402691 -0.039198365 -0.10076654
000030 29 fa cd bd 5d 1b 8a bd 17 4c f1 bd 49 d2 ae bd
       -0.1005748 -0.067435004 -0.11782091 -0.085362025
000040 af 8f dd bb 2b 3a 95 bd 7a bc 80 be 10 32 d6 bc
       -0.006761513 -0.07286485 -0.25143796 -0.026146919
000050 ef 5a 15 be 3f b9 76 bd 9a f5 93 bd 60 3e 62 3c
       -0.1458547 -0.06023526 -0.07224579 0.013808817
000060 df bb 00 be 92 fe b0 bd 50 25 3d be ac bd e4 3a
       -0.12571667 -0.086423054 -0.18471265 0.0017451546
000070 bb 24 ac bd e1 3f 00 be 11 3c d0 3d bb 69 04 be
       -0.08405443 -0.12524368 0.10167707 -0.12930958
000080 91 3b fa bc 13 26 b3 3c dd e7 e1 3d 97 b8 ff 3d
       -0.030545982 0.021868741 0.110305525 0.124863796
000090 f4 b1 e0 bd ff 43 af bd 84 a0 2e be b4 67 50 be
       -0.10971442 -0.08557891 -0.1705342 -0.2035206
0000a0 f7 18 d2 bd 3b 33 57 bd 97 e7 0f be a0 9a 27 be
       -0.10258668 -0.05253909 -0.14053188 -0.16367579
0000b0 59 71 9d bb 2f 10 aa bd ec f0 ef 3c 17 82 6c be
       -0.004804772 -0.08303868 0.029289685 -0.230965
0000c0 2b 94 2c be 07 95 5f be 73 27 c7 bd 5a 26 31 bd
       -0.16853397 -0.21834193 -0.09724321 -0.043249466
0000d0 fa 72 55 be 5d 21 68 bd 7a f6 4e be d9 69 c5 bd
       -0.20844641 -0.056672443 -0.20211211 -0.096393295
0000e0 3f 9c 05 ba da 40 8f bd f2 be 6c 3c e2 da 5f bd
       -0.000509683 -0.06994791 0.014449822 -0.054652102
0000f0 5a d2 1c 3d 90 58 a1 3d 21 9a be 3d 4e a7 a4 bd
       0.038286544 0.0787822 0.093067415 -0.08039723
000100 f1 df 77 3d af 42 d2 bd f7 13 00 be f9 9e 0c be
       0.0605163 -0.10266625 -0.12507616 -0.13732518
000110 98 e0 2f be 90 a8 d7 bc 36 6c 98 bd 3d ca 04 be
       -0.1717552 -0.026325494 -0.074425146 -0.12967773
000120 94 80 9e bd c3 d0 b3 bc 97 40 e3 bd 16 f1 2f be
       -0.07739368 -0.021950131 -0.11096304 -0.1718181
000130 52 dc 4d be c2 de 87 bd 95 b9 7d be 0f 19 10 be
       -0.20103577 -0.066342846 -0.24777825 -0.14072059
000140 2e 26 70 be d4 3e 19 bd 3e 3d 7d bd a8 5d 00 be
       -0.23452064 -0.037413433 -0.061825983 -0.12535727
000150 54 c1 42 be d2 2d 25 3c 19 6c bf 3c 80 9a cf bd
       -0.19019061 0.010081725 0.023366975 -0.101368904
000160 64 14 85 3c d3 24 ab bd 3b 9e 2e be 5e 26 3c be
       0.016245075 -0.08356633 -0.17052548 -0.18374011
000170 b5 9c d7 3b 86 6e cc 3b b2 8b 19 be 51 52 eb bc
       0.00657996 0.0062387614 -0.14994696 -0.028725775
000180 db ee 44 3c 03 a5 30 3d 67 6f 23 be 23 84 f8 bd
       0.012019838 0.043126117 -0.15960465 -0.12134578
000190 90 a8 51 bd 97 00 13 be 7c ac 64 be 3e dc 21 be
       -0.051186144 -0.14355694 -0.22331423 -0.15806672
0001a0 33 8f b8 bd e8 e4 44 be cb 68 62 bb 04 9e 81 bd
       -0.09011688 -0.19227946 -0.0034547325 -0.06328967
0001b0 9a 60 41 be 84 be fd bd 03 3c cd bd d4 9d 09 be
       -0.18884507 -0.123898536 -0.10021212 -0.13439113
0001c0 6b 69 b2 bd a4 9b 02 be 85 3c ab bd c2 0c 31 be
       -0.08711513 -0.12754685 -0.083611526 -0.17290023
0001d0 34 38 5e bb b4 ca 2f be 22 d1 b7 bd 65 27 39 be
       -0.0033908011 -0.17167169 -0.08975436 -0.18081434
0001e0 08 59 43 be a1 c0 ff bd 86 7f 90 bd 79 2a 1e be
       -0.19076931 -0.12487913 -0.07055573 -0.1544589
0001f0 77 c9 ca bd 59 14 26 be 19 f3 dd bc af 81 6c bd
       -0.099017076 -0.162187 -0.027093457 -0.057740863

network_body._body_endoder.seq_layers.2.weight f4 [128, 128]
000000 cc 25 1e bd 7d 16 0f 3c 53 a6 c1 bc 5e ea e4 bc
       -0.038610265 0.008733389 -0.02363888 -0.027943786
000010 f7 7e f1 3b 1d 20 7d 3d e8 66 d4 bb e5 c4 96 bc
       0.0073698717 0.061798204 -0.006481994 -0.018404434
000020 75 6c 78 bd 86 0f 9a 3d 3b 5d cb bd c5 8c c5 bd
       -0.060650308 0.07522492 -0.09929892 -0.0964599
000030 75 4d be 3c ba c3 8d bd 81 95 d2 bb a7 c6 ad 3d
       0.023230294 -0.069220975 -0.0064265137 0.084851556
000040 63 a0 04 be a6 8a a3 3d 98 2a d5 bc 4b 22 31 3d
       -0.12951808 0.079854295 -0.026021287 0.043245595
000050 27 cf ba bc 4a eb 2b 3d d8 d4 3c bd 27 4e 75 3d
       -0.022803856 0.041972436 -0.04610142 0.059888985
000060 2b 2d 93 bd b5 af c6 3c 3b 74 27 3d 4b 15 b4 3d
       -0.071863495 0.024253706 0.04088233 0.08793124
000070 9e bd cd 3d 9e c1 16 3e 80 d3 e2 3d 99 a2 7b 3d
       0.10045932 0.14722297 0.11075497 0.061434362
000080 83 44 8e 3c 7e 94 2a 3e 68 08 1f 3d 85 d7 17 bd
       0.017366653 0.16658208 0.038826376 -0.03707077
000090 df 06 64 bd 08 6c 71 3d a1 1b aa bc d2 0d 9d bd
       -0.055670615 0.058940917 -0.020765128 -0.07668652
0000a0 49 ff 8c 3d 77 87 ed bc 47 8f 42 bc 99 ad d6 bc
       0.06884629 -0.028995259 -0.01187498 -0.026205825
0000b0 d3 66 58 bd 40 10 02 3d 86 5c ac 3d 1b c2 2e bd
       -0.052832436 0.03175378 0.08416085 -0.042665582
0000c0 d8 e1 b4 bd 22 9f 31 3e 5f a0 1b bd b5 d9 6c 3d
       -0.08832139 0.1734586 -0.03799474 0.05782481
0000d0 f7 0b fa bc 89 4b 71 bc 1e f9 ba 3d 51 ed 24 3c
       -0.030523283 -0.014727482 0.091295466 0.010066346
0000e0 51 e8 43 bd 63 83 42 3d 02 68 99 bc 9f ad d6 3a
       -0.047828976 0.04748858 -0.018726353 0.0016378647
0000f0 99 e0 92 bd af a3 b7 3d 86 2e 05 be 1e 92 64 bd
       -0.07171745 0.08966767 -0.13006029 -0.05580341
000100 03 27 c2 3d 4b b7 c8 3d df b8 14 3c f3 78 b4 bc
       0.09480097 0.09800585 0.00907728 -0.02203033
000110 ca 1a 0b 3e d8 a4 b1 bc 77 2e 0b 3c 2e c5 15 bb
       0.13584438 -0.021685049 0.008494965 -0.0022853124
000120 0d 43 83 3d 32 ff 6e 3d e4 f0 cd bc 91 d2 09 3d
       0.06409273 0.058348842 -0.02513928 0.033648077
000130 13 5f 57 3c a1 79 28 3e 6e 93 14 bc 1d 1f 27 3d
       0.013145226 0.16452648 -0.009068353 0.040801156
000140 b5 01 c3 bd 02 aa 76 3e 79 14 a6 bd 7a 05 32 bd
       -0.0952181 0.2408829 -0.081093736 -0.043462254
000150 61 b5 d9 3d 54 d5 ae 3c 54 b3 0a 3e e9 1d 56 be
       0.106302984 0.021341957 0.13544971 -0.20909847
000160 c4 7c 80 bd 23 c5 60 bd c0 dd 54 3d fb df 4a 3c
       -0.06273797 -0.054875504 0.05196929 0.012382503
000170 3b 66 dc bd 19 e6 d5 3d b3 b9 02 3d 02 49 c1 3c
       -0.107616864 0.10444278 0.031915378 0.023594383
000180 9e a1 d8 3d a5 e1 42 ba f7 ff 26 3d 7c 1c 6d bd
       0.10577701 -0.00074341364 0.04077145 -0.057888493
000190 ae 36 d5 3d d1 b0 7c bb 84 08 1a 3e 7c 1e b2 3d
       0.1041082 -0.003855754 0.15042311 0.08697221
0001a0 d8 af 05 3e 9b 5d 9a 3e de 32 46 3d 30 d1 1f be
       0.1305536 0.3014954 0.048388354 -0.15607142
0001b0 82 29 35 3d 20 0e d3 bd 4e fa 30 bc 03 29 16 3d
       0.044229038 -0.103054285 -0.010801865 0.036660206
0001c0 b0 51 fd bd 42 4a d0 3d 7d af c1 3d ef 2f bb 3d
       -0.12369096 0.101704136 0.094573 0.09140002
0001d0 7e 67 03 3e 87 c5 6a be 7a 00 20 3e 6c ba 5a 3d
       0.12832448 -0.22926913 0.15625182 0.053400442
0001e0 f7 d1 bc bd 66 db 74 bd 19 84 0e be 67 c2 76 3c
       -0.09219735 -0.059779547 -0.13917579 0.015060998
0001f0 ec f0 b8 3c 65 17 0a 3e 3e 23 c1 3d 23 da fd 3d
       0.022575818 0.13485487 0.0943055 0.12395122
000200 38 92 b3 bd 00 45 88 bc 95 1c 8a 3d e5 bf e5 bd
       -0.087681234 -0.016634464 0.06743733 -0.112182416
000210 63 b9 36 be 29 5b a5 3d 4d a2 c1 3d fe 6a cf 3c
       -0.17844157 0.08074028 0.094547845 0.025319573
000220 4b 8e 2d bd 5a 39 d1 bd b7 fa 83 3d 18 52 bf 3c
       -0.04237203 -0.10216017 0.064443044 0.023354575
000230 87 06 1b be 7e 81 61 be 17 68 2a bd f7 05 c6 bc
       -0.15139209 -0.22022054 -0.041603174 -0.024172766
000240 48 77 5e be e1 2f 85 bd 7d c8 55 bc ff 97 db bd
       -0.2172519 -0.06503273 -0.013048288 -0.1072235
000250 17 f3 92 bc 46 d1 37 bc bc 27 b1 bd 93 b0 d8 bc
       -0.01793818 -0.011219328 -0.08650157 -0.026451385
000260 82 4f c4 bd 6e 77 28 be cc c2 45 bd 85 66 62 bc
       -0.095854774 -0.16451809 -0.048281476 -0.013818388
000270 11 62 d6 3c 86 15 24 bd 9f f7 65 bd 25 7a 73 3d
       0.026169809 -0.04005959 -0.056144353 0.059442658
000280 37 dd 99 bd eb 4c 57 3c 91 32 eb 3c 03 c9 1f bd
       -0.075128965 0.013140897 0.028710635 -0.03901006
000290 06 74 fc bc a2 b0 c2 3c ff db ed bd 18 0b a5 bd
       -0.030817043 0.023765866 -0.116142265 -0.080587566
0002a0 f2 65 9a bd 15 36 0f 3e f0 ca 65 3d 6d 3a d3 bc
       -0.07538976 0.13985474 0.05610174 -0.025784696
0002b0 e4 5c 6b 3d 8f 9c fe 3d 3e 13 bc bd 0d c6 02 3e
       0.057461634 0.12432205 -0.09183358 0.12770863
0002c0 87 02 32 be 83 33 4e 3e 7d 27 0b be 74 58 9e bc
       -0.17383777 0.20136838 -0.13589282 -0.019329287
0002d0 fb 9e 25 3d c0 1e 8e bd 3b e7 5c 3d 9c c0 c9 3d
       0.04043482 -0.06939459 0.053931456 0.098511904
0002e0 cb 4e 0f be 28 bd ab 3d cb 54 0c 3e 0a 08 ae 3b
       -0.13994901 0.08385688 0.13704221 0.005311017
0002f0 15 a9 fc 3d ea 5c 8a bc f0 9f f5 bd e9 fe a2 bd
       0.12336937 -0.016890008 -0.11993396 -0.079587765
000300 33 b1 fa bc e1 db 5e bd 31 55 a8 3c d4 7a ba 3d
       -0.030602073 -0.05440891 0.020548435 0.09105459
000310 f5 c7 20 3c fe d3 fc 3d 21 f3 89 3c 02 09 d1 3d
       0.0098132985 0.12345122 0.016839566 0.10206796
000320 e9 cc a4 bd 0f a5 be bd 60 79 a1 3d 2d 11 fa bc
       -0.08046896 -0.09308826 0.078844786 -0.030525768
000330 49 da 31 be a9 a9 6c 3d 1b 32 02 be 82 ce 48 bd
       -0.17368425 0.057778988 -0.12714426 -0.049025066
000340 0d 08 4b bd 5e 8d 8b 3d de 6c b5 3c 44 08 29 bd
       -0.049568225 0.06814073 0.022146638 -0.04126765
000350 9c 03 9a 3c 2f 04 c0 bd 7f cf 15 3d 9d e6 c4 bd
       0.01880055 -0.09375798 0.036574837 -0.096142985
000360 bc e9 2e be 83 1e 89 bd 55 1c 67 3d 08 54 a7 3d
       -0.1708135 -0.06695273 0.056423504 0.081703246
000370 d9 c5 10 3d 19 9b 73 be 6d 35 5b 3b a1 79 d5 bc
       0.035344932 -0.23789634 0.0033448592 -0.026058974
000380 e5 19 f0 bd 51 b7 9e 3d 7e a3 f0 3d bb 45 54 3d
       -0.11723689 0.077498086 0.11749934 0.051824313
000390 77 30 1f be d2 0f c5 3c b2 56 68 3d e6 99 03 bd
       -0.15545832 0.024055395 0.056723304 -0.03212919
0003a0 95 72 9b bd 7e be d5 bd 9a 7b b5 3d dd 83 fd bd
       -0.07590214 -0.10436724 0.08861466 -0.123786665
0003b0 2c 19 42 3e c5 02 71 bd bf e2 d3 bd 6d 9c b5 bd
       0.18954915 -0.05884053 -0.10345983 -0.088677265
0003c0 3e 31 38 bd 8d 2b d2 bd 5a 88 40 bd 2e 16 0b be
       -0.044968836 -0.10262213 -0.047005035 -0.1358268
0003d0 a1 8b e2 bd d9 71 36 bd ff 8c 32 be 2c 49 5a bd
       -0.11061788 -0.044542167 -0.17436598 -0.05329244
0003e0 7f b1 f1 bc ba e7 07 3e e4 f1 35 3d b0 e2 c7 3c
       -0.029503582 0.1327199 0.044420138 0.024400085
0003f0 a4 d0 54 bd 3e 24 c7 bc 4d 6e bd bd 28 d5 1c be
       -0.051956788 -0.024309274 -0.09249554 -0.15315688

network_body._body_endoder.seq_layers.2.bias f4 [128]
000000 73 d2 43 bd 74 7a cb bd 88 4a 00 3e 26 18 83 bd
       -0.047808122 -0.099354655 0.12528431 -0.0640109
000010 0f 7a 25 be 73 f7 b7 bc 5f 69 58 be b6 87 29 be
       -0.16159843 -0.02245686 -0.21133946 -0.16555676
000020 b5 b5 14 3e 52 d9 62 be 5f b8 ee bd ac c4 ec bd
       0.1452244 -0.22153214 -0.1165626 -0.1156095
000030 01 62 30 be 52 17 1c be 4d f1 27 be 12 63 a3 3d
       -0.17224886 -0.15243271 -0.16400643 0.079778805
000040 7d 92 58 be 5b a0 dd 3d bf c0 d3 bd 2c 06 22 3d
       -0.21149631 0.10821601 -0.10339498 0.039556667
000050 25 ee 87 3d a6 95 51 be 15 21 a9 bd 4b ac a9 3d
       0.06637219 -0.20467243 -0.08258263 0.082848154
000060 0e 12 08 bd 91 ec 89 bc 32 3a fd 3d 3c 09 92 bc
       -0.033220343 -0.016836436 0.123646155 -0.017826669
000070 09 75 a7 bd f0 07 49 be c2 ea 88 3d 35 29 09 bd
       -0.081766196 -0.19631934 0.066854015 -0.033486564
000080 65 6d 11 be 99 7a db bd 27 c1 87 bd e3 99 dd 3a
       -0.14201887 -0.10716743 -0.06628638 0.0016906824
000090 c2 91 e8 bd 2e 8a 68 3d b9 50 92 bc 12 c4 f8 bc
       -0.11355926 0.056772403 -0.017860757 -0.030366931
0000a0 7c 12 c4 bd 40 15 fc bd 8b 6e 9d bc eb b9 40 be
       -0.09573838 -0.123087406 -0.01921775 -0.18820922
0000b0 bb c8 83 3d 2b 99 c7 3d 09 cb 64 be ce 61 2c 3e
       0.06434771 0.09746011 -0.22343077 0.16834185
0000c0 14 b1 4d be 8c 3f d2 3b 36 9e 04 3e e1 b3 0c bc
       -0.20087081 0.006416267 0.12950978 -0.008587808
0000d0 52 38 df bd 45 ef 56 be 45 1e 22 be 92 59 f3 bd
       -0.10899414 -0.20989712 -0.1583186 -0.118823186
0000e0 f3 4d f5 3d f5 23 3e be de d8 40 be f2 10 3e be
       0.11977758 -0.18568404 -0.18832728 -0.18561152
0000f0 99 74 24 bc 66 12 1d be 32 5c 40 be 40 ae 35 3e
       -0.010037565 -0.1533905 -0.1878517 0.17742252
000100 0c a1 ad bd 20 3e 41 3c 14 16 47 bd 2d c8 38 3e
       -0.08477983 0.011794597 -0.04860504 0.18045111
000110 ae 0a ae 3d 6c 8b 16 3e 13 80 14 3e 41 df 3f be
       0.08498131 0.14701623 0.14501981 -0.18737508
000120 c3 87 ff 3d af 6e 45 be 2b 7d 9d bd 56 c1 07 3e
       0.12477066 -0.19280504 -0.076898895 0.13257346
000130 35 10 cb 3c 80 2f 86 3d bb 60 1e 3d 74 6d 4b be
       0.024788002 0.06552029 0.038666468 -0.19865972
000140 03 24 47 be 79 9f 30 be 36 7c 9c 3d 11 f1 0d 3e
       -0.19447331 -0.17248334 0.07640879 0.13861491
000150 66 a7 f8 bd ab 1c 13 be 80 46 8d bd 9a 2b 8c 3c
       -0.12141304 -0.14366405 -0.068982124 0.017110635
000160 da d2 72 bd fa f4 49 be c8 f1 2c bc 5c ad f9 3c
       -0.059283115 -0.19722357 -0.010555692 0.030478172
000170 19 18 e2 3d af 6b 5b be 20 5f e4 3c 64 70 22 be
       0.110397525 -0.21427797 0.02787739 -0.15863186
000180 1d e2 e9 3d b8 c4 be bd ad 83 63 be 62 4f 29 bd
       0.11420081 -0.09314865 -0.22218199 -0.04133547
000190 87 9c cf 3d c1 8c 7c 3d e9 38 19 be 0e ad f2 3d
       0.10137277 0.06165767 -0.14963116 0.11849414
0001a0 26 f5 ca bc 17 be 11 3e 78 97 47 be c3 10 29 3c
       -0.024775099 0.1423267 -0.19491374 0.010318938
0001b0 cb c0 9a 3d 2e 32 0b be 10 f6 23 be 2a 97 38 3e
       0.075563036 -0.13593361 -0.16011834 0.18026415
0001c0 44 49 2b be 83 55 9e 3d 11 54 0c bc c2 25 09 3e
       -0.16727167 0.07731154 -0.008564965 0.1339331
0001d0 9e 8b 23 3c 6f 2d f9 3d a1 c1 51 3d b9 34 21 be
       0.009982018 0.12166869 0.05121005 -0.15742768
0001e0 7f 7f d7 3d 1b 62 51 bd 54 1d 42 be d1 4d 47 bd
       0.10522365 -0.05111895 -0.189565 -0.048658196
0001f0 38 4d 07 3c 3a 5e c1 bd 9e 1e 63 be 39 87 19 3d
       0.0082581565 -0.094418004 -0.22179648 0.037482474

action_model._continuous_distribution.log_sigma f4 [1, 3]
000000 2e 6e 32 be 20 1a 1b be c7 94 07 be
       -0.17424843 -0.15146685 -0.13240348

action_model._continuous_distribution.mu.weight f4 [3, 128]
000000 e7 d3 86 bb 3f 1b 3b bc 65 83 d5 b8 0e 75 89 bb
       -0.004114616 -0.01142007 -0.000101811056 -0.004194862
000010 9a 41 d5 3d e9 c8 45 bc 91 21 a0 3d 9e 72 04 3d
       0.10412903 -0.0120718265 0.07818902 0.03233587
000020 22 bb e3 bd ec 97 af 3d 69 b8 0c 3d 81 3c 8b bc
       -0.11119677 0.08573899 0.034355555 -0.016996624
000030 70 48 b5 3d d2 59 8f 3d f6 9f e3 3d 80 4c 03 3d
       0.08851707 0.06999554 0.111144945 0.032055378
000040 83 23 dd 3d 13 d2 cb bc 41 1f 70 3a 98 e9 fe 3a
       0.10797789 -0.024880445 0.00091599306 0.0019448278
000050 04 f8 4d bb cb d0 c3 3d bc fd ae 3c 2f c3 1c bd
       -0.0031428346 0.095613085 0.021361224 -0.03827208
000060 32 af 71 3b 7d 6d 08 3c a3 e2 d9 bd 86 d0 a3 3c
       0.0036878106 0.008326885 -0.10638931 0.019996893
000070 1c e7 8b 3d da 52 6e 3d f1 b9 c3 3c 90 c6 02 3d
       0.0683119 0.058184482 0.023892375 0.031927645
000080 c8 76 87 3d c7 22 87 3d 23 b4 90 bb 2b 9b 53 3c
       0.066144526 0.0659843 -0.004416005 0.012915413
000090 72 91 ce bb c4 e2 75 3b d0 f6 b1 3d 86 5b c2 3c
       -0.0063039595 0.0037519196 0.08689654 0.023725282
0000a0 e0 9d ca bb 04 6e a7 3d df 2c 6e 3c f4 54 0a 3e
       -0.006183371 0.08175281 0.014537065 0.1350897
0000b0 13 1b 14 bb 50 c5 e3 34 66 4a ed 3d da 7f 26 3d
       -0.0022599145 4.242561e-07 0.11586456 0.040649273
0000c0 92 fd c8 3d 3c 91 cb 3b 7b 0b 77 bd ef 47 0e bc
       0.0981399 0.0062123816 -0.060313683 -0.0086841425
0000d0 90 38 36 3d c9 51 d5 3d 90 9d b2 3d 86 5f 97 bb
       0.044487536 0.1041599 0.08721459 -0.0046195416
0000e0 d7 d7 ed 3c ea 67 4d 3d 8c 3e fb 3d db 27 96 3d
       0.029033585 0.05014793 0.12267789 0.073318206
0000f0 bb c3 ab 3c 68 d7 9f 3d dc cb b5 3d ad 6b d5 bd
       0.020967355 0.07804757 0.08876774 -0.10420928
000100 39 85 66 bb a7 30 22 bb 14 41 30 ba cc b8 00 be
       -0.0035174622 -0.0024748237 -0.00067235646 -0.12570494
000110 6b e3 86 3b dc 1d bc bd bf 26 14 3d a9 66 a0 3d
       0.004116466 -0.09185383 0.036169764 0.07832081
000120 54 29 38 bd 88 9e 0b 3e 93 7b 51 bb 22 a8 79 bd
       -0.04496129 0.13634694 -0.0031964525 -0.06095136
000130 25 5a 68 3b 55 83 db 3c a6 94 d6 bb be 56 ba 3d
       0.003545412 0.026796022 -0.006548482 0.09098576
000140 53 93 b0 3d 49 da 92 3d 9b 35 7b 3b ad 08 b0 bd
       0.0862185 0.07170541 0.0038331512 -0.08595405
000150 34 27 d9 3b 37 47 8c 3d 7d b1 1d bc ec 40 26 3c
       0.006626988 0.06849521 -0.009624836 0.0101473145
000160 aa c6 18 3d c7 db ca 3d 55 d3 8b 3c 53 e5 1c b9
       0.037298836 0.099052005 0.017068544 -0.00014962749
000170 1d 75 7a bc ee 8d 13 3e 25 c0 78 3b 52 ed be 3d
       -0.015286711 0.1440961 0.0037956324 0.09322609
000180 da 5a 81 3b d3 4c 7d bb 7e 82 01 3e c3 53 07 3d
       0.003947598 -0.0038650527 0.12647435 0.033038866
000190 03 4d 02 bb fb 95 07 3d c4 26 f1 3d 19 5f 0f bd
       -0.0019882328 0.033102017 0.11774972 -0.0350028
0001a0 6e 8d 61 3c 69 ab d5 bd dc c5 d2 3d 49 66 ad bb
       0.01376663 -0.104330845 0.10291645 -0.0052917344
0001b0 e1 ce 86 3b e2 92 54 bc b9 74 c7 3d c5 4d c0 bd
       0.0041140174 -0.012974473 0.0973906 -0.09389833
0001c0 66 e6 cb 3d fe ff 01 bc 3d f6 2d bb 1b 89 18 bc
       0.099560544 -0.007934568 -0.0026544475 -0.009310032
0001d0 1c 4c 08 3d c6 0c cd bc 6a 31 68 3b 8b e1 5d 3d
       0.03327571 -0.025030505 0.0035429844 0.054170173
0001e0 4f 49 09 3d 15 3b 1b 3d ff 03 a2 3d 5a a4 46 bb
       0.03351718 0.037898142 0.079109184 -0.0030310364
0001f0 a5 18 88 3c 5e 34 24 3d 94 7b 1c 3e 4d da 19 bc
       0.016613314 0.040089004 0.15281516 -0.009390426
000200 49 b5 1e 3a 23 51 8a 3b 0a 3c 20 bb 70 bb 18 3a
       0.0006054235 0.004221098 -0.0024449849 0.000582627
000210 1a 31 da 3d 22 73 21 3b 2c 5f ca 3d 03 9f 93 3d
       0.10653897 0.0024635275 0.09881434 0.072080635
000220 cf 25 b4 3d 5e 0f c5 3d e7 61 9d 3d 6c 6f b5 3c
       0.08796274 0.09622072 0.07684689 0.022147857
000230 2f 06 e4 3d 7e 3e bd 3d 50 3a 12 3e fa 33 9e 3c
       0.11133992 0.09240435 0.14280057 0.019311894
000240 ef 0e ae 3d 0e f9 b4 bd b9 04 42 3d 56 7f 41 3e
       0.08498942 -0.08836566 0.047367785 0.18896231
000250 46 4c 87 3a 85 86 99 3d e8 df 03 bd f0 6c 00 3e
       0.0010322414 0.07496361 -0.032195956 0.12541556
000260 e1 c5 6a ba 24 68 7d bd 31 d6 e0 3d 3e 9f 28 3e
       -0.0008955878 -0.061866894 0.10978354 0.16466996
000270 47 ce f7 3d 95 26 ae 3d e9 6d 8f bc 7f 4e 95 bd
       0.12099891 0.08503453 -0.017508464 -0.072903626
000280 5e 1c ae 3d 71 14 af 3d 05 07 2a 3a ee b3 8d bd
       0.08501504 0.08548821 0.00064860313 -0.069190845
000290 68 5d ae 3a 7d 54 ea b9 f0 c1 07 bd 2b 26 88 bd
       0.0013302984 -0.00044694907 -0.033143938 -0.06647905
0002a0 58 67 ca 3a 98 bc c2 3d 43 f9 7e bd 77 6d 90 3d
       0.0015442176 0.09508628 -0.062249433 0.07052129
0002b0 37 7c ce ba e6 85 b2 38 a4 15 ce 3d 0c c4 4d bd
       -0.0015753572 8.512642e-05 0.10062721 -0.050235793
0002c0 a8 7c a3 3d 83 85 22 3e bf 8c eb 3d f5 85 81 3b
       0.07982761 0.15871243 0.115014546 0.0039527365
0002d0 97 62 b3 3d 9b 6a a3 3d b4 30 9e 3d ac 7c ed 3b
       0.08759039 0.07979318 0.07724133 0.007247528
0002e0 c8 43 86 3c 1e d6 9c 3d 28 38 c1 3d e2 39 bc 3d
       0.016389742 0.07658027 0.09434539 0.09190728
0002f0 40 c5 96 bd 97 83 c0 3d 41 f1 b5 3d da d7 b6 3d
       -0.07361841 0.09400099 0.08883906 0.08927889
000300 0a 2f 5f 3a 4a e7 84 3b 93 ee ba 3a 64 dd 9b 3d
       0.0008513784 0.004055892 0.0014261774 0.07610586
000310 34 6a 22 ba 7e 5d f0 3d 7d 1d 16 bd 73 c7 ad 3d
       -0.0006195635 0.11736582 -0.036649216 0.084853075
000320 ba 6b a9 3d 93 e8 a7 3d d9 a0 77 3a 1e 1f f4 3d
       0.082725 0.08198657 0.00094462704 0.11919998
000330 26 e3 a1 b9 65 10 11 3c 96 cd 14 3e 1e 6e d0 3d
       -0.00030877552 0.008854006 0.1453155 0.10177253
000340 e4 c8 b5 3d da b1 b0 3d 36 87 15 ba b5 4e f9 3d
       0.088762075 0.086276725 -0.0005704047 0.12173215
000350 cb 20 86 3d 8c cd ae 3d c6 4a f4 3b de d0 ae bd
       0.065492235 0.08535299 0.0074552028 -0.08535932
000360 08 5a 08 3e 92 ef b4 3d 11 23 98 bd 15 14 51 3e
       0.13315594 0.08834757 -0.074285634 0.20417817
000370 ec c5 bf bd 8e 91 b0 3d 23 4c 9c b9 42 6a 80 3d
       -0.093639225 0.08621512 -0.00029811365 0.06270267
000380 dd ca 3e ba d4 76 50 3a 05 33 a7 3d 5f 52 9f 3d
       -0.0007278154 0.0007952277 0.08164028 0.07779383
000390 e4 41 d5 bc bb 6b 45 3c e3 67 8a 3d d1 01 d1 3d
       -0.026032396 0.012049611 0.06758096 0.102054246
0003a0 fa 2c 82 bd 95 4e fa 3d 21 7d 9b 3d 42 c6 9e 3a
       -0.06356235 0.122220196 0.07592226 0.0012113529
0003b0 18 53 61 ba 7e 6d c0 3c 2f 46 a9 3d 24 71 e7 3d
       -0.0008595451 0.02348971 0.082653396 0.11300877
0003c0 34 e6 a6 3d c8 df 41 bd 29 c1 62 3b be e9 41 bd
       0.081493765 -0.047332555 0.0034599996 -0.047342055
0003d0 c8 c3 a4 3d d7 ad d0 3d bb c1 82 b9 cf c8 8a 3d
       0.08045155 0.10189407 -0.00024939873 0.067765824
0003e0 c0 35 8b 3c aa dd 9f 3d f0 af a7 3d 94 14 7b 3a
       0.016993403 0.07805951 0.08187854 0.00095779565
0003f0 6a 8c a9 bd de af 3d 3d c3 53 ec 3d ce 04 09 3b
       -0.08278735 0.0463103 0.11539414 0.0020907405

action_model._continuous_distribution.mu.bias f4 [3]
000000 d6 70 10 be 4b 7d f9 bd 69 7f 09 3c
       -0.14105543 -0.12182101 0.008392193

exp_avg f4 [128, 1]
000000 50 16 62 b7 f4 81 b9 b9 65 3a 62 b8 a0 44 c3 39
       -1.3475845e-05 -0.00035382772 -5.3936983e-05 0.00037244428
000010 31 1c 9a b9 56 94 8a ba f2 2d a9 b9 40 18 e0 35
       -0.00029394173 -0.0010572772 -0.00032268424 1.6696358e-06
000020 8f 96 1d b9 90 0d c3 b9 6a 8b 37 ba 7c 5f 67 b9
       -0.00015028774 -0.00037203403 -0.00070016703 -0.00022065447
000030 24 4f c1 b8 86 07 2d ba 33 cb 7e b8 d0 ab 2e b8
       -9.217698e-05 -0.00066005473 -6.0747563e-05 -4.1644846e-05
000040 8c 9e 05 ba c6 f1 f7 b9 c2 1e af 39 b0 38 d6 b7
       -0.00050971727 -0.00047291646 0.00033401517 -2.5537185e-05
000050 b8 30 f4 b9 36 ee c4 b7 5f 5a 02 ba 50 a7 93 b6
       -0.00046575605 -2.3475946e-05 -0.0004972573 -4.400419e-06
000060 a4 51 bf b9 3d d3 3c ba 28 81 c7 b8 ca c3 04 b8
       -0.00036491186 -0.0007203108 -9.513117e-05 -3.1653595e-05
000070 45 90 41 ba 80 7c 0d b7 84 72 fd b7 80 fd 8e b7
       -0.00073838636 -8.433242e-06 -3.0213276e-05 -1.7045764e-05
000080 87 5c 29 ba 3a 76 bb b8 a6 11 c1 b7 ff 14 44 ba
       -0.0006460626 -8.938876e-05 -2.3015611e-05 -0.00074799353
000090 a2 42 a2 ba 08 41 6a b9 2c 38 27 b9 6c 5b 03 b8
       -0.0012379477 -0.00022340205 -0.00015947287 -3.1317977e-05
0000a0 c0 d1 27 b9 88 21 b8 b7 24 01 3d ba 20 19 1a 36
       -0.00016004499 -2.1950123e-05 -0.0007209948 2.2962413e-06
0000b0 b5 26 a1 ba e8 db 47 b7 18 f9 ed b7 1d 13 b6 39
       -0.0012294861 -1.1912525e-05 -2.8368595e-05 0.00034727986
0000c0 3a 55 04 b9 14 64 05 39 bf a9 30 b8 d8 72 aa ba
       -0.0001262025 0.0001272115 -4.211976e-05 -0.0013004197
0000d0 ea cf b3 39 b1 98 81 ba 18 da cb 37 b0 e5 c8 b7
       0.0003429645 -0.0009887425 2.4301044e-05 -2.3948814e-05
0000e0 9c 1f 32 b9 58 29 d6 b7 c8 35 00 b9 96 67 95 ba
       -0.00016987178 -2.553004e-05 -0.00012227066 -0.0011398669
0000f0 18 e7 d2 39 84 4e 63 b8 38 04 b9 38 0d 2d e7 b9
       0.000402265 -5.419414e-05 8.822273e-05 -0.0004409332
000100 b0 11 d8 b7 ac 75 86 b8 d1 d0 ff b7 ed ea 52 39
       -2.5757443e-05 -6.411536e-05 -3.0495607e-05 0.00020114677
000110 ae ac c0 b7 13 b3 22 ba 93 a1 2b ba 8b 52 18 ba
       -2.2968594e-05 -0.00062064937 -0.0006547209 -0.00058106397
000120 e3 4e 95 ba 8e 4b 03 b7 0e 74 9b b7 84 66 a4 b7
       -0.0011391308 -7.8258e-06 -1.8531482e-05 -1.9598061e-05
000130 06 bd 79 b8 3e 30 53 ba 04 15 55 39 0c 8a 02 b8
       -5.9542268e-05 -0.00080562 0.00020321092 -3.112298e-05
000140 b0 e2 fb 38 d0 5a 6d b7 70 fb cf ba a0 d3 35 b8
       0.000120108365 -1.4147445e-05 -0.0015867781 -4.3350854e-05
000150 08 00 59 b5 90 b2 b6 b7 11 49 13 b8 7d 5c b0 ba
       -8.0838845e-07 -2.177924e-05 -3.511558e-05 -0.0013455298
000160 fe cb 81 ba de a7 ad ba 50 cd f0 37 63 6f 1c ba
       -0.0009902713 -0.0013248881 2.8705836e-05 -0.00059675256
000170 7c cb 06 b8 3e 0e 97 b7 64 e5 b0 b5 25 b5 d4 ba
       -3.21376e-05 -1.8007235e-05 -1.3179783e-06 -0.0016228302
000180 ae ec a9 b7 42 40 02 b8 23 8c e3 39 42 2f 61 b8
       -2.0256583e-05 -3.105426e-05 0.00043401224 -5.3688193e-05
000190 f0 74 5b 36 fe fd cd b9 a0 3e 48 3a 6c 9c 8e b9
       3.270161e-06 -0.00039289886 0.00076387264 -0.00027200894
0001a0 c3 0b 04 ba 70 3d c7 b8 71 06 83 38 2b bf 93 ba
       -0.0005037153 -9.500503e-05 6.2477666e-05 -0.0011272182
0001b0 ee c8 fc b7 da 43 60 ba 12 07 a0 ba a0 12 ae 35
       -3.0134306e-05 -0.00085550325 -0.0012209138 1.2969431e-06
0001c0 94 dc 48 b9 22 b5 ae 39 f6 07 70 ba 72 04 d7 b9
       -0.00019155658 0.0003332282 -0.000915646 -0.00041011308
0001d0 84 b8 76 ba 68 1e de b9 b4 7f 10 b8 72 c3 4f 37
       -0.000941165 -0.00042365794 -3.445121e-05 1.2383667e-05
0001e0 d9 ca 3e b8 dd b0 d0 38 ca 8c bb ba b8 09 fd 36
       -4.5488447e-05 9.951156e-05 -0.0014308926 7.541119e-06
0001f0 a6 cc 33 ba 4e ac 74 b8 40 c4 93 b4 18 ea ec b7
       -0.0006858803 -5.8334605e-05 -2.7523674e-07 -2.82424e-05

exp_avg_sq f4 [128, 1]
000000 86 e8 05 38 ac eb 6c 38 6a 0f 5a 34 2e 4b 90 37
       3.1926225e-05 5.648627e-05 2.030844e-07 1.7201146e-05
000010 14 66 42 38 18 e5 88 39 42 70 56 38 44 47 e8 34
       4.6348272e-05 0.0002611063 5.1126124e-05 4.326522e-07
000020 98 ef 74 37 78 7a 3b 38 e5 e8 fa 38 38 27 fc 37
       1.4599318e-05 4.4698332e-05 0.00011964309 3.0059004e-05
000030 29 0d 97 35 c4 e6 e0 38 95 e8 48 37 58 00 00 35
       1.1254207e-06 0.00010724136 1.1975081e-05 4.7684216e-07
000040 12 fd 3c 38 76 22 e7 38 28 fe 00 37 06 36 17 34
       4.5058383e-05 0.00011021357 7.68857e-06 1.4082624e-07
000050 a7 c4 96 38 2b 7e dd 33 a7 d0 5e 38 b5 dd 80 34
       7.189187e-05 1.0314064e-07 5.3123247e-05 2.400317e-07
000060 0a d0 1a 38 c2 2f 1e 39 b7 da 88 37 80 48 cc 32
       3.6910213e-05 0.00015085845 1.631431e-05 2.3781695e-08
000070 ab 41 3d 39 f9 9c 4e 34 1c 91 af 34 be 28 43 36
       0.00018048908 1.9242351e-07 3.270187e-07 2.908098e-06
000080 e6 e5 20 39 e8 93 6c 35 f5 16 fd 32 29 6b b0 38
       0.00015344433 8.8132083e-07 2.9463516e-08 8.412294e-05
000090 eb 4a b4 39 73 d0 b6 37 be a1 6d 37 09 be 71 36
       0.00034388094 2.1793157e-05 1.4163959e-05 3.6022413e-06
0000a0 84 22 82 37 45 bf 9b 34 85 8a 2d 39 20 04 10 35
       1.551328e-05 2.9010167e-07 0.00016550168 5.3650183e-07
0000b0 81 27 bf 39 3c 8b 89 34 31 92 b5 33 fb a1 46 37
       0.00036459792 2.5619545e-07 8.4550614e-08 1.1839434e-05
0000c0 83 6c 23 37 a1 e9 0d 37 b4 0b ce 33 bb 34 f1 39
       9.740822e-06 8.458651e-06 9.594751e-08 0.0004600639
0000d0 b7 ee f6 36 af fb 5e 39 3a 86 41 36 d7 1f a6 35
       7.3591614e-06 0.00021265329 2.8837371e-06 1.237723e-06
0000e0 5e c7 74 37 9d 2f a2 34 92 a8 6f 37 6a 9a a6 39
       1.4589952e-05 3.0209495e-07 1.4284758e-05 0.00031777035
0000f0 d5 ab 48 38 97 6b f2 34 07 b4 ab 37 fa 3a 34 38
       4.7843747e-05 4.5154295e-07 2.046862e-05 4.297027e-05
000100 ff a2 4c 34 4e 78 c0 35 07 fb 34 33 5b fc e6 36
       1.9058278e-07 1.4340128e-06 4.2137824e-08 6.883912e-06
000110 e3 72 80 33 59 6a ca 38 ea a3 0b 39 e3 6d 1d 39
       5.981362e-08 9.6519194e-05 0.00013317136 0.00015013623
000120 ab 4c a9 39 f2 f8 f0 32 2d d0 af 33 04 70 85 34
       0.00032291314 2.8052884e-08 8.1869395e-08 2.4854683e-07
000130 e8 ba 03 35 80 50 a0 39 89 e1 26 37 fa fa 30 35
       4.907329e-07 0.00030577555 9.9468825e-06 6.593033e-07
000140 a4 3e e4 36 1b fd 25 34 c1 4c 16 3a d2 2e 34 35
       6.802222e-06 1.5458902e-07 0.0005733483 6.712336e-07
000150 1f 34 66 33 87 b7 52 34 36 41 e8 33 88 f3 f4 39
       5.3598452e-08 1.9624541e-07 1.0815204e-07 0.00046720752
000160 19 23 55 39 74 1a d9 39 89 5c 2a 34 46 d3 d0 38
       0.00020326338 0.00041409174 1.5866148e-07 9.9575656e-05
000170 5c c6 c8 34 32 f0 15 34 0e fd 01 34 53 37 15 3a
       3.7397228e-07 1.3964089e-07 1.2106122e-07 0.0005692143
000180 b3 13 d8 32 a3 91 d7 34 d2 e8 a0 37 de e8 f5 34
       2.5154668e-08 4.0152835e-07 1.9181902e-05 4.580424e-07
000190 89 2a 83 34 4d df 42 38 16 ce a4 38 ea 76 16 38
       2.44316e-07 4.646117e-05 7.858516e-05 3.5873534e-05
0001a0 92 23 bb 38 a2 47 04 36 e1 74 86 34 3b fd 94 39
       8.92348e-05 1.9711229e-06 2.5044486e-07 0.0002841743
0001b0 c5 ea 44 34 94 24 78 39 d1 69 c8 39 7b e0 91 33
       1.8339331e-07 0.0002366475 0.00038225812 6.7929214e-08
0001c0 ad cb 91 37 61 0e 65 37 28 2b 69 39 d3 bb 59 38
       1.7380191e-05 1.36528115e-05 0.00022236689 5.1911757e-05
0001d0 89 48 2f 39 9a b1 ac 38 54 3e f0 34 58 86 3f 34
       0.00016716322 8.23468e-05 4.4748833e-07 1.7837135e-07
0001e0 ad a6 03 35 2c 42 c5 35 a0 26 08 3a 88 dd 48 33
       4.904385e-07 1.4696902e-06 0.0005193744 4.676761e-08
0001f0 58 b1 ef 38 73 10 54 35 6b f5 91 34 49 15 8c 33
       0.00011429441 7.900009e-07 2.718692e-07 6.52313e-08

exp_avg f4 [128]
000000 bd 40 bc ba 1c b4 b8 ba 5d 88 84 3a 57 7f 31 ba
       -0.0014362555 -0.0014091763 0.001011144 -0.0006770989
000010 1c aa a4 ba 27 a9 9f ba 08 2a e1 ba e3 69 25 b9
       -0.0012562904 -0.0012181149 -0.0017178664 -0.00015775072
000020 69 18 8f ba ce 01 9c ba 62 f2 77 ba fc 5a a9 ba
       -0.0010917309 -0.0011902393 -0.000945842 -0.0012920792
000030 41 a7 57 3a 1a d4 b3 ba 4d 41 ba ba 3e c3 13 3a
       0.0008226522 -0.0013719827 -0.0014210135 0.00056366983
000040 9e e0 16 ba 6c 2e 88 ba f1 59 56 ba 01 e8 28 3a
       -0.00057555165 -0.0010389811 -0.00081768545 0.00064432627
000050 04 9c d5 ba e6 88 eb 39 cc a8 d7 ba 38 b9 06 3a
       -0.0016297107 0.0004492469 -0.0016453504 0.0005139294
000060 36 64 88 ba 42 b6 9e ba c6 ab 7c ba c7 20 3f 3a
       -0.0010405842 -0.001210876 -0.00096386333 0.0007290956
000070 c8 12 e6 ba c8 34 8a 39 a2 49 8f 3a b2 3d 3b b9
       -0.0017553205 0.00026360736 0.0010931978 -0.00017856693
000080 1c 39 9f ba 60 a5 a7 3a fa 23 14 3a 70 cf 26 b9
       -0.0012147757 0.0012790374 0.0005651113 -0.0001590827
000090 66 b6 64 ba ea 11 ae ba 52 dc af ba ce 13 6a ba
       -0.0008724689 -0.0013280485 -0.0013417101 -0.0008929343
0000a0 ab 7f dc b9 4f a3 35 3a 74 5f bf ba 7c 2e 66 b9
       -0.0004205679 0.0006928937 -0.0014600591 -0.00021951826
0000b0 69 76 8d ba 1f a5 1f 3a 64 f5 6f 3a 12 df 3c ba
       -0.0010792735 0.00060899736 0.00091536925 -0.0007204871
0000c0 0c 8a 38 ba 54 79 f5 b9 aa 62 4d 3a 6e 68 84 ba
       -0.00070396136 -0.00046820438 0.00078348315 -0.0010101923
0000d0 db d4 15 ba 7c 41 99 ba 1a e7 85 ba 5e a2 a7 b8
       -0.0005715617 -0.001169249 -0.0010215968 -7.993424e-05
0000e0 fe c3 64 ba ac 6d 31 3a e4 2f bb ba e3 cb bb ba
       -0.0008726715 0.00067683565 -0.001428124 -0.0014327731
0000f0 d6 4b b4 ba a9 23 48 3a 28 15 03 3a da b2 92 ba
       -0.0013755511 0.00076347083 0.0005000406 -0.0011192218
000100 fb 93 1e 3a 40 27 70 3a 8e 05 2a 3a 68 bb d3 b9
       0.00060492725 0.0009161122 0.0006485813 -0.00040384685
000110 5c 55 88 39 3c c2 67 ba 1a dc c7 ba 69 33 a5 ba
       0.0002600354 -0.0008840894 -0.001524809 -0.0012603822
000120 de c6 8b ba d2 f6 58 39 68 ed 00 3a e6 03 91 39
       -0.0010664125 0.00020691313 0.0004918189 0.0002765946
000130 e6 95 67 39 34 3f e1 ba 2f f9 b2 ba bf 02 a1 38
       0.00022085718 -0.0017184974 -0.0013654585 7.67759e-05
000140 73 9c a7 ba 38 c0 1d 3a c7 0c ab ba 06 b0 18 3a
       -0.0012787714 0.00060177175 -0.0013050073 0.00058245694
000150 12 14 23 39 83 50 02 3a 7b 3a 4e 3a 39 cc 8c ba
       0.00015552368 0.00049711036 0.00078669906 -0.0010742015
000160 bc bc 9b ba 96 8b 7b ba 29 fe e4 b8 62 09 b3 ba
       -0.0011881809 -0.000959569 -0.00010919228 -0.0013659413
000170 1e 92 26 3a cd 25 f1 39 ba ba e4 39 79 8a 89 ba
       0.00063541706 0.00045995266 0.0004362667 -0.0010493539
000180 ad 23 0f 3a ec da 50 3a 83 5c 2c ba 7b 51 27 3a
       0.0005460333 0.0007967192 -0.00065750646 0.0006382686
000190 94 30 fa 39 8b b1 9f ba ea 4e ba ba 9b 83 a5 ba
       0.0004771991 -0.0012183649 -0.0014214192 -0.0012627722
0001a0 ba de be ba 03 5d ad 39 a7 99 9f b8 3d 8b 90 ba
       -0.0014562227 0.0003306643 -7.610331e-05 -0.0011027824
0001b0 e6 75 c1 38 e1 29 bb ba 86 8e 82 ba ac 93 75 b6
       9.2249174e-05 -0.0014279449 -0.0009960688 -3.6593801e-06
0001c0 74 47 71 ba 19 42 e5 b9 42 01 bd ba 0e da 9d ba
       -0.0009204068 -0.0004372753 -0.001441993 -0.0012043135
0001d0 8c 0b 8b ba 6e cd 9c ba 98 f7 8a 39 b4 44 1d b9
       -0.00106083 -0.0011963078 0.00026505883 -0.0001499828
0001e0 43 41 6f b8 5e d8 16 39 8e a0 b6 ba 92 7a ac b7
       -5.704282e-05 0.00014385718 -0.0013933347 -2.0561074e-05
0001f0 6f 03 96 ba 30 70 94 39 be f7 24 3a 88 99 32 3a
       -0.0011445115 0.00028312346 0.000629302 0.0006813039

exp_avg_sq f4 [128]
000000 8a 9f 31 37 01 6a 81 37 19 1f 8d 36 45 89 93 36
       1.0587168e-05 1.542736e-05 4.2057477e-06 4.3969217e-06
000010 3c bf 48 37 29 44 46 38 4e 46 8b 37 a1 51 2a 35
       1.1965454e-05 4.7270358e-05 1.660283e-05 6.344872e-07
000020 11 b7 cb 36 6b bf 4b 37 03 8c bc 37 f4 e0 1b 37
       6.071183e-06 1.2144311e-05 2.2476544e-05 9.291096e-06
000030 67 89 22 36 a9 2c cc 37 4c ad 0b 37 19 8f c6 35
       2.421986e-06 2.4339492e-05 8.325394e-06 1.4793796e-06
000040 2e 9b 10 37 5a a0 ac 37 6c bf 60 36 38 9f ba 35
       8.619199e-06 2.0578667e-05 3.3490023e-06 1.3904419e-06
000050 bc d0 a4 37 49 70 1b 35 7e 6a 9c 37 cf 25 44 35
       1.9647523e-05 5.7905396e-07 1.8646238e-05 7.307071e-07
000060 b6 eb 1d 37 b2 0a fa 37 c7 60 a6 36 03 0a cf 35
       9.41281e-06 2.9807303e-05 4.958452e-06 1.5425616e-06
000070 8f f3 26 38 49 20 b9 34 a0 1b 4f 36 c3 24 c0 35
       3.9804316e-05 3.4482426e-07 3.0861484e-06 1.4315814e-06
000080 a5 61 f4 37 d8 19 a3 36 51 20 70 35 65 e2 82 37
       2.9132536e-05 4.860787e-06 8.9453994e-07 1.560263e-05
000090 1a 67 6f 38 9c 07 1c 37 57 f1 fb 36 30 2b 3d 36
       5.707806e-05 9.300096e-06 7.5084786e-06 2.8188333e-06
0000a0 3b ce 8d 36 c5 dc 1c 36 75 62 0d 38 ba da 94 35
       4.226136e-06 2.3374316e-06 3.3708715e-05 1.1090517e-06
0000b0 1b 45 86 38 db d4 ac 35 1c 60 10 36 de 67 a2 36
       6.40249e-05 1.2876948e-06 2.1513615e-06 4.840068e-06
0000c0 c3 fc 46 36 3d 88 87 36 e4 2d ed 35 0c 28 a5 38
       2.9651426e-06 4.0391737e-06 1.7671232e-06 7.8752724e-05
0000d0 f1 05 82 36 60 f8 23 38 23 78 52 36 57 53 43 35
       3.8749936e-06 3.9093546e-05 3.1362367e-06 7.2764436e-07
0000e0 1d fc b7 36 a2 9c 0b 36 3a 49 20 37 9d b4 6d 38
       5.483175e-06 2.0803786e-06 9.553793e-06 5.6673412e-05
0000f0 b2 a0 6c 37 9d 19 db 35 ba fa bb 36 65 87 43 37
       1.4104111e-05 1.6324226e-06 5.6022227e-06 1.165443e-05
000100 d0 12 b9 35 0b 06 76 36 24 da 01 36 9f 89 11 36
       1.3789049e-06 3.6660374e-06 1.9349472e-06 2.168679e-06
000110 4d 2d 25 35 47 ad 9b 37 87 56 f4 37 db b7 fb 37
       6.153321e-07 1.8558128e-05 2.9127359e-05 3.0007146e-05
000120 52 e9 71 38 17 fc 13 34 60 c5 a8 35 db 01 a5 35
       5.7676174e-05 1.3782152e-07 1.2574419e-06 1.2293998e-06
000130 98 24 2f 35 83 c8 7a 38 dd 0c db 36 52 3f 03 35
       6.524583e-07 5.9791386e-05 6.528206e-06 4.8893446e-07
000140 ce 07 a8 36 8e 55 0d 36 e6 68 d6 38 e9 24 04 36
       5.0076987e-06 2.1060437e-06 0.00010223854 1.9691017e-06
000150 79 59 0e 35 65 28 e9 35 8e c5 e2 35 2e 1a a3 38
       5.302932e-07 1.7371609e-06 1.6895808e-06 7.777322e-05
000160 75 3f 1e 38 e6 7d 90 38 44 9f 07 35 47 bc b5 37
       3.7729234e-05 6.8899055e-05 5.052318e-07 2.1664555e-05
000170 50 18 a2 35 8d 38 1b 35 40 fc cd 35 89 9e c7 38
       1.2077016e-06 5.782429e-07 1.5347105e-06 9.518589e-05
000180 5b 1a 50 35 7c 56 16 36 7a 27 ab 36 b8 59 18 36
       7.752439e-07 2.2402082e-06 5.100793e-06 2.2701988e-06
000190 85 71 99 35 5c 70 58 37 a7 0c 87 37 9e 57 2f 37
       1.1432427e-06 1.2900764e-05 1.6099146e-05 1.0451213e-05
0001a0 a0 b0 b4 37 94 91 8c 35 fa e0 dc 34 cd c8 54 38
       2.153992e-05 1.0473182e-06 4.1141885e-07 5.073175e-05
0001b0 34 42 02 35 39 a3 40 38 f8 63 88 38 23 f8 e1 34
       4.852511e-07 4.592838e-05 6.503606e-05 4.209006e-07
0001c0 d7 ac b3 36 44 b8 99 36 6a ae 36 38 d6 a5 5f 37
       5.354737e-06 4.5812067e-06 4.3554617e-05 1.33304475e-05
0001d0 7a 3d 04 38 f1 d7 8f 37 05 6b 2a 35 13 46 3f 35
       3.1528507e-05 1.7147484e-05 6.348567e-07 7.1255016e-07
0001e0 d0 cf 11 35 3a cb ac 35 50 6e c4 38 68 22 f8 34
       5.4319116e-07 1.2874145e-06 9.3665556e-05 4.6218634e-07
0001f0 25 33 c2 37 8e 06 46 35 6d 61 98 35 43 5d 0b 36
       2.3150418e-05 7.3770286e-07 1.1353237e-06 2.07669e-06

exp_avg f4 [128, 128]
000000 bc 5a 87 37 98 8a 3a 37 a9 33 04 b6 0c ad bd b5
       1.6135506e-05 1.1118733e-05 -1.9699603e-06 -1.4131961e-06
000010 88 57 46 36 68 57 9d 37 50 c8 dc 37 fc 34 73 b6
       2.955525e-06 1.875656e-05 2.6319321e-05 -3.6240663e-06
000020 f8 18 f9 36 a0 a6 67 37 48 fe 55 35 28 bb 56 35
       7.423685e-06 1.3807468e-05 7.971871e-07 7.999356e-07
000030 50 d8 33 b6 70 37 d5 37 e8 1b d8 37 a4 01 18 b6
       -2.679899e-06 2.5417394e-05 2.5762201e-05 -2.265072e-06
000040 c0 26 c3 36 e0 a1 cd 36 dc 6c 26 b6 f4 be ee b5
       5.815964e-06 6.128321e-06 -2.4799292e-06 -1.7787956e-06
000050 c0 51 2d 37 ee 82 22 b6 cc 75 2b 38 d0 11 df b5
       1.0330637e-05 -2.4216092e-06 4.0879284e-05 -1.6619979e-06
000060 08 53 a0 36 88 ba b4 37 10 a3 c7 35 c8 4e f8 b5
       4.7780377e-06 2.1544533e-05 1.4874113e-06 -1.8500368e-06
000070 90 72 0e 38 2a 44 46 b6 68 9e 39 b5 fb 15 2d b6
       3.3962133e-05 -2.9543976e-06 -6.914838e-07 -2.5791803e-06
000080 64 fa 29 37 40 6a d5 b5 19 f1 32 b5 a8 05 cc 36
       1.0131484e-05 -1.590066e-06 -6.666101e-07 6.0803322e-06
000090 18 5d 37 36 c0 8e bd 37 58 45 1d 36 a0 02 d6 34
       2.7323313e-06 2.2597029e-05 2.3435186e-06 3.9862516e-07
0000a0 1b 39 f2 b5 df a4 14 b6 70 97 7f 37 1a e2 5c b6
       -1.8047025e-06 -2.2149686e-06 1.5234444e-05 -3.2914163e-06
0000b0 f8 b1 b7 37 e4 64 1b b6 88 53 d2 b5 55 f3 39 b6
       2.1898173e-05 -2.3155526e-06 -1.567053e-06 -2.7708786e-06
0000c0 f0 cf 67 35 09 2c 33 b6 72 e2 31 b6 d8 8b ea 37
       8.6356795e-07 -2.669871e-06 -2.6506864e-06 2.7960094e-05
0000d0 5c d8 13 b6 00 49 13 37 70 20 3c 35 d6 28 38 b6
       -2.2030645e-06 8.778879e-06 7.008266e-07 -2.7441906e-06
0000e0 14 22 40 37 02 05 10 b6 48 43 d4 37 08 5d a4 36
       1.1452026e-05 -2.1460587e-06 2.53037e-05 4.898411e-06
0000f0 d4 85 5a 37 00 7c 4b b5 bb 37 1f 36 60 1e a1 36
       1.3024972e-05 -7.5803837e-07 2.3725286e-06 4.80171e-06
000100 fc 9f 9a b5 20 6a 21 b6 28 78 3d b6 7d 69 2a b6
       -1.1520456e-06 -2.4052642e-06 -2.8233135e-06 -2.5393376e-06
000110 a4 d5 51 b6 d8 5d 95 36 10 71 97 37 28 d2 6d 37
       -3.1267782e-06 4.451471e-06 1.8053252e-05 1.4175232e-05
000120 2c da 8f 37 c8 83 0a b6 f8 02 2d b6 44 06 46 b6
       1.7148523e-05 -2.064031e-06 -2.5780737e-06 -2.9507946e-06
000130 fa 09 72 b6 10 41 e9 37 90 14 66 36 ab 4f 36 b6
       -3.6066617e-06 2.7806062e-05 3.428464e-06 -2.7166486e-06
000140 58 f1 cb 36 6c a9 04 b6 f0 74 92 37 de 99 2d b6
       6.0779676e-06 -1.976815e-06 1.745901e-05 -2.5868571e-06
000150 46 54 6d b6 29 84 dc b5 38 9c db b5 18 86 0e 37
       -3.5364806e-06 -1.6429741e-06 -1.6362237e-06 8.495081e-06
000160 70 e5 0a 37 fc 5b 13 37 bd a6 55 b6 d8 fa 0b 37
       8.278861e-06 8.7833e-06 -3.1836528e-06 8.34345e-06
000170 d4 a8 c9 b5 b0 87 f2 b5 14 64 3d b6 80 5e 23 37
       -1.5024802e-06 -1.8069895e-06 -2.8221448e-06 9.73756e-06
000180 3c 38 dd b5 a4 62 a2 b5 db 46 f2 b5 36 bf 4b b6
       -1.648215e-06 -1.2098649e-06 -1.8051027e-06 -3.0360657e-06
000190 a8 b2 04 b6 68 f2 83 37 0c 2d 2b 37 f8 8e d9 37
       -1.9773524e-06 1.5729296e-05 1.0202883e-05 2.593499e-05
0001a0 2c bb 2e 38 22 05 61 b6 73 62 fe b2 b4 8b 92 37
       4.165915e-05 -3.35306e-06 -2.9614261e-08 1.746961e-05
0001b0 cc f2 63 b6 24 81 c6 37 ac c3 3b 37 34 b9 51 b6
       -3.3966962e-06 2.3663575e-05 1.1191627e-05 -3.125123e-06
0001c0 a0 6f f9 34 b0 9d c1 b5 cc ca 19 37 00 00 29 37
       4.6461082e-07 -1.4425514e-06 9.166728e-06 1.0073185e-05
0001d0 24 5f 76 37 c0 a5 db 35 af 30 1c b6 b2 10 67 b6
       1.4684894e-05 1.6365011e-06 -2.327415e-06 -3.44314e-06
0001e0 30 86 67 b6 90 34 0d b6 b4 39 b8 37 3e 28 58 b6
       -3.449979e-06 -2.1041233e-06 2.196138e-05 -3.2209932e-06
0001f0 70 08 e9 36 ec c4 51 b6 bc bd 02 b6 9f ab 09 b6
       6.9449234e-06 -3.125805e-06 -1.948195e-06 -2.0514487e-06
000200 92 b7 83 37 c0 c4 34 37 f5 30 28 b5 a9 91 90 35
       1.5701899e-05 1.07746455e-05 -6.265612e-07 1.0771229e-06
000210 7a 6d a7 36 56 53 83 37 4e a8 ba 37 e0 58 7a 35
       4.9897326e-06 1.5655223e-05 2.22513e-05 9.326159e-07
000220 ce bf 01 37 88 5b 53 37 38 9c a3 35 98 7a 17 36
       7.733657e-06 1.2597891e-05 1.2189912e-06 2.2572112e-06
000230 e0 70 67 35 10 9a a8 37 b2 0f b2 37 59 1a d9 35
       8.621846e-07 2.0098902e-05 2.1226562e-05 1.6175428e-06
000240 5c 4d 95 36 f8 eb c7 36 f0 77 09 36 54 25 87 35
       4.449552e-06 5.9581325e-06 2.0484404e-06 1.0069148e-06
000250 32 65 32 37 e0 34 6c b4 ec 0a f9 37 68 e9 8e b4
       1.0633188e-05 -2.1998449e-07 2.9688199e-05 -2.6619387e-07
000260 d2 c6 c1 36 2e 42 96 37 da 5d 8a 36 5c 96 0b b5
       5.774994e-06 1.791221e-05 4.1236462e-06 -5.2000337e-07
000270 84 81 d7 37 5c bc 6a 35 9e de f8 b5 00 d5 d6 34
       2.5690308e-05 8.744589e-07 -1.854223e-06 4.0015584e-07
000280 96 63 0c 37 30 cf c6 b4 48 c2 7f b4 2c e9 0b 36
       8.367837e-06 -3.7031123e-07 -2.3819405e-07 2.0848338e-06
000290 05 47 82 36 56 e5 9b 37 58 0f 99 36 b2 56 6e 36
       3.8825697e-06 1.8584233e-05 4.5615416e-06 3.5515227e-06
0002a0 ac 1c f2 34 cc 5e 86 35 74 3b 71 37 40 01 21 35
       4.5096874e-07 1.0011368e-06 1.4378562e-05 5.997899e-07
0002b0 32 54 8b 37 98 7b b4 35 ec f4 82 b5 ee 64 d5 35
       1.6609298e-05 1.3447016e-06 -9.757036e-07 1.5899111e-06
0002c0 d2 ac 62 36 07 db c7 35 7c 24 5d 35 b2 74 b2 37
       3.377722e-06 1.4890401e-06 8.238201e-07 2.1273594e-05
0002d0 ff 0d e0 35 f8 3d 02 37 ea 88 7d 36 c0 1d 97 33
       1.6693374e-06 7.763032e-06 3.7779632e-06 7.036897e-08
0002e0 c8 de 13 37 0d d4 cc 35 d4 38 9b 37 90 89 9b 36
       8.813753e-06 1.5260899e-06 1.8503903e-05 4.6353744e-06
0002f0 b2 56 1b 37 c0 56 1a 34 00 74 5e b2 c8 2a a8 36
       9.258905e-06 1.4373927e-07 -1.2948476e-08 5.0117706e-06
000300 a0 bc 58 34 c2 d7 ea 35 0a 40 a6 35 20 de 0a 35
       2.0185189e-07 1.7497152e-06 1.2386602e-06 5.173224e-07
000310 6a 03 f1 35 d8 5f 7c 36 f0 0a 80 37 78 93 60 37
       1.7956893e-06 3.7606715e-06 1.5263882e-05 1.3385776e-05
000320 b0 cc 75 37 70 09 40 b4 68 9a c8 35 1a 8e 17 36
       1.46507955e-05 -1.7884827e-07 1.4946099e-06 2.2583467e-06
000330 1c fa b3 35 32 3b b5 37 34 e6 de 36 a0 8d 09 36
       1.3409331e-06 2.1604446e-05 6.6429147e-06 2.0497027e-06
000340 1d 4a 11 37 f5 c0 93 35 c8 b0 74 37 7c 12 02 36
       8.659929e-06 1.1008511e-06 1.4584693e-05 1.938227e-06
000350 1a a1 a3 35 dc 5b 1c 35 a8 d5 47 b5 f2 70 0c 37
       1.2191333e-06 5.82482e-07 -7.444419e-07 8.370947e-06
000360 3c 4b c8 36 72 d5 0a 37 98 2d 2e 35 a6 42 22 37
       5.969223e-06 8.275138e-06 6.48864e-07 9.67147e-06
000370 d4 cb 29 35 14 09 42 b5 fe 8b 05 36 bc 66 06 37
       6.3254015e-07 -7.228384e-07 1.990003e-06 8.010942e-06
000380 a0 b2 17 b4 42 a8 0b 35 68 8c a9 35 7e 4b 77 35
       -1.4127954e-07 5.202638e-07 1.2632345e-06 9.2124526e-07
000390 ca 46 ba 35 48 40 78 37 d4 07 47 37 d0 da b8 37
       1.3878682e-06 1.4796919e-05 1.1863147e-05 2.2036402e-05
0003a0 4c d4 ff 37 98 c9 ee 35 ab 65 e0 32 30 54 75 37
       3.0497227e-05 1.7791053e-06 2.6123265e-08 1.4622739e-05
0003b0 60 eb d4 35 de a6 a7 37 72 32 30 37 8c be 17 35
       1.5863734e-06 1.9985655e-05 1.0502163e-05 5.6529166e-07
0003c0 48 06 ef 35 94 db 8a 35 aa f5 0f 37 ea 8b 36 37
       1.7808716e-06 1.0345707e-06 8.580662e-06 1.0880622e-05
0003d0 4e f8 3e 37 72 3a 87 36 e2 aa d2 35 38 78 46 35
       1.1382695e-05 4.0301175e-06 1.5695953e-06 7.393569e-07
0003e0 52 ca cb 35 2a a6 1c 35 e4 21 96 37 70 86 8f 35
       1.5183562e-06 5.835633e-07 1.7897175e-05 1.0693457e-06
0003f0 4a f7 ec 36 40 61 ce 35 98 17 fe 34 ae 91 af 35
       7.0621363e-06 1.53765e-06 4.7328354e-07 1.3080914e-06
