TWP_2/results/ArmTest5/RobotArm/RobotArm-246928.onnx (onnx, 73052 bytes, 7 tensors)

network_body._body_endoder.seq_layers.0.weight f4 [128, 1]
00000000: 3347 92bf dab3 50bf 2425 1e40 5ac1 1bbd
00000010: d9ec cfbe a634 98bf 170b dabf 777d 873e
00000020: e00c 1ebf b5c8 74bf aa7e 03be 2d00 4abe
00000030: fe56 333f 93e7 c7bf 8e96 d0bf b7a7 973f
00000040: 18fb dcbe 9449 01bf bae5 a4bd 37aa 853f
00000050: 3e8a 4cbf 93bc c53e a2a5 1dc0 42c8 2b3f
00000060: d93d f7be 8b3d aebf 8b83 abbe 6a44 093f
00000070: e58a 04c0 8d2e 1f3f 4a29 d53e 8baa 183e
00000080: 690a 30bf 80c8 2b3f e610 dc3f d132 9cbe
00000090: a4ff aebe 6769 b6bf 2af9 c3be 4e22 90be
000000a0: 9382 7c3d 76b3 e73f 39d1 87bf 5561 943e
000000b0: f3ec a6bf 145f 7a3f 9473 f53e 7496 7ebc
000000c0: 7012 8dbe 56b8 07bc c5e7 2f3f 5a90 d7bf
000000d0: cd91 86bd f837 24bf dbb4 9dbe 43a8 ac3e
000000e0: 1c53 39bf 1a08 af3f 5bdc bbbf 4565 d7be
000000f0: a852 46bf 85cd 8c3f ddec b1bd 1e93 e2be
00000100: 9f3a dc3f f2c9 983f 8b70 453f 5884 003e
00000110: 5e2a 5d3f 8bed bbbe 18a9 93bf 578c 7ebf
00000120: e625 8ebf 1181 153f a44f 723f 1456 9c3f
00000130: 193b 103f e21f d9bf 4ade 02bf e6cf 9c3f
00000140: 3f78 2bbf 4091 d03f 348d 8ebf 565c a03f
00000150: eac5 0c3f 978f e03f 56ef 0b3f d712 2abf
00000160: 40fa 0bbf 8816 2abf a7b1 4e3e 609c 39bf
00000170: 3e63 7f3f c07e f13e 2ea2 8a3f 2c69 2abf
00000180: 1ca1 333f ec4c c73f b7a7 1ebd bfae 1040
00000190: 02a7 ab3f f0ff 8bbf c2cc 5cbf 06e1 d6bf
000001a0: afe7 21c0 141e 433f e262 12bc b16d 8ebf
000001b0: d7ec 323f 519d c2bf 6d39 4fbf 12a9 e53e
000001c0: 044a 22be 683b 20bd 84a4 2fbf c154 4fbf
000001d0: 4b9f 67bf be23 a9be ea91 8a3f 5aa0 963e
000001e0: a533 2a3f 3095 653d db64 afbf 776e 1b3f
000001f0: 75aa 13bf 2661 433f 507a 4d3f b3fd 8b3f
-1.1427978 -0.8152443 2.471017 -0.03802619 -0.40610388 -1.1891067 -1.7034634 0.2646291
-0.61738396 -0.95618755 -0.12841287 -0.1972663 0.70054615 -1.5617546 -1.6295946 1.1848058
-0.4316032 -0.50502896 -0.08051629 1.044257 -0.7989844 0.38620433 -2.4632344 0.67102444
-0.48289374 -1.3612531 -0.33498797 0.53620017 -2.0709774 0.62180406 0.41633064 0.14908807
-0.68765885 0.67102814 1.7192657 -0.3050752 -0.34179413 -1.4250916 -0.38276035 -0.28151172
0.061647963 1.8101642 -1.0610725 0.28980508 -1.3041061 0.9780133 0.47939742 -0.0155388005
-0.2755313 -0.008283695 0.6871303 -1.6840928 -0.06570778 -0.641479 -0.30802044 0.33722124
-0.7239244 1.3674347 -1.4676622 -0.4206945 -0.77469873 1.100022 -0.08687756 -0.44252867
1.720539 1.1936629 0.7712485 0.12550485 0.8639277 -0.36704668 -1.1535978 -0.9943289
-1.1105316 0.58400065 0.9465277 1.2213769 0.56340176 -1.6962855 -0.51120436 1.2250946
-0.66980356 1.6294327 -1.1136842 1.2528179 0.5498949 1.754382 0.5466207 -0.66435
-0.54678726 -0.6644063 0.20184956 -0.72504234 0.99760807 0.47167015 1.0830743 -0.6656673
0.7016771 1.557035 -0.038734164 2.2606657 1.3410342 -1.0937481 -0.86249936 -1.6787422
-2.5297658 0.7621777 -0.008934708 -1.1127225 0.6989264 -1.5204259 -0.80947 0.44855553
-0.15848547 -0.039119154 -0.68610406 -0.809887 -0.90477437 -0.33035082 1.082578 0.29419214
0.66485053 0.05605048 -1.3702654 0.6071543 -0.5768197 0.7632011 0.8026476 1.0936798

network_body._body_endoder.seq_layers.0.bias f4 [128]
00000000: 29d5 32be c7b3 ecbd cf17 f43c b926 06be
00000010: ea49 2bbe e168 87bd ea72 1bbe 321c 6cbe
00000020: 5c9b e1bd 3c9f c3bd 6630 16bd cb42 cdbd
00000030: aea5 d6bd 4b00 84bd e851 dfbd d112 bebd
00000040: 6eb8 5b38 766c 9abd 4ce4 82be 413e d0bc
00000050: cc51 14be 6a58 97bd 7417 89bd b8f9 203c
00000060: 9aa8 fabd dad8 a7bd d30f 3bbe cce2 b83b
00000070: f042 aebd e244 0fbe c999 dc3d ebaf 17be
00000080: 1501 02bd 38bd dd3c 42d3 f63d 91e8 fc3d
00000090: d4e7 dbbd a9f4 9cbd 5040 2abe 99d0 47be
000000a0: 1528 e7bd b25b 80bd 1496 0bbe e00f 45be
000000b0: e42b 3ebb 59c6 bdbd a0b5 0b3d fc15 70be
000000c0: 6a71 28be 9c75 66be 1426 c5bd 9bad 30bd
000000d0: 2312 58be 2760 5fbd 7ff1 48be fadb f6bd
000000e0: 4dea 073b 3f51 a6bd ed7f 833c a878 5ebd
000000f0: 7ce8 193d 4201 c93d 7b24 ca3d 8199 9cbd
00000100: ae66 823d fe1e dcbd 1e80 0ebe d400 16be
00000110: 664e 49be e06c c2bc 6bf3 98bd 929c 02be
00000120: 76fd 94bd 6ed5 07bd e525 03be edbe 46be
00000130: d59b 60be be85 87bd f476 7cbe 1ebc 21be
00000140: ae9e 6cbe 8e2a 50bd c4ec 76bd 1c80 07be
00000150: 0a83 5fbe 4f80 9b3b 4944 e63c 71ea ccbd
00000160: 6816 9a3c 9173 a8bd bf8f 43be 540c 3bbe
00000170: 0eff 413c 4bb2 2e3c 0efb 2ebe 4f82 e7bc
00000180: 75bc 683c 954f 353d b383 26be 163a 06be
00000190: 2e34 96bd 49e8 0dbe f156 60be cfbe 1fbe
000001a0: 5869 b2bd 0374 4cbe 1dfc f3bc 6b38 7bbd
000001b0: 9909 59be 3da4 f4bd 2333 c6bd 7e0b 25be
000001c0: 0c28 abbd 0037 06be e9f4 a8bd 61a5 2cbe
000001d0: 96da 57bb 47ef 2abe b826 dabd 7150 4fbe
000001e0: 94b4 56be be0c 0abe 2a25 8ebd d72d 3ebe
000001f0: 9584 c7bd 1437 38be ecd0 23bd e713 95bd
-0.17464127 -0.11557727 0.02979651 -0.13100709 -0.16727415 -0.06611801 -0.15180555 -0.2305763
-0.110159606 -0.09551856 -0.03666725 -0.100225054 -0.1048082 -0.064453684 -0.10904294 -0.09280933
5.2385432e-05 -0.075402185 -0.25564802 -0.02542031 -0.14484328 -0.073899105 -0.066939265 0.009825163
-0.122391894 -0.08195658 -0.18267755 0.0056422707 -0.08508861 -0.1399112 0.1077152 -0.14813201
-0.031739313 0.027067766 0.12052013 0.12349046 -0.10737577 -0.07663853 -0.16626096 -0.19513167
-0.11286942 -0.062674895 -0.13631469 -0.19244337 -0.002901786 -0.092663474 0.034108758 -0.23445886
-0.16449514 -0.22505802 -0.096264035 -0.043134313 -0.21100669 -0.054535057 -0.19623373 -0.12053676
0.002073902 -0.08120965 0.01605221 -0.054314286 0.03757523 0.09814693 0.09870239 -0.07646466
0.06367241 -0.10748099 -0.1391606 -0.14648753 -0.19658813 -0.023733556 -0.07468303 -0.1275504
-0.07274906 -0.033162527 -0.12807424 -0.1940877 -0.21934445 -0.06617306 -0.24654752 -0.15794417
-0.23107406 -0.050821833 -0.06028439 -0.13232464 -0.21827331 0.00474552 0.028108733 -0.10005654
0.018809512 -0.082251675 -0.19097804 -0.18266422 0.011840595 0.010662626 -0.17087957 -0.028260378
0.014205088 0.04426535 -0.16261177 -0.13108096 -0.07334171 -0.13858141 -0.21908166 -0.15600131
-0.08711499 -0.1996613 -0.029783303 -0.0613331 -0.21195067 -0.119453885 -0.09677722 -0.16117665
-0.08357248 -0.13106918 -0.08249838 -0.16859962 -0.0032936684 -0.1669284 -0.10651916 -0.2024553
-0.20967323 -0.13481423 -0.06940682 -0.18572174 -0.09742085 -0.1798976 -0.039994165 -0.07279187

network_body._body_endoder.seq_layers.2.weight f4 [128, 128]
00000000: 2ed7 29bd 9b16 c53b 408f 2fbc 5415 a5bc
00000010: 2258 a43b efe8 703d 1d7b 1cbc 4281 56bc
00000020: 8a81 81bd 404d 943d 52bb d0bd 8d6d cabd
00000030: 9181 063d ff16 94bd 71aa 1bbc 613f ce3d
00000040: 1b60 07be c32e 9e3d b9cd 91bc 0afc 6d3d
00000050: b6ba d0bc 13bc 433d d8e8 49bd 20fa 8c3d
00000060: e048 98bd 24dd ad3c e141 1e3d 50a1 c23d
00000070: 7443 c73d 8b98 1f3e d6c5 ed3d 1d38 873d
00000080: 3e06 6f3c 1f98 333e 7538 623d 2c4d 24bd
00000090: b81c 6ebd f2f8 643d bff6 bcbc d93f a1bd
000000a0: 2239 963d 4d58 64bc d760 71bc e883 aabc
000000b0: 2ef8 64bd bec7 3a3d 833a b93d bfd8 14bd
000000c0: 407b b9bd 43df 373e 8503 eabc ea04 603d
000000d0: 80a3 bbbc 3ecd 8ebc d592 b63d 2ccb 7f3c
000000e0: 3760 4fbd 368b 823d 2aff b2bc b009 81ba
000000f0: fbdb 98bd 5cd8 d73d 0d0e 09be 0823 6fbd
00000100: 436e e33d b917 e93d 437b a23c e850 8fbc
00000110: 3d8e 173e 9c7b c7bc df5f b53b fb93 a7bb
00000120: 4d79 7a3d 5f6b 873d 15f9 40bc 8523 483d
00000130: 4584 ad3c 5247 253e 7273 3abc b8cc 663d
00000140: 9829 c8bd 9576 833e 7422 acbd 4daf e2bc
00000150: 55e6 e93d fd20 183d 34fb 113e 74d9 58be
00000160: 122d 86bd 85bf 6bbd 5702 693d 7e7c 203c
00000170: fe51 bfbd 4f00 e33d 5fd7 3e3d b6a1 aa3c
00000180: afdd eb3d d486 833c e56c 4e3d e304 3bbd
00000190: 3062 f63d 7d60 dcbb e94e 173e 82d6 ab3d
000001a0: 706b 023e 1ed9 9f3e ca68 723d 34d8 22be
000001b0: e470 5d3d 834c d9bd e703 5ebc a363 313d
000001c0: 8c10 01be 5817 e03d de26 bc3d 8abd b53d
000001d0: 386b 003e cd1b 6dbe 606f 2f3e 1af8 703d
000001e0: a1a0 a9bd 8873 62bd e3a0 11be 0898 c13c
000001f0: c6a0 a33c 800d 153e e8d0 d73d c796 0e3e
00000200: ce10 91bd 2250 193a bc7f 963d 4658 ebbd
00000210: dbcf 23be df0c c73d 05b7 e23d d173 823c
00000220: 36fc cabc 7395 aebd 9285 a73d 1e30 2b3d
00000230: f549 1cbe 7210 51be ef95 d0bc ee9e 8fbc
00000240: 4afb 4cbe 46bc 42bd fb8c 52bc 1693 cfbd
00000250: 0069 05ba 4e5a a2bc 1a28 91bd 250c e5bc
00000260: c683 9fbd 3ac6 17be 5c2d f0bc 0552 9abc
00000270: 2ace 2b3d e2b7 2fbd 0866 83bd 8755 453d
00000280: 6f0f 6ebd 00dd 3b3c 83ee 213d 9f12 bfbc
00000290: 6c5b 52bc e3ca 233d 3196 c7bd 5023 79bd
000002a0: d53e b1bd c2e4 163e 4f77 953d 3517 10bd
000002b0: 4fb3 963d c07e 033e 20fc c9bd b630 f53d
000002c0: be72 1ebe 43de 453e 3575 0cbe 4db6 60bb
000002d0: cc2f 203d 9db9 55bd 56d7 963d fe6c b73d
000002e0: 2143 fcbd 086d bb3d aea7 1c3e 2644 ba3c
000002f0: 0659 0f3e 90bd 10bc 1244 dabd 2986 7dbd
00000300: 5adf a9bc 96e8 43bd b494 a93c e7c0 a33d
00000310: 6fbf 383c be07 103e 0ab9 083d b8bb f33d
00000320: e6d6 82bd b588 c7bd 2c01 a83d c8db cbbc
00000330: 5718 36be 86fd 963d 2b97 ddbd bff9 2ebd
00000340: 04f2 ffbc d25b 9c3d 9164 1e3d 53ad 0dbd
00000350: 08e2 6a3c c2f4 adbd 5fd1 013d 653a a1bd
00000360: 429d 1dbe 735d 4bbd 749e 3c3d 00bc cb3d
00000370: 0769 263d db0c 7abe c66e 023c 023d 14bc
00000380: 56c3 f1bd f5a8 b23d 2fef e63d 6894 653d
00000390: 0ea8 17be d793 273d 4c3a 983d 9898 82bc
000003a0: 70e1 76bd 9786 d5bd 2cc6 a23d bda5 dbbd
000003b0: a6ce 403e 338d 2ebd a6c8 b0bd 831e c3bd
000003c0: 4a0b d7bc 8337 d8bd a74d f3bc 634d f2bd
000003d0: 0f89 c0bd 4063 d3bc 2fe1 2cbe 95e4 7fbd
000003e0: fc70 00bd 23fd f83d e375 783d 1313 ad3c
000003f0: d0cb 0cbd 8224 c7bc 4881 bbbd 8913 17be
-0.041464977 0.0060146577 -0.010715306 -0.020151772 0.005015389 0.058815893 -0.009550837 -0.013092341
-0.06323536 0.07241297 -0.101919785 -0.098841764 0.032838408 -0.07230949 -0.009501086 0.10070682
-0.13220255 0.07723763 -0.017798292 0.05810169 -0.025479656 0.047786783 -0.049294323 0.06883645
-0.07435775 0.021223612 0.038637046 0.09503424 0.097296625 0.15585534 0.1161 0.066025
0.014588891 0.17538498 0.055229623 -0.04011266 -0.058132857 0.055901475 -0.023066876 -0.07873506
0.07335116 -0.013937068 -0.014732561 -0.02081485 -0.055900745 0.045600645 0.09044363 -0.036339518
-0.09056711 0.17956261 -0.028566131 0.054692186 -0.022905111 -0.017431851 0.08914725 0.015612405
-0.050628867 0.06374209 -0.021850187 -0.0009844806 -0.07463833 0.10539314 -0.13384266 -0.058383018
0.11105015 0.11381478 0.019834166 -0.017494634 0.14800353 -0.024350934 0.0055351104 -0.005114076
0.061150838 0.06612276 -0.011778136 0.048862 0.021181235 0.16140488 -0.011380063 0.05634758
-0.097735584 0.25676408 -0.08405009 -0.02767148 0.114208855 0.037140835 0.14255983 -0.21176702
-0.06551565 -0.057555694 0.056886997 0.009795306 -0.09341811 0.11084043 0.046592113 0.020829063
0.11516892 0.016055502 0.05039682 -0.045658957 0.120304465 -0.0067253695 0.14776196 0.083905235
0.12736297 0.31220335 0.059181966 -0.15902787 0.05406274 -0.106102966 -0.013550735 0.04330791
-0.12603968 0.109419525 0.09187101 0.08874042 0.125409 -0.23155136 0.1713233 0.058830358
-0.08282591 -0.05528596 -0.1422153 0.023632064 0.019974124 0.14555931 0.105378926 0.13924704
-0.07083283 0.00058484275 0.07348582 -0.11491446 -0.1599726 0.09719252 0.110700645 0.015924366
-0.024778467 -0.08524599 0.081797734 0.041793935 -0.15262587 -0.2041643 -0.025462119 -0.017531838
-0.20017734 -0.047542833 -0.012850995 -0.10135476 -0.00050891936 -0.019818451 -0.07087727 -0.027959893
-0.07788806 -0.14821711 -0.029318504 -0.018837938 0.04194466 -0.042899974 -0.06415945 0.04817727
-0.058120187 0.011466265 0.039534103 -0.023324309 -0.0128391795 0.03998841 -0.097454436 -0.060824692
-0.086545624 0.14735702 0.07298147 -0.035178382 0.07358419 0.1284132 -0.09862542 0.119721815
-0.15473458 0.19323067 -0.13716586 -0.0034288347 0.039108083 -0.052178968 0.07365291 0.089563355
-0.12317491 0.091516554 0.1529834 0.022737574 0.13998803 -0.008834258 -0.10657515 -0.061895523
-0.020736385 -0.047829233 0.02070079 0.079957776 0.01127611 0.14065453 0.033379592 0.11901039
-0.06388645 -0.09742872 0.082033485 -0.024885073 -0.17782722 0.073725745 -0.108198486 -0.042718645
-0.031243332 0.07634701 0.038670126 -0.034589123 0.014336117 -0.084939495 0.031693812 -0.07872466
-0.1539202 -0.049649667 0.04604955 0.099479675 0.040627506 -0.24418966 0.007960981 -0.0090477485
-0.118048355 0.08723632 0.112760894 0.056049734 -0.14810202 0.040912475 0.07432994 -0.015941903
-0.060273588 -0.104260616 0.079479545 -0.107249714 0.1882883 -0.042615127 -0.08632021 -0.09527304
-0.0262505 -0.10557463 -0.029700113 -0.118311666 -0.09401142 -0.025804162 -0.16882776 -0.062473852
-0.03135775 0.12157657 0.0606593 0.02112726 -0.03437406 -0.0243094 -0.09155518 -0.14753546

network_body._body_endoder.seq_layers.2.bias f4 [128]
00000000: b8c4 5bbd 579d bbbd 1600 f63d f332 8cbd
00000010: 0ce1 20be e53b 64bc 3da3 51be f142 24be
00000020: afbb 223e 5dc6 5cbe 6bdc e5bd db80 c3bd
00000030: b65d 2ebe b820 18be 80b6 20be ccd5 883d
00000040: 0afa 55be 5f68 e43d feb6 c9bd 7317 c93c
00000050: f965 843d 0f4d 50be f559 a7bd 092c a03d
00000060: dd5a ffbc 7e33 95bc 860e 0a3e 5965 0cbd
00000070: 72ed 9dbd 1ab4 42be 3896 313d 62ee 11bd
00000080: 32aa 0cbe 7007 d2bd c4c6 8dbd 69b9 49ba
00000090: 7640 eebd 3ef8 7c3d 1f8c 54bd cf65 06bd
000000a0: 8490 c9bd d8b5 f5bd 8438 b2bc d905 43be
000000b0: f939 773d b6c6 bf3d d9f7 60be 0763 f73d
000000c0: e5c9 4bbe 94ad f7bb b334 073e ec7f 1ebb
000000d0: 24f4 d6bd 5e8a 54be 3bc3 21be 1b2a ebbd
000000e0: fe68 e03d 764c 37be 80a2 3ebe de64 39be
000000f0: 670d 57bc c393 1abe 9806 3dbe 2e63 413e
00000100: 945d b6bd 4d9b 453c b792 3abd 902d 473e
00000110: f07c b73d aa55 1d3e 6bd2 d13d 8078 3bbe
00000120: 9241 023e 7ba3 46be b661 a2bd 7c82 0a3e
00000130: d12f f63c 8de8 243d 97d9 ed3c 4aa7 45be
00000140: 64ee 43be 1171 2fbe 2f94 a43d e50a 143e
00000150: b260 fbbd 7a7e 10be 9eab 6dbd 90a1 653c
00000160: 54e2 9cbd 53e1 48be 77b0 58bc 4d44 7b3c
00000170: 5b10 e03d c469 59be f4cd 113d 36f7 27be
00000180: 0877 e93d 3897 c6bd 5a07 62be eb2e 1dbd
00000190: 174e dc3d a281 383d baff 1ebe e71d f13d
000001a0: db2c dcbc 3f62 1a3e d0c2 46be 3b46 2d3c
000001b0: 259a 9d3d 6d6b f4bd 0562 22be 0a4c 403e
000001c0: 786d 29be a7d8 a73d a6fc 0cbc c313 0e3e
000001d0: c5e0 753c 1ce8 f43d cb9b 683d 7d97 1ebe
000001e0: 0209 b83d f8c2 3abd 1029 3dbe e68b 58bd
000001f0: 92a8 8f3b c827 c7bd 4186 5dbe 707f 343d
-0.053654402 -0.091608696 0.12011735 -0.06845655 -0.15710849 -0.013930296 -0.20472427 -0.16041161
0.15891908 -0.21560045 -0.11223682 -0.095460616 -0.17027935 -0.14856231 -0.15694618 0.066814035
-0.20896164 0.1115272 -0.09849356 0.024547314 0.06464762 -0.20341896 -0.08171455 0.07820899
-0.031171257 -0.01821303 0.13482103 -0.03427634 -0.07711305 -0.19014016 0.04335615 -0.03562773
-0.137368 -0.10255325 -0.06922677 -0.000769517 -0.11633389 0.06176018 -0.051891442 -0.032811936
-0.09842017 -0.119975746 -0.021755464 -0.190452 0.06035802 0.09364073 -0.21969546 0.12079435
-0.19901235 -0.007558534 0.13203697 -0.0024185134 -0.10495785 -0.20755908 -0.15797131 -0.1148264
0.10957526 -0.17900261 -0.18616676 -0.18104884 -0.013125754 -0.15095429 -0.18459547 0.1888549
-0.08904567 0.012060952 -0.045550074 0.19450974 0.08959377 0.1536471 0.10245212 -0.18307686
0.12720326 -0.193983 -0.07928793 0.13526338 0.030052098 0.04026084 0.029034419 -0.19302097
-0.19133908 -0.17132975 0.08036076 0.14457281 -0.122743025 -0.14110747 -0.058024995 0.01401557
-0.07660356 -0.19617204 -0.013225666 0.015336108 0.109406196 -0.21231753 0.035596803 -0.16402897
0.113996565 -0.096968114 -0.22073117 -0.038374823 0.10757082 0.045045502 -0.1552724 0.117732815
-0.026876858 0.1507654 -0.19410253 0.010575826 0.07695416 -0.11934552 -0.15857704 0.18779007
-0.16545665 0.0819562 -0.008605158 0.13874726 0.0150072025 0.11958334 0.0567892 -0.15487476
0.08986093 -0.045596093 -0.18472695 -0.052867793 0.004384109 -0.097243845 -0.21633245 0.044066846

action_model._continuous_distribution.log_sigma f4 [1, 3]
00000000: 0d63 05be 7030 39be cbd0 d8bc
-0.13026066 -0.18084884 -0.026466748

action_model._continuous_distribution.mu.weight f4 [3, 128]
00000000: 0da0 0d3b 9af0 d13b 8304 bc3b 3a61 8d3b
00000010: 8881 0c3e 895f 9a3b aa87 ec3d 7166 923d
00000020: 0e0b f0bd 489a f73d ec54 8e3d 680a 1b3c
00000030: 3d6c 053e 4be5 d73d e466 163e 3bee 473d
00000040: b45d 153e 10ed 02bd 9e35 1a3d 47ba 143d
00000050: e2d4 e13b 08d8 063e 04f1 e73c b0e6 e8bc
00000060: 0e3b 0aba d77c 753b 153e dfbd d4b8 633d
00000070: 8e94 d93d 7f2d bb3d 3a65 813b bce3 ed3c
00000080: d95b cd3d 0282 cb3d 2744 d93b 078a 103c
00000090: 2371 e03b 4d19 ffba d278 a83d c6f4 a73c
000000a0: 3a99 8b3c 239e f13d 835f 2e3c 1b25 303e
000000b0: 6884 b83b 3920 f03b 405e 1f3e ac23 183d
000000c0: 6eca 0a3e d68d 0b3d 6b64 8abd f2e5 de3b
000000d0: 058e a53d 07a7 0d3e 8b8f fc3d 101a 0b3c
000000e0: 7d4a 293d a72d ac3d 4a55 203e fd36 df3d
000000f0: aa61 8e3c 4640 eb3d c3fe 003e f4cf eebd
00000100: b77e 0c3b 5d0a 083c 96e1 de3a 6f0b 0cbe
00000110: df98 98ba 4447 c3bd 5947 8a3c afe1 e53d
00000120: 0495 49bd 2ec1 353e 0ba4 fd3a 830e 8bbd
00000130: 65ef f1ba ac4b 2e3d e6ce da3b 5e99 033e
00000140: 5d33 ff3d 0d80 e53d 741f c8ba e70d babd
00000150: 840f 513d f5b3 d53d 100b f43b 12dd ae3b
00000160: 9ba1 a03d 0022 0f3e e6e2 563c abcc 143d
00000170: dafd b8bc 8f79 3c3e ba55 35ba 2cf7 023e
00000180: ce23 b1ba 0156 093b 6a64 2a3e 9135 863d
00000190: 6163 72bc 3eb8 3d3d cbcd 1f3e 747b 26bd
000001a0: 927c 1e3c 8e97 dcbd 726a 093e 2690 d03b
000001b0: 0849 baba de7f 3e3c 985b 043e 3400 d0bd
000001c0: 340d 0f3e 8ed2 9ebc fc37 063c c068 a6bc
000001d0: a79d 813d 424f f9bc 6412 caba af97 b73d
000001e0: 08a4 4c3d b8e3 8c3d b47b ec3d c5cb 613b
000001f0: 5c65 4a3c 6d1b 903d f853 463e 03f6 943b
00000200: bc52 a8ba c295 bf3b cf71 673a 172d 5a39
00000210: 9bcf d53d a8e9 cf3a cc26 be3d 232b 833d
00000220: 37c6 823d cb09 bc3d 413e 8f3d 9526 b73c
00000230: 9bdb cc3d 3449 b03d 12f8 0d3e 9b44 f23c
00000240: 564b a03d f79c aabd b5ee 203d bf4f 143e
00000250: 2e67 583b f354 8f3d a3e5 04bd f96a b83d
00000260: 0aaf fa39 7d99 6cbd a768 aa3d 4dc3 f73d
00000270: 03e1 e83d 25b1 a73d ad5a 5c3c d5bd 8abd
00000280: 1612 a63d f156 a73d 0957 0e3b 02ae 84bd
00000290: 000f 023b 46c1 bb3a 311b b4bc 6d3b 7ebd
000002a0: 10c4 3fbb 02a4 b43d 62ca 6ebd fccb 843d
000002b0: d530 f53a 0d2a 0e3b 3f5f bd3d aab7 33bd
000002c0: 6fa9 963d 5252 eb3d 0fab bc3d 2bd0 9d3b
000002d0: 3c56 a53d 8d5f 9b3d f5cb 903d a61c 003c
000002e0: 6b55 e83c 3cce 953d 429c b83d 46c0 b03d
000002f0: 6468 8dbd db20 b13d a071 a83d 3962 903d
00000300: 4151 bab8 f72a 9a3b 806e 273b 82d0 653d
00000310: 86ca 923a 0033 bb3d d059 3bbc 8f48 a53d
00000320: 6778 6a3d 01b5 933d d02f e538 a623 c53d
00000330: 816d f93a ac6f 973b e888 dc3d b0c0 c43d
00000340: b0d0 a63d eae1 9b3d a574 a03a 3f78 c63d
00000350: 425f 493d 3d72 a03d d3d4 f63b 54d5 a4bd
00000360: 617d c03d 63be a03d c262 8ebd 192c 243e
00000370: 5558 b5bd 6a0a a13d cb76 113b b3ad 6c3d
00000380: 10c1 9bba d633 e2b9 e5e0 973d 57e4 8f3d
00000390: 2723 e0bc c700 c13c f07d 723d b094 9e3d
000003a0: ad93 72bd dc10 c53d 80fa 963d 6445 813b
000003b0: 1580 8b39 c0eb b93c a83c a43d fe03 b93d
000003c0: 54fc 943d 1b76 3fbd ef21 983b cd84 3dbd
000003d0: ada6 993d 9434 9e3d f069 ef3a 57a7 803d
000003e0: 4db6 d13c 12d5 983d 8f60 9d3d 9363 a13a
000003f0: a8b4 9fbd fed6 2c3d 8656 dc3d 62c6 e739
0.002161029 0.006406856 0.0057378425 0.004314569 0.13721287 0.0047110957 0.11549313 0.071484454
-0.117208585 0.12089974 0.06949791 0.00946293 0.13029571 0.10541781 0.14687687 0.04881118
0.14586526 -0.03196436 0.03764879 0.03631046 0.0068918327 0.13168347 0.028313167 -0.028430313
-0.0005273082 0.0037458444 -0.10900513 0.055596188 0.10624038 0.09139537 0.0039488347 0.029039256
0.10027284 0.099369064 0.006630439 0.008821971 0.0068494244 -0.0019462496 0.0822617 0.02050246
0.017040838 0.1179774 0.010642889 0.17201655 0.0056310184 0.00732806 0.15563297 0.037143394
0.13553783 0.034070812 -0.067574345 0.006802314 0.08083729 0.13833247 0.12332066 0.0084901005
0.041330803 0.08407145 0.15657535 0.1089916 0.017380554 0.114868686 0.12597184 -0.11660758
0.0021437833 0.008303252 0.0017004486 -0.13676237 -0.0011642239 -0.09535077 0.016879724 0.11224686
-0.049214378 0.17749473 0.0019351257 -0.06789877 -0.0018458186 0.042552635 0.0066774962 0.12851474
0.12460969 0.112060644 -0.0015268163 -0.09084683 0.051040187 0.10434715 0.007447608 0.005336412
0.07843324 0.13977814 0.01311562 0.036328 -0.022581983 0.18405746 -0.00069173763 0.12789601
-0.0013514699 0.0020955803 0.16639867 0.06553186 -0.014794202 0.046318285 0.15605848 -0.040645078
0.009673255 -0.10771094 0.13419512 0.00636484 -0.0014212439 0.011627166 0.12925565 -0.10156289
0.1396988 -0.01938751 0.008192059 -0.02031362 0.06328898 -0.0304333 -0.0015416858 0.08964478
0.04996112 0.068793714 0.11547032 0.0034453731 0.0123532675 0.07036481 0.19367969 0.0045459284
-0.001284204 0.00584671 0.00088289095 0.00020806897 0.10439988 0.0015862482 0.09284744 0.06404712
0.06385463 0.09181555 0.06994296 0.022357265 0.10002824 0.086077124 0.13864163 0.02957373
0.07826869 -0.0833072 0.03929015 0.14483546 0.0033020484 0.06998625 -0.03244556 0.090047784
0.0004781413 -0.057763565 0.08320742 0.120977975 0.113710426 0.081880845 0.013449353 -0.06774489
0.08108918 0.0817088 0.0021719357 -0.06478502 0.0019845366 0.0014324568 -0.021985622 -0.06206839
-0.002926115 0.088203445 -0.058298476 0.064842194 0.001870657 0.0021692545 0.092466824 -0.043876328
0.07356536 0.11490311 0.09212314 0.0048160753 0.080730885 0.07586584 0.07070152 0.00781933
0.028361043 0.07314727 0.09014179 0.08630423 -0.069046766 0.08648845 0.08224797 0.070499845
-8.884306e-05 0.004704829 0.002554804 0.05610705 0.0011199273 0.09140587 -0.011434987 0.0807048
0.05724373 0.07212258 0.00010928477 0.0962594 0.0019029827 0.0046214666 0.107683 0.09607065
0.08145273 0.07611449 0.0012241794 0.09690904 0.04916311 0.07834289 0.007532695 -0.080485016
0.09398914 0.078488134 -0.0695243 0.16032447 -0.088547386 0.078633144 0.002219605 0.05778284
-0.0011883099 -0.000431447 0.07415942 0.07025974 -0.027360512 0.023559941 0.059202135 0.07743204
-0.059222866 0.09622356 0.07371998 0.0039450396 0.00026607575 0.022695422 0.08019382 0.090339646
0.0727469 -0.046743494 0.004642717 -0.046269227 0.07502494 0.07724872 0.0018265825 0.062819175
0.025599623 0.07462515 0.07684433 0.0012313001 -0.07798129 0.04219722 0.107586905 0.0004420756

action_model._continuous_distribution.mu.bias f4 [3]
00000000: 4f98 20be 2d7f e6bd b872 74ba
-0.15683101 -0.112547256 -0.0009324956
