TWP_2/results/PnP14/RobotArm/RobotArm-364477.onnx (onnx, 79646 bytes, 9 tensors)

network_body.observation_encoder.processors.0.normalizer.running_mean f4 [12]
000000 e2 de e7 3e 3b f1 ae 41 39 80 0b bf 4d 31 30 3f
       0.45287234 21.867788 -0.5449253 0.6882523
000010 9c 71 9f 40 a2 49 5a be 14 64 af be 08 66 46 40
       4.9826183 -0.21317151 -0.3425604 3.0999775
000020 53 17 e3 3d cc 9c 95 41 37 2b 1a 42 ab 5d 0b 3f
       0.11088433 18.701561 38.542202 0.544398

network_body._body_endoder.seq_layers.0.weight f4 [128, 12]
000000 84 a1 a1 3c 4a e1 98 be af 41 a9 be c8 a3 3c bd
       0.019730337 -0.29859382 -0.33057925 -0.04605463
000010 60 db 74 bf b9 53 32 3d ea a5 42 be 1e a1 79 be
       -0.9564724 0.043536875 -0.19008604 -0.24377868
000020 f4 64 91 bd 20 77 b3 3d 48 e2 99 3e 9c 01 f8 3e
       -0.070993334 0.08762956 0.3005545 0.48438728
000030 d3 3c 92 be 3a bc f0 3e 21 3d 58 3e 5f e3 52 3f
       -0.2856203 0.47018605 0.21117069 0.8237819
000040 5a 3c 5c 3e 29 68 28 be fd f3 17 be 49 bf f1 3e
       0.21507397 -0.16445984 -0.14839168 0.47216251
000050 d2 ee 45 be 8d 4d f6 bc e6 0a 30 3f 58 00 b3 be
       -0.19329384 -0.030066276 0.6876663 -0.349612
000060 b5 ea 91 bd 42 c0 c7 bd b6 eb 9f 3d af df 2b 3d
       -0.07124845 -0.09753467 0.0780863 0.04196137
000070 7a 45 a1 be 18 b0 b0 3e 45 b3 79 bd ff 59 ef be
       -0.3149832 0.3450935 -0.06096198 -0.4674835
000080 b1 33 fd 3c 78 4e b8 3e 21 86 4b 3e e4 d1 ab be
       0.030908437 0.35997367 0.19875385 -0.3355857
000090 15 72 4d be 08 2e 97 be a8 80 a4 bb 44 77 d5 3c
       -0.2006305 -0.29527307 -0.00502022 0.026057847
0000a0 c3 79 af 3e 21 a7 b1 3e 37 0d ec 3d 21 b6 82 3e
       0.34272584 0.34697822 0.11525958 0.25529578
0000b0 9a 31 6c bd 20 8d ee be e5 0e e0 3e 90 b1 64 be
       -0.05766449 -0.46592045 0.43761364 -0.2233336
0000c0 7c 7b 9c be 70 00 38 3e a5 ab 73 be 5e 60 16 3e
       -0.3056296 0.17968917 -0.23795946 0.14685199
0000d0 08 97 33 3e 35 68 4a 3e 7a 9f d7 3d ca 2c b8 3e
       0.17538083 0.19766314 0.105284646 0.3597167
0000e0 ad ca 88 be 4c ed 81 bd 56 0b ef 3c cb e6 62 3e
       -0.2671713 -0.06344089 0.02918021 0.22158353
0000f0 a9 20 97 3d 2f 1f 84 be cc c9 7b be 8e 13 e5 be
       0.07379276 -0.2580504 -0.24588698 -0.44741482
000100 8b a2 a9 bc 3c d3 c7 be 76 bd ab be b6 57 22 3e
       -0.02070739 -0.39028347 -0.33542985 0.15853772
000110 2a 6e f6 3d 26 33 17 3f b1 3f 85 3d c4 9e 7d 3e
       0.12032731 0.5906242 0.06506289 0.24767596
000120 9a f0 12 3e 98 40 de be 05 fc 30 3f c5 3d 8a bd
       0.14349595 -0.43408656 0.6913455 -0.06750063
000130 d1 f4 35 3e ba ed cb 3e 58 7b 0b 3f 58 7b c3 be
       0.17769171 0.39829808 0.5448508 -0.3818004
000140 6e 7c b0 bd b2 56 cd be a4 f7 ee 3e f4 2d 3f 3e
       -0.08617483 -0.40105206 0.4667331 0.18669873
000150 29 f1 40 be f5 51 16 3f 2c 07 4e 3e e6 02 09 bd
       -0.18841995 0.58718807 0.20119923 -0.03345003
000160 25 81 56 3e b9 52 62 3c 88 ad ec 3e 8b b8 0a bd
       0.20947702 0.013813668 0.46226144 -0.0338674
000170 63 ea 95 be 3b b3 1d bf 31 8d 4e 3e 5b a4 94 be
       -0.29280385 -0.6160161 0.20171048 -0.29031643
000180 50 ce 81 3e b5 44 1b 3f 11 85 e7 3e bf 52 d9 3e
       0.25352716 0.60651714 0.4521871 0.42445943
000190 f5 f3 80 3d 6c 49 03 3e be bd 7a 3e ff b6 4a bd
       0.06296531 0.12820977 0.24486443 -0.049490925
0001a0 ef 51 95 3d dc 56 18 bd 11 d6 79 3e b9 cb 3a be
       0.07291018 -0.03719221 0.24398066 -0.18241777
0001b0 c0 68 64 3e fe bd bd 3d af 43 80 3d 68 d6 ef be
       0.22305584 0.09264754 0.062629096 -0.46843266
0001c0 9e 2b bb be 8e 7a c1 3d 91 8d 4a 3e 87 b3 ec be
       -0.36556715 0.094472036 0.19780566 -0.46230718
0001d0 4d 56 18 be 75 c2 07 3e 08 ab 4c be f4 7a ab be
       -0.14876671 0.13257773 -0.19987118 -0.33492243
0001e0 e6 25 1b bf 2a e9 16 3f f1 04 55 3e 58 0f 85 3e
       -0.60604703 0.5894953 0.20802666 0.2598827
0001f0 8a 93 ab 3e db db d3 bd bd 32 36 be 35 a0 97 bb
       0.33511 -0.103446685 -0.17792793 -0.0046272525
000200 71 22 15 3f 41 7b 0e bf 26 d2 de 3e 16 58 d0 be
       0.5825568 -0.5565682 0.43519706 -0.40692204
000210 35 2a 27 be f9 e2 9a 3e 51 26 44 3e c4 f4 9f be
       -0.16324694 0.3025129 0.19155242 -0.3124143
000220 36 29 a9 bd e8 75 ec 3c 1d 0f bf be fe e8 e9 3e
       -0.082598135 0.028864816 -0.37316218 0.4568557
000230 1a 94 8b bd 31 57 ba be 7b b3 7a 3e 91 a4 3d be
       -0.068153575 -0.36394647 0.24482529 -0.18519808
000240 3b 1b a4 bc 24 ee 96 3e ed 3b e5 3e 49 99 9b 3e
       -0.020032516 0.29478562 0.44772282 0.30390385
000250 47 d6 90 be 79 ab 94 bd 0a 92 43 bd 2d c5 9b be
       -0.2828848 -0.07259268 -0.047746696 -0.3042387
000260 e0 39 34 be 7e 93 a1 be 2f 40 9a 3e cc 7a 0c bf
       -0.17600203 -0.3155784 0.30127093 -0.54874873
000270 45 d3 73 be 30 4f 3b 3e 5b e2 e0 bd a6 f1 be bd
       -0.23811062 0.18291926 -0.10980674 -0.093234345
000280 de 06 77 3d 7d 94 fe 3d 2a 78 18 be 18 9c ed 3c
       0.060309283 0.12430666 -0.14889589 0.029005095
000290 bf b1 8f bd 3d 13 33 3f 55 0a c4 3e be 56 a6 3e
       -0.07016324 0.6995123 0.38289133 0.32488054
0002a0 0c bd 25 3f f2 f9 d3 3e 26 b1 09 be 88 c3 3f 3e
       0.6474159 0.4140163 -0.13446483 0.18726933
0002b0 27 2a 08 bd 01 6a 17 bf 86 99 57 be f1 2d 2f bd
       -0.033243325 -0.59146124 -0.21054658 -0.042768423
0002c0 f4 66 64 be 53 6c 77 be 27 32 a8 3d 01 cd c5 be
       -0.22304899 -0.24162416 0.08212691 -0.38632968
0002d0 d7 5b 9e 3d 8a a2 33 3e 52 43 b1 3d 53 61 21 3f
       0.07732361 0.17542472 0.086554185 0.6303913
0002e0 66 b8 99 bd 05 72 2b be 08 e3 75 3e d9 ad 9b bd
       -0.07505874 -0.16742714 0.24012387 -0.07601518
0002f0 8b 3e 2d be 26 1d 8c 3e ec 9c a5 be b9 ab 0a 3e
       -0.1691839 0.27365988 -0.32346284 0.1354207
000300 41 31 aa be bb 9b b5 3d 7e dd 29 3e 55 ea 12 3e
       -0.33240703 0.08867594 0.16588399 0.14347203
000310 03 35 4a be 69 8e 0c bf c3 b2 11 3d 02 9c 61 3e
       -0.19746785 -0.549048 0.03557087 0.22032169
000320 62 71 05 3e 28 5e 2a 3e c9 0e 0c 3d d8 c6 8b 3d
       0.13031533 0.1663748 0.034193788 0.06825036
000330 2f 02 8c 3e 19 96 6c be e2 fe a8 be 52 bd 78 3c
       0.27345416 -0.23104133 -0.3300696 0.015181856
000340 d3 4b 80 3e b9 fb c6 bd 61 3c d7 be e0 39 27 3e
       0.2505785 -0.09715981 -0.42038253 0.16330671
000350 77 83 da bd 33 53 70 bf 7e ef b8 bd cc 44 c1 3e
       -0.10669606 -0.9387695 -0.090300545 0.377478
000360 a1 7d f8 3d 7c 3f a7 3e a9 5c 49 3e 0e 5f a5 3d
       0.12133337 0.32665622 0.19664253 0.08074771
000370 b8 e3 4d 3c 93 9b 1f bd e8 73 e5 be 6c c5 75 3e
       0.012566499 -0.038966727 -0.44814992 0.24001092
000380 3f b1 71 bd 87 21 b8 be 56 d3 7a be a6 91 26 be
       -0.059006926 -0.3596308 -0.24494681 -0.16266498
000390 14 c2 0e 3e 69 3c 26 be f1 c7 30 bf c4 b5 2b 3e
       0.13941222 -0.16233982 -0.69055086 0.16768557
0003a0 11 99 ce 3b 60 28 8d 3d 39 8e 9d be 51 6d 2a 3e
       0.006304868 0.068924665 -0.3077257 0.16643263
0003b0 bf 4c 2e 3e 43 b9 8a be 35 6d 23 bf 22 72 03 bf
       0.17021464 -0.27094468 -0.6383851 -0.5134603
0003c0 8a 6a 23 3d 80 7a 6c 3e ed 0e 43 be 7e 58 d6 3e
       0.039896525 0.23093605 -0.19048662 0.4186439
0003d0 96 44 01 bc 70 14 8c be a3 1e 28 bf 54 78 a3 be
       -0.007889887 -0.27359343 -0.6567175 -0.3192774
0003e0 28 e6 a0 3e a4 f7 e7 be 9a 33 87 3e 9e fb 2c bf
       0.31425595 -0.45306122 0.26406556 -0.6757144
0003f0 30 85 8d be 86 ca f3 3e e0 93 b5 be a4 71 26 be
       -0.27640676 0.4761545 -0.35464382 -0.16254288

network_body._body_endoder.seq_layers.0.bias f4 [128]
000000 ec be a9 bc 66 b0 41 3e 02 40 1b 3d 6a 21 3d 3c
       -0.020720921 0.18914947 0.03790284 0.011543611
000010 cc 02 f6 3d f5 ec 79 bd ed aa 36 bd a4 e5 1f 3e
       0.12012252 -0.061016995 -0.0445966 0.15614945
000020 41 3f f9 3d 3b a3 2c 3d 8c 82 f9 3d c6 b2 8a 3d
       0.12170268 0.042147856 0.12183103 0.067723796
000030 45 a1 21 3e 2f 39 ad bd a4 4c 87 3d d3 5f d5 3d
       0.15784176 -0.084581725 0.06606415 0.10418668
000040 4d 1f 3d bd 7a b7 86 3d bb 6b f5 3d 8a 36 60 3d
       -0.04617243 0.06577964 0.119834386 0.054739513
000050 3a 8a a5 3d 04 06 68 bd 0b bd 88 3d 26 66 bf 3d
       0.08083005 -0.056646362 0.06676682 0.09345655
000060 0a 5a 11 3b 4b 2f aa 3d ad 32 3a 3e 5f 1e 9e 3d
       0.0022178912 0.08309802 0.18183394 0.077206366
000070 39 7d e1 3d b6 b7 92 3c 8f c6 54 bd 47 27 d3 3c
       0.110102125 0.017909866 -0.051947173 0.025775565
000080 24 3d c3 3c 51 01 3f bd 77 63 18 3e cf 08 f7 3d
       0.023832865 -0.046632115 0.14881693 0.12062227
000090 b1 31 1a 3e f1 0e de 3d fd d7 2a 3c 7d 6f 16 3e
       0.15058018 0.108426936 0.010427472 0.14690967
0000a0 5a 16 a7 bd 82 0c 9f 3d 97 e5 20 3e 0b da 02 be
       -0.0815856 0.077660576 0.15712582 -0.1277849
0000b0 fe cc 6a 3d a9 bc ba 3d e7 d1 df 3d e6 33 c8 3b
       0.057324402 0.09118015 0.109287076 0.0061097024
0000c0 d1 fb da 3d 63 99 58 3d 2a f6 90 3c 4c d3 95 3d
       0.106925614 0.052880656 0.017695505 0.07315692
0000d0 4c 25 df bc b7 52 39 3c 41 11 95 3d 29 37 87 3c
       -0.027239464 0.011311225 0.072786815 0.016505795
0000e0 1d f8 35 bd 75 6a 2a 3d 86 c2 8a 3d 4f c3 24 3c
       -0.044426072 0.04160543 0.06775384 0.010056331
0000f0 88 b8 13 3e fb 5c b9 3d bc 42 9d 3c 48 e6 97 3d
       0.14425862 0.09050938 0.01919686 0.074169695
000100 4d f8 91 3c 7b 27 55 3d ac 92 dc 3c 5d 11 21 3d
       0.017818594 0.052039605 0.026925407 0.0393232
000110 88 8b d2 3c 8c 6c ef 3d d3 6a 4e 3e c4 c3 d4 3d
       0.0257013 0.116906255 0.20157938 0.10388902
000120 02 36 c6 3c c5 7c 94 3d a5 44 2a 3e a2 ad 1b bc
       0.024195675 0.072503604 0.16627748 -0.0095018465
000130 f1 c7 75 3d 61 35 eb 3d 26 5e 31 3e 00 30 38 3e
       0.060005132 0.114847906 0.17321071 0.1798706
000140 4d 94 fa bd 3b 2c 3b 3d 91 7b 46 3d bd 11 ce bd
       -0.122353174 0.04569648 0.048457686 -0.10061977
000150 92 9a 7e bb b5 ef 21 3e 72 46 b1 bd b8 57 84 3d
       -0.0038849455 0.15814097 -0.086560145 0.064620435
000160 6c 7e c8 3d a8 78 b2 3c 68 8d ac 3d 4d 7f e1 3c
       0.09789738 0.021786049 0.084254086 0.027526522
000170 b1 ab 79 3d 45 ae 2d 3e 87 c6 8a 3b 2b 74 5d bd
       0.060954753 0.1696101 0.004235092 -0.054065865
000180 31 4d c7 3d 15 d7 46 3d 59 1d ea bc a1 2b 08 3e
       0.0973152 0.048544962 -0.028578447 0.13297893
000190 12 77 85 be 56 d5 f0 bb ab e5 28 3c bf a0 40 3d
       -0.26067406 -0.0073496504 0.010308663 0.0470283
0001a0 d0 a3 28 3c 0f 5b 01 3e c9 90 1c 3e 3b 3a c5 3d
       0.010292962 0.12632392 0.15289606 0.09630247
0001b0 39 b5 86 3d 7c c0 10 3e 5e 8b 52 bd e7 6e 4f 3c
       0.06577534 0.14135927 -0.051402442 0.0126607185
0001c0 e3 3e d4 3c 56 9c d7 3d 30 5f b2 3d 87 e3 51 3d
       0.025908893 0.105278656 0.08709562 0.051242378
0001d0 6f e6 14 3d 50 7d 8b 3c 05 4c 81 bc 3a ad fd bc
       0.03635257 0.017027527 -0.01578332 -0.03096639
0001e0 91 cb ee 3d b5 d0 ba 3d f0 8b 8a 3d a9 03 0b 3e
       0.11659921 0.09121839 0.06764972 0.13575615
0001f0 35 6a 5f 3d 64 ce 87 bd 21 51 39 3d 23 83 90 3c
       0.054544646 -0.06631163 0.045243386 0.017640656

network_body._body_endoder.seq_layers.2.weight f4 [128, 128]
000000 7a f1 ea 3d b3 69 1c bd 08 12 c0 bd 60 ee 5e bd
       0.11471839 -0.03818674 -0.09378439 -0.05442655
000010 f4 f6 a2 3c 04 87 99 bd a4 1a 7d 3d 43 8c 3e be
       0.019893147 -0.07496455 0.061792985 -0.18608193
000020 01 32 44 be 0b af 8e bc 51 8b aa 3d 8b 7f 4c 3c
       -0.191597 -0.017417451 0.08327354 0.0124815805
000030 8b 26 d6 bc ac 76 4d 3e 35 4d 1d be d6 08 fc bd
       -0.026141426 0.20064801 -0.15361483 -0.12306373
000040 9e cf 94 bc a2 67 bc bc de a3 c7 3c 5e 58 dc 3d
       -0.018165406 -0.022998635 0.02437013 0.10759042
000050 9b 0f 18 3d 96 66 de 3d fb e3 5a bd fe 83 e0 bd
       0.037124258 0.108594105 -0.053440075 -0.109626755
000060 6c 56 72 3d 04 3e 84 3d b7 32 d2 3d db 98 0e bd
       0.05916445 0.06457141 0.10263579 -0.034813743
000070 3a 0d 25 bc e2 cd d3 bc 48 6e b8 bd eb 69 27 be
       -0.010073954 -0.025855009 -0.090054095 -0.16348998
000080 3a 3e 07 be 04 3a ad bc d9 6d 2d be 61 30 5d be
       -0.13207331 -0.021145828 -0.16936435 -0.21600486
000090 90 2b 1e 3d ab 6a 39 be 63 a9 26 3d b2 dd fa 3d
       0.038615763 -0.18107097 0.040688884 0.12249316
0000a0 f4 4a 23 3c ba c0 cc bd e0 f9 fb bc 22 c7 5a 3d
       0.009966601 -0.09997697 -0.030758798 0.053412564
0000b0 a0 72 14 3e 31 03 80 3c af b2 5f bd 0b 4e 48 be
       0.14496851 0.015626522 -0.054613765 -0.19561021
0000c0 f9 51 fa bd c3 4a cb bd 1e 6a a1 bd e2 a4 ce bd
       -0.12222666 -0.09926369 -0.07881568 -0.10090043
0000d0 9c 06 75 bc 9c ea f3 bd b8 78 ac 3b 38 9e 39 3d
       -0.014955189 -0.119099826 0.0052634142 0.045316905
0000e0 48 3d 41 bc c7 39 13 3e ac 97 d4 bd 60 d5 82 bd
       -0.011794396 0.14377509 -0.103804916 -0.06388354
0000f0 42 79 58 be 5d 64 0a 3e e4 97 ab bd b9 b5 7e be
       -0.21140006 0.13514848 -0.0837858 -0.24874009
000100 ae 74 31 be 3c 36 22 bd 87 d6 d6 3c 8f ea aa 3c
       -0.17329666 -0.039602503 0.026225341 0.0208638
000110 50 e4 1a 3b c0 8f 85 bd 01 30 29 3e ad b1 cb bd
       0.002363462 -0.06521559 0.16522218 -0.09945998
000120 e5 09 cd 3c 42 67 0d be d7 6a bc bd b1 51 88 3d
       0.025029132 -0.13808921 -0.092000656 0.066562064
000130 58 f3 20 be 62 3e da 3c 2f 44 97 bd 88 80 22 3e
       -0.15717828 0.026641075 -0.07386052 0.15869343
000140 43 89 00 3e 85 f2 04 3d e1 99 02 3e e7 37 d5 bd
       0.12552361 0.032457847 0.12754013 -0.10411053
000150 04 5d 6d bd f5 a4 52 be 9a bb 93 3d 12 0b a5 bd
       -0.057950035 -0.20570739 0.072135165 -0.08058752
000160 2b cb 4a bd 61 95 c9 bc d6 5f c9 3c 24 a9 cf 3d
       -0.049510162 -0.024607362 0.024581831 0.10139683
000170 c4 05 e2 bd 23 0d c6 3c 1b 20 aa 3d bd 92 2e 3d
       -0.11036256 0.024176186 0.08306905 0.04262041
000180 b2 9c 1a 3d 1a 01 b4 3d 28 ee 51 be fa 96 b7 bd
       0.037747093 0.087892726 -0.20501006 -0.08964343
000190 8f 3c 7b 3e c9 2c 07 3e 24 4f e3 bd 5b 3b ed bc
       0.2453482 0.13200678 -0.11099079 -0.028958967
0001a0 f2 f6 eb bc 18 aa 63 3e ab 87 88 bd 0d 7e 6d bd
       -0.028804276 0.22232854 -0.066665016 -0.05798154
0001b0 a1 7e 18 bd a6 40 0d be 16 59 62 3d ba fa 8c 3d
       -0.037230138 -0.13794193 0.05526074 0.0688376
0001c0 6f 26 f7 bc b9 2f 50 be 02 e2 64 3d 8b 41 0a be
       -0.030169694 -0.20330705 0.0558796 -0.13501565
0001d0 7a 9c 34 3e d6 47 24 be 79 82 57 3c 77 dc ee bd
       0.17637816 -0.16043028 0.013153666 -0.11663144
0001e0 9c 86 1a bc 75 b9 e6 bd b6 19 56 bd 42 80 56 bd
       -0.009431507 -0.11265842 -0.052270614 -0.05236841
0001f0 33 8e 92 3d 24 f4 e0 bd fe 7d 9b bd 5b ca d1 3d
       0.071560286 -0.10984066 -0.075923905 0.10243674
000200 da 63 75 3d aa 92 bd 3c d9 6b f4 3d 24 f7 2f bd
       0.05990968 0.023141224 0.11934633 -0.0429603
000210 dd 5f e8 bd 41 c2 c2 3d 80 27 8a 3c d4 1f 63 bc
       -0.113464095 0.09509707 0.016864538 -0.013862569
000220 0f 23 2a bd cb cb 73 3d cc e7 8c bd 6e 49 c6 3d
       -0.04153734 0.059520524 -0.06880149 0.09681974
000230 77 a0 2e bc d4 49 38 bd fb 00 cc bd d8 2c 93 bc
       -0.010658375 -0.044992283 -0.099611245 -0.01796572
000240 33 ee b9 bd 05 e9 a5 3d dd 79 f3 bd 37 d8 1c 3d
       -0.09078636 0.081010856 -0.11888478 0.038292136
000250 04 3a a0 3d e3 e3 33 3c 2d 4c c0 bd 6b 7d 5b 3d
       0.078235656 0.010979625 -0.093895294 0.053586405
000260 f2 cd 4b 3e db d0 64 be 49 ab 89 bd 16 86 0e bd
       0.1990278 -0.22345297 -0.06722123 -0.034795843
000270 ea 4b b0 3d e8 35 b5 3c 4f 5f 35 be cd 1c 77 3d
       0.086082295 0.022120431 -0.17712139 0.0603302
000280 09 18 01 3e 0a 4f a2 3d ac c0 99 3d e8 75 0d 3e
       0.12606825 0.07925232 0.07507452 0.13814509
000290 4d 78 51 be 25 c9 ce bd ed 08 b2 3c aa e2 85 3d
       -0.20456047 -0.10096959 0.021732772 0.06537373
0002a0 b5 28 26 bb 2d 24 31 bd 9d 2d 70 3c 03 4e e9 3c
       -0.0025353853 -0.04324739 0.014659313 0.028479582
0002b0 0b 37 fb 3d 6d d7 1c 3e 64 97 f3 bb 5a 86 87 bd
       0.12266358 0.15316553 -0.0074338187 -0.066174224
0002c0 e2 7c 8d be af c0 95 bd b3 6a f3 bd aa a7 75 3d
       -0.2763434 -0.07312142 -0.11885586 0.05997435
0002d0 e7 53 90 3d 3e 22 ba 3d 9e a8 95 bb fd 94 bf 3b
       0.07047253 0.090885624 -0.00456722 0.005846618
0002e0 46 15 9a bd 56 11 37 bd 14 3e 5f 3d eb f9 27 3d
       -0.07523589 -0.044694267 0.05450256 0.041009825
0002f0 a7 5c 3c be 1f d1 93 3d 6d 5c 76 bc 0f d8 0c bc
       -0.18394719 0.07217621 -0.015036684 -0.008596434
000300 7c b3 a5 3c 05 0c 79 bd c3 21 8e 3d 3b 62 1a 3d
       0.020227186 -0.06080248 0.06940033 0.037691336
000310 0d f7 92 bc 26 52 d6 3c 52 5e 39 3c 91 a4 2a bd
       -0.017940069 0.026162218 0.011313992 -0.04166085
000320 3f 65 b3 3d e6 b5 a0 bd a4 20 1e bd 02 45 66 be
       0.087595455 -0.078471944 -0.038605347 -0.22487262
000330 09 c9 70 3e 97 9b 41 be 6c d8 b2 bd 99 d1 21 3e
       0.23514189 -0.18907009 -0.087326854 0.15802611
000340 5e db 8c 3c 22 0d 3a 3c d2 16 a9 3d ed 1b 39 3d
       0.017194446 0.01135567 0.08256306 0.045192648
000350 76 ca 01 be 0a 0a 84 3c 73 6f 9c bd 0c 90 44 3e
       -0.12674889 0.016118068 -0.07638445 0.19195575
000360 1a 04 26 be 3b be 42 3d ea 50 0a be f1 7a 34 3d
       -0.16212502 0.0475447 -0.13507429 0.04406256
000370 50 37 82 3d a5 93 de bd e1 2e a7 bc c5 7e 1c be
       0.06358206 -0.10868005 -0.020408096 -0.15282734
000380 3a 61 a4 3d 1d 78 9a 3d ee ad 5e be 7b 4a 14 3e
       0.08026357 0.07542441 -0.21746036 0.14481537
000390 bd 6c 23 bd 24 4f ff 3c e1 d5 40 3d 8f 6e 0b 3e
       -0.039898623 0.031165667 0.04707897 0.13616394
0003a0 9f 12 02 3e 5e f0 90 bd f0 ad 47 bd f7 a2 0d 3e
       0.12702416 -0.070770964 -0.048749864 0.13831697
0003b0 a8 09 84 3d 53 41 9b bd 9e 43 90 3d ec ef c1 3c
       0.06447154 -0.07580819 0.07044147 0.023673974
0003c0 5e 73 e7 3d 56 97 f6 3c 74 41 b1 3d 46 13 29 be
       0.113013014 0.03010146 0.08655062 -0.16511258
0003d0 a0 c7 d1 bc e5 18 9c 3c f1 78 31 3d 5c b2 8a bd
       -0.025607884 0.01905484 0.04332823 -0.067723006
0003e0 bf 99 72 3e d4 6f 4f 3e 94 4e b6 bd f8 e9 89 3d
       0.23691462 0.20257503 -0.08901706 0.06734079
0003f0 21 cb 2d 3c 2f bd e4 bc 70 27 60 3d 4a 4d 42 be
       0.010607512 -0.027922241 0.05472511 -0.18974796

network_body._body_endoder.seq_layers.2.bias f4 [128]
000000 3e 2b e4 bd 18 50 23 3d ed c5 a3 bd 9c 19 90 3d
       -0.1114106 0.039871305 -0.07996736 0.070361346
000010 14 60 cd 3d b2 f4 f5 bb f9 93 76 3c 8b 36 4b 3d
       0.10028091 -0.0075059766 0.015049928 0.049612563
000020 46 f4 98 bc 2a bb 21 be dc f2 9f 3d 95 e0 c8 3d
       -0.018671166 -0.15794054 0.078099936 0.098084606
000030 cf 2c 55 3d 1f bf 9a bb 10 ac 9e bc 62 ec 3b bd
       0.052044686 -0.0047224904 -0.019369155 -0.04587973
000040 d4 e4 22 3c 29 9f bf bd 49 92 5e 3d 1e 9f f7 3c
       0.009942252 -0.09356529 0.054338727 0.03022724
000050 9e a9 a8 bd 8f 97 a9 bd 4f 52 ab bc ea 47 8e bb
       -0.08235477 -0.08280861 -0.020913271 -0.004342069
000060 c2 15 f9 3d 35 d3 54 3d 4b 70 70 3d 78 c7 c2 3d
       0.12162353 0.051959235 0.05870084 0.09510702
000070 86 d9 f9 bd 8e 91 0c 3d f6 25 00 be 68 7a d3 3d
       -0.121996924 0.0343185 -0.12514481 0.103260815
000080 a6 92 ba 3d 6c c1 8d bd 0a 14 24 bb 19 dd ce 3d
       0.09110002 -0.06921658 -0.0025036358 0.10100765
000090 26 e9 37 3c f9 2f 31 bd 67 b8 34 bd 55 af 86 3d
       0.0112250205 -0.04325864 -0.044121172 0.06576411
0000a0 99 d3 aa bd e9 1e 23 3d ba f7 d3 bc 36 a4 92 3d
       -0.0834114 0.0398244 -0.025874961 0.07160227
0000b0 7a ff 02 3d a4 9f 66 3d 23 b0 f1 3c 59 94 62 3d
       0.031981923 0.05630459 0.029502934 0.055317257
0000c0 62 b7 32 bd 84 c9 3e 3b 0c 73 b2 3a ed 69 98 bd
       -0.04363192 0.0029111812 0.0013614609 -0.07442079
0000d0 57 9e d3 bd bb 50 55 3d 8e 25 40 3d 9d 38 85 3d
       -0.10332935 0.052078944 0.046910815 0.06504939
0000e0 aa 23 05 3d 3a a8 2f ba 69 87 70 bc b2 e2 c6 3c
       0.032504715 -0.0006700788 -0.014680722 0.024278019
0000f0 43 cf 44 3d c3 46 ba 3c ca 70 54 be f8 ab 9c bd
       0.048049223 0.02273882 -0.2074615 -0.07649988
000100 31 71 8c bb e3 60 d0 bd 73 b0 8c bc ee 10 b0 3d
       -0.0042859544 -0.1017473 -0.017173981 0.08596979
000110 44 84 c5 bb 7d e3 42 3d 1d e6 ec 3d 04 45 be 3d
       -0.00602773 0.04758023 0.11567328 0.092905074
000120 4d af 5a 3d b2 74 05 3d 5f e1 79 bd c4 fa 98 bd
       0.053389836 0.032581992 -0.061005946 -0.07469705
000130 d1 43 01 be 9e 99 1f bd 00 2b 82 3d 81 28 ed bd
       -0.12623526 -0.03896486 0.06355858 -0.11579991
000140 4a e2 73 3d 34 fb 9b bd a0 b1 96 ba 35 7d 5f bd
       0.059541978 -0.076162726 -0.0011497028 -0.054562766
000150 c7 7f 6a 3d d2 fa da bc f0 09 a7 3d 49 41 e3 3b
       0.057250764 -0.026730929 0.08156192 0.006935273
000160 f7 61 05 3d 4c 4b 00 be f2 cd 46 3d 1c 1f cf 3d
       0.03256413 -0.12528723 0.04853625 0.101133555
000170 7f 21 c1 bc 70 4d 6c bc 55 4b 41 bc d3 9f b8 bd
       -0.023575542 -0.014422759 -0.011797746 -0.09014859
000180 92 3f 5e 3d 49 7b 14 bc 40 2f 3d 3b fd 75 11 3d
       0.054259844 -0.009062597 0.0028867275 0.035512913
000190 4f e1 42 3d e1 ee 15 be f7 c7 32 bd 64 42 cc 3c
       0.047578152 -0.14641906 -0.043647733 0.024934001
0001a0 5f 4f 6b 3d 99 1c 45 3d f8 fb e7 3c 5a ff ff bb
       0.05744874 0.048122976 0.02831839 -0.0078124227
0001b0 72 30 b9 bc d0 0e df 3c 36 e4 0d 3d d2 0c 9e 3d
       -0.022606108 0.027228743 0.034641467 0.07717289
0001c0 fe 3d c4 3d 7b ee 43 3d eb 52 00 3d 99 9e e2 bd
       0.095821366 0.047834855 0.031329077 -0.11065406
0001d0 08 cf 4e bd 5e 3d 96 3d d2 0b 93 bd e6 00 b3 3d
       -0.05049041 0.073359236 -0.07179989 0.08740406
0001e0 1d c5 97 bd 22 87 2f 3d f9 08 40 3d 28 5a 03 be
       -0.07410643 0.042853482 0.046883557 -0.1282736
0001f0 bd 1c 4f bc 44 77 94 3d 3c ee f8 3d 17 1c 5e 3d
       -0.012641129 0.072493106 0.121548146 0.054226007

action_model._continuous_distribution.log_sigma f4 [1, 3]
000000 63 ff b0 be c5 4e d6 be 6c c3 89 be
       -0.34569845 -0.4185697 -0.26906908

action_model._continuous_distribution.mu.weight f4 [3, 128]
000000 78 ba 06 bd ab 7b 79 3d b9 a5 91 bd 64 2f 0e 3b
       -0.032892674 0.060908955 -0.07111687 0.0021695727
000010 79 31 53 3d 80 38 00 3e 9e 6c 29 3c bc 6b 9b 3d
       0.051560853 0.12521553 0.010340838 0.07588908
000020 d5 9a 32 be b7 4c e9 bd e2 cb ce bc ac 7a 5a 3d
       -0.17441876 -0.11391585 -0.025243703 0.053339645
000030 94 b9 91 bc 85 8a 17 be 37 48 11 be cd 09 41 3b
       -0.017788686 -0.14798935 -0.14187704 0.0029455305
000040 13 12 1c 3e 25 37 b6 bd d1 0f 25 bd df d4 2f bd
       0.1524127 -0.08897237 -0.040298287 -0.04292762
000050 20 53 97 bd 19 26 9a bd 80 dd fd bd 57 90 94 3d
       -0.07388902 -0.07526798 -0.123957634 0.07254093
000060 e3 84 53 bd ee b0 f3 3d ee 2a b2 b9 af 6c b4 bb
       -0.051640403 0.11898981 -0.0003398279 -0.00550612
000070 ff 4b e2 3c 44 ab c1 3d 9b a7 68 bd 20 65 b1 bc
       0.027624128 0.094564945 -0.056800466 -0.021654665
000080 d1 30 28 bc f1 b3 59 bd 73 c7 9c 3d 1d d0 f8 bd
       -0.010265545 -0.05315012 0.076552294 -0.121490695
000090 01 11 22 3e 6f 93 4b bd de d2 86 3d af 0e 4c 3e
       0.15826799 -0.04970115 0.065831885 0.19927476
0000a0 94 1d 7f bd 75 46 bd bd b1 70 08 3e 56 a4 68 bc
       -0.062284067 -0.09241954 0.13324238 -0.014199337
0000b0 c4 31 28 3d e0 e2 d3 bd 8c 61 26 be 9b e8 61 bd
       0.041063085 -0.10346007 -0.16248149 -0.05515347
0000c0 15 30 3a bd 1c e4 85 3d 3a 15 79 bb d2 fc 23 bd
       -0.04545601 0.06537649 -0.0038007037 -0.04003603
0000d0 1e f9 48 be e0 22 2b bd b1 17 5b bd af c2 19 bc
       -0.1962628 -0.041781306 -0.05348939 -0.009384795
0000e0 c9 40 3e 3d d5 56 6e 3c cf 75 dc 3d 60 c0 d1 3d
       0.046448503 0.01454707 0.10764658 0.10241771
0000f0 bc a5 05 bd c4 1e 69 3e a2 91 a4 bd 17 b5 f1 bd
       -0.03262876 0.22765642 -0.0803559 -0.11802118
000100 61 f6 4f bc f3 8f b1 bc 52 10 eb ba 63 91 7c 3d
       -0.012693019 -0.021675086 -0.0017933941 0.06166209
000110 16 cc ec 3d 36 5f cf 3d f7 ca 42 3d a9 74 04 bd
       0.11562364 0.10125582 0.047556844 -0.03233782
000120 e9 5d c6 bd fe 47 a3 3c da f5 86 bd 33 db a8 bd
       -0.09685881 0.01993179 -0.06589861 -0.08244934
000130 dc dc 5b 3d 8f 4e cb bc 36 af 8d bc 37 f0 b0 bd
       0.053677425 -0.024817733 -0.017295461 -0.08639567
000140 82 33 4d bd e0 3d 8f bd 04 c5 89 bc f4 3b 37 be
       -0.05009795 -0.069942236 -0.016817577 -0.17893964
000150 c8 30 81 3c d6 c4 d9 3c 8a e4 b7 3d 81 cc f5 3b
       0.015770331 0.026583117 0.08979137 0.0075011854
000160 b1 aa a2 bd b3 f4 b4 bd 9f c6 27 bd d9 6a 0c be
       -0.07942713 -0.08835735 -0.040960904 -0.13712634
000170 1f 01 b7 bc bc b9 8e bd 3f c9 f8 bc 01 62 d5 3d
       -0.022339402 -0.0696902 -0.0303694 0.104190834
000180 90 bd 20 bd 0c 32 f1 3d f7 29 a2 3c e3 09 72 bc
       -0.03924328 0.11777124 0.019795401 -0.014772865
000190 20 07 5d 3d 33 f3 ba bd e7 aa be bd 2b 6c eb bc
       0.053961873 -0.09128418 -0.09309941 -0.028738102
0001a0 13 0e 21 bd 4a 4c 15 3e c6 ed 46 3c 6c a4 33 bb
       -0.039320063 0.14579883 0.012141651 -0.0027411235
0001b0 f7 ee 86 3b 53 68 83 3c 17 1d 33 bd d4 60 b1 bd
       0.0041178423 0.016040957 -0.043728914 -0.086610466
0001c0 b5 d0 60 3d 0f 99 9b bd bf a2 d5 bc 18 6d 46 3d
       0.05488654 -0.07597553 -0.02607858 0.048443884
0001d0 f0 79 23 bc be 33 b0 3d bd a4 04 bd a8 94 0f 3d
       -0.009977803 0.08603619 -0.03238367 0.03505388
0001e0 0b 45 94 bd cb 86 2f bc 6b 93 f3 bc 3b 82 13 bd
       -0.072397314 -0.0107132895 -0.02973338 -0.03601287
0001f0 97 72 00 3d be 00 88 3d bd a9 cb bd c6 67 8d 3c
       0.03135928 0.066407666 -0.099444844 0.017261397
000200 b7 1c c7 3c 9c 91 5a bb e7 b6 ec 3d a7 1b b7 bd
       0.024305684 -0.003335095 0.11558323 -0.08940821
000210 6e 91 be bd 83 2b ed 3c 4a c4 18 3d 25 d2 2c 3d
       -0.09305082 0.028951412 0.03729657 0.042192597
000220 81 da 4b 3d 9c 6d ff 3d 6d 8b 17 bd 4e 60 cd bd
       0.04976893 0.12472078 -0.0369982 -0.10028134
000230 53 25 10 bd 33 73 58 3c 82 bc 0c 3d e0 73 89 bb
       -0.035191845 0.013211059 0.034359463 -0.0041947216
000240 d0 3c 06 3e 04 3d b0 3d c2 b6 c8 bd 2a c5 10 bc
       0.13109136 0.08605388 -0.09800483 -0.00883607
000250 6f c2 c4 3d e0 ed fc 3d a7 b5 59 3c 5a cb 86 3d
       0.09607398 0.123500586 0.013287938 0.06581755
000260 c6 bb 32 be a4 c1 55 bd 62 59 83 bd 03 9b 96 bd
       -0.17454442 -0.052186623 -0.06413533 -0.07353785
000270 27 f4 ef 3d 4c 0a 91 bd 74 0b 14 3e d5 95 93 bd
       0.1171649 -0.07082042 0.14457494 -0.072063126
000280 ec 80 ea bc a2 c0 1d 3d 2c 0d f5 bc b2 a0 ff bd
       -0.028625928 0.038513787 -0.029913507 -0.12481822
000290 c8 99 7a bd ae 42 9a 3c 3f c1 f4 3d 19 e9 03 bd
       -0.061181813 0.018830623 0.11950921 -0.03220472
0002a0 83 b6 ed 3c 4b 43 08 bd 5c 12 8b 3d e0 48 f3 bc
       0.029017692 -0.0332673 0.06790611 -0.029697835
0002b0 2b 5f 8e bc d1 85 9a bd a6 8e 4b 3d 54 83 88 bd
       -0.017379364 -0.07545055 0.049696587 -0.06665674
0002c0 7e 81 b6 3d 35 00 d6 bb 05 0c 0f bd 2c c9 7d 3d
       0.089114174 -0.0065307864 -0.034923572 0.06195943
0002d0 7b 97 b4 3d a6 e3 e0 bc 92 d0 fe bc b7 85 35 bd
       0.08817955 -0.027452301 -0.031105313 -0.044316974
0002e0 f2 85 a7 bc 2a 71 83 3c b5 0a 3f 3d 81 42 30 bd
       -0.020449612 0.016045172 0.04664107 -0.043032173
0002f0 79 72 4d bd 6f 3d c1 3d 01 c2 ca 3d 13 1c 08 3d
       -0.050157998 0.09435546 0.099002846 0.0332299
000300 33 c0 1b bc ad b6 96 3d f2 bb da 39 e0 3e cd bd
       -0.009506273 0.073590614 0.0004172023 -0.10021758
000310 c2 49 e0 3d ca 50 ae bd b9 46 08 be 5b 09 a5 bd
       0.10951568 -0.08511503 -0.13308229 -0.08058425
000320 11 85 fc bd 54 33 15 bd d2 e9 2a 3e b6 6a 5c 3d
       -0.12330068 -0.036425903 0.16690758 0.053812705
000330 fc ca 35 3e db 19 ac 3d 17 65 84 bd 61 9f d7 3d
       0.17753214 0.08403369 -0.06464594 0.10528446
000340 74 98 74 bd 09 d0 cd 3d a3 10 d8 3c 3b 3b be 3d
       -0.059715703 0.10049445 0.02637512 0.09288641
000350 03 19 8a bd 5e 5e 2b 3d 7d 9b 61 bd 60 9f 4f 3c
       -0.06743052 0.041838042 -0.055079926 0.012672275
000360 a2 5a 06 bd 92 ae 8c 3d b3 7c 16 bd 6f b7 79 bd
       -0.032801278 0.06869234 -0.036740016 -0.06096595
000370 13 93 ed 3c 0a 70 11 3d ca 41 54 bb df e3 2b 3d
       0.029000795 0.03550724 -0.0032387846 0.04196536
000380 93 aa 8c bd d3 29 be bc c3 5f 40 3e 92 0f 6a bd
       -0.06868472 -0.023213303 0.1878653 -0.057143755
000390 85 88 11 bd eb 3e 08 3d 92 4a 15 3e 35 41 bb bc
       -0.035530586 0.03326313 0.14579228 -0.022858242
0003a0 9f 8c fc bc 95 cf 73 bc 8a 3d 78 bd d9 5c 17 bc
       -0.030828772 -0.014881034 -0.060605563 -0.009238445
0003b0 bb 1d c1 3c 95 54 65 bd 43 13 c2 bc ec c4 8c bd
       0.023573747 -0.055988867 -0.023690825 -0.06873497
0003c0 65 a1 00 be 84 56 6d bd c2 8c 6f bd c8 8b 1a 3e
       -0.12561567 -0.057943836 -0.058483846 0.15092385
0003d0 85 f3 f2 3d ad 17 18 bd 6b 10 a2 3b 9a 6a 8e bd
       0.11862854 -0.037131954 0.004945805 -0.069539264
0003e0 93 4c d6 3d 12 26 b7 bd 93 b5 4a bd f4 0e cf 3c
       0.10463824 -0.08942808 -0.04948957 0.025275685
0003f0 d6 3c 00 3d 88 3b 59 bd 82 4c d2 bd 60 51 6a bd
       0.031308018 -0.05303529 -0.10268499 -0.05720651

action_model._continuous_distribution.mu.bias f4 [3]
000000 96 75 d5 3c ad 2c a3 bd 7c 87 4e bc
       0.026057046 -0.079675056 -0.012605544

onnx::Div_51 f4 [12]
000000 7b fc 8f 41 d0 45 6b 41 6b a4 90 41 16 dc a9 41
       17.998281 14.704544 18.080282 21.232464
000010 dd 18 40 40 22 43 aa 41 8b 40 be 41 9c 42 cc 3a
       3.0015175 21.28278 23.781515 0.0015583816
000020 67 7d be 41 75 0b 8f 41 ae f6 98 41 28 fd fe 3e
       23.811232 17.880594 19.12045 0.49802518
