TWP_2/results/DynTouch27/RobotArm/RobotArm-999474.onnx (onnx, 77046 bytes, 9 tensors)

network_body.observation_encoder.processors.0.normalizer.running_mean f4 [7]
-1.3068831 25.305649 1.4819415 -0.42342013 2.9999804 1.0164113 28.419312
00000000: f247 a7bf f871 ca41 42b0 bd3f 86ca d8be
00000010: aeff 3f40 c419 823f c05a e341

network_body._body_endoder.seq_layers.0.weight f4 [128, 7]
-0.30573207 0.088519566 0.298793 0.31113213 -0.34240687 0.67734975 0.0855289 -0.22105525
-0.5615007 -0.5916231 0.029109752 -0.58517575 0.06700424 0.67189294 -0.11048084 -0.40797177
0.20305122 0.4043385 -0.56445456 -0.18606208 0.061429378 0.49448305 0.014946274 -0.3913775
0.4254098 0.2745693 0.20826186 -0.054460756 0.5729444 -0.6902365 -0.08704775 -0.46509022
0.34467694 -0.24162339 0.33948576 -0.35732913 -0.7013015 0.63054633 -0.23961155 -0.24692403
0.8715211 0.15240712 -0.075594604 0.31256306 -0.041269056 -0.20764501 0.5635519 -0.28858924
0.31042847 0.34028822 -0.1365725 -0.10217141 -0.28235278 0.23714322 -0.10116609 -0.36399916
-0.24908444 -0.49166837 -0.30211908 0.039203897 0.1581634 -0.37317538 0.18451649 0.021730235
0.33446407 0.4207595 -0.41065004 0.642999 -0.6651968 -0.2753155 -0.07423078 0.3713473
0.32371637 0.3554545 0.60479265 -0.42270374 0.28859705 0.173655 0.37140712 0.20823717
-0.74436224 -0.19052233 -0.43009552 0.37995878 0.36953497 0.5646372 0.16870907 0.0109302215
0.08263613 0.6774569 0.35426563 -0.02559008 0.3414121 -0.20978355 0.06485823 0.28980318
0.66583467 -0.319369 -0.99250406 -0.15802848 -0.23735039 -0.19194493 0.1415894 -0.27560517
-0.39052013 -0.13283321 -0.81744134 -0.09489703 0.15787351 0.35783246 0.18910962 -0.18713678
0.0072812233 0.27442926 -0.048329223 -0.6707007 -0.4739404 -0.6026076 0.19192928 -0.3038468
-0.61043966 0.2536601 1.0258609 -0.13455243 0.19871426 0.084766634 0.8799926 0.086212106
-0.43563548 -0.08233788 -0.0073826374 -0.42254487 -0.4794472 -0.020317372 0.2668173 0.07413634
0.42421892 0.6798966 -0.043077286 -0.7073816 -0.3713883 0.5423977 -0.11208504 0.1608089
0.3578521 0.50820744 -0.4550955 -0.33503973 -0.13307789 -0.47003862 -0.4576208 0.39828596
0.51485264 0.6028562 0.21624544 -0.1233305 0.047327444 -0.54481405 0.09431205 0.2782735
-0.097096026 0.1268374 -0.9564974 -0.0036283655 -0.56486094 0.34855905 0.16956903 -0.6670091
-0.1645265 0.08548862 -0.0154026365 -0.030744955 -0.48785508 0.4885117 -0.2209186 -0.054236367
0.16888677 -0.1547397 0.19126631 0.18700454 -0.0254662 -0.41738862 -0.124021865 0.5394194
-0.33187062 -0.9032925 0.45589957 -0.486025 1.0780041 0.09194644 1.0384351 -0.8288027
0.32676136 -0.20155627 0.23709781 -0.16443217 -0.366167 -0.77844834 -0.27573532 0.09506398
-0.20855652 0.30527562 0.08164894 0.41475886 -0.443321 -0.027617345 -0.35524094 -0.4513912
0.3186053 -0.21877901 0.5119583 -0.013059285 -0.32153532 -0.25968382 0.04874959 -0.068269275
-0.035543133 0.100212425 -0.5910742 -0.2889818 0.16215082 -1.0211542 0.24413411 0.54125077
0.29615623 0.09346791 -0.15059476 0.0035605873 -0.34364134 -0.50046957 0.5067652 -0.16652481
-0.41030437 -0.4856074 -0.60504913 0.6528711 -0.46696046 0.8592222 -0.09222081 0.7641488
-0.5816484 0.7896869 -0.13081428 0.41070694 0.30470458 -0.048052013 -0.061721444 0.27150226
0.65218645 -0.11766752 0.05401384 0.70209 -0.15430935 0.36204186 0.34473002 -0.35265574
00000000: ea88 9cbe bf49 b53d 65fb 983e b64c 9f3e
00000010: f44f afbe cb66 2d3f c729 af3d 4f5c 62be
00000020: 83be 0fbf 9d74 17bf 9377 ee3c 14ce 15bf
00000030: 8539 893d 2d01 2c3f c743 e2bd ade1 d0be
00000040: a9ec 4f3e 7505 cf3e 1880 10bf 0f87 3ebe
00000050: 5f9d 7b3d e22c fd3e 38e1 743c a262 c8be
00000060: 50cf d93e 5994 8c3e 9942 553e 3e12 5fbd
00000070: 7cac 123f 57b3 30bf 1746 b2bd 4e20 eebe
00000080: 7f79 b03e 1f6c 77be 14d1 ad3e d8f3 b6be
00000090: 7f88 33bf 7c6b 213f bb5c 75be a7d9 7cbe
000000a0: 021c 5f3f 9d10 1c3e 58d1 9abd 4408 a03e
000000b0: be09 29bd e5a0 54be f044 103f f8c1 93be
000000c0: 7bf0 9e3e 423a ae3e a9d9 0bbe 3f3f d1bd
000000d0: 8b90 90be acd5 723e 2b30 cfbd 195e babe
000000e0: fe0f 7fbe f5bb fbbe 5aaf 9abe 4494 203d
000000f0: 96f5 213e d810 bfbe e4f1 3c3e 9b03 b23c
00000100: e03e ab3e ca6d d73e b940 d2be 959b 243f
00000110: 564a 2abf 27f6 8cbe 4f06 98bd 3c21 be3e
00000120: 27be a53e 22fe b53e b1d3 1a3f a06c d8be
00000130: fec2 933e 9ed2 313e 1329 be3e 203c 553e
00000140: 868e 3ebf 4918 43be 7b35 dcbe f589 c23e
00000150: b033 bd3e 108c 103f 12c2 2c3e ac14 333c
00000160: 223d a93d d16d 2d3f 4e62 b53e 4aa2 d1bc
00000170: 91cd ae3e 80d1 56be 64d4 843d 1561 943e
00000180: 2474 2a3f 5584 a3be bf14 7ebf 38d2 21be
00000190: fb0b 73be 368d 44be d0fc 103e 1f1c 8dbe
000001a0: 41f2 c7be 6e05 08be d643 51bf 6059 c2bd
000001b0: 98a9 213e d135 b73e f4a5 413e c9a0 3fbe
000001c0: 5497 ee3b fe81 8c3e ddf4 45bd 0bb3 2bbf
000001d0: 51a8 f2be 7e44 1abf 1c89 443e cf91 9bbe
000001e0: c645 1cbf bddf 813e 694f 833f 1dc8 09be
000001f0: c07b 4b3e 219a ad3d 3247 613f f98f b03d
00000200: 9d0b dfbe c3a0 a8bd 0dea f1bb cd57 d8be
00000210: 1a7a f5be 9e70 a6bc 479c 883e cbd4 973d
00000220: 3933 d93e b40d 2e3f cf71 30bd f616 35bf
00000230: 9b26 bebe 93da 0a3f d78c e5bd 17ab 243e
00000240: 6438 b73e e219 023f 4702 e9be 548a abbe
00000250: 9245 08be e7a8 f0be 464d eabe 23ec cb3e
00000260: 62cd 033f c954 1a3f 726f 5d3e b494 fcbd
00000270: 6cda 413d ef78 0bbf ad26 c13d dd79 8e3e
00000280: 48da c6bd aae1 013e 03dd 74bf dfc9 6dbb
00000290: ba9a 10bf 5576 b23e 81a3 2d3e 1cc1 2abf
000002a0: a379 28be a814 af3d 575b 7cbc d8dc fbbc
000002b0: 24c8 f9be 351e fa3e 7c38 62be f426 5ebd
000002c0: a7f0 2c3e 1574 1ebe 51db 433e 1e7e 3f3e
000002d0: 7e9e d0bc f6b3 d5be 2dff fdbd 6417 0a3f
000002e0: f2ea a9be 2d3e 67bf ab6b e93e 45d8 f8be
000002f0: 0afc 893f 6a4e bc3d 71eb 843f 6a2c 54bf
00000300: 444d a73e c464 4ebe c5c9 723e e860 28be
00000310: 3e7a bbbe 6448 47bf 2e2d 8dbe e7b0 c23d
00000320: d78f 55be 164d 9c3e 8f37 a73d 465b d43e
00000330: f8fa e2be c53d e2bc 24e2 b5be bf1c e7be
00000340: 3c20 a33e 9b07 60be b30f 033f 9cf6 55bc
00000350: 47a0 a4be 47f5 84be a6ad 473d c3d0 8bbd
00000360: ad95 11bd 2c3c cd3d a450 17bf 6cf5 93be
00000370: dd0a 263e 2eb5 82bf 4bfe 793e 698f 0a3f
00000380: caa1 973e 1b6c bf3d 8335 1abe be58 693b
00000390: c2f1 afbe c61e 00bf 5dbb 013f 7b85 2abe
000003a0: 6a13 d2be 88a1 f8be 80e4 1abf 8f22 273f
000003b0: 7115 efbe fcf5 5b3f 44de bcbd 419f 433f
000003c0: e9e6 14bf ec28 4a3f 2ef4 05be 2e48 d23e
000003d0: 3d02 9c3e 30d2 44bd a0cf 7cbd 5802 8b3e
000003e0: b1f5 263f abfb f0bd 9e3d 5d3d 2cbc 333f
000003f0: 4503 1ebe 8d5d b93e 7480 b03e 4b8f b4be

network_body._body_endoder.seq_layers.0.bias f4 [128]
0.031295236 -0.04421427 -0.045232274 -0.028021634 -0.007619249 -0.019460956 0.004123199 0.03070088
-0.009686693 0.19675484 0.13466631 0.13432494 -0.026438368 -0.02067373 0.026836075 -0.019462442
0.13850558 0.007819993 0.019587079 0.11155882 0.0048939167 -0.0060195937 0.07227132 0.1750531
-0.05634037 0.13372713 -0.043705087 -0.057531692 -0.004789397 -0.021524066 -0.030117102 -0.04570311
-0.06369548 -0.05326936 0.039531782 -0.011577323 -0.19756776 -0.15821756 -0.15497741 -0.0064055594
-0.084371805 0.08369742 0.13437054 -0.13449478 -0.010512061 -0.07973355 -0.054463286 0.015828928
0.033377208 0.011964223 -0.10677723 -0.07662846 -0.20743749 0.081995204 0.042152062 0.117248215
0.17077497 0.055119343 0.09451002 0.08423347 -0.036243968 0.13989806 0.11979803 -0.011289208
0.03725939 0.10253611 0.16674477 0.12029868 0.029432412 0.0031348167 -0.0015982214 0.065734945
-0.028697975 0.06776798 0.16205752 0.04871992 0.11543413 -0.036983512 -0.08691744 -0.06976941
0.07535889 -0.08590754 -0.06430457 -0.0053550736 0.09786896 0.118519016 0.08795662 0.010316098
0.045742292 0.102393426 -0.04016827 0.049082827 -0.057029735 0.1201632 0.052726272 0.12202753
-0.03498377 0.0066485796 0.08603979 0.079732776 0.10967374 -0.019643053 -0.065967016 0.11709109
0.05533321 0.047197606 -0.13390087 0.0048172283 0.009964081 0.10738701 0.17229876 -0.09153538
0.08660941 0.15298936 0.032741606 0.059575196 -0.061031744 -0.074004516 -0.06869535 -0.07542193
-0.01753083 0.16002269 0.10897666 -0.059009373 0.14089595 0.079132214 -0.088640966 0.02506949
00000000: 6f2f 003d 061a 35bd 7a45 39bd a08d e5bc
00000010: e5aa f9bb 956c 9fbc e61b 873b 6980 fb3c
00000020: efb4 1ebc 1a7a 493e f7e5 093e 7a8c 093e
00000030: 4795 d8bc f45b a9bc 54d7 db3c b36f 9fbc
00000040: 68d4 0d3e 6e1f 003c 1575 a03c f378 e43d
00000050: 265d a03b 0340 c5bb fc02 943d 1f41 333e
00000060: 29c5 66bd c4ef 083e 1b04 33bd 5aa6 6bbd
00000070: 60f0 9cbb 3d53 b0bc 24b8 f6bc 2f33 3bbd
00000080: c772 82bd f930 5abd 14ec 213d d0ae 3dbc
00000090: 344f 4abe c903 22be 66b2 1ebe bae5 d1bb
000000a0: 20cb acbd 8e69 ab3d 6e98 093e 00b9 09be
000000b0: c83a 2cbc 584b a3bd e514 5fbd abab 813c
000000c0: 8ab6 083d 9705 443c 05ae dabd 62ef 9cbd
000000d0: 7e6a 54be 1aed a73d a4a7 2c3d d51f f03d
000000e0: a2df 2e3e d2c4 613d 788e c13d 9982 ac3d
000000f0: 8e74 14bd 7041 0f3e ab58 f53d 5ff6 38bc
00000100: 4d9d 183d 74fe d13d 24bf 2a3e 285f f63d
00000110: 3e1c f13c 7f71 4d3b 697b d1ba 0ba0 863d
00000120: 0418 ebbc f0c9 8a3d 68f2 253e 8a8e 473d
00000130: bb68 ec3d 067c 17bd c501 b2bd 44e3 8ebd
00000140: c355 9a3d 4bf0 afbd 1db2 83bd 9d79 afbb
00000150: 856f c83d 19ba f23d 9a22 b43d da04 293c
00000160: 455c 3b3d a5b3 d13d 7c87 24bd 130b 493d
00000170: 0398 69bd 2018 f63d 81f7 573d 92e9 f93d
00000180: 244b 0fbd 54dc d93b a135 b03d f04a a33d
00000190: a09c e03d 78ea a0bc b719 87bd 74cd ef3d
000001a0: 13a5 623d 4752 413d 4f1d 09be d7d9 9d3b
000001b0: 6340 233c b8ed db3d 166f 303e e776 bbbd
000001c0: 4660 b13d 3ea9 1c3e 101c 063d 1f05 743d
000001d0: 6cfc 79bd ae8f 97bd 26b0 8cbd d076 9abd
000001e0: d19c 8fbc fddc 233e 282f df3d d0b3 71bd
000001f0: 0747 103e 1210 a23d 6589 b5bd 885e cd3c

network_body._body_endoder.seq_layers.2.weight f4 [128, 128]
-0.010365219 -0.00023978579 0.03655572 -0.089117974 0.16708757 -0.070064515 -0.07564041 -0.045981266
0.024393696 -0.115440644 0.06774623 -0.037989084 -0.05634682 -0.018637238 0.089623645 0.12977973
-0.038326837 -0.12479587 0.011383354 -0.07165629 0.005300803 0.016281124 -0.019309336 0.15649973
-0.07154239 -0.15002412 0.02924679 0.094811514 -0.0013521399 0.017063633 0.10676871 0.06576841
0.13104546 -0.000530139 -0.035699267 -0.08546174 0.026480295 0.010554534 -0.022055117 -0.030327478
-0.058501206 0.038633253 0.066445194 0.20672831 0.019559175 0.013073156 0.06759346 0.05721334
0.10743256 0.09227461 -0.041754507 0.11131862 0.062330194 -0.07574401 0.06957504 0.091549054
-0.022257267 -0.011669685 0.12820643 0.22433743 0.12575138 0.058588114 0.053153556 0.06823724
-0.22008793 -0.057208218 0.10242157 0.054703563 0.10794121 -0.047188506 0.17434384 0.05694444
0.034502406 -0.044390295 0.19022365 -0.16557212 -0.0359289 -0.02566549 -0.018258702 0.0091910865
-0.16721267 -0.04578566 0.100218646 -0.020073665 0.022314066 -0.08503713 0.14565468 0.08229982
0.3134058 0.18466398 -0.016981857 0.038951684 -0.11732311 0.051884394 0.14757748 -0.06139296
-0.0013047531 0.10552806 -0.09146498 -0.030306421 -0.11571129 0.16845666 -0.0595851 0.119489245
-0.0848198 -0.111622505 -0.06756386 0.029843688 0.043103762 -0.13113989 -0.020216983 -0.20820683
0.055664252 -0.08998977 -0.057302117 0.10180401 -0.055693727 -0.056175146 0.09021301 -0.06839389
0.037503563 0.12849537 -0.10579223 0.0026020925 -0.020849554 -0.089244835 0.09705039 -0.102565974
-0.0082365405 -0.08733486 -0.026933413 0.014967141 -0.22524263 -0.0023395584 -0.08233547 -0.10528691
0.049041405 0.057486076 0.107548155 0.17772828 -0.025239514 -0.0070878933 0.060200755 0.011266921
0.19764379 -0.095131785 -0.009845427 0.08398743 0.117774196 -0.06056198 0.18130882 -0.11197519
0.044058178 0.035330713 -0.124876745 0.11162195 -0.023105484 -0.06740079 -0.036689524 0.018452495
0.0024637328 -0.24188593 0.1197457 -0.019040938 -0.07679087 -0.15682636 0.0068624276 -0.09650629
0.00082158163 -0.23558094 0.07556511 0.04826207 0.01777596 0.065616496 -0.17193808 0.06919485
-0.12436 0.02976104 -0.049247872 -0.10093434 0.019351495 -0.046707723 0.09828626 0.07509587
0.12099923 0.053364232 0.1197917 -0.03810018 0.020274332 0.039412208 0.06396281 0.13702185
-0.08010052 0.03970943 0.17468 -0.002656989 -0.046667926 0.00995099 -0.09665109 -0.04110205
0.0008377043 0.023888344 -0.08711597 0.019561846 -0.06362838 -0.005715743 0.022752518 -0.0746668
0.09493843 -0.13164577 -0.0315489 0.07204899 -0.19195798 0.10221415 -0.08378339 -0.18626161
0.00825357 -0.014221606 0.08316459 -0.24717756 -0.046343494 -0.071977496 -0.016675165 0.11898021
-0.060728766 0.035570245 0.037486017 0.16240959 0.007716226 -0.20423393 -0.16839288 -0.05046281
0.0033772327 -0.013254318 0.01869093 -0.14327177 0.07268386 -0.0033492714 -0.08970791 0.11535654
-0.18389189 0.028035847 0.031238755 -0.055953898 -0.024393005 -0.20514426 -0.0190571 0.024771495
0.035311274 0.03301202 -0.09084819 0.10074676 0.03699093 -0.07579575 0.12091394 -0.001810563
00000000: e1d2 29bc 026f 7bb9 73bb 153d 7c83 b6bd
00000010: 0119 2b3e fc7d 8fbd 5ce9 9abd da56 3cbd
00000020: 4ad5 c73c 256c ecbd 89be 8a3d 719a 1bbd
00000030: eccb 66bd 1fad 98bc 9a8c b73d fae4 043e
00000040: 9afc 1cbd fa94 ffbd 3f81 3a3c 88c0 92bd
00000050: 5cb2 ad3b fe5f 853c 9d2e 9ebc 7741 203e
00000060: d184 92bd ec9f 19be f796 ef3c 8a2c c23d
00000070: 493a b1ba 08c9 8b3c 8ea9 da3d 97b1 863d
00000080: c830 063e 07f9 0aba 6539 12bd 9106 afbd
00000090: 34ed d83c edec 2c3c efac b4bc 5571 f8bc
000000a0: f69e 6fbd e73d 1e3d 6b14 883d 96b0 533e
000000b0: 903a a03c ca30 563c 716e 8a3d 8958 6a3d
000000c0: 9a05 dc3d 79fa bc3d c606 2bbd 04fb e33d
000000d0: f24d 7f3d ad1f 9bbd 5c7d 8e3d 127e bb3d
000000e0: df54 b6bc 3532 3fbc 8c48 033e b6b8 653e
000000f0: f8c4 003e 17fa 6f3d 8bb7 593d f7bf 8b3d
00000100: bb5e 61be 2a53 6abd 66c2 d13d d810 603d
00000110: 4810 dd3d bc48 41bd 3187 323e 933e 693d
00000120: 6552 0d3d 99d2 35bd fdc9 423e bd8b 29be
00000130: 2f2a 13bd 6f40 d2bc 4693 95bc 3696 163c
00000140: cc39 2bbe bf89 3bbd 6f3f cd3d 8771 a4bc
00000150: fdcb b63c f227 aebd 8026 153e cf8c a83d
00000160: ba76 a03e 8e18 3d3e 891d 8bbc cd8b 1f3d
00000170: 1947 f0bd bb84 543d 8d1e 173e 2f77 7bbd
00000180: 4004 abba 181f d83d fe51 bbbd 2c45 f8bc
00000190: 0afa ecbd e77f 2c3e 810f 74bd c7b6 f43d
000001a0: 01b6 adbd 579a e4bd ec5e 8abd c07a f43c
000001b0: 928d 303d 8949 06be 169e a5bc 2c34 55be
000001c0: 3300 643d 8e4c b8bd a0b5 6abd 9f7e d03d
000001d0: 1b1f 64bd e917 66bd 99c1 b83d 1912 8cbd
000001e0: 569d 193d 4a94 033e 99a9 d8bd de87 2a3b
000001f0: afcc aabc ffc5 b6bd 5bc2 c63d 1c0e d2bd
00000200: 8ef2 06bc 9edc b2bd 76a3 dcbc bd38 753c
00000210: 01a6 66be 4753 19bb 809f a8bd aaa0 d7bd
00000220: a4df 483d 8576 6b3d 3542 dc3d 67fe 353e
00000230: 19c3 cebc 8f41 e8bb 1195 763d e498 383c
00000240: 2263 4a3e 74d4 c2bd b74e 21bc 9a01 ac3d
00000250: 9933 f13d d70f 78bd 05a9 393e 4053 e5bd
00000260: 5976 343d f0b6 103d 61bf ffbd 0d9a e43d
00000270: b647 bdbc 6d09 8abd c147 16bd b029 973c
00000280: 9476 213b f2b0 77be 3c3d f53d befb 9bbc
00000290: 8844 9dbd 1797 20be 37de e03b 17a5 c5bd
000002a0: 695f 573a 213c 71be e1c1 9a3d 73ae 453d
000002b0: e49e 913c f161 863d 8910 30be 08b6 8d3d
000002c0: 75b0 febd 6dcd f33c 23b8 49bd aab6 cebd
000002d0: 0787 9e3c 9950 3fbd 4f4a c93d ddcb 993d
000002e0: 72ce f73d 7494 5a3d 5a55 f53d ef0e 1cbd
000002f0: 5b16 a63c b26e 213d effe 823d 754f 0c3e
00000300: be0b a4bd 5ba6 223d 50df 323e e120 2ebb
00000310: de26 3fbd 7a09 233c 02f1 c5bd a05a 28bd
00000320: 6299 5b3a 7db1 c33c dc69 b2bd 2a40 a03c
00000330: 994f 82bd 214b bbbb 7d63 ba3c e8ea 98bd
00000340: 146f c23d 26ce 06be 6b39 01bd 6c8e 933d
00000350: a290 44be a755 d13d a096 abbd 5dbb 3ebe
00000360: fb39 073c bd01 69bc 3252 aa3d 1d1c 7dbe
00000370: add2 3dbd f068 93bd 5b9a 88bc e5ab f33d
00000380: babe 78bd 1bb2 113d f08a 193d b34e 263e
00000390: 65d8 fc3b b322 51be 2f6f 2cbe 17b2 4ebd
000003a0: 9054 5d3b a428 59bc b91d 993c d6b5 12be
000003b0: 47db 943d 737f 5bbb c8b8 b7bd 0d40 ec3d
000003c0: 284e 3cbe 6fab e53c 6be8 ff3c ea2f 65bd
000003d0: d7d3 c7bc 5611 52be a31d 9cbc 97ed ca3c
000003e0: 8ea2 103d 9d37 073d 9e0e babd 5154 ce3d
000003f0: cd83 173d cd3a 9bbd baa1 f73d 6a50 edba

network_body._body_endoder.seq_layers.2.bias f4 [128]
0.026052667 0.12003718 -0.15289357 -0.060768265 0.05022273 -0.035186306 -0.05536714 0.08630971
0.020754665 -0.0030590538 -0.106485546 0.0143757295 -0.040911157 -0.0055793067 -0.067744374 -0.15729578
0.069344014 0.05965831 0.098334 0.12110834 -0.090333134 -0.1747551 -0.09820958 0.09306678
0.13012677 0.0074184327 -0.22021611 -0.045941662 0.023472188 0.06353976 -0.052609578 -0.13118733
0.045047708 0.09223601 0.04345121 0.049068905 0.05817859 0.05671578 0.08718693 -0.2250063
0.03524977 -0.031078896 -0.18214646 -0.0032899852 -0.12202339 0.08130473 0.09746645 -0.071069255
0.11163155 0.08020291 -0.055337414 -0.21541107 -0.06767239 0.0387289 0.03419681 -0.029449144
0.026811568 0.03477215 -0.058555137 0.12347939 0.08081823 0.08863973 0.07629179 0.16292135
-0.0383338 -0.060708012 -0.09206801 0.07751816 0.06431888 -0.20934084 -0.097456895 -0.028473053
-0.15947777 -0.19216786 -0.009761373 -0.0023394553 0.03197003 -0.050649572 0.07308247 -0.09011621
0.09552249 0.071552396 -0.07286086 0.0379539 -0.23306847 -0.105918765 -0.11294406 -0.05759874
0.019862406 0.074060075 -0.19061758 -0.058348842 0.038877953 0.13837118 -0.20794311 -0.08126482
0.07122274 -0.08855182 -0.13563232 -0.033564664 -0.13529064 0.05416973 0.041765776 -0.21850963
0.0069879224 -0.012838938 -0.09910775 0.020085737 -0.036039855 0.023858108 -0.07777842 -0.19900104
0.12192341 0.09243727 0.05558374 -0.02818854 -0.12539959 -0.020782162 0.04194732 0.10530765
-0.2214596 0.070664845 0.06951562 -0.23440056 -0.008917349 -0.029172441 0.09693387 0.07542774
00000000: 676c d53c 0ed6 f53d 2290 1cbe 25e8 78bd
00000010: 59b6 4d3d 841f 10bd a7c8 62bd 25c3 b03d
00000020: b005 aa3c 687a 48bb 1815 dabd 2e88 6b3c
00000030: 7592 27bd 9ed2 b6bb 90bd 8abd 2512 21be
00000040: 3c04 8e3d 465c 743d 5663 c93d a607 f83d
00000050: 9400 b9bd 00f3 32be 1b22 c9bd cc99 be3d
00000060: f43f 053e 5316 f33b 5580 61be 532d 3cbd
00000070: bf48 c03c 2221 823d 247d 57bd f955 06be
00000080: f283 383d 3ce6 bc3d e5f9 313d 7afc 483d
00000090: ac4c 6e3d ce4e 683d 108f b23d 0d68 66be
000000a0: 1062 103d 2b99 febc 9a84 3abe cb9c 57bb
000000b0: 66e7 f9bd 1883 a63d 7d9c c73d c28c 91bd
000000c0: 159f e43d 6c41 a43d 7ca9 62bd b894 5cbe
000000d0: d297 8abd 32a2 1e3d f411 0c3d 553f f1bc
000000e0: efa3 db3c 3e6d 0e3d 83d7 6fbd c3e2 fc3d
000000f0: 0784 a53d bf88 b53d df3e 9c3d dbd4 263e
00000100: e703 1dbd f7a8 78bd 278e bcbd d7c1 9e3d
00000110: 9eb9 833d 725d 56be 7b97 c7bd 5240 e9bc
00000120: 244e 23be a7c7 44be 2aee 1fbc 8c51 19bb
00000130: 02f3 023d ed75 4fbd 43ac 953d d98e b8bd
00000140: 4ca1 c33d 108a 923d 1338 95bd 8c75 1b3d
00000150: 80a9 6ebe f0eb d8bd 374f e7bd a8ec 6bbd
00000160: 7cb6 a23c cfac 973d 4131 43be 32ff 6ebd
00000170: 7d3e 1f3d 2db1 0d3e 0aef 54be 2c6e a6bd
00000180: 3add 913d a85a b5bd 33e3 0abe 1a7b 09bd
00000190: a189 0abe 14e1 5d3d 9712 2b3d fdc0 5fbe
000001a0: f1fa e43b 695a 52bc 01f9 cabd d88a a43c
000001b0: 879e 13bd 1472 c33c 4b4a 9fbd eec6 4bbe
000001c0: fbb2 f93d c04f bd3d c7ab 633d a7eb e6bc
000001d0: c068 00be 5a3f aabc f4d0 2b3d 8aab d73d
000001e0: 4ec6 62be bbb8 903d 355e 8e3d b306 70be
000001f0: 131a 12bc 0bfb eebc 4485 c63d dc79 9a3d

action_model._continuous_distribution.log_sigma f4 [1, 3]
-0.08042223 -0.4714171 -0.14066663
00000000: 69b4 a4bd 955d f1be ea0a 10be

action_model._continuous_distribution.mu.weight f4 [3, 128]
-0.016138839 0.033487283 0.009498378 0.055649556 0.034382116 -0.017441355 0.019396424 0.011608174
0.0913231 0.0017565385 -0.075705275 0.059195668 -0.019517876 0.097602464 0.038189694 0.048517223
-0.03139622 -0.105812244 -0.06441924 0.016729755 -0.0016872952 -0.037410993 -0.030805208 0.009421974
-0.0597461 0.028217271 -0.007136674 -0.023865808 -0.018081699 0.025596324 0.034993373 -0.018230557
0.046688505 0.055858716 0.02319049 -0.06702612 -0.028868059 0.038863637 -0.119893126 0.011238375
-0.027576527 0.019682962 0.031615462 -0.07681704 -0.012993634 0.07816644 0.01722789 0.013128599
0.015268164 -0.08467926 0.038815185 -0.0100955535 0.018311465 -0.029340768 -0.041162115 -0.02847199
0.09772151 0.028135955 -0.001178218 0.023685934 -0.017351406 -0.036295287 0.040219128 0.016089791
-0.03862829 -0.0048010065 -0.0023220987 -0.027572718 -0.10163781 0.008933234 0.027232723 0.01607156
0.007951233 -0.012627911 -0.0442324 -0.05937226 -0.0057175932 0.06402218 0.07491569 -0.037137367
-0.06508096 0.0056912517 -0.009224198 0.08924291 -0.01508113 0.037231423 -0.006437744 -0.000526201
0.037268225 -0.012102913 -0.04557426 -0.0063478895 -0.040123202 0.029824458 -0.0009817621 0.0354515
0.002119547 0.028218443 -0.012583601 0.05915099 0.01930972 -0.11891987 0.05969317 0.0055559473
-0.039631914 -0.0066399043 -0.010322168 -0.0024911738 0.05061652 -0.014233322 -0.025375394 0.02653603
-0.016448384 -0.047730062 0.009035866 -0.018105516 -0.012099235 0.035929587 -0.013167934 -0.0073098396
0.002561576 -0.019371409 -0.002372081 0.015431915 0.06299673 0.0036446557 -0.016254263 -0.00074007316
0.024894184 -0.055249646 0.042431105 0.037773278 -0.016677985 0.008215112 0.026752321 -0.011401916
0.0074838763 -0.0043675317 0.029452976 0.0018666704 0.0037452078 0.019119957 0.021104915 0.11518599
-0.034987528 -0.009589778 -0.012659005 -0.038409874 -0.0026580598 0.07163289 0.0313353 -0.044899274
-0.056702305 -0.02374824 0.13069665 -0.006350704 -0.0032870949 -0.0150948 0.020378342 0.038719103
-0.028425027 -0.04564478 -0.01687278 -0.032647885 -0.014154456 -0.048270084 -0.05791372 0.11113474
0.0030987542 0.00261688 0.072526745 0.00913791 0.045764856 -0.04753125 -0.049285877 0.0018381346
-0.059250828 -0.018747838 0.023803163 0.17452708 0.04412883 -0.016913377 0.015903689 0.045774337
-0.012252855 -0.0120915 0.01547573 -0.057197902 -0.03244974 -0.013987232 -0.013307745 -0.09404817
0.043358076 0.013681125 0.017205749 -0.052031823 -0.026140973 0.07500933 0.044987798 0.002849411
0.060100272 0.04652991 0.019902341 0.031654995 -0.0016682728 0.01672433 -0.019904273 0.037805434
-0.030105663 -0.03157053 0.063524865 -0.019931687 0.08676271 0.0329541 0.07062944 0.01604101
-0.0064097675 -0.046679392 0.08173467 0.059604585 -0.014491036 -0.059329282 0.12412489 0.021687718
-0.037574317 0.014732931 0.080660634 0.035537492 0.0146861 -0.017025191 -0.023051877 0.09732629
0.008450872 0.0041690264 0.009186959 -0.005375415 0.020167451 -0.023610126 0.037463043 0.11215499
-0.060006876 -0.033459373 0.0034645142 0.033936743 -0.0017702256 0.0054146685 -0.004602322 -0.036364622
0.13765849 -0.012819354 0.00018688523 0.08985815 -0.006838557 0.0364116 -0.045532215 -0.034975052
00000000: 9935 84bc f629 093d 169f 1b3c caf0 633d
00000010: 43d4 0c3d 2ce1 8ebc 40e5 9e3c 3630 3e3c
00000020: 9b07 bb3d a73b e63a 5e0b 9bbd 2877 723d
00000030: f4e3 9fbc cde3 c73d cc6c 1c3d ffb9 463d
00000040: 5399 00bd 17b4 d8bd 3cee 83bd d70c 893c
00000050: 3b28 ddba 453c 19bd 345b fcbc a05e 1a3c
00000060: 54b8 74bd e827 e73c c3da e9bb 3a82 c3bc
00000070: 1220 94bc 62af d13c 3655 0f3d 4058 95bc
00000080: 723c 3f3d 1ccc 643d fcf9 bd3c fe44 89bd
00000090: b57c ecbc 7a2f 1f3d 878a f5bd 2921 383c
000000a0: 2be8 e1bc 2a3e a13c 377f 013d 4152 9dbd
000000b0: 40e3 54bc ba15 a03d 8121 8d3c 5619 573c
000000c0: 5227 7a3c 526c adbd acfc 1e3d d267 25bc
000000d0: ed01 963c 0d5c f0bc 9b99 28bd 173e e9bc
000000e0: 3722 c83d 607d e63c 706e 9aba 0109 c23c
000000f0: 8924 8ebc 5eaa 14bd d0bc 243d bdce 833c
00000100: b338 1ebd c351 9dbb 5a2e 18bb 2ee0 e1bc
00000110: 7c27 d0bd b35c 123c 2917 df3c 81a8 833c
00000120: e345 023c 4ce5 4ebc 082d 35bd 5430 73bd
00000130: a65a bbbb 101e 833d 666d 993d 5a1d 18bd
00000140: 2b49 85bd ae7d ba3b 1721 17bc fdc4 b63d
00000150: d816 77bc fa7f 183d b6f3 d2bb c0f0 09ba
00000160: 91a6 183d 4c4b 46bc 13ac 3abd f501 d0bb
00000170: 3a58 24bd 6c52 f43c 78ae 80ba 9835 113d
00000180: 19e8 0a3b 5d2a e73c 732b 4ebc 4f48 723d
00000190: 6b2f 9e3c 438c f3bd d380 743d aa0e b63b
000001a0: 1355 22bd 8e93 d9bb 4f1e 29bc f642 23bb
000001b0: 4553 4f3d e132 69bc 0fe0 cfbc 1762 d93c
000001c0: c3be 86bc 9980 43bd 2b0b 143c 0552 94bc
000001d0: df3b 46bc e72a 133d 51be 57bc 6187 efbb
000001e0: 1de0 273b cab0 9ebc ea74 1bbb 25d6 7c3c
000001f0: 6e04 813d 2ddb 6e3b a927 85bc 7801 42ba
00000200: e3ee cb3c 744d 62bd 3dcc 2d3d 27b8 1a3d
00000210: 45a0 88bc ad98 063c af27 db3c 1acf 3abc
00000220: 4e3b f53b 831d 8fbb 5e47 f13c 11ab f43a
00000230: 2972 753b 75a1 9c3c 37e4 ac3c a2e6 eb3d
00000240: 154f 0fbd 721e 1dbc b767 4fbc ac53 1dbd
00000250: d832 2ebb 44b4 923d 7259 003d 4de8 37bd
00000260: ad40 68bd ab8b c2bc 58d5 053e 9119 d0bb
00000270: 4d6c 57bb 2e50 77bc 7bf0 a63c ec97 1e3d
00000280: 9adb e8bc 05f6 3abd c938 8abc cab9 05bd
00000290: 17e8 67bc dab6 45bd f036 6dbd 9c9a e33d
000002a0: 7814 4b3b f67f 2b3b e788 943d 2cb7 153c
000002b0: ee73 3b3d 21b0 42bd fddf 49bd 90ed f03a
000002c0: ffb0 72bd 1195 99bc dafe c23c 3ab7 323e
000002d0: 6fc0 343d ec8d 8abc 7448 823c df7d 3b3d
000002e0: 33c0 48bc 6d1b 46bc eb8d 7d3c 5948 6abd
000002f0: 05ea 04bd b42a 65bc ba08 5abc 549c c0bd
00000300: 3d98 313d cc26 603c 12f3 8c3c 521f 55bd
00000310: 9825 d6bc 7e9e 993d 2045 383d 2fbd 3a3b
00000320: b42b 763d 2696 3e3d 3c0a a33c aba8 013d
00000330: f2a9 daba 7601 893c 490e a3bc dfd9 1a3d
00000340: 27a0 f6bc 1a50 01bd 5319 823d c747 a3bc
00000350: a6b0 b13d e1fa 063d 2ba6 903d 7068 833c
00000360: 0709 d2bb e432 3fbd 8264 a73d f023 743d
00000370: cf6b 6dbc 4303 73bd 3135 fe3d 71aa b13c
00000380: 87e7 19bd 6462 713c 6731 a53d c38f 113d
00000390: f89d 703c 6a78 8bbc 4ad7 bcbc 0253 c73d
000003a0: 8775 0a3c 549c 883b e684 163c 4024 b0bb
000003b0: 3636 a53c 066a c1bc d972 193d 84b1 e53d
000003c0: c5c9 75bd b20c 09bd e70c 633b 4101 0b3d
000003d0: ea06 e8ba 886d b13b 13cf 96bb 12f3 14bd
000003e0: 59f6 0c3e 4508 52bc 9ff6 4339 8d07 b83d
000003f0: f915 e0bb 5424 153d fd7f 3abd 0042 0fbd

action_model._continuous_distribution.mu.bias f4 [3]
-0.0032745302 -0.121716164 -0.0021376149
00000000: 8099 56bb 5346 f9bd 3a17 0cbb

onnx::Div_51 f4 [7]
21.384443 18.77409 21.032207 23.34782 0.0031630988 23.47905 17.844288
00000000: 5713 ab41 5631 9641 f641 a841 56c8 ba41
00000010: fe4b 4f3b 18d5 bb41 1ac1 8e41
