TWP_2/results/DynTouch27/RobotArm/RobotArm-1119578.onnx (onnx, 77046 bytes, 9 tensors)

network_body.observation_encoder.processors.0.normalizer.running_mean f4 [7]
00000000: 16b7 8abf efe0 c341 3c9d 8a3f 9a75 6cbd
00000010: aeff 3f40 4098 0b3f 1031 da41
-1.0837123 24.48483 1.0829234 -0.05772934 2.9999804 0.5452919 27.273956

network_body._body_endoder.seq_layers.0.weight f4 [128, 7]
00000000: 3efc a1be 1c97 d03d 2d76 9b3e 8f82 9e3e
00000010: 0c71 afbe b667 2c3f 3281 c03d 08da 60be
00000020: 1d9b 13bf 21a1 16bf fb97 eb3c 0d63 14bf
00000030: a804 903d 978d 2a3f a5cd eebd eaf3 d7be
00000040: e4f0 523e 2f87 d03e 2a6a 0ebf 95e9 3fbe
00000050: 6aa6 743d 4013 f93e 6d0b 2a3c b3f6 c6be
00000060: 3289 d63e a88a 893e 7f8d 633e 5d22 5ebd
00000070: 099d 113f 4ff8 35bf 3e9f a6bd 0ac8 f3be
00000080: 3b40 b63e 28a8 76be f175 aa3e 68e8 babe
00000090: e7a1 32bf f095 233f 8fad 7bbe 9911 76be
000000a0: fe18 603f e45a 1d3e f630 91bd e839 a03e
000000b0: 5a06 1ebd d33d 52be 35ca 0f3f 8b66 93be
000000c0: 6628 9d3e c875 ae3e f6cb 23be e923 c8bd
000000d0: 38da 91be 7f09 783e fa97 d3bd 75b7 bdbe
000000e0: 6806 7cbe 22c7 05bf 380b 9abe 5155 403d
000000f0: feea 2d3e 37a7 bfbe 3794 2f3e fbdc c33c
00000100: ca98 aa3e 00f0 d93e 5915 d2be 69f8 253f
00000110: a6b6 2abf a679 91be 9368 9abd c69c bf3e
00000120: bbbf a63e f16f b53e 777e 1b3f 77ee d6be
00000130: e825 913e f640 3a3e 6bff b93e 63e6 503e
00000140: f63f 3ebf 99cf 45be b59d debe 71d5 bd3e
00000150: 14dd b93e 5c01 0f3f 61d1 273e c20d df3b
00000160: fb20 a03d 0c78 2d3f dd44 b43e 74e4 c9bc
00000170: c6f7 ab3e 88d4 5ebe 3eed 8b3d 35cf 953e
00000180: cd0f 2b3f 3fad a6be fcdd 7ebf 3e9e 12be
00000190: 4bf1 6ebe d6de 3bbe df90 113e 1ecc 8abe
000001a0: 5f91 c2be 0198 09be 93ce 57bf 9ca6 bdbd
000001b0: 16d4 213e 3692 bb3e 1a19 3f3e f2bd 46be
000001c0: eecb 0d3c b8b1 8a3e c41c 44bd feff 2bbf
000001d0: 2531 f2be 0f91 1abf b995 3c3e 9858 9ebe
000001e0: 4915 21bf 5460 803e a64e 843f 9165 f7bd
000001f0: a34a 483e 7654 993d 7670 5f3f 31b7 b03d
00000200: 2d3a e0be 09e2 c6bd b444 9cbb 6001 dbbe
00000210: 037b f6be 2763 a8bc 7ac3 8e3e 2fd8 943d
00000220: 42bb da3e 31f2 2d3f 2543 35bd 7405 35bf
00000230: 19db c1be d5b3 0b3f b3c5 f4bd 456a 263e
00000240: b6cd ba3e 705d 013f 091c eabe 2991 a6be
00000250: 6c16 10be 0990 f0be 46e5 e7be a665 ca3e
00000260: 5900 053f c0f2 183f 89db 633e 3f83 10be
00000270: 1552 2d3d 959a 0dbf d584 ca3d effb 8d3e
00000280: 8120 debd 8065 003e cbee 7abf 52b5 59bb
00000290: 28e1 10bf 345f b43e eeb6 2a3e a47d 2bbf
000002a0: bd85 29be b6c1 9c3d e71e 9dbc 0651 e5bc
000002b0: cc26 f9be d1ab fc3e c216 61be baed 56bd
000002c0: 3203 313e 3c6d 23be 2ab6 4a3e 8d19 433e
000002d0: 9bca ebbc 2f90 d9be 1859 eabd 0522 093f
000002e0: 0713 a7be 3be5 66bf 0588 e43e 7ca5 f9be
000002f0: 39bc 893f 8b95 ae3d 0756 843f fca7 56bf
00000300: 5e45 a53e 3e2c 4dbe 010d 703e afe4 32be
00000310: bb58 b9be 9a52 4dbf 8ffb 8dbe 3d67 d53d
00000320: 957f 4abe 10f4 9e3e 4b05 9a3d 1983 d23e
00000330: 2fb6 ecbe 1fec f9bc cc4b babe 843f e4be
00000340: a022 a53e 555f 64be 0c7e 023f d477 a4bc
00000350: c213 a0be 0eff 89be 58e5 4f3d ea40 85bd
00000360: 401f 0bbd 44ee bd3d 52f2 1cbf d581 92be
00000370: 2003 233e 9d6a 81bf aadc 813e 4cea 073f
00000380: bf08 983e e587 c03d 5a9d 16be 98a0 bb3b
00000390: c4a8 b0be 155c ffbe 17f4 013f f32d 20be
000003a0: a7a3 cfbe 33b3 f6be 76bb 1abf 5b0b 263f
000003b0: 65db edbe 6626 5e3f 774d c9bd 244d 423f
000003c0: 33d4 16bf c605 493f 372b 04be 62f1 d03e
000003d0: d65a 973e dfb3 64bd 716c 7dbd 5d1b 8c3e
000003e0: adf7 253f 974e ecbd 7ddc 6a3d ab77 333f
000003f0: 2a89 16be 4907 ba3e bce1 ac3e c6c8 b1be
-0.31637758 0.10185072 0.30363598 0.30958983 -0.34265935 0.6734575 0.09399642 -0.21958172
-0.5765856 -0.58839613 0.028758993 -0.5796364 0.07032138 0.666223 -0.11660317 -0.4217828
0.20599705 0.40728137 -0.55630744 -0.18741448 0.059729017 0.486475 0.010378701 -0.38860092
0.41901547 0.268636 0.22221945 -0.05423199 0.5688024 -0.71082014 -0.08135842 -0.47613555
0.3559588 -0.24087584 0.33293107 -0.36505437 -0.69778293 0.6390066 -0.24577926 -0.2403015
0.87538135 0.15366703 -0.07089417 0.3129418 -0.038580276 -0.20531397 0.5616792 -0.28789172
0.30694884 0.34074235 -0.15995774 -0.09772474 -0.284868 0.24222372 -0.103317216 -0.3705403
-0.24611819 -0.5225698 -0.30086684 0.046956364 0.16984174 -0.37432262 0.17146383 0.023909083
0.33319694 0.42565918 -0.41031912 0.6483217 -0.6668495 -0.28413123 -0.07539477 0.37424296
0.32568154 0.35436967 0.60739845 -0.4197881 0.28349233 0.18188843 0.3632768 0.20400386
-0.74316347 -0.19317473 -0.43479696 0.37076905 0.36301482 0.5586145 0.16388465 0.00680706
0.078187905 0.677613 0.3520879 -0.024645068 0.33587474 -0.21760762 0.0683236 0.2925965
0.66820985 -0.3255405 -0.9955747 -0.14318177 -0.23334233 -0.18346724 0.1421542 -0.27108854
-0.38001534 -0.13436891 -0.8429958 -0.09260294 0.1580356 0.36634988 0.18661919 -0.19408396
0.008654578 0.27088714 -0.047878996 -0.6718749 -0.4730312 -0.6037759 0.1841649 -0.30926967
-0.62923104 0.25073493 1.0336502 -0.12079919 0.19559722 0.07486813 0.87280977 0.08628691
-0.43794385 -0.097110815 -0.0047689322 -0.42774487 -0.48140725 -0.020555092 0.27883512 0.07267796
0.4272099 0.6794768 -0.044253487 -0.70711446 -0.3786247 0.54571277 -0.11951771 0.16251476
0.3648507 0.505332 -0.45724514 -0.32532623 -0.14071053 -0.4698489 -0.4529211 0.39530677
0.51953655 0.5974541 0.22251715 -0.14112566 0.042314608 -0.55314 0.09888617 0.27731273
-0.108460434 0.12538719 -0.9802062 -0.0033219648 -0.5659356 0.35228884 0.16671345 -0.6698859
-0.16554923 0.07654135 -0.019179774 -0.027992737 -0.48662412 0.49349836 -0.21981338 -0.052472807
0.17286375 -0.15959638 0.19796053 0.19052716 -0.028783133 -0.42492816 -0.114427745 0.53567535
-0.32631704 -0.9019353 0.44635025 -0.48759067 1.0760566 0.08524617 1.0338753 -0.83850074
0.32279485 -0.20036408 0.2344246 -0.17470048 -0.36200508 -0.80204165 -0.27730986 0.10420082
-0.19775231 0.3104558 0.07520541 0.41115645 -0.46232745 -0.0305081 -0.36385953 -0.4457971
0.3225298 -0.22301991 0.5097358 -0.02007667 -0.31265074 -0.26952404 0.05075583 -0.06506522
-0.03396535 0.09273961 -0.6130725 -0.2861468 0.15919161 -1.0110661 0.25363666 0.53091884
0.29694173 0.0940092 -0.14708462 0.0057259314 -0.34503758 -0.4987494 0.50763077 -0.15642528
-0.40554544 -0.48183593 -0.6044229 0.6486108 -0.46456447 0.8677734 -0.09829228 0.7589896
-0.5891754 0.78524435 -0.1290711 0.4080916 0.2956149 -0.0558356 -0.061870996 0.27364627
0.6483105 -0.11538427 0.05733918 0.70104474 -0.14700761 0.36333683 0.33765972 -0.3472349

network_body._body_endoder.seq_layers.0.bias f4 [128]
00000000: e75e fe3c fab1 1fbd 7406 1abd b7e7 09bd
00000010: 0de9 533b 0c0c 5abc b689 193b 76b0 113d
00000020: fae5 bc3a 7096 4e3e 7569 0c3e 1c08 073e
00000030: d088 fabc b07c 93bc a4e0 df3c 067e 3bbc
00000040: fdb4 0e3e 9c7c aa3c 20ca b43c 4991 e33d
00000050: 6c64 3c3c 0e2c 10bc b8f1 9c3d 72dc 363e
00000060: 0c0c 62bd 5a3f 0c3e cb0c 58bd 000b 67bd
00000070: 87e9 b23b 4185 84bc 21ea e6bc 22f3 13bd
00000080: 872a 85bd dc72 6abd 8bb1 283d bc5d 1abc
00000090: a702 50be 3f5f 1ebe a845 1cbe edcc 82bb
000000a0: 8f1d adbd 78b9 b83d aae3 063e ee58 05be
000000b0: 1ccc 993a 8faa a5bd adbf 4ebd 97a8 ae3c
000000c0: bb4e 2b3d ac2a 153c a8c5 e5bd eaab 96bd
000000d0: 6681 54be 6181 a43d 938a 2d3d 683c f03d
000000e0: fbc5 363e 61cb 6c3d 549f bd3d 019f 9f3d
000000f0: 6f5e 05bd f52d 133e e935 f23d 8cd0 64bc
00000100: 72c3 093d c7bc dc3d 00ed 2a3e a0d1 013e
00000110: 414f 063d 3227 223c 0dcc 3eba c36b 713d
00000120: 7e7b d8bc 7615 943d 2039 243e 21d8 413d
00000130: 1f50 ea3d 1c29 23bd a4dd aebd 3039 8cbd
00000140: 2fa0 993d 4263 bbbd a853 82bd 651e e73a
00000150: e14b d13d 14e5 fc3d 169b bc3d 6f6e 713c
00000160: eafb 493d af55 dc3d 43d8 1ebd 68e0 513d
00000170: af8e 7bbd ef39 e23d f7fb 533d b30d 003e
00000180: 1356 f2bc 9a35 3a3c 0bc9 af3d 8a5d aa3d
00000190: 527f d63d b752 acbc 8fae 88bd 771a ed3d
000001a0: 005f 683d c6d7 3a3d 2d3a 09be 7b05 263c
000001b0: 8d8e 103c 4f64 d83d ecfd 303e c620 afbd
000001c0: c685 b63d 53a3 203e ee2c 023d fc61 783d
000001d0: 3438 64bd 2b26 95bd f8a9 85bd 54df 8bbd
000001e0: 1b08 acbc 50ee 263e 193d dc3d 061b 78bd
000001f0: bacd 103e efb1 b43d 8117 a8bd c95e 063d
0.031051112 -0.03898809 -0.03760381 -0.033668246 0.0032334954 -0.013308536 0.002342803 0.035568677
0.00144118 0.20174575 0.13712104 0.13186687 -0.030582815 -0.018003792 0.027328797 -0.011443621
0.13936229 0.020811372 0.022069037 0.11111695 0.011498552 -0.008799566 0.07663292 0.1785753
-0.05518727 0.13696042 -0.052746575 -0.056406975 0.0054599675 -0.016176822 -0.028187813 -0.03612054
-0.06502252 -0.057238445 0.041184943 -0.009421762 -0.20313512 -0.15466021 -0.15260947 -0.003991714
-0.084529035 0.0901975 0.13172784 -0.13022205 0.0011733803 -0.08089172 -0.050475765 0.021320624
0.04182313 0.009104412 -0.112193406 -0.07357009 -0.20752487 0.080324896 0.042368483 0.117302716
0.17848961 0.057811145 0.09258905 0.077939995 -0.032560762 0.14373 0.11826689 -0.013965737
0.033633657 0.10778194 0.16691971 0.12677622 0.032790426 0.00989704 -0.0007278331 0.05894066
-0.026426073 0.07230656 0.16037416 0.047325257 0.11441063 -0.039834127 -0.08538368 -0.06846845
0.07501256 -0.09149791 -0.063636124 0.001763296 0.10219551 0.12348381 0.09209268 0.014735802
0.04931251 0.1075853 -0.038780462 0.0512394 -0.06141537 0.11046206 0.051753964 0.12505226
-0.029582059 0.011365319 0.08583268 0.083186224 0.10473503 -0.021035535 -0.066739194 0.115773134
0.056731224 0.045615934 -0.13401099 0.010133143 0.008823049 0.10566007 0.17284364 -0.08551173
0.08912234 0.15687303 0.03178113 0.06064032 -0.055717662 -0.072826706 -0.065265596 -0.06829706
-0.020999959 0.16301847 0.10753841 -0.060572647 0.14140978 0.08823001 -0.08207608 0.032805238

network_body._body_endoder.seq_layers.2.weight f4 [128, 128]
00000000: 381f bcbb 99c6 3c3a 00bf 1f3d c37a bebd
00000010: 6181 2f3e d8b2 7fbd 9b3f a2bd 44d7 41bd
00000020: 0918 b53c b604 04be ad9b 753d a4fc 20bd
00000030: 053e 69bd db97 b3bb b7c3 b23d c2d4 153e
00000040: 0a85 23bd 0a0f ebbd 1c69 623b 0de9 9fbd
00000050: 5af8 093c e762 ad3c df49 e0bb 10fd 2a3e
00000060: e9c8 7abd 146f 1fbe b0bc f23c e539 ba3d
00000070: 909b 9e3c 7dd6 0f3d f18c cf3d 296e a53d
00000080: d38a 013e 8add 283a b18f 16bd bb90 b1bd
00000090: 5b61 b33c a46b 193c 77e7 dbbc 172a 0ebd
000000a0: 0577 69bd b4f0 6b3d 8c3d 8d3d 0f78 503e
000000b0: 0347 0e3d bf52 113c f561 883d e4f2 8a3d
000000c0: 8f04 e63d 9203 b93d 6825 25bd 6bbf ee3d
000000d0: e789 753d ba34 a8bd ab93 af3d ba7a b93d
000000e0: 98e7 82bc 40a7 04bc a345 fb3d 9fed 663e
000000f0: 8e31 fd3d 216e 7e3d 9264 603d fe4c 893d
00000100: f807 68be 6e9d 84bd b267 c43d b28d 673d
00000110: 5a09 e43d 9734 1bbd 0681 303e cdad 5b3d
00000120: f670 ec3c 9aa0 2fbd 2e6a 493e 4fc7 2cbe
00000130: 2383 c4bc 8f11 02bd fd8e bebc 0b83 173c
00000140: c9f7 2cbe abf7 50bd f1a5 e13d b91e aabc
00000150: 8b25 893c 59b9 babd 1814 223e 264d b53d
00000160: aac4 a03e ce43 3d3e 7ad8 b6bc abf9 0b3d
00000170: c9cf fabd 4843 5a3d 6bd9 113e 2ed4 72bd
00000180: f1eb 9fbb b8c9 dc3d 41dd b9bd b32e 20bd
00000190: e3fd dbbd 8d12 2a3e ad14 7abd f9bc f83d
000001a0: 881f afbd 8040 efbd 484a 89bd e28e dc3c
000001b0: 12eb 493d 3547 08be f80e 77bc b532 5cbe
000001c0: 3f6b 8a3d 84e4 a8bd ec00 75bd e735 d23d
000001d0: 7efc 70bd b411 45bd d996 ad3d e9a6 85bd
000001e0: 798b 243d 283a 013e f0ff cdbd 28d7 cabb
000001f0: 91d3 dbbc 10f6 a8bd 496e e43d f7b7 c4bd
00000200: 7b71 1cbb b694 bcbd 86a0 08bd 08a8 743c
00000210: 4d4e 77be ed0b c93b 018f aabd fed5 dbbd
00000220: 482c 3b3d 38e9 8a3d e0a1 da3d b0a0 353e
00000230: f097 e2bc 76f3 cebb 9f0c 8e3d f985 cc3a
00000240: 22f6 493e 5100 cfbd 599c eebb f168 b83d
00000250: 599c 063e b916 6dbd d014 3b3e 62a5 eabd
00000260: 3c9d 4e3d 76f4 223d e24b 01be d52c e63d
00000270: d195 07bd 09ef 97bd 61dc 1bbd 6d05 52bb
00000280: e86c 213a 369f 7abe 3025 ee3d f0ca bdbc
00000290: 9d52 98bd d84e 2bbe 47ca 4a3c 4f84 c6bd
000002a0: e90a 9d3b f6d6 78be 15ee a13d c920 3f3d
000002b0: 37df 8c3c 03e1 823d b654 33be ff5a 843d
000002c0: 11f2 e5bd 462b 023d 8239 23bd 9f16 e9bd
000002d0: 0fe5 833c fefc 3bbd 8583 c73d 0fd5 953d
000002e0: 3858 043e 1ae6 4a3d 4955 f53d ceb6 15bd
000002f0: 5b74 6f3c 2f22 493d 9442 893d ccfd 093e
00000300: 8822 9fbd bb88 153d 4e2c 333e a61f 3ebb
00000310: 67b9 3dbd 5fb9 143c 237a c6bd 3132 11bd
00000320: 1af8 caba 33c4 b63c c7f4 a6bd d660 ae3c
00000330: b2e3 78bd e865 ffba 1c52 ae3c a5be a7bd
00000340: 71dc de3d 1fd2 f0bd b88b 09bd 8301 b33d
00000350: 1859 42be 176c d23d cb35 a8bd f32e 37be
00000360: bbf8 6f3c 9c9e 80bc a345 a03d 21b7 7bbe
00000370: 8961 40bd 6827 8fbd 1aa8 7bbc c2c6 f93d
00000380: 1291 81bd 877e 0c3d e54b 423d e9e5 2e3e
00000390: d746 133c b74c 54be b454 32be e4d5 25bd
000003a0: 5468 e1b9 5f5d 24bc 2929 923c 0bc3 14be
000003b0: f927 993d 5dac 28bb a426 b1bd a278 f93d
000003c0: 16f0 43be 5f7f 0d3d 3f31 fe3c 6ae5 7abd
000003d0: f7f0 b5bc f134 5ebe 2def 9dbc 6df7 173d
000003e0: 5188 043d 0ddd 083d d8a9 adbd 7876 e03d
000003f0: 0ebf 193d 6d54 9abd d133 fa3d ec38 34bc
-0.0057410263 0.0007201224 0.03900051 -0.09300759 0.17139198 -0.062426418 -0.07922288 -0.047324434
0.022106187 -0.12892422 0.059962917 -0.039303437 -0.056943912 -0.005480749 0.08728736 0.14631942
-0.039921798 -0.11477478 0.0034547513 -0.07808123 0.008421028 0.021165324 -0.0068447436 0.16698098
-0.06122676 -0.15569717 0.029630989 0.09093074 0.019361287 0.03511666 0.10134304 0.08077652
0.12650613 0.00064417033 -0.03675813 -0.08670183 0.021897009 0.009364042 -0.02684377 -0.03470811
-0.05699827 0.0576026 0.06896505 0.20358299 0.03473569 0.008869826 0.06659309 0.06784609
0.11231338 0.09033884 -0.040318877 0.11657604 0.059945967 -0.08213182 0.08573087 0.09056611
-0.015979573 -0.008096516 0.122691415 0.22551583 0.123629674 0.062116746 0.05478341 0.06704138
-0.2265929 -0.0647534 0.09590091 0.056531616 0.11134596 -0.03789195 0.17236719 0.053632546
0.028862458 -0.04287777 0.1966941 -0.16872905 -0.023988312 -0.031755026 -0.023261542 0.009247552
-0.16891398 -0.051017445 0.11017979 -0.020766603 0.016741535 -0.091173835 0.15827978 0.088526055
0.31400043 0.18482897 -0.022320021 0.03417365 -0.12246663 0.05328682 0.14243095 -0.05928438
-0.0048804213 0.10780662 -0.09075404 -0.039107036 -0.107417844 0.16608639 -0.061054874 0.12145419
-0.08550936 -0.11682224 -0.06703621 0.0269236 0.049296446 -0.13308413 -0.015079252 -0.21503718
0.06758737 -0.08246711 -0.059815332 0.10264187 -0.058834545 -0.048112586 0.084760375 -0.06525976
0.040172074 0.12619841 -0.10058582 -0.0061901994 -0.026834281 -0.08250058 0.11153848 -0.09605401
-0.002387135 -0.09208052 -0.033356212 0.01493264 -0.24150963 0.006135455 -0.08328057 -0.10734175
0.045696527 0.06782764 0.106754065 0.17737079 -0.02766034 -0.006315644 0.06936001 0.0015603892
0.19722798 -0.10107482 -0.0072818217 0.09004391 0.1314558 -0.057883 0.18269658 -0.114573255
0.05044292 0.039783917 -0.12626603 0.1123902 -0.03310186 -0.07418639 -0.038051967 -0.003204669
0.0006157891 -0.24474797 0.11628187 -0.023168057 -0.07437632 -0.16729295 0.012377328 -0.096932046
0.0047925604 -0.24300751 0.07906739 0.046662126 0.01719628 0.06390574 -0.17512783 0.06462669
-0.11227811 0.03177955 -0.039849766 -0.11381268 0.016100435 -0.04589557 0.09741882 0.07316028
0.12924278 0.04953585 0.119791575 -0.03655129 0.014615144 0.049104866 0.06702152 0.13475722
-0.07770258 0.03650735 0.1749737 -0.0029010563 -0.04631939 0.009077399 -0.096912645 -0.035448257
-0.0015485317 0.022310352 -0.08152156 0.02128641 -0.060764022 -0.0019485326 0.021279387 -0.081906594
0.108818896 -0.117588274 -0.03358051 0.08740523 -0.18979299 0.10274523 -0.08213385 -0.17889003
0.014646704 -0.01570063 0.07825782 -0.24581577 -0.046968017 -0.06989938 -0.015359903 0.12196113
-0.06326498 0.034300353 0.04743566 0.17079891 0.0089890575 -0.2073239 -0.17415124 -0.040487185
-0.00042993075 -0.010032027 0.017841892 -0.14527528 0.07478327 -0.0025737502 -0.08649948 0.12181212
-0.19134554 0.0345453 0.031029342 -0.061253943 -0.022209628 -0.21699883 -0.019279087 0.037101198
0.032356564 0.033413935 -0.08479661 0.10960096 0.03753572 -0.07535634 0.122169144 -0.010999899

network_body._body_endoder.seq_layers.2.bias f4 [128]
00000000: 8bbe e83c 43a4 fc3d ddc6 19be c45a 77bd
00000010: 9537 703d b39f 15bd 7627 54bd 9fb1 b53d
00000020: 09d1 cb3c 1410 32bb 26df e2bd f92e 8a3c
00000030: 4f7c 21bd 691c a9ba d53b 8dbd 500f 1cbe
00000040: 927f 873d 2535 7f3d 1d90 cb3d cd1b fa3d
00000050: 9f81 bdbd 7d10 36be f1c3 c3bd a53a ba3d
00000060: 7e3a 083e 8a47 bb3b ec1b 63be cfcd 3abd
00000070: ef96 a53c 1458 8a3d 16d7 4abd c268 fabd
00000080: b3c1 443d 075b c13d cd98 353d e154 4c3d
00000090: dc4a 6f3d 8583 6a3d 7a84 b13d 316a 60be
000000a0: 9108 043d 304c fabc f895 34be 72a9 39bb
000000b0: 1b60 eebd 9161 ad3d 443e c03d 2b6a 87bd
000000c0: 3d64 e43d bf93 a53d a1e2 42bd 6e19 5ebe
000000d0: 4dc8 77bd 669a 1d3d 3732 1c3d 84e7 d8bc
000000e0: af35 bd3c 2baa 1c3d 52d5 60bd 0091 f73d
000000f0: 0307 a93d 0b1f b13d a306 a03d 7907 253e
00000100: 54e9 f0bc 04f1 6fbd a5ba b9bd 4494 9f3d
00000110: 9faf 7e3d f9ad 51be 48cd b1bd 2f4a cdbc
00000120: 073d 21be 8b09 46be bc8c 2bbc 7661 393a
00000130: 36e8 0d3d 50ee 57bd 819f 9c3d bddd bcbd
00000140: 1229 c43d e8bf 933d 37e1 8cbd dc48 173d
00000150: 6209 6cbe 7ef8 cabd 3706 cebd 662f 59bd
00000160: 4222 a93c c06c 8e3d f1f6 4abe 8d48 60bd
00000170: 984b 153d 44e5 0e3e b385 54be bed5 95bd
00000180: e903 923d fc05 b1bd 7315 08be 9924 dabc
00000190: 3709 0cbe fd69 3d3d c7ce 3c3d b75f 5dbe
000001a0: 4e47 a93b e992 35bc 70ad c8bd 2788 923c
000001b0: f6b8 11bd 6019 ae3c ebdf 91bd 675e 44be
000001c0: af54 f93d e2b1 be3d dc79 713d d858 cfbc
000001d0: fe57 02be 02d4 9cbc 46c0 1d3d 18ff d43d
000001e0: faac 5fbe c340 953d 2012 903d a1f6 6bbe
000001f0: cb3d edbb e4c6 a7bc 282e c43d e8e1 923d
0.02841117 0.12336018 -0.15017267 -0.060389295 0.058646757 -0.036529254 -0.051795445 0.08871769
0.02487995 -0.0027170228 -0.110777184 0.016868101 -0.03942519 -0.0012902144 -0.06896178 -0.15240216
0.06616129 0.062306542 0.09939597 0.12212334 -0.09253239 -0.17779727 -0.09558857 0.09093217
0.13303563 0.005715315 -0.2217862 -0.04560643 0.020213572 0.06755081 -0.04952153 -0.12227012
0.04803629 0.0944119 0.044335175 0.049885634 0.058421 0.057254333 0.08667846 -0.21915509
0.032234732 -0.030553907 -0.17635334 -0.0028329757 -0.116394244 0.08465875 0.09386876 -0.06612047
0.111519314 0.08084821 -0.04757941 -0.21689388 -0.060493756 0.038477324 0.038133826 -0.026477583
0.023096887 0.038248222 -0.054890938 0.120882034 0.082532905 0.08648499 0.07813766 0.16116132
-0.029408135 -0.05857946 -0.09068803 0.07791951 0.062179204 -0.20476522 -0.086817324 -0.025059788
-0.15745936 -0.19339578 -0.010470565 0.0007071713 0.03464528 -0.052717507 0.076476105 -0.09221981
0.09578146 0.072143376 -0.06878894 0.03693472 -0.23050454 -0.099106774 -0.10059779 -0.05302372
0.020646218 0.06954336 -0.19820763 -0.05475669 0.036449045 0.13954645 -0.20754127 -0.07316159
0.07129652 -0.086437196 -0.13289432 -0.02662878 -0.1367539 0.046243656 0.046095636 -0.21618544
0.005165971 -0.011082389 -0.097987056 0.017887188 -0.035576783 0.021252334 -0.07122787 -0.19176637
0.12174355 0.09311272 0.058954105 -0.025310919 -0.12728879 -0.019144062 0.038513444 0.10400218
-0.21843329 0.07287743 0.07034707 -0.230433 -0.0072400323 -0.02048058 0.09579116 0.071719944

action_model._continuous_distribution.log_sigma f4 [1, 3]
00000000: e967 b7bd 3260 02bf 6b57 23be
-0.08955366 -0.5092803 -0.15951316

action_model._continuous_distribution.mu.weight f4 [3, 128]
00000000: fbed b4bc 8f6a 2d3d 7f2b b23a 4e48 513d
00000010: 9cd1 4c3d e8fe b7bc 77be cb3c eebf 243c
00000020: 90dc b93d 365a 7d3b 6345 9cbd e2eb 833d
00000030: d634 f8bc 9b78 c63d f7fe 0e3d 208b 503d
00000040: c3a9 0cbd d149 f5bd 1d74 9ebd 4df0 aa3c
00000050: 16ae dfbb 8690 1bbd 68d7 04bd 7517 2f3c
00000060: 9376 8cbd 74db ec3c e510 d9bb 1b3a e4bc
00000070: abd6 97bc 9328 073d a9cf 0f3d 716b 95bc
00000080: 2e8a 423d a79b 793d 35e1 e93c aff0 98bd
00000090: d047 13bd f90b 163d 33da 00be fcac df3b
000000a0: 10ce bbbc c4e5 993c ace9 fc3c 9667 aebd
000000b0: 2b8f 83bc 6019 ae3d 596d 703c 09ae 8d3c
000000c0: 6977 9e3c cda0 c5bd a062 2c3d fd43 86bc
000000d0: 06bb cf3c 36d3 03bd 54dd 37bd f880 e9bc
000000e0: b190 c63d 7c49 0c3d 60cc 53bb 3312 d23c
000000f0: 45ec a9bc 99e4 2bbd 5843 313d 7887 863c
00000100: 9a60 5cbd 7515 6ebb a604 fabb 59ee edbc
00000110: 62fc e0bd 40d1 173c 2ff7 cc3c f4f8 783c
00000120: 52a5 fb3b 28cb 57bc cc93 2bbd 25f2 97bd
00000130: 8ab3 f6bb 3af8 803d 0fcb a33d 40ae 1fbd
00000140: 92f5 90bd 4c87 5f3a b674 30bc ef76 b53d
00000150: 825b 89bc 050f 113d e998 53ba a2f1 0f3c
00000160: 18f3 253d 5f19 08bc aa90 44bd 8f2f a6bb
00000170: 3923 20bd c576 053d 5903 a2bb 7213 213d
00000180: 059c 4d3b 9827 bb3c c971 78bc 3616 6f3d
00000190: 79dc 973c e6c0 f3bd cd6b 903d 0eac a03b
000001a0: efe6 20bd ce75 85bc 4bc5 2bbc b41d 4039
000001b0: 4076 463d 5965 36bc 7e24 0fbd 1217 c33c
000001c0: 5feb 50bc 5ab9 51bd 12d2 413c d466 9cbc
000001d0: f3bb b8bb 0856 183d 2ccf 35bc 6991 a3bb
000001e0: 5a8f c8b9 78a3 b6bc 17f2 a6bb 1d62 323c
000001f0: 2cc4 7c3d 5418 573b 92f2 4cbc f2e1 d3b9
00000200: 068e 003d af47 83bd a714 283d 45df 213d
00000210: 9bc6 9dbc b9cf 213c aac8 d93c 756e 81bc
00000220: 9403 d43b 06bd 47bc 1d3d 083d 6cc9 5fbb
00000230: 99a7 443c 928c 903c 2468 373c 0f61 e33d
00000240: 7d45 03bd aac4 f7bb 44d1 49bc 0ca7 38bd
00000250: aaa3 babb da41 8d3d 9fff 133d 7585 42bd
00000260: e938 5dbd 6033 bfbc d7f1 023e e301 41bc
00000270: af65 b8bb ecc8 93bc f5d3 943c 259e 2e3d
00000280: 29bb f2bc 30b0 4dbd 2f23 80bc b38a 1fbd
00000290: bcd7 88bc 5f6a 4bbd 1e77 7dbd 1f62 df3d
000002a0: 6c67 483b ef34 3d3a 1ea9 923d 0a29 e03b
000002b0: dcd9 4a3d 8370 5bbd 01ac 4cbd c6bb 2dbc
000002c0: b24f 82bd defe a8bc e2ab 103d aa40 2e3e
000002d0: 7460 803d a897 d5bc 61fa b83c 3d9a 723d
000002e0: 1fd8 4bbc 60ee 5cbc 5a5a 763c 216e 6abd
000002f0: 41d8 1fbd cd96 8abc 6bc3 bbbc 1811 bfbd
00000300: be08 8a3d ac92 6b3c 30f1 793c 0825 6abd
00000310: 6a20 c0bc 98c5 8d3d 2262 373d 1bd1 fb3a
00000320: 020e 6b3d f1d5 2c3d 7ea4 b03c d3d8 423d
00000330: 6445 57bb aff0 8c3c e921 99bc d80a 243d
00000340: 6947 17bd 1b47 0abd 7113 9d3d ff02 98bc
00000350: eb09 ad3d 5bfa f33c 99e9 c93d 5088 c53c
00000360: adcb 16bc a3fc 38bd 63e7 a03d de1e 903d
00000370: 5111 88bc 3a0b 7abd c923 f43d 3036 9e3c
00000380: c80e 1ebd d931 263c 259e 9a3d d8c8 343d
00000390: f452 663c c855 79bc c6da 07bd b54d bf3d
000003a0: de40 173c c338 0f3c 3b10 223c 11ce bcbb
000003b0: c88e 9e3c 8258 b5bc a4c1 663d ae3d e03d
000003c0: 7abc 87bd 8768 00bd 4f83 cf3b 18d8 373d
000003d0: 68e8 d6bb be1f 193c 10cb 0ebb db12 1abd
000003e0: 595f 093e e085 69bc eb2d 02bc 173e b63d
000003f0: 4a09 05bc 771e 693d b6f9 3dbd 0a0d 0dbd
-0.022086134 0.04233795 0.0013593285 0.051094346 0.050004587 -0.022460416 0.024871094 0.010055525
0.09075272 0.0038658506 -0.07630422 0.064414755 -0.030298632 0.096909724 0.034911122 0.05091393
-0.034341585 -0.1197697 -0.077369906 0.020866537 -0.0068261726 -0.037979625 -0.03243199 0.010686745
-0.06858554 0.028913237 -0.0066243284 -0.027859738 -0.018534979 0.03299768 0.03511015 -0.018239709
0.04749506 0.060939457 0.02854977 -0.07467782 -0.035957158 0.03663251 -0.12583236 0.0068260413
-0.022925407 0.018786319 0.030873142 -0.08515851 -0.016059479 0.08500934 0.014674508 0.0172949
0.019344049 -0.09649811 0.042086244 -0.016389841 0.025357734 -0.03218385 -0.04488881 -0.02850388
0.096955664 0.034249768 -0.0032317862 0.025643444 -0.020742545 -0.041966055 0.043277115 0.016422018
-0.053803064 -0.0036328707 -0.0076299487 -0.029044317 -0.10985638 0.009266198 0.02502021 0.015196074
0.00767962 -0.013170995 -0.041888997 -0.07419232 -0.007528727 0.062973455 0.07997715 -0.038984537
-0.07078089 0.00085269357 -0.010770014 0.088605754 -0.016767267 0.035414714 -0.00080717966 0.008785637
0.040515035 -0.00830683 -0.047989525 -0.0050715874 -0.03909609 0.03258397 -0.0049442467 0.039325185
0.0031373512 0.022846028 -0.015163847 0.05837079 0.018537747 -0.11902027 0.07051811 0.004903323
-0.039282735 -0.016291525 -0.01048405 0.00018321612 0.048452616 -0.011132562 -0.03494691 0.023814712
-0.012751429 -0.051202156 0.01182987 -0.019092001 -0.0056376397 0.03719142 -0.011096757 -0.0049916995
-0.00038253778 -0.022294745 -0.0050947773 0.01088765 0.06171052 0.0032820897 -0.012509005 -0.00040413399
0.031385444 -0.06410157 0.04103532 0.039519567 -0.019259742 0.009876185 0.026584942 -0.01579974
0.006470153 -0.012191063 0.033261407 -0.0034147156 0.012002849 0.017645154 0.011194263 0.11102497
-0.03204869 -0.007561286 -0.012317959 -0.045081183 -0.00569578 0.06897326 0.03613245 -0.047490556
-0.054009352 -0.023339927 0.12787567 -0.011780235 -0.005627356 -0.018040143 0.018167475 0.042631287
-0.02963026 -0.050216854 -0.015641777 -0.038950633 -0.016704433 -0.04966199 -0.061881177 0.10907387
0.0030579222 0.00072176656 0.07161163 0.0068408297 0.049524173 -0.053574096 -0.049968723 -0.010603851
-0.06362857 -0.020629343 0.03532017 0.17016855 0.06268397 -0.026073292 0.022580327 0.059229124
-0.012441664 -0.013484567 0.01503619 -0.057233933 -0.039024595 -0.01691761 -0.022920331 -0.09329432
0.06739949 0.014378231 0.0152552575 -0.057164222 -0.023452956 0.06922454 0.04477132 0.0019212099
0.057386406 0.042196218 0.021562811 0.04757006 -0.0032847757 0.01720461 -0.018692927 0.040049404
-0.036933336 -0.033759218 0.07669724 -0.018556116 0.08449157 0.029782465 0.09859008 0.02411285
-0.0092038335 -0.04516281 0.078566335 0.070371374 -0.01660982 -0.061045863 0.11920888 0.019312948
-0.038588315 0.010143721 0.07549695 0.044136852 0.0140578635 -0.015218206 -0.033167623 0.09340993
0.009231774 0.00874156 0.009891565 -0.0057618697 0.019355193 -0.02213693 0.056337014 0.109492645
-0.06627746 -0.031349685 0.006332792 0.044883817 -0.0065584667 0.009345947 -0.0021788515 -0.03761564
0.13415278 -0.01425311 -0.007945518 0.088985614 -0.0081198905 0.05691382 -0.04638072 -0.034436263

action_model._continuous_distribution.mu.bias f4 [3]
00000000: 0160 4638 3dd5 f1bd 2507 53bb
4.729629e-05 -0.1180825 -0.0032200303

onnx::Div_51 f4 [7]
00000000: 917f aa41 0793 9341 af78 a841 82d1 ba41
00000010: cddc 433b d0e5 bb41 c2ec 8d41
21.312288 18.44679 21.058928 23.352299 0.0029886246 23.487213 17.740604
