TWP_2/results/DynPnp12/RobotArm.onnx (onnx, 79646 bytes, 9 tensors)

network_body.observation_encoder.processors.0.normalizer.running_mean f4 [12]
1.4853418 27.78739 2.4462478 0.2856953 2.9999812 -0.89894056 2.112521 2.9999812
0.48287222 35.133575 43.86452 0.0
00000000: ae1f be3f 934c de41 538f 1c40 a846 923e
00000010: b1ff 3f40 f820 66bf 8b33 0740 b1ff 3f40
00000020: 073b f73e c888 0c42 4575 2f42 0000 0000

network_body._body_endoder.seq_layers.0.weight f4 [128, 12]
-0.38721168 0.10299703 -0.34242186 0.44925874 0.21899116 0.16654024 0.08244297 -0.082058266
-0.00984918 -0.150023 -0.095216244 -0.07658675 -0.103804044 0.4124255 0.27942473 -0.35167092
0.22831355 0.08831866 0.25330102 -2.4660036e-05 -0.67310154 0.30594745 0.36448595 -0.14697233
0.25018558 0.22745 -0.25778326 0.38020736 0.3123052 0.06275055 0.39063153 -0.49558336
-0.24995974 -0.10117379 0.66312104 -0.16479263 0.09577778 0.51745695 0.083277196 -0.04245274
0.20829754 0.41410384 0.24844879 -0.09952224 0.012435846 -0.24411036 -0.34314808 0.40052116
0.012389068 0.5799413 0.27790904 -0.43170244 -0.056316126 0.29640377 0.1599794 0.03910531
-0.37206745 -0.5566984 -0.20116875 0.20602874 -0.39685383 -0.26615694 -0.3644335 -0.66949576
0.29945856 0.013143019 -0.070634104 0.009487648 -0.007196287 -0.21042557 -0.2147186 0.2676158
0.5401098 -0.34553245 0.021576459 0.49053755 -0.1977362 0.0900626 0.23263405 -0.029170746
0.16671921 0.42564157 -0.16337913 -0.024936112 -0.068813466 0.19670375 0.40115237 0.3226896
-0.26618683 0.24384056 -0.37831208 0.10560896 -0.09799103 0.44327763 0.09852875 0.08094302
-0.080482 -0.14982276 0.05955372 0.3626109 -0.2689684 0.07156071 -0.2653895 -0.0808942
0.0068853195 -0.24715623 0.007246417 -0.068147466 0.32269764 -0.27703 0.90220356 0.15836711
0.293524 -0.5027206 -0.0082855625 0.4192061 -0.12438447 0.24467498 -0.02572475 -0.597196
0.39806268 0.29874167 -0.14738703 0.21311098 -0.037109394 0.6227132 0.038389485 -0.25827497
0.07582468 0.6076351 -0.45310333 -0.39474598 -0.47229344 0.022847163 0.03864832 0.06827506
0.47157758 0.43167886 0.028244805 0.38050103 0.21202222 0.32325515 0.19625203 0.46944025
0.03427412 0.47496974 -0.044903833 -0.0342667 0.083238505 -0.30894855 -0.029184105 0.16401683
0.01152196 0.31177068 -0.009287958 -0.23918736 -0.42833874 -0.317954 0.4157107 -0.2823987
-0.08162865 -0.7106278 -0.120288484 0.53423905 0.5446464 -0.30258963 0.04775959 -0.46922982
-0.1462211 -0.6514344 0.028050013 0.48500755 -0.1942363 0.12868288 -0.28531632 -0.3678912
0.4654495 0.08218565 -0.2879416 -0.29318327 0.22102241 0.00033780045 -0.2761785 -0.014256763
-0.8079259 0.008479826 0.19944534 -0.109889254 -0.2510368 0.5274567 0.5612741 0.03314334
-0.004683589 0.0067214244 0.51399535 -0.24804947 0.39093342 -0.120436676 0.2290691 0.25858197
0.03666045 -0.023653742 -0.23414654 -0.37292477 0.31077617 -0.37936452 0.09716425 0.12552743
0.1490267 -0.03360962 -0.33970037 0.2774092 -0.5482341 0.09361392 0.1166242 0.2939561
0.31878868 -0.32401183 -0.090134695 -0.34674138 0.29928553 -0.14099793 0.07086075 0.17435378
-0.259489 -0.13568264 0.11403253 -0.2769848 0.7008017 -0.3202087 -0.3435284 -0.6502365
0.033238206 0.37313184 -0.2614634 9.142408e-05 -0.4264202 0.2366567 0.08176949 0.17741585
0.18017057 0.15839045 -0.5941766 -0.095833965 -0.21306987 0.18609418 -0.10729223 -0.38290572
-0.09275601 0.16847332 -0.18535656 0.23989071 -0.24505188 0.2749888 -0.22093032 0.48735145
00000000: 9c40 c6be 1bf0 d23d eb51 afbe 3e05 e63e
00000010: 383f 603e 8689 2a3e dcd7 a83d 2a0e a8bd
00000020: 745e 21bc a19f 19be bc00 c3bd 84d9 9cbd
00000030: 3797 d4bd 6f29 d33e c210 8f3e 360e b4be
00000040: 07cb 693e 6ae0 b43d acb0 813e 06dd ceb7
00000050: 6250 2cbf 25a5 9c3e e79d ba3e ea7f 16be
00000060: 5318 803e a7e8 683e 2bfc 83be 8aaa c23e
00000070: 78e6 9f3e 5c83 803d db00 c83e 1abd fdbe
00000080: 72f5 7fbe 3434 cfbd 4dc2 293f 66bf 28be
00000090: 2427 c43d 0f78 043f 3c8d aa3d ede2 2dbd
000000a0: f34b 553e 6b05 d43e 5c69 7e3e 51d2 cbbd
000000b0: b8bf 4b3c 11f8 79be 1bb1 afbe 1c11 cd3e
000000c0: 84fb 4a3c 0877 143f 184a 8e3e 1a08 ddbe
000000d0: bdab 66bd 3cc2 973e a4d1 233e e42c 203d
000000e0: a07f bebe c983 0ebf 2eff 4dbe 33f9 523e
000000f0: 6d30 cbbe b945 88be 0797 babe 1364 2bbf
00000100: a252 993e d155 573c 9da8 90bd 1472 1b3c
00000110: d5ce ebbb cd79 57be 31df 5bbe f004 893e
00000120: a344 0a3f a1e9 b0be 1dc1 b03c bd27 fb3e
00000130: 5c7b 4abe be72 b83d 9f37 6e3e 7df7 eebc
00000140: 71b8 2a3e b1ed d93e dc4c 27be d146 ccbc
00000150: 13ee 8cbd b56c 493e d863 cd3e 9237 a53e
00000160: a449 88be 57b1 793e 1fb2 c1be 8349 d83d
00000170: 85af c8bd 49f5 e23e 71c9 c93d 74c5 a53d
00000180: bfd3 a4bd 236b 19be 9aee 733d 23a8 b93e
00000190: 3ab6 89be 6c8e 923d 22e1 87be dcab a5bd
000001a0: 3f9e e13b 8616 7dbe 5a73 ed3b e690 8bbd
000001b0: a038 a53e e0d6 8dbe d0f6 663f fd2a 223e
000001c0: c748 963e 4cb2 00bf 2bc0 07bc 2fa2 d63e
000001d0: 49bd febd 148c 7a3e b6bc d2bc d6e1 18bf
000001e0: dfce cb3e abf4 983e a0ec 16be c439 5a3e
000001f0: 0500 18bd 226a 1f3f 4b3e 1d3d 9e3c 84be
00000200: f849 9b3d f98d 1b3f 29fd e7be 251c cabe
00000210: 72d0 f1be f929 bb3c b34d 1e3d cbd3 8b3d
00000220: 9e72 f13e 0305 dd3e a661 e73c 08d1 c23e
00000230: 5a1c 593e b381 a53e 4bf6 483e 795a f03e
00000240: 0563 0c3d 3c2f f33e 15ed 37bd 3d5b 0cbd
00000250: f378 aa3d 812e 9ebe 8113 efbc 07f4 273e
00000260: 9ac6 3c3c 68a0 9f3e 852c 18bc 88ed 74be
00000270: 374f dbbe deca a2be 08d8 d43e 9096 90be
00000280: ec2c a7bd b4eb 35bf cf59 f6bd e4c3 083f
00000290: f26d 0b3f 07ed 9abe 8f9f 433d e43e f0be
000002a0: fcba 15be 68c4 26bf 24c9 e53c e952 f83e
000002b0: e1e5 46be 72c5 033e fb14 92be 3c5c bcbe
000002c0: 664f ee3e f350 a83d 156d 93be 1e1c 96be
000002d0: b353 623e cf1a b139 4567 8dbe 3395 69bc
000002e0: 3bd4 4ebf f8ee 0a3c 663b 4c3e 9e0d e1bd
000002f0: e587 80be 6707 073f a9af 0f3f 50c1 073d
00000300: cb78 99bb 653f dc3b 3395 033f ae00 7ebe
00000310: 6d28 c83e 81a7 f6bd 1791 6a3e db64 843e
00000320: 4529 163d 7ec5 c1bc 1cc4 6fbe ffef bebe
00000330: 0e1e 9f3e 113c c2be 0dfe c63d 438a 003e
00000340: 759a 183e 3eaa 09bd 35ed adbe 9408 8e3e
00000350: 1259 0cbf a8b8 bf3d abd8 ee3d 6a81 963e
00000360: 4538 a33e e1e4 a5be 8a98 b8bd 1688 b1be
00000370: f43b 993e c361 10be 711f 913d cc89 323e
00000380: bedb 84be 64f0 0abe e389 e93d f4d0 8dbe
00000390: bd67 333f 65f2 a3be f4e2 afbe e675 26bf
000003a0: c924 083d 230b bf3e 88de 85be eeba bf38
000003b0: c053 dabe 2256 723e c376 a73d 80ac 353e
000003c0: a27e 383e 1b31 223e f51b 18bf 9944 c4bd
000003d0: fd2e 5abe 798f 3e3e 07bc dbbd 380c c4be
000003e0: ddf6 bdbd 4584 2c3e 1cce 3dbe e9a5 753e
000003f0: e1ee 7abe 55cb 8c3e 8f3b 62be 2186 f93e

network_body._body_endoder.seq_layers.0.bias f4 [128]
0.14352198 0.12803109 0.03608689 0.17436904 0.103970036 0.11161287 0.011656941 -0.06278885
0.03573076 0.102068745 -0.16054666 -0.14731734 0.048076954 0.12017601 0.075193554 -0.09803087
-0.034539495 0.028877104 -0.026230427 0.13362156 0.06304072 0.03916687 0.12089666 0.019859914
0.093325794 0.14722145 0.09787101 0.15800753 0.13539061 0.013984716 -0.07594012 -0.025472073
-0.05340353 0.04960855 0.0409306 0.027725678 0.17445174 0.06676513 0.06445115 0.0046285396
0.13666724 -0.03954466 0.10214948 -0.057966493 -0.05113915 0.10144733 0.0826991 0.19043085
-0.091674946 -0.03377394 0.12010031 -0.030353535 0.09852298 0.11452275 0.1691746 0.114555456
0.08409362 0.02766405 -0.15514037 -0.20319009 0.026015325 0.16776295 0.07808462 0.03503778
0.03589485 -0.122898586 0.1663514 -0.016425952 0.08459368 0.15383083 0.1643726 0.12238668
0.075749 -0.027068568 0.063651554 0.099335216 0.1534286 0.07374351 0.13057052 0.050340414
0.090815455 0.028000856 0.20137781 0.071830794 0.08312559 -0.039571397 0.11919845 0.13707438
0.11192259 0.08814353 0.16664377 0.08605768 -0.08499105 0.0075492244 -0.017358972 -0.06509242
0.054237843 0.03939827 0.06970831 -0.066555806 0.05745716 0.1559452 0.06738003 0.1456608
-0.031649582 0.017880796 0.003868638 0.15250896 -0.09950243 0.17373215 -0.09501119 0.120766565
-0.02641018 0.013658039 0.1707594 0.12936541 -0.10592698 -0.00032722132 0.08342121 0.099591985
0.1810335 0.05401895 0.20937757 0.0866107 0.13712771 -0.06552823 0.10066831 0.065213904
00000000: 6df7 123e 951a 033e d9cf 133d cc8d 323e
00000010: 3eee d43d 4a95 e43d c1fc 3e3c 7197 80bd
00000020: 6b5a 123d 6b09 d13d 5866 24be 5bda 16be
00000030: 57ec 443d d71e f63d 14ff 993d 69c4 c8bd
00000040: 4979 0dbd ad8f ec3c 31e1 d6bc 17d4 083e
00000050: 7e1b 813d 716d 203d ab98 f73d 42b1 a23c
00000060: 9821 bf3d 38c1 163e 9970 c83d bacc 213e
00000070: d6a3 0a3e 2620 653c 7e86 9bbd cfaa d0bc
00000080: a9bd 5abd 5632 4b3d d8a6 273d f620 e33c
00000090: 7aa3 323e 28bc 883d f7fe 833d 01ab 973b
000000a0: 7ff2 0b3e 95f9 21bd bf33 d13d 466e 6dbd
000000b0: 4977 51bd 9ec3 cf3d 255e a93d 4e00 433e
000000c0: 13c0 bbbd 8b56 0abd 27f7 f53d faa7 f8bc
000000d0: 6bc6 c93d e78a ea3d 1b3c 2d3e 0d9c ea3d
000000e0: 4739 ac3d b89f e23c 1edd 1ebe 1011 50be
000000f0: 171e d53c 0dca 2b3e d4ea 9f3d c683 0f3d
00000100: 7a06 133d 41b2 fbbd 0558 2a3e b88f 86bc
00000110: 743f ad3d d485 1d3e 4a51 283e dea5 fa3d
00000120: 4b22 9b3d e7be ddbc bf5b 823d 4370 cb3d
00000130: 631c 1d3e d606 973d 47b4 053e c031 4e3d
00000140: 74fd b93d 0d62 e53c fc35 4e3e 061c 933d
00000150: c03d aa3d 9e15 22bd 511e f43d 3a5d 0c3e
00000160: ac37 e53d 9884 b43d aaa4 2a3e 023f b03d
00000170: ca0f aebd 7c5f f73b 6734 8ebc 2d4f 85bd
00000180: 8028 5e3d 1560 213d 3bc3 8e3d 694e 88bd
00000190: 3358 6b3d 19b0 1f3e 8bfe 893d 1b28 153e
000001a0: fea2 01bd bf7a 923c fa88 7d3b 4f2b 1c3e
000001b0: eec7 cbbd d7e6 313e 3a95 c2bd 7654 f73d
000001c0: 295a d8bc f8c5 5f3c 8ddb 2e3e 5e78 043e
000001d0: 3ff0 d8bd e78e abb9 bdd8 aa3d e2f6 cb3d
000001e0: d960 393e f942 5d3d 1367 563e f360 b13d
000001f0: 356b 0c3e aa33 86bd 302b ce3d de8e 853d

network_body._body_endoder.seq_layers.2.weight f4 [128, 128]
0.031174878 -0.13345121 0.011477604 -0.04922031 -0.16315234 -0.060583107 -0.09798851 0.027609838
-0.07539026 -0.0761036 0.12211157 0.0205321 0.016784156 -0.11304648 0.05345863 0.097793914
0.0051670466 -0.049287286 -0.027652798 0.026157573 0.03884399 0.06519357 -0.13587913 0.021148065
-0.072771065 0.045822244 0.063295074 -0.13776168 -0.085644096 -0.04348472 0.065000966 0.22943184
-0.07079974 -0.1766448 0.08886864 -0.04016582 0.042630035 0.23394771 -0.015875468 0.07284456
0.021440476 -0.009493173 -0.04295776 0.051554922 0.041764416 -0.03084599 -0.042966597 0.021850519
-0.036289573 0.07112727 0.032761134 -0.08628496 0.12877268 0.03771464 -0.01584674 -0.11867609
0.0064535127 -0.035461802 -0.061666418 0.07932024 -0.0038259604 0.1479838 -0.0132676205 0.07008358
-0.11244012 -0.026132511 -0.11860085 -0.032798897 -0.2017469 0.1060928 -0.047369834 -0.10451507
-0.13122429 -0.064845234 0.08333749 -0.05146935 -0.074577644 0.14875937 0.048128832 0.066646926
0.043738704 -0.04395677 -0.047645222 0.008958452 0.06079942 -0.032388166 -0.01771469 0.013539419
0.0061182776 -0.12048642 -0.11290729 -0.037320152 0.112629704 0.041733325 -0.049623843 -0.05967911
0.11221225 0.095686935 -0.25945926 0.09906109 -0.1120774 0.062388156 0.028510937 -0.15318947
0.17621604 0.05406673 0.019777494 -0.03326597 0.032266468 -0.036527313 0.04343255 -0.069234885
-0.10630078 -0.026183259 0.09617261 -0.052059304 -0.025514804 0.054930095 0.10486934 -0.076426424
-0.037886735 -0.21116042 -0.057997767 -0.14586608 -0.11468246 -0.042628065 0.122954234 -0.05546204
0.044679947 -0.23595555 -0.056401838 -0.14827573 -0.090544306 -0.05212771 -0.057812285 0.1621328
-0.039852694 0.0528205 -0.046072964 -0.081706315 0.07029841 -0.11004621 -0.13357101 0.18868457
0.034898892 0.026465338 0.045019273 -0.0026775396 0.02793452 -0.106191315 0.019378448 -0.17491914
-0.037821323 -0.073544495 -0.06891878 0.036997173 -0.06457451 -0.036439493 0.07832858 -0.20481803
0.12140597 -0.036583874 0.07184926 -0.04038152 -0.1567148 -0.06197483 -0.07372678 -0.042714447
0.012877111 0.037779313 0.02915844 0.01785869 0.018461866 -0.11877912 -0.10285735 0.0066177356
-0.064592384 -0.11472004 0.07755835 0.043932386 0.00832226 0.11981865 0.089357145 -0.1363908
-0.12192187 -0.07141503 0.11293575 -0.021407826 0.029976597 -0.10476559 -0.014784214 0.10527167
-0.0018882371 -0.1218104 0.15126817 -0.07323441 -0.00585861 -0.17250714 -0.020467715 -0.01114677
0.13888188 0.16419639 0.066103995 0.12649326 -0.00821192 -0.047970816 -0.19785292 0.06367462
-0.07929256 -0.07577128 0.00621046 0.1175343 0.08580347 -0.08964343 0.03575779 -0.2627872
-0.09024179 -0.19028704 -0.09617355 -0.107210025 0.14649588 0.1120385 0.051426448 0.045826223
-0.065399 -0.18565027 -0.12476357 0.057107687 -0.010571249 -0.058049303 -0.101514965 -0.12675186
0.08802901 -0.02964414 0.086957954 -0.07223889 0.038032264 -0.0036669015 -0.18726465 -0.10815082
-0.1911009 -0.03398428 -0.058769897 -0.03304365 -0.08849891 0.109706715 0.11421136 -0.07519308
-0.17008327 -0.0071522905 -0.120473966 -0.05640807 0.013448041 -0.03216012 -0.088433586 0.05813672
00000000: 7562 ff3c 6fa7 08be 8f0c 3c3c 3c9b 49bd
00000010: 6811 27be fe25 78bd 33ae c8bd 072e e23c
00000020: 3566 9abd 34dc 9bbd a115 fa3d ef32 a83c
00000030: ed7e 893c ea84 e7bd 70f7 5a3d 2d48 c83d
00000040: 5450 a93b 77e1 49bd 1f88 e2bc 6848 d63c
00000050: e01a 1f3d 3584 853d e623 0bbe b53e ad3c
00000060: ff08 95bd 1bb0 3b3d d9a0 813d 6611 0dbe
00000070: 2c66 afbd 091d 32bd 3a1f 853d 2ef0 6a3e
00000080: 74ff 90bd 60e2 34be c300 b63d ea84 24bd
00000090: d59c 2e3d fd8f 6f3e 450d 82bc 872f 953d
000000a0: f0a3 af3c 4189 1bbc 7af4 2fbd 412b 533d
000000b0: 2a11 2b3d bbb0 fcbc befd 2fbd dcff b23c
000000c0: 60a4 14bd 2dab 913d 8a30 063d 2bb6 b0bd
000000d0: fcdc 033e ab7a 1a3d 06d1 81bc 730c f3bd
000000e0: fd77 d33b 6540 11bd ed95 7cbd a672 a23d
000000f0: f7bc 7abb 1189 173e 6f60 59bc fb87 8f3d
00000100: 0147 e6bd d913 d6bc 01e5 f2bd 2358 06bd
00000110: bd96 4ebe 2f47 d93d df06 42bd ff0b d6bd
00000120: a95f 06be 94cd 84bd d9ac aa3d 86d1 52bd
00000130: 2abc 98bd 6054 183e bd22 453d 2f7e 883d
00000140: 5b27 333d 040c 34bd a327 43bd 79c6 123c
00000150: d008 793d 74a9 04bd 661e 91bc 70d4 5d3c
00000160: d57b c83b 96c1 f6bd f03b e7bd 04dd 18bd
00000170: 67aa e63d 90f0 2a3d 5f42 4bbd 1572 74bd
00000180: 89cf e53d 83f7 c33d d8d7 84be 8ae0 ca3d
00000190: d688 e5bd b98a 7f3d c58f e93c b3dd 1cbe
000001a0: fa71 343e 1375 5d3d 6904 a23c e641 08bd
000001b0: d829 043d aa9d 15bd 54e6 313d 05cb 8dbd
000001c0: 39b4 d9bd 467e d6bc 25f6 c43d 233c 55bd
000001d0: 6c04 d1bc 61fe 603d bdc5 d63d 7585 9cbd
000001e0: 1f2f 1bbd 703a 58be 118f 6dbd eb5d 15be
000001f0: a3de eabd c49a 2ebd 6ecf fb3d 2a2c 63bd
00000200: 5202 373d 559e 71be 9d05 67bd 98d5 17be
00000210: 4b6f b9bd de83 55bd 93cc 6cbd 2406 263e
00000220: 943c 23bd 4f5a 583d 01b7 3cbd a455 a7bd
00000230: 9df8 8f3d e85f e1bd d7c6 08be 8736 413e
00000240: 24f2 0e3d d6cd d83c 2166 383d a979 2fbb
00000250: efd6 e43c d57a d9bd 8dbf 9e3c 011e 33be
00000260: 88ea 1abd 7f9e 96bd 4a25 8dbd 598a 173d
00000270: a43f 84bd 9441 15bd bc6a a03d d1bb 51be
00000280: b1a3 f83d f9d8 15bd b425 933d 1867 25bd
00000290: d879 20be 52d9 7dbd 11fe 96bd 58f5 2ebd
000002a0: 85fa 523c 7bbe 1a3d aedd ee3c 634c 923c
000002b0: 573d 973c 7842 f3bd e0a6 d2bd 97d9 d83b
000002c0: 0349 84bd 57f2 eabd ead6 9e3d 72f2 333d
000002d0: 175a 083c 7b63 f53d e100 b73d 08aa 0bbe
000002e0: 2cb2 f9bd 0b42 92bd dc4a e73d 775f afbc
000002f0: 7b91 f53c 578f d6bd 7d39 72bc ac98 d73d
00000300: b97e f7ba bb77 f9bd 0be6 1a3e ecfb 95bd
00000310: 95f9 bfbb b6a5 30be e9ab a7bc f1a0 36bc
00000320: 0d37 0e3e 1923 283e 8861 873d 7387 013e
00000330: 4a8b 06bc 0c7d 44bd f599 4abe d767 823d
00000340: 2364 a2bd f92d 9bbd 1d81 cb3b d3b5 f03d
00000350: bbb9 af3d fa96 b7bd c376 123d 0b8c 86be
00000360: b0d0 b8bd 9bda 42be a3f6 c4bd ee90 dbbd
00000370: 0403 163e 7174 e53d 8aa4 523d 47b4 3b3d
00000380: e9ef 85bd 1b1b 3ebe 0b84 ffbd c0e9 693d
00000390: 0833 2dbc 1bc5 6dbd 14e7 cfbd 3dcb 01be
000003a0: 8e48 b43d 44d8 f2bc 0317 b23d fcf1 93bd
000003b0: b8c7 1b3d 6650 70bb 4ec2 3fbe 2d7e ddbd
000003c0: f4af 43be 1a33 0bbd b4b8 70bd c758 07bd
000003d0: eb3e b5bd eaad e03d a5e7 e93d d4fe 99bd
000003e0: 4f2a 2ebe c35d eabb 0ebb f6bd 260c 67bd
000003f0: 2c55 5c3c 54ba 03bd ab1c b5bd c520 6e3d

network_body._body_endoder.seq_layers.2.bias f4 [128]
-0.1300426 -0.14124449 0.10191381 -0.12698376 0.1278982 0.065947846 -0.083344616 0.036717363
0.041941393 0.10240537 0.15370679 0.08273372 0.059779976 -0.029301267 0.10236368 0.13624518
0.034837935 -0.08957264 0.05976072 0.053037066 0.045676082 -0.051132485 -0.040569898 0.020492002
0.11408586 -0.07053501 0.040726263 0.10633273 0.025821315 0.10207151 -0.17504981 0.08722057
0.13125302 0.089482374 0.011011957 -0.14712824 0.13229607 -0.005767456 -0.09973871 -0.1880958
-0.05451279 0.047111463 0.099445954 -0.10571344 -0.082763225 -0.17795545 0.11101285 -0.08047936
-0.043119095 0.062936455 0.12269541 0.059398867 0.12433925 0.07372564 -0.01577559 0.0029186173
0.12598892 0.08756131 0.07499494 0.104004495 -0.11896 -0.18232837 -0.14764464 -0.14482814
-0.17910102 -0.15663706 0.055021264 0.07142554 0.11102395 0.08955868 0.06494888 0.09199857
0.095923945 -0.16071682 0.09385401 -0.13902014 -0.15834036 0.053454 0.06041161 0.00024736676
0.111437775 0.013526644 -0.17427798 0.090098634 0.07342677 0.10961304 0.056655444 0.027998414
0.09758937 0.08987174 0.06955718 -0.13379511 0.069745034 0.03157486 -0.0023677202 -0.026609993
-0.1309266 0.10153715 0.099001095 -0.04527648 -0.010181644 0.12773795 0.116286635 0.13065095
0.02312441 0.09994049 0.09484194 -0.1052324 0.12593892 -0.030838367 -0.07012903 0.109424934
-0.13531107 0.010203424 0.041841015 0.006559289 0.08843364 0.08397921 0.03281104 -0.12736733
-0.15330572 -0.1557975 0.059986044 -0.12080582 0.1265221 -0.14000753 -0.02745925 -0.09009809
00000000: e329 05be 65a2 10be 30b8 d03d 0808 02be
00000010: bff7 023e aa0f 873d 95b0 aabd f264 163d
00000020: bdca 2b3d e8b9 d13d 5065 1d3e 4c70 a93d
00000030: d9db 743d 3609 f0bc 0da4 d13d db83 0b3e
00000040: 39b2 0e3d dc71 b7bd a8c7 743d 653d 593d
00000050: d816 3b3d 4c70 51bd 9f2c 26bd d8de a73c
00000060: d9a5 e93d a974 90bd 95d0 263d f9c4 d93d
00000070: 3987 d33c de0a d13d 4240 33be b3a0 b23d
00000080: 3167 063e 8942 b73d 7f6b 343c c9a8 16be
00000090: 9f78 073e edfc bcbb cf43 ccbd 2f9c 40be
000000a0: ce48 5fbd f3f7 403d 52aa cb3d 4a80 d8bd
000000b0: c47f a9bd f439 36be b55a e33d 5dd2 a4bd
000000c0: a69d 30bd d4e4 803d bb47 fb3d 3a4c 733d
000000d0: 94a5 fe3d 78fd 963d cf3b 81bc 4646 3f3b
000000e0: 3d03 013e 5853 b33d f296 993d 4f00 d53d
000000f0: 4da1 f3bd 4ab4 3abe 2830 17be d44d 14be
00000100: 4266 37be 7765 20be fa5d 613d 8e47 923d
00000110: 8660 e33d 8b6a b73d eb03 853d bf69 bc3d
00000120: c673 c43d f392 24be 8836 c03d 4c5b 0ebe
00000130: fa23 22be 95f2 5a3d 2a72 773d 01b1 8139
00000140: 7d39 e43d db9e 5d3c ed75 32be a285 b83d
00000150: c660 963d cd7c e03d 8a0f 683d ee5c e53c
00000160: f0dc c73d ad0e b83d ff73 8e3d 9601 09be
00000170: 7cd6 8e3d a454 013d c12b 1bbb 33fd d9bc
00000180: 9f11 06be b6f2 cf3d 16c1 ca3d d573 39bd
00000190: e9d0 26bc bdcd 023e b027 ee3d 5dc9 053e
000001a0: 676f bd3c 9aad cc3d 7e3c c23d 1684 d7bd
000001b0: 22f6 003e bea0 fcbc cf9f 8fbd 2e1a e03d
000001c0: fc8e 0abe 432c 273c 7c61 2b3d 4eef d63b
000001d0: b21c b53d 4bfd ab3d de64 063d 956c 02be
000001e0: 2dfc 1cbe 6189 1fbe edb3 753d 0b69 f7bd
000001f0: 028f 013e 225e 0fbe 39f2 e0bc 5985 b8bd

action_model._continuous_distribution.log_sigma f4 [1, 3]
-0.048790812 -0.24938753 -0.07296748
00000000: e0d8 47bd 725f 7fbe f96f 95bd

action_model._continuous_distribution.mu.weight f4 [3, 128]
0.03538278 0.022772849 0.02182147 0.0010721255 0.09295221 -0.041516077 0.03563813 0.028268984
-0.03096744 -0.0029785254 -0.09918563 0.06808461 0.011179006 0.012243833 0.06276536 -0.08459959
-0.019623904 0.032693636 0.1494754 -0.006196304 0.047230538 -0.03099176 0.04976976 -0.08314608
0.014200548 0.057007834 0.06681871 -0.039807547 -0.025869144 -0.11525412 0.023325339 0.0042130593
0.09689768 0.045179114 0.08330485 0.04401776 -0.09671746 0.10806476 -0.024547063 -0.006654105
-0.0013386554 -0.0032370382 -0.04612963 0.013051087 -0.028583692 0.041710854 -0.0724149 0.049339194
0.15859579 0.06324631 0.09835229 -0.07514873 -0.033170998 -0.03360258 0.03822721 0.030384595
0.00032948714 0.052704677 0.076605886 0.011257886 0.0077633183 0.056031935 0.0070004743 -0.0018597022
0.049850654 0.028448422 -0.058466814 0.01138376 0.05486378 0.08035198 -0.06037626 0.0071178554
-0.06943975 0.052447453 -0.0620354 0.02402056 -0.0050951354 0.16517869 0.026808532 -0.012376026
-0.064810604 0.2602419 0.035644684 -0.026070626 -0.07168007 0.043825865 0.018081386 -0.025860742
0.07859596 -0.04605373 -0.05092875 0.01441464 0.0817388 -0.044384822 0.0991154 0.0077336645
0.03606636 -0.07874266 -0.002671769 0.08171275 -0.061300866 -0.02370917 0.06690374 0.050674785
-0.118311524 -0.13386163 0.00018669297 -0.00869378 -0.023891406 0.053078618 0.047211524 -0.08483782
0.012976979 0.074239306 0.054287322 0.061324336 -0.04980841 -0.062066652 -0.13305725 0.053651284
0.04454962 0.03871138 0.17550336 0.016326128 0.0034179224 0.0064396802 -0.020650016 0.03557406
0.044602882 0.07259988 -0.05249142 0.06212078 -0.07935189 -0.019799137 0.059583712 -0.022567881
-0.009836175 -0.053539384 -0.06898651 -0.050748497 -0.045910876 0.010324861 -0.045328464 -0.0414527
-0.0031352502 0.06787985 -0.027381295 -0.012413962 -0.01130506 0.07477156 0.03406848 -0.010898457
-0.016395 0.100651495 -0.028268702 -0.054682367 0.008904236 -0.042977326 0.1442957 -0.029854435
-0.12375485 -0.037110623 0.001365868 0.07296631 -0.0317041 0.019843059 0.07019833 0.15314384
0.020245435 -0.027453626 -0.028960275 0.07568915 0.031215416 0.106516056 -0.06014997 0.05039271
0.06194841 -0.0049019996 -0.051618658 0.0068538156 -0.055556156 -0.012795767 0.057344653 -0.01032303
-0.06716768 -0.04478239 -0.036441185 -0.05813703 0.07245763 0.09818989 0.14536268 0.089300506
0.10677376 0.11711759 -0.014386781 -0.027048122 -0.042867176 -0.057427905 -0.0076253144 -0.0406923
-0.0527396 0.07750261 -0.052005004 0.08172618 0.14345834 0.009506228 -0.04299744 0.0068807215
-0.08747609 0.014209984 0.11105183 -0.08770795 -0.050611626 -0.08635243 -0.033389363 -0.009751422
-0.059289444 -0.031067405 -0.031543575 0.089178905 0.021261109 -0.007713108 -0.00119345 0.043404713
0.13581677 -0.03525733 -0.04388667 0.047991112 0.051398207 -0.061373364 -0.0721891 -0.03252748
0.016740158 0.0015316535 -0.058807906 0.09171138 -0.06290476 0.031664763 0.04236264 -0.031327266
0.053207066 0.0011794072 -0.034634404 0.011043863 -0.0142119145 -0.032245733 0.04224647 0.07340608
0.09654026 0.11788261 0.007888041 0.1309457 -0.06425264 0.17750345 0.030092891 0.04571029
00000000: 89ed 103d 208e ba3c f1c2 b23c 9086 8c3a
00000010: ba5d be3d c30c 2abd 4af9 113d 5b94 e73c
00000020: 6eaf fdbc 5d33 43bb d621 cbbd f26f 8b3d
00000030: 2628 373c 5c9a 483c 208b 803d 8d42 adbd
00000040: 4fc2 a0bc c3e9 053d 1410 193e 5e0a cbbb
00000050: cf74 413d 6ee2 fdbc 60db 4b3d 7e48 aabd
00000060: 6aa9 683c 0c81 693d 3fd8 883d 3d0d 23bd
00000070: 87eb d3bc 5a0a ecbd c814 bf3c b40d 8a3b
00000080: 4a72 c63d bc0d 393d bc9b aa3d f74b 343d
00000090: ce13 c6bd 0f51 dd3d ec16 c9bc ae0a dabb
000000a0: d275 afba 7d24 54bb 6cf2 3cbd 3ad4 553c
000000b0: 5928 eabc 00d9 2a3d 434e 94bd e517 4a3d
000000c0: ef66 223e 4887 813d ed6c c93d 94e7 99bd
000000d0: 50de 07bd dca2 09bd 2394 1c3d 1de9 f83c
000000e0: 04bf ac39 dce0 573d 8ce3 9c3d ff72 383c
000000f0: 6f63 fe3b be81 653d 3c64 e53b 40c1 f3ba
00000100: 3330 4c3d aa0c e93c e67a 6fbd f382 3a3c
00000110: d8b8 603d 948f a43d 194d 77bd e63c e93b
00000120: 6d36 8ebd 24d3 563d d518 7ebd c4c6 c43c
00000130: 18f5 a6bb 9a24 293e 919d db3c d1c4 4abc
00000140: 6cbb 84bd 6d3e 853e 2900 123d 1192 d5bc
00000150: 00cd 92bd c082 333d 6a1f 943c e8d9 d3bc
00000160: ebf6 a03d d6a2 3cbd aa9a 50bd 622b 6c3c
00000170: ac66 a73d dccc 35bd 04fd ca3d ae6a fd3b
00000180: 52ba 133d d543 a1bd d818 2fbb 0459 a73d
00000190: 9e16 7bbd bc39 c2bc d404 893d 5d90 4f3d
000001a0: 504d f2bd 0613 09be 03c3 4339 5b70 0ebc
000001b0: e9b7 c3bc f768 593d df60 413d 73bf adbd
000001c0: 659d 543c c70a 983d 625c 5e3d 3a2f 7b3d
000001d0: e703 4cbd 9a39 7ebd 2940 08be 73c1 5b3d
000001e0: aa79 363d d38f 1e3d 27b7 333e 5fbe 853c
000001f0: 39ff 5f3b f403 d33b 392a a9bc 1bb6 113d
00000200: 83b1 363d 3faf 943d 3e01 57bd 5c72 7e3d
00000210: 3e83 a2bd cd31 a2bc 0d0e 743d 47e0 b8bc
00000220: e827 21bc 1d4c 5bbd cd48 8dbd a8dd 4fbd
00000230: 0b0d 3cbd 9b29 293c 57aa 39bd 4eca 29bd
00000240: c578 4dbb 9704 8b3d bd4e e0bc ee63 4bbc
00000250: dc38 39bc d521 993d 648b 0b3d 718f 32bc
00000260: cf4e 86bc 5f22 ce3d c493 e7bc 9efa 5fbd
00000270: 13e3 113c fe08 30bd 41c2 133e 4a91 f4bc
00000280: 2f73 fdbd 4f01 18bd ed06 b33a 5c6f 953d
00000290: 29dc 01bd e98d a23c 24c4 8f3d bdd1 1c3e
000002a0: c1d9 a53c 6de6 e0bc 193e edbc ea02 9b3d
000002b0: 79b7 ff3c 1725 da3d d15f 76bd 9668 4e3d
000002c0: 9ebd 7d3d f4a0 a0bb 166e 53bd f995 e03b
000002d0: da8e 63bd 56a5 51bc 3ae2 6a3d ed21 29bc
000002e0: 358f 89bd bd6d 37bd 5a43 15bd 1821 6ebd
000002f0: aa64 943d c817 c93d f4d9 143e 2fe3 b63d
00000300: 33ac da3d 59db ef3d 88b6 6bbc 0694 ddbc
00000310: 7e95 2fbd 8639 6bbd c6dd f9bb f8ac 26bd
00000320: 7b05 58bd b0b9 9e3d 3303 55bd 0e60 a73d
00000330: bee6 123e 03c0 1b3c 151e 30bd ad77 e13b
00000340: aa26 b3bd fed0 683c 246f e33d 3aa0 b3bd
00000350: 234e 4fbd 8bd9 b0bd 49c3 08bd 6ec4 1fbc
00000360: 7dd9 72bd 1281 febc d633 01bd 6ea3 b63d
00000370: c72b ae3c 3dbe fcbb 896d 9cba 24c9 313d
00000380: 8d13 0b3e fd69 10bd 82c2 33bd 5492 443d
00000390: ed86 523d a362 7bbd e1d7 93bd 893b 05bd
000003a0: a822 893c c3c1 c83a 8fe0 70bd 2dd3 bb3d
000003b0: 36d4 80bd e9b2 013d 7384 2d3d 0551 00bd
000003c0: a7ef 593d 5796 9a3a cedc 0dbd 52f1 343c
000003d0: 17d9 68bc 1a14 04bd a20a 2d3d ed55 963d
000003e0: e6b6 c53d 706c f13d d83c 013c a116 063e
000003f0: e396 83bd 77c3 353e 5e85 f63c b73a 3b3d

action_model._continuous_distribution.mu.bias f4 [3]
-0.02002032 -0.13014618 -0.009400801
00000000: a701 a4bc 0a45 05be d105 1abc

onnx::Div_51 f4 [12]
18.868374 19.029484 17.851675 23.040543 0.0034418784 23.551098 23.408863 0.0034418784
23.92171 19.212265 18.933046 0.0010884241
00000000: 6ef2 9641 623c 9841 3bd0 8e41 0853 b841
00000010: 2391 613b a668 bc41 5a45 bb41 2391 613b
00000020: a95f bf41 b8b2 9941 e176 9741 74a9 8e3a
