TWP_2/results/PnP13/RobotArm/RobotArm-2499848.onnx (onnx, 79646 bytes, 9 tensors)

network_body.observation_encoder.processors.0.normalizer.running_mean f4 [12]
0	0x3f063649	0.5242658
1	0x41aa54a4	21.291328
2	0xbe8c295c	-0.27375305
3	0x3f79028a	0.972695
4	0x409a3e86	4.8201323
5	0xbc6c730e	-0.014431728
6	0xbda68958	-0.08131665
7	0x40466608	3.0999775
8	0x3e87e81a	0.26544267
9	0x4194dd56	18.608074
10	0x421bf6a3	38.990856
11	0x3f0df6f5	0.5545495

network_body._body_endoder.seq_layers.0.weight f4 [128, 12]
0	0x3ca695b8	0.020335063
1	0xbe8b0d55	-0.2715861
2	0xbead3801	-0.3383179
3	0xbd3d028f	-0.04614502
4	0xbf6ee91f	-0.93324465
5	0x3ce27148	0.027641907
6	0xbe4b3003	-0.19842534
7	0xbe87c2d3	-0.26515827
8	0xbd8b1648	-0.06791359
9	0x3dd79e13	0.10528197
10	0x3eac0eaa	0.33604938
11	0x3ee2b8dc	0.44281662
12	0xbe843263	-0.25819692
13	0x3ef2722b	0.47352728
14	0x3e3cc86f	0.18435834
15	0x3f54fe0d	0.8320015
16	0x3e51fc46	0.20506391
17	0xbe3cae3b	-0.18425839
18	0xbdf42bb0	-0.11922395
19	0x3eebd174	0.46058238
20	0xbe67300a	-0.22576919
21	0xbc5f640c	-0.013634693
22	0x3f2b6eb8	0.6696582
23	0xbeae7d25	-0.34079853
24	0xbda23616	-0.07920472
25	0xbdb64190	-0.08899224
26	0x3dcd29e4	0.10017756
27	0x3cf3786a	0.029720504
28	0xbea2ca70	-0.31795073
29	0x3eb059d7	0.34443542
30	0xbd951b7d	-0.072806336
31	0xbee87f4b	-0.45409617
32	0x3cfc4f30	0.030799478
33	0x3eba510e	0.36389965
34	0x3e473cd5	0.194568
35	0xbea70f3f	-0.3262882
36	0xbe5314f5	-0.20613463
37	0xbe9247b6	-0.28570336
38	0xbc2bcd42	-0.010485949
39	0x3c61bc04	0.013777737
40	0x3ea5b50b	0.32364687
41	0x3eaa9793	0.33318767
42	0x3e107db6	0.14110455
43	0x3e724e6b	0.23662727
44	0xbd822c31	-0.06356085
45	0xbee6c77c	-0.4507407
46	0x3ee5b813	0.44867
47	0xbe6a9cdf	-0.22911404
48	0xbe98c2bd	-0.29836074
49	0x3e2f0ae5	0.17094
50	0xbe7669b1	-0.24063756
51	0x3e14c6ad	0.14528914
52	0x3e3f1739	0.18661202
53	0x3e3e1821	0.18563892
54	0x3dceccd5	0.10097662
55	0x3eb5ca0d	0.35505715
56	0xbe8a9c8d	-0.27072564
57	0xbd8c8da8	-0.06862956
58	0x3d1e49d7	0.038644638
59	0x3e6018d2	0.21884468
60	0x3da1ff91	0.079100735
61	0xbe7e12aa	-0.24811807
62	0xbe7f6d40	-0.2494402
63	0xbee2ef75	-0.44323316
64	0xbca1c8c3	-0.019749051
65	0xbec8cdd4	-0.39219534
66	0xbead5633	-0.33854827
67	0x3e2809ff	0.16410063
68	0x3e10526b	0.1409394
69	0x3f15abe6	0.5846542
70	0x3da2228d	0.07916746
71	0x3e71a57c	0.23598284
72	0x3e13ca98	0.14432752
73	0xbee1492f	-0.44001147
74	0x3f378197	0.71682113
75	0xbd8f038a	-0.06983097
76	0x3e39c214	0.18140441
77	0x3eda2e38	0.42613387
78	0x3f0eab49	0.5573011
79	0xbec2769d	-0.3798112
80	0xbd69b75b	-0.057059627
81	0xbed0ae0c	-0.40757787
82	0x3efa6100	0.4890213
83	0x3e430ff4	0.19049054
84	0xbe47d046	-0.19513044
85	0x3f155528	0.58333063
86	0x3e3016d5	0.1719621
87	0xbd1f1b12	-0.038844176
88	0x3e502a2d	0.20328589
89	0xba32096e	-0.0006791566
90	0x3ef43b0d	0.47701302
91	0xbd4e12d6	-0.050310932
92	0xbe946ab2	-0.28987652
93	0xbf1ae911	-0.6051188
94	0x3e560cd9	0.20903338
95	0xbe8fce3a	-0.28087026
96	0x3e87ddf9	0.2653654
97	0x3f1c09f2	0.60952675
98	0x3edec6ac	0.4351095
99	0x3ed863fe	0.42263788
100	0x3d5bc27c	0.05365227
101	0x3dee2dbc	0.11629817
102	0x3e5cd95f	0.21567295
103	0xbd50f173	-0.051011514
104	0x3db3f970	0.08787811
105	0xbc67393f	-0.01411277
106	0x3e81a146	0.25318354
107	0xbe2f34b4	-0.17109948
108	0x3e572273	0.21009235
109	0x3dcdf073	0.10055628
110	0x3d9ae3d7	0.07562988
111	0xbeeb969a	-0.46013337
112	0xbeb8d61a	-0.36100847
113	0x3ddcee86	0.10787682
114	0x3e3a9bf1	0.1822355
115	0xbeeb2810	-0.45929003
116	0xbe1c18bb	-0.15243809
117	0x3e0c63ae	0.137099
118	0xbe4fff45	-0.20312221
119	0xbe9df9b7	-0.3085458
120	0xbf1e25a9	-0.61776215
121	0x3f16c866	0.58899534
122	0x3e58bc6d	0.21165629
123	0x3e7943a7	0.24342214
124	0x3ea6a774	0.32549632
125	0xbdb0bac4	-0.08629373
126	0xbe310ad3	-0.17289285
127	0xbcc9c0af	-0.024628012
128	0x3f130851	0.57434565
129	0xbf0ae742	-0.5425912
130	0x3ec93f1f	0.3930597
131	0xbed86de2	-0.42271334
132	0xbe3c3499	-0.1837944
133	0x3e911752	0.28338104
134	0x3e4e3ccc	0.2014038
135	0xbeab936a	-0.33510906
136	0xbdd12f69	-0.10214121
137	0x3d5c4694	0.053778246
138	0xbebeb190	-0.37244844
139	0x3eeb6b63	0.45980367
140	0xbd6c0525	-0.057622094
141	0xbeb92c74	-0.36166728
142	0x3e7a2e30	0.24431682
143	0xbe43b40c	-0.19111651
144	0xbcc618db	-0.024181774
145	0x3e9073a7	0.28213236
146	0x3ee4a6e1	0.44658569
147	0x3e9ac134	0.30225527
148	0xbe93c36f	-0.28860041
149	0xbd800a32	-0.062519446
150	0xbd3b789d	-0.045769323
151	0xbe9fd71c	-0.31218803
152	0xbe23be8b	-0.15990655
153	0xbe9c1357	-0.30483505
154	0x3e94ea38	0.29084945
155	0xbf072e0d	-0.5280464
156	0xbe7f4af0	-0.2493093
157	0x3e4d7ffc	0.20068353
158	0xbdcb7ae3	-0.09935548
159	0xbddcbfbe	-0.107787594
160	0x3d74c7f8	0.059761018
161	0x3df13335	0.11777345
162	0xbe1c5098	-0.15265119
163	0x3d2ec48f	0.04266792
164	0xbd97ec14	-0.07418075
165	0x3f31800f	0.69336027
166	0x3ec82f04	0.3909837
167	0x3e98dd3a	0.29856282
168	0x3f23fde7	0.640593
169	0x3ec8a13d	0.39185515
170	0xbe1b2d24	-0.15153939
171	0x3e338f13	0.17535047
172	0xbd207aa6	-0.039179467
173	0xbf162d77	-0.58663124
174	0xbe4f134d	-0.20222206
175	0xbd10c4fc	-0.03534411
176	0xbe5a7308	-0.21332943
177	0xbe81060c	-0.25199926
178	0x3d6caf81	0.05778456
179	0xbeb4d536	-0.35318917
180	0x3d92a719	0.071607776
181	0x3e3f4cfb	0.1868171
182	0x3da82ec0	0.08212042
183	0x3f193a10	0.5985422
184	0xbd8e01f7	-0.069339685
185	0xbe30e118	-0.17273366
186	0x3e5d6c1c	0.21623272
187	0xbd94fedd	-0.07275174
188	0xbe066ba9	-0.13127007
189	0x3e96128d	0.29311028
190	0xbe9d3013	-0.3070074
191	0x3ddbef1f	0.10738968
192	0xbead1bcc	-0.3381027
193	0x3dc8324d	0.09775219
194	0x3e1da041	0.15393163
195	0x3df98f6e	0.1218556
196	0xbe46a386	-0.19398317
197	0xbf0ba2b5	-0.54545146
198	0x3d0283d7	0.031864014
199	0x3e5baea5	0.2145334
200	0x3df8afed	0.1214293
201	0x3e2de9e4	0.16983753
202	0x3d14030c	0.03613572
203	0x3d6d9156	0.05799993
204	0x3e854ddc	0.26035964
205	0xbe70bbe6	-0.23509178
206	0xbeaf25a4	-0.34208405
207	0x3aef04f3	0.0018235728
208	0x3e8b3e87	0.27196142
209	0xbddc7101	-0.10763741
210	0xbedc6d97	-0.4305236
211	0x3e36a556	0.17836508
212	0xbdc3c063	-0.09558179
213	0xbf740534	-0.9532044
214	0xbd897ed6	-0.06713645
215	0x3ec05d4d	0.37571183
216	0x3de803e6	0.113288686
217	0x3ea4d432	0.32193142
218	0x3e3fea46	0.18741712
219	0x3d9e8dbf	0.0774188
220	0x3b9cdabb	0.004786817
221	0xbd516760	-0.051123977
222	0xbede87bd	-0.43462935
223	0x3e72f141	0.23724844
224	0xbd69e6e6	-0.057104968
225	0xbeb51df9	-0.3537443
226	0xbe639935	-0.22226413
227	0xbe200f8c	-0.1563093
228	0x3e01d19c	0.12677616
229	0xbe312a76	-0.17301354
230	0xbf2fd940	-0.6869087
231	0x3e1af13b	0.15131085
232	0x3cc7bf9d	0.02438336
233	0x3d8d6a87	0.06905084
234	0xbe917727	-0.2841122
235	0x3e368d17	0.17827259
236	0x3e316967	0.17325364
237	0xbe92491c	-0.28571403
238	0xbf1c4c15	-0.6105359
239	0xbefe5ac6	-0.4967863
240	0x3d5bba50	0.05364448
241	0x3e5d0b2f	0.21586297
242	0xbe5b8e9c	-0.2144112
243	0x3eda7397	0.42666313
244	0xbca7f54a	-0.020502705
245	0xbe8e7fa5	-0.2783176
246	0xbf28e852	-0.6597949
247	0xbea9f8b0	-0.33197546
248	0x3e935c08	0.28781152
249	0xbee72ba3	-0.4515048
250	0x3e83a287	0.25709936
251	0xbf2846ef	-0.65733236
252	0xbe95797a	-0.29194242
253	0x3eff2a67	0.49837038
254	0xbeb5baa8	-0.3549397
255	0xbe1f156d	-0.15535517

network_body._body_endoder.seq_layers.0.bias f4 [128]
0	0xbd2a561b	-0.041586023
1	0x3e360c00	0.17778015
2	0x3d50a90e	0.050942473
3	0xbbda5b80	-0.0066637397
4	0x3decba15	0.1155893
5	0xbd63b8dd	-0.05559622
6	0xbd2eb8be	-0.042656653
7	0x3e0f8d5f	0.14018773
8	0x3df63acb	0.120229326
9	0x3d38aef1	0.045088712
10	0x3dd18096	0.10229604
11	0x3d9091b0	0.07059038
12	0x3e19bd5d	0.15013643
13	0xbd91f94d	-0.071276285
14	0x3d964cd3	0.07338872
15	0x3ddc0b44	0.10744336
16	0xbd54332c	-0.051806614
17	0x3da4d04c	0.08047542
18	0x3deff21e	0.11716102
19	0x3d87c0f8	0.06628603
20	0x3d8c219b	0.06842347
21	0xbd241b5d	-0.04006516
22	0x3d92b39f	0.07163166
23	0x3dc08e9b	0.094022
24	0x3c1813b9	0.009282046
25	0x3db11394	0.08646312
26	0x3e30d976	0.17270455
27	0x3d9edd3c	0.07757041
28	0x3de551be	0.11197232
29	0x3d3522ed	0.04422276
30	0xbd494f73	-0.049148034
31	0x3cd91115	0.026497403
32	0x3d24fec4	0.040282026
33	0xbd42b179	-0.047532532
34	0x3e0fabdc	0.14030403
35	0x3e057e10	0.1303637
36	0x3e16b9b0	0.14719272
37	0x3e0418f0	0.12900138
38	0x3b82aa62	0.0039875964
39	0x3e1421e5	0.14466055
40	0xbd7cb9a2	-0.06170047
41	0x3dafaba7	0.08577662
42	0x3e22b487	0.15889178
43	0xbde33eb8	-0.11095947
44	0x3d8788df	0.06617903
45	0x3dc14518	0.09437007
46	0x3e04cdc9	0.12969126
47	0x3c55aa0f	0.013041033
48	0x3dd273ba	0.10275979
49	0x3d3b809c	0.04577695
50	0x3c6b4082	0.014358642
51	0x3d9dc462	0.07703473
52	0xbcf1fbc6	-0.029539
53	0x3c74547c	0.014912721
54	0x3d8e35c4	0.06943849
55	0x3c944772	0.018100474
56	0xbd1fc169	-0.03900281
57	0x3d21c11b	0.0394908
58	0x3d6c8789	0.057746444
59	0x3c9382da	0.01800673
60	0x3e031ed1	0.12804724
61	0x3db04aac	0.086079925
62	0x3ceccef0	0.02890727
63	0x3d805854	0.06266847
64	0x3d139583	0.036031257
65	0x3d86dcc5	0.06585077
66	0x3d5692ed	0.052386213
67	0x3d78af23	0.0607139
68	0x3cb964de	0.022631105
69	0x3de94af0	0.11391246
70	0x3e3d1647	0.1846553
71	0x3dcfd379	0.10147757
72	0x3cf7e5be	0.030260917
73	0x3d8a0293	0.06738772
74	0x3e2996e9	0.16561474
75	0xbc904566	-0.017611217
76	0x3d4d5ca5	0.05013718
77	0x3dd7a0a7	0.10528689
78	0x3e2c4fdf	0.16827343
79	0x3e2952c6	0.16535482
80	0xbe046539	-0.12929238
81	0x3d1ec500	0.038762093
82	0x3d404349	0.046939168
83	0xbdc54278	-0.096318185
84	0x3c105d52	0.008811312
85	0x3e1c8733	0.1528595
86	0xbd2a9378	-0.041644543
87	0x3d867395	0.06565014
88	0x3db7e058	0.08978337
89	0x3c92c31a	0.017915297
90	0x3dbc2c62	0.09188153
91	0x3d3fd5f6	0.04683491
92	0x3d5b50a4	0.0535437
93	0x3e20c344	0.15699488
94	0x3b564aea	0.003269846
95	0xbd3d422d	-0.04620569
96	0x3dbabba2	0.09117819
97	0x3d80ec95	0.062951244
98	0xbd007c0c	-0.0313683
99	0x3e0d36e6	0.13790473
100	0xbe780292	-0.2421973
101	0x3c9059a1	0.017620863
102	0x3c015d5c	0.007895794
103	0x3cd5380e	0.026027706
104	0x3c13cf68	0.0090216175
105	0x3e033129	0.12811722
106	0x3e124c46	0.14286909
107	0x3dc4d59f	0.096110575
108	0x3d71165a	0.058859207
109	0x3e23a1a8	0.15979636
110	0xbd1f55f4	-0.03890033
111	0x3c8d2560	0.017229736
112	0x3c99b462	0.018762771
113	0x3da1c5a5	0.07899026
114	0x3da9d420	0.08292413
115	0x3d33bdb9	0.043882105
116	0x3d323955	0.043511707
117	0x3d017f34	0.03161545
118	0xbcc46607	-0.023974432
119	0xbca06bef	-0.019582717
120	0x3dd85102	0.10562326
121	0x3dbb9a3a	0.09160276
122	0x3d9c049e	0.07618068
123	0x3e1831d0	0.14862752
124	0x3d81e6f0	0.06342876
125	0xbd9275dc	-0.07151386
126	0x3d3f67d2	0.04672987
127	0x3c104a4e	0.008806778

network_body._body_endoder.seq_layers.2.weight f4 [128, 128]
0	0x3e035760	0.128263
1	0xbd426bb1	-0.047465984
2	0xbdd2e2b6	-0.10297148
3	0xbd5c0936	-0.05371972
4	0x3cdd1d5c	0.026991539
5	0xbdcb9a28	-0.09941512
6	0x3da5a5be	0.080882534
7	0xbe1ffb5a	-0.15623227
8	0xbe5b2a2e	-0.21402809
9	0xbbc86f8f	-0.0061168144
10	0x3d6dd166	0.058061026
11	0x3c672b33	0.014109421
12	0xbc9a6c98	-0.01885061
13	0x3e356e7f	0.17717932
14	0xbdd8ab67	-0.105795674
15	0xbdef0e03	-0.116725944
16	0xbcb4e0d5	-0.022079865
17	0xbd03e401	-0.032199863
18	0x3ca55d01	0.02018595
19	0x3d7c165d	0.061544765
20	0x3b91eee6	0.0044535277
21	0x3dbb036c	0.09131512
22	0xbd595608	-0.05306056
23	0xbd95daee	-0.07317148
24	0x3d8e5651	0.06950057
25	0x3db8f36d	0.09030805
26	0x3dc00d7d	0.09377573
27	0xbd2e4669	-0.042547617
28	0xbb669d01	-0.0035188796
29	0xbb9733cb	-0.0046143285
30	0xbdce5959	-0.100756355
31	0xbe093dab	-0.1340243
32	0xbe26cfb4	-0.1629017
33	0xbcebb10f	-0.028770952
34	0xbe4a1a13	-0.19736509
35	0xbe7183a4	-0.23585373
36	0x3d062696	0.032751642
37	0xbe350b93	-0.17680196
38	0x3d05d028	0.032669216
39	0x3de923ee	0.11383806
40	0x3c259eac	0.010108631
41	0xbe02d4fa	-0.12776557
42	0xbd77ed47	-0.06052902
43	0x3d0090d2	0.03138811
44	0x3e007f85	0.12548645
45	0xbd084a6a	-0.03327409
46	0xbd94d802	-0.07267763
47	0xbe2e899e	-0.17044684
48	0xbdf05dae	-0.11736618
49	0xbdbdffad	-0.09277282
50	0xbdc8abcb	-0.09798392
51	0xbdd8bb25	-0.1058257
52	0xbce4f595	-0.027949134
53	0xbe048aa2	-0.12943509
54	0x3c51d738	0.01280766
55	0x3c579ecb	0.013160418
56	0xbd17a3e4	-0.037021533
57	0x3e0957a7	0.13412343
58	0xbdb9ffe2	-0.09082009
59	0xbd5ea703	-0.054358494
60	0xbe45fba6	-0.19334278
61	0x3dcc8f78	0.09988302
62	0xbd2b7622	-0.041860707
63	0xbe55719e	-0.20844123
64	0xbe4a7655	-0.19771703
65	0xbcc5c813	-0.024143254
66	0x3ccc27cc	0.02492132
67	0x3c248195	0.01004066
68	0xbc18bb74	-0.009322036
69	0xbdd2a3d2	-0.102851525
70	0x3e15200d	0.14563008
71	0xbdb271e5	-0.0871313
72	0x3c005943	0.007833782
73	0xbe014566	-0.1262413
74	0xbdcda009	-0.1004029
75	0x3d8ed37b	0.069739304
76	0xbe3fe1d2	-0.18738487
77	0x3d4e6dff	0.05039787
78	0xbd569994	-0.052392557
79	0x3e0bb845	0.13644512
80	0x3dac9734	0.08427277
81	0x3c6f0721	0.014589102
82	0x3dbeb680	0.09312153
83	0xbca92bca	-0.020650763
84	0xbd70669b	-0.058691602
85	0xbe52e234	-0.20594102
86	0x3d7bb23d	0.06144928
87	0xbdbc854d	-0.092051126
88	0xbd8eb54f	-0.069681756
89	0xbc60ae09	-0.013713368
90	0x3c40cc67	0.011767483
91	0x3d915f5b	0.07098266
92	0xbdbd83ef	-0.0925368
93	0xbc9ded6b	-0.019278249
94	0x3d6b92c5	0.057513017
95	0x3d0339c3	0.032037508
96	0x3cc5bfff	0.024139402
97	0x3d8c419d	0.06848452
98	0xbe3614dc	-0.17781395
99	0xbdc48523	-0.09595706
100	0x3e6ac79a	0.22927704
101	0x3dde0db2	0.10842456
102	0xbdcd5fac	-0.100280136
103	0xbd476fde	-0.04869067
104	0xbcc71c09	-0.02430536
105	0x3e6198f0	0.22030997
106	0xbd8df1a5	-0.06930856
107	0xbd8795a1	-0.06620336
108	0xbd15b81e	-0.03655254
109	0xbde4b7aa	-0.11167844
110	0x3cb4ffa1	0.02209455
111	0x3d4663ed	0.04843514
112	0xbcde1537	-0.027109725
113	0xbe5e6d78	-0.21721447
114	0x3d0f7700	0.035025597
115	0xbde8364c	-0.11338481
116	0x3e42a89f	0.19009636
117	0xbe232c44	-0.15934855
118	0x3d01013b	0.031495314
119	0xbdd880d7	-0.10571449
120	0xbd1ae4a1	-0.037815694
121	0xbdc85365	-0.09781531
122	0xbd237788	-0.039908916
123	0xbd98ce2f	-0.074612014
124	0x3d29a789	0.04141954
125	0xbdfd78f7	-0.12376588
126	0xbdc3088a	-0.09523113
127	0x3df48cc1	0.11940909
128	0x3d01eb3e	0.031718485
129	0x3b81ff96	0.003967236
130	0x3de51b10	0.111868024
131	0xbd1c1a5a	-0.03811107
132	0xbdd2f874	-0.10301295
133	0x3da986bd	0.082776524
134	0x3c31a380	0.010842204
135	0xbc61d1a4	-0.013782892
136	0xbd24152e	-0.04005926
137	0x3d656f57	0.056014385
138	0xbdabd9dc	-0.08391163
139	0x3dca4146	0.09875731
140	0xbc0020ad	-0.0078202905
141	0xbd62d30b	-0.055377048
142	0xbdd23d30	-0.10265577
143	0xbc22edef	-0.009944423
144	0xbdce1c59	-0.10064001
145	0x3daaeffe	0.08346556
146	0xbdc08163	-0.093996786
147	0x3d59b2b7	0.05314895
148	0x3dafd0aa	0.085847214
149	0x3c047e91	0.008086816
150	0xbd879230	-0.0661968
151	0x3d745c77	0.059658494
152	0x3e5568ca	0.20840755
153	0xbe59816d	-0.21240778
154	0xbd7ad4e4	-0.061238185
155	0xbd34412c	-0.044007465
156	0x3d9a2bc3	0.07527878
157	0x3cab623e	0.020920869
158	0xbe2feeda	-0.17180958
159	0x3d74b451	0.059742276
160	0x3e09a0c5	0.13440235
161	0x3d5fe5e9	0.05466262
162	0x3d999d2b	0.075006805
163	0x3e043cf2	0.12913874
164	0xbe46a707	-0.19399653
165	0xbda3a5f7	-0.0799064
166	0x3cfe8c12	0.03107265
167	0x3d4613dd	0.048358787
168	0xbcc2c572	-0.02377579
169	0xbcea4ae3	-0.028600162
170	0x3c8e50bc	0.017372482
171	0x3cf9ec98	0.030508325
172	0x3e16a677	0.14711939
173	0x3e0ee3ff	0.13954161
174	0x3ad383c2	0.0016137289
175	0xbd8295dc	-0.0637624
176	0xbe87e521	-0.26542
177	0xbd88b941	-0.066759594
178	0xbdb786f1	-0.08961285
179	0x3d47ba5f	0.04876172
180	0x3d94f7df	0.0727384
181	0x3db0cdb9	0.086329885
182	0x3b90ee1b	0.0044229156
183	0x3c3aa9c9	0.011393019
184	0xbd8256e9	-0.06364233
185	0xbd349317	-0.04408559
186	0x3d3cc5aa	0.046086945
187	0x3cd5ea8f	0.026112823
188	0xbe2b3e2a	-0.16722932
189	0x3d78a7a4	0.06070675
190	0xbc81c59e	-0.015841302
191	0xbc993874	-0.018703677
192	0x3c0bca44	0.008532111
193	0xbd5e4649	-0.054266248
194	0x3d96aee6	0.07357578
195	0x3d3347bb	0.04376958
196	0xbc267900	-0.010160685
197	0x3d2f7433	0.042835426
198	0xba413de7	-0.000737159
199	0xbd4fc4a1	-0.05072463
200	0x3dc5a0ea	0.096498325
201	0xbd968942	-0.073503986
202	0xbc24a891	-0.010049955
203	0xbe6a6d38	-0.22893226
204	0x3e5faaff	0.21842574
205	0xbe2e8cc2	-0.17045882
206	0xbd7e6387	-0.062106635
207	0x3e2256ff	0.15853499
208	0xbc7bd4cf	-0.015370562
209	0x3caa02e2	0.020753328
210	0x3d5a859e	0.053350084
211	0x3d0e75e9	0.034780417
212	0xbdee3f54	-0.11633173
213	0x3caf61e6	0.021408986
214	0xbdcbeaed	-0.09956918
215	0x3e441698	0.19149244
216	0xbe03c238	-0.12867057
217	0x3d1bf371	0.03807396
218	0xbe011263	-0.1260467
219	0x3d801fee	0.0625609
220	0x3d8ebe1c	0.06969854
221	0xbded3f73	-0.115843676
222	0xbc87fea9	-0.016600924
223	0xbe025b99	-0.12730254
224	0x3db09572	0.086222544
225	0x3da8bc48	0.08239037
226	0xbe603820	-0.2189641
227	0x3e17e153	0.14832048
228	0xbd1c468e	-0.038153224
229	0x3ccaafce	0.024742033
230	0x3d34ab92	0.044108935
231	0x3e112041	0.1417246
232	0x3deb3c94	0.11486164
233	0xbd89ac73	-0.06722345
234	0xbd19f49b	-0.03758679
235	0x3df26fba	0.118377164
236	0x3d67e784	0.056617275
237	0xbdb63a8b	-0.08897885
238	0x3d9732b8	0.07382721
239	0x3c9ed82c	0.019390188
240	0x3dc96d5f	0.09835314
241	0x3d6709d7	0.05640587
242	0x3dba5a7a	0.09099288
243	0xbe3fc3a9	-0.18726982
244	0xbcf809cf	-0.030278115
245	0x3cd8c15a	0.026459385
246	0x3cb2e8bc	0.021839492
247	0xbd9570d0	-0.07296908
248	0x3e638223	0.22217612
249	0x3e455693	0.19271307
250	0xbdb81b96	-0.089896366
251	0x3d9eb98b	0.07750233
252	0x3bdc86b0	0.006729923
253	0xbc43b2c4	-0.0119444765
254	0x3d6ea0d8	0.05825886
255	0xbe51ca09	-0.20487227

network_body._body_endoder.seq_layers.2.bias f4 [128]
0	0xbde7a11f	-0.11310028
1	0x3d2c61a4	0.042085305
2	0xbdc816eb	-0.09769996
3	0x3d88b6f5	0.06675521
4	0x3dd85f92	0.105651036
5	0xbb986ac4	-0.0046513993
6	0x3c75ace7	0.014994836
7	0x3d359410	0.044330657
8	0xbbc07baa	-0.005874117
9	0xbe131484	-0.14363295
10	0x3dbb1505	0.091348685
11	0x3dda14ed	0.106485225
12	0x3d817d0c	0.06322679
13	0xbba06dba	-0.004895893
14	0xbba7b344	-0.0051178057
15	0xbd3b9c02	-0.045803078
16	0xbb12a13e	-0.002237394
17	0xbdaf4570	-0.08558166
18	0x3d72296d	0.059121538
19	0x3cfe81cb	0.03106775
20	0xbda4e557	-0.080515556
21	0xbdb04603	-0.08607104
22	0xbbe70da5	-0.007051187
23	0x3b268508	0.0025408883
24	0x3dcfa778	0.10139364
25	0x3d81e1c1	0.06341887
26	0x3d7bf2b2	0.06151075
27	0x3db8e370	0.09027755
28	0xbdfd6b41	-0.12373973
29	0x3d1ecd21	0.038769845
30	0xbde95355	-0.113928474
31	0x3dc3fb74	0.09569445
32	0x3db952be	0.09048985
33	0xbd6a0694	-0.05713518
34	0x3c2a35db	0.010388817
35	0x3dd8fb07	0.10594755
36	0x3bcb4399	0.0062031266
37	0xbd1b3bc1	-0.037898783
38	0xbd5966f7	-0.05307671
39	0x3d69e403	0.057102215
40	0xbd8cb05f	-0.068695776
41	0x3cd8139b	0.026376536
42	0xbd16b61f	-0.036794778
43	0x3da24e76	0.079251215
44	0x3d1e509a	0.038651086
45	0x3d78b7e5	0.06072225
46	0x3d05e2a8	0.03268686
47	0x3d71ea8f	0.059061583
48	0xbcc30d73	-0.023810124
49	0xbad5bcaf	-0.0016306842
50	0x3c9f6fcc	0.019462489
51	0xbd7cb0a9	-0.061691914
52	0xbdc9391e	-0.09825347
53	0x3d6aabc3	0.05729271
54	0x3d4c5e88	0.04989484
55	0x3d8ea3d4	0.069648415
56	0x3d2dc8eb	0.04242794
57	0x3c969cb8	0.018385276
58	0xbc2aed32	-0.010432528
59	0x3d1e791a	0.03868971
60	0x3d622a0f	0.05521589
61	0x3c496496	0.012292048
62	0xbe2dec90	-0.16984773
63	0xbd81a002	-0.06329347
64	0x3c47514a	0.012165377
65	0xbdd6d857	-0.10490482
66	0xbc159234	-0.009129096
67	0x3daeaa6b	0.085285984
68	0xbc4694ec	-0.012120467
69	0x3d61db2d	0.055140663
70	0x3dd49ebe	0.1038184
71	0x3dcc662c	0.09980425
72	0x3d7c7969	0.061639223
73	0x3d1c2a55	0.03812631
74	0xbd616e16	-0.055036627
75	0xbd6b6673	-0.05747075
76	0xbdd910f2	-0.10598935
77	0xbd141794	-0.0361553
78	0x3d93f36e	0.07224165
79	0xbdc2948d	-0.0950099
80	0x3d88632a	0.06659539
81	0xbd8b9240	-0.06815004
82	0x3b5f2ad9	0.0034052639
83	0xbd2f9f81	-0.042876724
84	0x3d7bb0bb	0.06144784
85	0xbccbea61	-0.024892034
86	0x3db01324	0.08597401
87	0x3b1d3f74	0.002399412
88	0x3d0dda30	0.034631908
89	0xbdda3df2	-0.106563464
90	0x3d547d74	0.051877454
91	0x3dda5516	0.1066076
92	0xbc8fc9be	-0.017552253
93	0xbc3920a0	-0.011299282
94	0xbc31ddc0	-0.010856092
95	0xbd997c64	-0.07494429
96	0x3d76dc39	0.060268614
97	0x3b8f3d24	0.004371302
98	0xbbed72dc	-0.0072463583
99	0x3d3b7dfa	0.045774437
100	0x3d63b0f1	0.055588666
101	0xbe0c945b	-0.13728468
102	0xbd1dec1f	-0.03855526
103	0x3d20814f	0.03918582
104	0x3d7694d3	0.060200524
105	0x3d10ce0b	0.035352748
106	0x3ccdf02d	0.025138939
107	0xbc12b7df	-0.008954971
108	0xbc8b876d	-0.01703235
109	0x3d1c4119	0.03814802
110	0x3d151de9	0.036405478
111	0x3d96fab4	0.073720366
112	0x3dc8e00e	0.0980836
113	0x3d4ce926	0.050027035
114	0x3d00e66a	0.03146974
115	0xbdc0432b	-0.09387811
116	0xbd550df8	-0.052015275
117	0x3d9dcc4e	0.07704984
118	0xbd664825	-0.056221146
119	0x3dbada26	0.0912364
120	0xbd8cddce	-0.068782434
121	0x3d5c567e	0.053793423
122	0x3d55961c	0.05214511
123	0xbe0cc865	-0.1374832
124	0xbca96326	-0.02067716
125	0x3d9c901b	0.076446734
126	0x3dee696d	0.11641202
127	0x3d5e422f	0.054262336

action_model._continuous_distribution.log_sigma f4 [1, 3]
0	0xbe7af080	-0.24505806
1	0xbe9333e7	-0.28750536
2	0xbe13fe59	-0.14452495

action_model._continuous_distribution.mu.weight f4 [3, 128]
0	0xbcd0bffd	-0.025482172
1	0x3d65d67f	0.056112763
2	0xbd3ea16b	-0.04654066
3	0x3bb3f0ee	0.0054913675
4	0x3d35fb78	0.044429272
5	0x3df5209c	0.1196911
6	0x3c153630	0.009107158
7	0x3d4eda57	0.050501194
8	0xbe27be36	-0.16381153
9	0xbdb81011	-0.089874394
10	0xbd462f38	-0.048384875
11	0x3d6e8c5b	0.058239322
12	0xbca24e58	-0.019812748
13	0xbdfba8ec	-0.12288079
14	0xbe077048	-0.13226426
15	0xbc08c983	-0.008348825
16	0x3e08f10c	0.13373202
17	0xbda1fc3e	-0.079094395
18	0xbd1a31b0	-0.037645042
19	0xbd3ef7e6	-0.046623133
20	0xbd97f951	-0.074206
21	0xbd5611be	-0.052263014
22	0xbdf225dc	-0.11823627
23	0x3db25ac6	0.0870872
24	0xbd08a14c	-0.03335695
25	0x3ddc7ad3	0.10765614
26	0xbb13293d	-0.0022455
27	0x3b9b1f98	0.004733991
28	0x3d0c91b0	0.034318626
29	0x3dc20ab3	0.09474697
30	0xbce792dd	-0.028268272
31	0xbc98b5b3	-0.018641328
32	0xbc665fba	-0.014060909
33	0xbd3b12cd	-0.045672227
34	0x3d90ac82	0.07064153
35	0xbdebc1cb	-0.115115725
36	0x3e02ee37	0.12786184
37	0xbd345bcb	-0.044032853
38	0x3d211fcc	0.039336964
39	0x3e2ed76c	0.17074364
40	0xbd6fc226	-0.058534764
41	0xbda8dd64	-0.08245352
42	0x3de81bb9	0.11333413
43	0xbcc617c5	-0.024181256
44	0x3d0faf4c	0.035079286
45	0xbdd7a392	-0.105292454
46	0xbe15190b	-0.14560334
47	0xbd537b42	-0.05163122
48	0xbca2c839	-0.019870864
49	0x3d7e5c75	0.062099893
50	0xbb521def	-0.00320613
51	0xbd3cbcff	-0.04607868
52	0xbe38dd20	-0.18053102
53	0xbd107ca0	-0.0352751
54	0xbd806263	-0.06268766
55	0xbbec865e	-0.0072181663
56	0x3d5e7ef0	0.054320276
57	0x3d19c22b	0.03753869
58	0x3dc59269	0.09647066
59	0x3db812ad	0.08987937
60	0xbcd6be80	-0.026213884
61	0x3e57e0a6	0.2108179
62	0xbd8389cd	-0.06422768
63	0xbe0037ca	-0.12521282
64	0xba5131ae	-0.000798012
65	0xbca6c85a	-0.020359207
66	0xbadd8a52	-0.0016902185
67	0x3d7b5a13	0.0613652
68	0x3dc0fe94	0.09423557
69	0x3dbf6ea1	0.09347273
70	0x3d5f6bf6	0.05454632
71	0xbd1e042b	-0.038578194
72	0xbdae8002	-0.08520509
73	0x3c783a20	0.015150577
74	0xbd4c7788	-0.04991868
75	0xbd9293af	-0.07157075
76	0x3d66293a	0.05619166
77	0xbcf41217	-0.029793782
78	0xbcba5218	-0.022744223
79	0xbd8a2dce	-0.06747018
80	0xbd54dcab	-0.051968258
81	0xbd8e531c	-0.069494456
82	0xbc825ad2	-0.015912447
83	0xbe1beee9	-0.15227856
84	0x3cf0e571	0.029406281
85	0x3d006667	0.03134766
86	0x3db005b4	0.08594838
87	0x3c0096e8	0.007848479
88	0xbdabf938	-0.08397144
89	0xbdbabcc4	-0.091180354
90	0xbd05a4cb	-0.032627862
91	0xbe09ae44	-0.13445383
92	0xbcf53d5a	-0.029936481
93	0xbd932a00	-0.07185745
94	0xbceb92a4	-0.028756447
95	0x3db73fdc	0.08947727
96	0xbd612f6a	-0.05497686
97	0x3dd9898b	0.10621937
98	0x3c00a267	0.00785122
99	0x394388e4	0.00018647645
100	0x3d8d72d4	0.06906667
101	0xbdb15e76	-0.08660595
102	0xbda380e9	-0.07983572
103	0xbd21f72d	-0.039542366
104	0xbd1a79bc	-0.03771375
105	0x3dfb8c7b	0.12282654
106	0x3cef2c89	0.02919604
107	0xba9d0c59	-0.0011981829
108	0x3ca8d48d	0.020609165
109	0x3c8e90b7	0.01740299
110	0xbd0c7326	-0.0342895
111	0xbd968bd0	-0.07350886
112	0x3d84c66e	0.0648316
113	0xbdb458be	-0.08805989
114	0xbc8a879c	-0.016910367
115	0x3d30fc0d	0.043209124
116	0xbca11a1f	-0.019665776
117	0x3da8cd85	0.08242325
118	0x3be1b7c0	0.00688836
119	0x3d24a085	0.040192146
120	0xbd049100	-0.032364845
121	0xbbd4dcf0	-0.0064960644
122	0xbd04a48a	-0.03238348
123	0xbca36604	-0.019946106
124	0x3ccba629	0.024859505
125	0x3d683ef2	0.056700654
126	0xbdbf540e	-0.09342204
127	0x3cbbe66c	0.022937022
128	0x3cc69cd2	0.0242447
129	0xbbb8a066	-0.0056343554
130	0x3dc6bbfd	0.09703825
131	0xbda68529	-0.08130867
132	0xbdd69b6a	-0.10478862
133	0x3cfe4a29	0.031041222
134	0x3d516369	0.051120196
135	0x3cde097d	0.027104134
136	0x3d5e2641	0.0542357
137	0x3e003227	0.12519132
138	0xbd3091d0	-0.043107808
139	0xbdc8cbdd	-0.09804509
140	0xbd4ff6a0	-0.05077231
141	0x3cbd9985	0.023144493
142	0x3d20f040	0.03929162
143	0x3b4b6bb8	0.0031039547
144	0x3df4ba29	0.1194957
145	0x3dac6a81	0.084187515
146	0xbdaf8db6	-0.08571951
147	0x3b31010f	0.0027008688
148	0x3da5bc1a	0.08092518
149	0x3dcfca58	0.10146016
150	0x3b4626eb	0.00302356
151	0x3d2acb36	0.041697703
152	0xbe1f3769	-0.15548481
153	0xbd633f27	-0.05548015
154	0xbd88c51c	-0.06678221
155	0xbd82f8fd	-0.06395147
156	0x3dcf2358	0.10114163
157	0xbd823aa7	-0.06358843
158	0x3e01990b	0.12656038
159	0xbd5db0c0	-0.05412364
160	0xbccf9edd	-0.025344307
161	0x3d2adf38	0.041716784
162	0xbcaaa269	-0.020829396
163	0xbdf28114	-0.11841026
164	0xbd4325a3	-0.047643315
165	0x3cd8106b	0.026375016
166	0x3dce9236	0.10086481
167	0xbc9e991b	-0.019360116
168	0x3d0337d7	0.032035675
169	0xbca42def	-0.020041434
170	0x3d7a286d	0.06107371
171	0xbcd15cb3	-0.025556898
172	0xbc834e16	-0.016028445
173	0xbdab713b	-0.083712064
174	0x3d5bd6a8	0.05367151
175	0xbd704da0	-0.05866778
176	0x3db3fa44	0.08787969
177	0x3beb27bc	0.0071763676
178	0xbd20bea3	-0.039244305
179	0x3d75223a	0.059847094
180	0x3dc707f8	0.09718317
181	0xbc9bad6b	-0.01900359
182	0xbd088238	-0.03332731
183	0xbd32fe56	-0.043699585
184	0xbc4eadd4	-0.012614686
185	0x3c462625	0.012094055
186	0x3d0a5b0e	0.033778243
187	0xbd148a83	-0.036264908
188	0xbd315014	-0.04328926
189	0x3da502a5	0.08057145
190	0x3dcd3eba	0.1002173
191	0x3ce92a8f	0.028462676
192	0xbbe3af28	-0.0069483705
193	0x3d9619ab	0.073291145
194	0xbb1dbd23	-0.0024069033
195	0xbdad0325	-0.084478654
196	0x3db012f8	0.08597368
197	0xbdac0294	-0.08398929
198	0xbde04ef6	-0.109525606
199	0xbdabb5aa	-0.08384259
200	0xbddf718c	-0.10910329
201	0xbd207b6f	-0.039180215
202	0x3e080a7d	0.13285251
203	0x3d3e9523	0.046528947
204	0x3e0e6561	0.1390586
205	0x3da05d62	0.07830311
206	0xbda4cb13	-0.08046546
207	0x3dc098f8	0.094041765
208	0xbd748ab2	-0.059702583
209	0x3dd843c2	0.10559799
210	0x3d0ab692	0.03386552
211	0x3dca40b2	0.09875621
212	0xbd85562c	-0.065105766
213	0x3d5adb00	0.05343151
214	0xbd568965	-0.052377123
215	0x3b795a32	0.0038048145
216	0xbce17973	-0.027523732
217	0x3d88b2f5	0.06674758
218	0xbd2b5288	-0.041826755
219	0xbd6e8639	-0.058233473
220	0x3ce107ed	0.0274696
221	0x3d2d8e1e	0.04237186
222	0x3a4fc0b4	0.00079251383
223	0x3d0b5a58	0.034021705
224	0xbd631c09	-0.05544666
225	0xbcc9cab7	-0.024632795
226	0x3e2cfbb4	0.16892892
227	0xbd845c1d	-0.06462882
228	0xbd332bca	-0.043742932
229	0x3d2b584a	0.041832246
230	0x3e0a981b	0.13534586
231	0xbcfea0da	-0.03108256
232	0xbd12ba3c	-0.03582214
233	0xbc78d832	-0.015188264
234	0xbd395953	-0.0452512
235	0x3c628223	0.013824972
236	0x3d05228d	0.032503653
237	0xbd50b4c4	-0.05095364
238	0xbbeed2c9	-0.007288311
239	0xbd6f4048	-0.058410913
240	0xbe04d5f3	-0.1297224
241	0xbd563cec	-0.052304193
242	0xbd47cb6c	-0.048777983
243	0x3e055272	0.13019732
244	0x3dc9fffb	0.098632775
245	0xbd3b6054	-0.045746163
246	0x3c80abfc	0.015707009
247	0xbd91bdcf	-0.07116281
248	0x3da0ef03	0.07858088
249	0xbd941250	-0.07230055
250	0xbd618a32	-0.055063434
251	0x3cc8cc0f	0.024511365
252	0x3c8b7eb4	0.01702819
253	0xbd51d628	-0.051229626
254	0xbdcadea0	-0.099057436
255	0xbd5bf4ac	-0.053700134

action_model._continuous_distribution.mu.bias f4 [3]
0	0x3cd16487	0.02556063
1	0xbd9be3fa	-0.076118425
2	0xbc125eab	-0.008933703

onnx::Div_51 f4 [12]
0	0x418f4479	17.908434
1	0x416bf24f	14.746657
2	0x419062a0	18.048157
3	0x41aa67cb	21.30068
4	0x403e4f91	2.9736063
5	0x41aa98d3	21.324621
6	0x41be6602	23.799809
7	0x3b070413	0.0020601794
8	0x41bd6070	23.672089
9	0x418fb088	17.961197
10	0x4197d071	18.976778
11	0x3efe78dd	0.49701586
