TWP_2/results/StaticDragDrop9/RobotArm/checkpoint.pt (torch, 434530 bytes, 36 tensors)

network_body._body_endoder.seq_layers.0.weight f4 [128, 7]
000000 3e f8 eb be 0a 04 4b bf ac 5e 35 3c 28 2e 03 bd
       -0.4608783 -0.7930304 0.011069935 -0.03202644
000010 ec 03 61 be 1d c6 d5 3e ac e9 4b be 31 a8 1d 3d
       -0.21974152 0.4175271 -0.19913357 0.038490478
000020 51 c9 06 bd 8a 6a b5 bd dc 10 c8 be 29 50 a7 bd
       -0.032906834 -0.08858211 -0.39075363 -0.08169586
000030 7f a9 66 3e 2e 11 68 bf 43 20 4c 3f 83 75 84 3e
       0.22525595 -0.90651214 0.7973673 0.25870904
000040 ae 17 f5 3e 7a 33 e2 bd 1f 66 57 3e 40 a9 36 3e
       0.4786963 -0.110449746 0.2103505 0.17838001
000050 5a 37 f2 3d 37 75 07 3f d0 ea a9 bd d9 45 15 be
       0.11826964 0.5291323 -0.0829674 -0.14577426
000060 c7 fb b7 be 58 c4 95 3e 27 75 4b be 3c a7 e6 be
       -0.35934278 0.2925136 -0.19868909 -0.45049465
000070 8a bc 9e 3b 10 8f 84 3e 02 ad 67 bd 35 5e 22 3d
       0.004844253 0.25890398 -0.056561477 0.039640624
000080 d2 c2 e6 3d 96 de 1c 3f 5d b7 12 3e c2 17 87 3e
       0.11267628 0.6127714 0.1432776 0.26385313
000090 2b 0d cf 3c 96 7e 9b 3e 5d b1 f0 be e9 f6 9f bd
       0.025274834 0.30370015 -0.47010317 -0.07810766
0000a0 70 fa 88 3d fa 4b b2 be 8c 79 fb be 3d d8 9e bd
       0.06688392 -0.3482359 -0.4911617 -0.07756088
0000b0 71 b2 b9 be e6 16 d5 3d 1e d7 74 3e 15 91 27 3f
       -0.36268952 0.10404758 0.23910186 0.6545575
0000c0 99 cf eb 3d 2c 29 e6 be 2e 6d e4 3e 4c 2e f6 3d
       0.115142055 -0.44953287 0.44614547 0.12020549
0000d0 97 39 79 3c 55 f4 1b 3f 37 8e e2 3e 21 11 08 3f
       0.015211484 0.60919696 0.44249126 0.53151137
0000e0 37 f6 2c 3f 70 2f 7d 3e 5c 59 dd 3c 92 41 b3 3e
       0.67563194 0.24725127 0.027020149 0.35010964
0000f0 32 a8 63 bf 2c 5a ed 3e 7b f7 a2 bd 8f 1f 88 3e
       -0.8892852 0.46357858 -0.079573594 0.26586577
000100 1f e3 a5 be 74 59 8d bd 35 06 db 3c 9c 86 72 3e
       -0.32399842 -0.069018275 0.026736358 0.23684162
000110 8e b1 d2 3e 56 d9 b4 be 36 01 8f 3d f6 25 5e 3e
       0.41151088 -0.35322064 0.06982653 0.21694168
000120 c8 15 50 3e b5 75 94 be 04 29 42 3d 18 ae de be
       0.20320809 -0.28996053 0.047402397 -0.43492198
000130 da 77 21 be 10 43 fd be 0d a8 aa 3e 73 6c 14 3d
       -0.15768376 -0.49465227 0.33331338 0.036236238
000140 f1 52 e4 3e c1 e1 6a 3c 9d c3 d4 3e 96 48 9d be
       0.4459453 0.0143360505 0.4155549 -0.3071944
000150 0c e7 9d be ac a3 23 bd bc 99 bf bc de 6e 5b 3e
       -0.30840337 -0.03995101 -0.023388736 0.21429011
000160 09 fc 1e 3f a1 4b 39 be 0f c8 86 be 43 87 9a 3e
       0.62103325 -0.18095256 -0.26324508 0.30181322
000170 67 1e c4 be 3f a0 10 3f ce fd 0d 3e 15 88 fa 3d
       -0.38304445 0.56494516 0.1386635 0.12232987
000180 2e 3a ff be 7d b4 32 3f a8 a6 eb 3d bc 4b 31 3d
       -0.49849075 0.69806653 0.115063965 0.043285117
000190 4b 13 d3 3e 76 11 a4 3d 4f 01 f6 3e 32 8f 5b be
       0.41225657 0.08011143 0.48047873 -0.21441343
0001a0 f9 d5 8e bc c9 9a 02 bf 33 95 fa 3d 7a ca 37 bf
       -0.017436014 -0.51017433 0.12235489 -0.7179333
0001b0 01 a9 b0 3e 01 8e 56 be 92 78 89 bf 47 2d cd 3d
       0.3450394 -0.20952608 -1.073992 0.100184016
0001c0 37 ae 1e 3d 93 18 0b be 1c 19 36 be af 23 b8 3e
       0.038740363 -0.13583593 -0.17783016 0.35964724
0001d0 d9 16 4e be 95 0c fe 3e df b9 67 3e 74 54 51 bd
       -0.20125903 0.49618974 0.22629498 -0.05110593
0001e0 26 ac 75 be 6f f0 b0 3e 1c ea 9f 3c 76 a4 4d 3d
       -0.2399145 0.34558436 0.019520812 0.05020567
0001f0 6b d4 ce 3d 70 20 a8 be d1 cd 76 3e d8 ee ad 3e
       0.10099109 -0.32837248 0.2410195 0.33971286
000200 26 37 3c bf 26 69 7a bd 8d 9d 32 be 15 11 e6 be
       -0.7352165 -0.061135434 -0.17442913 -0.44934908
000210 07 ef 85 bd 2b 40 7e be a6 b7 8b 3d 7c 90 be be
       -0.065397315 -0.24829166 0.068221375 -0.37219608
000220 6d 13 12 3b 84 ab a8 3d a1 89 28 3f c6 e4 79 3e
       0.002228941 0.08235839 0.65835005 0.24403676
000230 a8 8c cb bc 4d f1 59 3e 84 16 e8 3e ed 09 0d 3e
       -0.024847344 0.21283455 0.45329678 0.13773318
000240 09 43 d2 bd ef 0e 0b 3f b9 c0 67 3d 80 42 81 be
       -0.10266692 0.5431966 0.05658028 -0.25246048
000250 54 97 9b 3e 08 ed 38 3c 5e db ce 3b c0 38 e4 3e
       0.30388892 0.011286981 0.0063127717 0.44574547
000260 ce 9c 76 3e ac c6 2e 3f 6e bb c2 be aa 57 9e 3e
       0.24083254 0.682719 -0.38033623 0.30926257
000270 e3 e3 18 bf c4 d3 18 3e fa dc 8a 3e 78 13 fa 3e
       -0.5972273 0.14924532 0.27121717 0.48842978
000280 b2 b3 a2 3e 0c e5 11 3f b0 a8 24 3e 26 3f 42 3e
       0.31777722 0.5699012 0.16079974 0.18969402
000290 6a dd be 3d f2 dd 0a 3f 81 b9 17 3d e3 9d c6 be
       0.09319575 0.5424491 0.037042145 -0.38792333
0002a0 ef ce 73 bf fe 5f d4 be 26 72 f8 3c 2b c7 c1 3e
       -0.9523763 -0.41479486 0.030327868 0.37847266
0002b0 4e b9 86 3e b4 92 08 bd c5 5e e9 be b0 7b 34 3d
       0.2631325 -0.033343032 -0.45580116 0.04406327
0002c0 24 32 d5 be e2 33 19 3e 3a e5 ed 3d 07 af 23 bf
       -0.41639817 0.14961198 0.11615987 -0.63938946
0002d0 4b c3 b6 3e 13 04 cf 3d dc 85 6a 3e f9 90 d2 3e
       0.35695872 0.10108199 0.22902626 0.4112623
0002e0 ed ed f1 bd 70 31 50 3f 9f 43 17 bf 3d 74 d9 3c
       -0.11812959 0.81325436 -0.59087557 0.026544685
0002f0 74 fd 7c bc 2a 45 da be 0a 49 99 3e 70 92 59 3e
       -0.015441287 -0.42630893 0.29938537 0.21247268
000300 92 b5 a2 3e 7b 53 71 3d 93 2b d6 3e fd 65 ed be
       0.31779152 0.058917504 0.4183012 -0.46366873
000310 00 ec 56 3c 3f d1 d5 bd 81 11 9f be 08 cf 1d 3e
       0.01311779 -0.10440301 -0.31068042 0.15411007
000320 a5 bc c1 be 7e 4f 6e be a0 95 14 3f 7a 5d 01 3d
       -0.37839237 -0.23272511 0.5804081 0.031583287
000330 40 83 9e 3e 04 ad 11 3f 64 c2 1d 3e 82 94 fd be
       0.3095951 0.56904626 0.15406185 -0.49527365
000340 e0 f6 2d 3e f5 63 25 3d de dd 1b bf a0 5e 06 3d
       0.16988707 0.04037853 -0.6088542 0.032805085
000350 21 ec 62 3f 59 dd 87 3d b8 a7 b3 3d b4 67 88 be
       0.88641554 0.066340156 0.08772224 -0.2664162
000360 4e 2f 24 3e 64 32 17 bf d5 6f 2a 3f bb 86 1d bd
       0.1603367 -0.59061265 0.6657689 -0.038458567
000370 6b 98 3a 3e 89 2e 46 bf c7 85 d2 be 2c a8 6a 3d
       0.18222205 -0.77414757 -0.4111769 0.057289287
000380 fb b2 be bc 6f cd 02 bf f6 00 a5 bd 02 82 53 bb
       -0.023278704 -0.51094717 -0.08056824 -0.0032273536
000390 09 53 57 be 6f 65 81 be 6e c9 46 be f9 f5 84 be
       -0.21027769 -0.252727 -0.19412777 -0.25968912
0003a0 14 36 65 bd c0 8e 38 bf e9 c1 f6 3e 0c 22 22 bf
       -0.055959776 -0.7209282 0.48194817 -0.633332
0003b0 f5 ab bd be ba ea 23 bf 83 5e b0 3c 0a 1a 11 be
       -0.37045255 -0.6403004 0.021529442 -0.1417009
0003c0 93 1d d2 bd 51 46 05 bd ab ed 22 3e ba 9a fd be
       -0.10259547 -0.032537762 0.15910976 -0.4953211
0003d0 38 a5 8e be dd c6 72 be 49 ab 0a bf ba b5 01 bf
       -0.27860427 -0.23708673 -0.5416761 -0.5066792
0003e0 53 13 6e be 7e 47 0a bf 62 a6 22 be b2 48 32 be
       -0.23249559 -0.5401534 -0.15883783 -0.17410544
0003f0 ad 5c 85 3e 4d 24 11 bf 1c 9e 07 3e b8 bb f0 3e
       0.26047269 -0.56696016 0.13243908 0.47018218

network_body._body_endoder.seq_layers.0.bias f4 [128]
000000 35 8c a5 bd c0 02 17 3c ef 4f d3 bc 49 be 5b 3c
       -0.08083383 0.009216964 -0.025794951 0.013412067
000010 8a e6 89 3c 31 51 02 be 92 ff c1 bd 89 8e fb 3c
       0.016833562 -0.12726285 -0.09472574 0.030707614
000020 5a a3 b7 bd df 08 7b 3d 9c 1d 92 3d 71 3c c0 bd
       -0.08966704 0.061287757 0.07134554 -0.09386528
000030 87 33 60 bc 19 49 9a bc 7c a8 d7 bc a2 09 65 bd
       -0.01368416 -0.018833684 -0.026325457 -0.05591739
000040 ee bd 9b 3c 9e bd d4 bd 67 f2 a7 bc a6 40 9d bc
       0.019011464 -0.10387729 -0.020501329 -0.019195866
000050 a4 db a6 3c 72 b2 80 3c d4 7d a6 bb 6f ac cf bb
       0.020368405 0.01571009 -0.005080918 -0.0063376944
000060 38 c9 98 bc 54 1f ca bd 19 cd 75 bd b3 c2 40 3d
       -0.018650636 -0.098692566 -0.06001005 0.04706068
000070 a9 22 85 bd ea f9 db bc 38 04 14 bd dd 9c 2d 3c
       -0.065007515 -0.026852567 -0.036136836 0.010596481
000080 52 53 93 bd a4 89 07 bd a2 62 7a 3d c3 8d c7 bd
       -0.071936265 -0.03309025 0.06112922 -0.09743836
000090 2d 01 c6 bd 60 ee 76 3d 06 77 ad bc 24 e3 c7 bd
       -0.09668193 0.060285926 -0.021174919 -0.097601205
0000a0 ef 4a 1e 3a 95 c5 ba 3d 74 ab 1b 3d 20 52 d2 3b
       0.00060383877 0.09119717 0.038005307 0.0064184815
0000b0 f6 b5 44 ba 66 61 45 3c b8 79 74 3d 60 82 3e 3d
       -0.0007503921 0.012047147 0.059686393 0.046511054
0000c0 85 a9 7a 3a 0b 0e bf bd 97 88 fb bd 7f 5e ad 3d
       0.00095620035 -0.0932885 -0.12281912 0.08465289
0000d0 f9 77 30 3c 7c 77 5d 3c 10 fd 6f bd 19 dc d4 3c
       0.010770791 0.013517257 -0.05859095 0.025983857
0000e0 e9 3c cb bc a5 b8 36 3d fe 49 d8 bc b7 0c 9d bd
       -0.024809318 0.044609684 -0.02640247 -0.07668441
0000f0 76 c5 0a 3b 0d 37 97 bd 6e 3a 31 3c 11 45 4c bd
       0.0021174825 -0.07383547 0.010817153 -0.049870554
000100 0d 97 8d bb 98 bf e3 bc 17 95 e9 3c 17 f6 06 be
       -0.004320985 -0.02780132 0.028513474 -0.13179813
000110 fd f9 54 bd e5 10 e9 3c 59 5c 8f bb 82 bf 26 bd
       -0.05199622 0.028450439 -0.0043750224 -0.04070998
000120 d3 87 7d 3b 1a 59 b5 bc eb ae 91 3d ae 8b 65 bc
       0.0038685694 -0.022137213 0.07113441 -0.014010353
000130 c5 65 05 bd 57 73 2b bd c0 20 15 3d e0 77 2f bd
       -0.032567758 -0.041858044 0.036408186 -0.04283893
000140 ab 42 7e bc d6 5d cc 3a 50 cb 3c 3d 8a 85 f3 bd
       -0.015518825 0.001559193 0.04609233 -0.11890705
000150 1e 0f 73 bc 3c aa 1f 3d bb 84 7c 3c a0 2b 23 3d
       -0.014835147 0.038980708 0.015412505 0.039836526
000160 0c e2 ba bd 99 34 b1 3c 4a ab 31 bd 27 34 c1 3b
       -0.09125146 0.021631526 -0.043376245 0.0058961096
000170 fa c9 f5 3c 7c 75 ef 3c c7 c9 01 bd ab 82 52 bd
       0.030003536 0.029230826 -0.03168657 -0.051394146
000180 3d 31 5b bd 53 2a 07 bd 6b cd 0f 3d 80 b8 95 bb
       -0.053513754 -0.032999348 0.03510801 -0.0045691133
000190 43 02 3f 3c 22 a3 91 bd 6c 45 e5 bd a0 bf 9c bd
       0.011658254 -0.07111193 -0.11194882 -0.07653737
0001a0 f5 00 36 bc 77 9c cf 3c c2 82 ee bb 66 fe 50 3c
       -0.011108627 0.025343163 -0.007278771 0.012755966
0001b0 9c 9d cc bd 0e 7b ec bc 99 cf 67 bd b2 b0 29 3d
       -0.09990999 -0.02886727 -0.056594465 0.041428275
0001c0 44 42 fa 3c 79 45 27 bd 09 7b ec bc e4 00 f5 3c
       0.030549176 -0.04083774 -0.028867261 0.029907651
0001d0 53 6e 55 bd cf 9a 87 3c 68 b0 11 bd 8f e5 a8 bc
       -0.052107166 0.01655331 -0.035568625 -0.020617275
0001e0 22 44 85 3c 45 eb 50 bd ab 0e a1 bc f2 6c bf 3c
       0.01626784 -0.05100562 -0.019660315 0.023367379
0001f0 cf 30 7e bd 2d c2 33 3d e0 5e 15 bc cf 8a db 3c
       -0.062058266 0.043886352 -0.009116858 0.026799588

network_body._body_endoder.seq_layers.2.weight f4 [128, 128]
000000 61 e3 45 3d 59 64 86 3c 43 9f 24 3d 85 52 82 3d
       0.04831255 0.016405271 0.040190946 0.063633956
000010 c6 49 45 3d 10 1f be 3d 8d 6b 1f 3e 5a 86 92 3c
       0.04816606 0.092832685 0.15568371 0.01788633
000020 24 08 c2 bc ba 6b 9e 3b 42 dd 63 3c 3f 66 d5 3c
       -0.023685522 0.0048346194 0.013907732 0.026049731
000030 10 0f c9 3d 0d f9 ba bd 87 fa 44 bd 3b cd 3d bd
       0.09817326 -0.09129534 -0.048090484 -0.0463383
000040 69 da 15 be 7b 2d 61 3d 9b 21 aa bc 44 0a ee bd
       -0.14634098 0.054975014 -0.020767977 -0.11623052
000050 8e 36 3d 3d 76 99 d7 bd 74 ac 1b be b1 44 f9 bd
       0.046194606 -0.10527317 -0.15202504 -0.12171305
000060 fe c5 57 bd 2c ae b6 bd 6b 4f 52 bd db 15 e8 bc
       -0.052679054 -0.089199394 -0.05134527 -0.028330734
000070 db 83 f7 3c d5 50 be 3d bc d6 48 3e e8 13 e9 3b
       0.03021424 0.09292761 0.19613165 0.0071129687
000080 fd 71 f3 ba 81 ca 2e bd d0 ae da bd d1 b9 5c 3d
       -0.00185734 -0.04267359 -0.10677874 0.053888146
000090 8c 01 2d 3e c9 29 ce 3d da 26 07 3e 4b f0 e7 3c
       0.16895121 0.10066564 0.13198414 0.028312823
0000a0 2c b2 62 3c 6e 9b 26 3d 35 76 95 bd 38 4d 2b be
       0.013836425 0.040675573 -0.07297937 -0.16728675
0000b0 fa d0 ab 3d c8 e9 50 bd cd 36 5f 3e d0 e5 00 bd
       0.083894685 -0.0510042 0.21798249 -0.031469166
0000c0 89 10 88 3e a3 a0 0f 3d 25 30 19 3e 04 1c 91 bd
       0.26575115 0.035065304 0.14959772 -0.07085422
0000d0 5e 9d b4 3d 2e 29 26 bd 71 c6 8e 3c 26 6d 7d 3d
       0.08819078 -0.040566616 0.017428609 0.06187167
0000e0 d6 e0 34 be 10 02 1b bd 9e 84 b1 bd 35 39 65 bb
       -0.17663893 -0.037843764 -0.08667873 -0.0034976725
0000f0 67 70 a0 bc 7e e1 d9 bd 7e 68 42 3d 4e 1a cf bd
       -0.019584848 -0.10638712 0.047462933 -0.10112439
000100 eb 43 e5 bd 65 7b 63 3d 5d 77 3a bd c3 a6 58 3d
       -0.11194595 0.0555376 -0.04552399 0.05289341
000110 4e 30 21 3e 61 03 f5 bd a7 5c bc 3d 01 09 55 be
       0.15741083 -0.11963535 0.091973595 -0.20804216
000120 2d 19 a0 3d 1e d9 dc bc 61 55 2c 3c 43 0d 30 3c
       0.07817302 -0.026958998 0.010518403 0.010745349
000130 f3 65 ea 3d a5 01 29 3d da b9 1e be c0 b3 ac 3d
       0.114452265 0.041261334 -0.15500584 0.08432722
000140 3f 5e bb bd 95 58 0c 3d 9f a8 8e 3c ad 08 9e bb
       -0.091488354 0.034264166 0.01741439 -0.0048228116
000150 62 ef d5 bc c0 69 0a 3d 38 6f 1f bd b0 e3 a1 bc
       -0.026115123 0.033792257 -0.038924426 -0.01976189
000160 af 30 08 bd 9d f2 59 be 87 61 72 3d 09 a4 d5 3d
       -0.033249553 -0.21283956 0.05917504 0.10431678
000170 41 ca a7 bd d4 e2 c0 bc bb f0 38 3e 64 1e b8 3d
       -0.08192874 -0.02354566 0.18060581 0.089901716
000180 43 0d 1e 3e 3f 3f 00 bd a9 ce 2e be 83 d9 13 bd
       0.15434746 -0.031310316 -0.17071022 -0.036096107
000190 ca 4b 10 3d 40 d8 2b bc 71 d6 fc 3c bc 5f 20 bd
       0.035228528 -0.01048857 0.030863972 -0.0391538
0001a0 30 35 c4 3c d0 ae 96 bd 77 44 89 b9 78 ea 88 3c
       0.023951143 -0.073575616 -0.00026181687 0.016713366
0001b0 0e 06 e8 bb 96 0b 13 3e ef 89 e3 3c f6 a1 0c be
       -0.0070808 0.14359888 0.027775733 -0.13733658
0001c0 60 3f d0 bd 07 69 ef 3d e2 d9 81 3d 5c fb 61 bd
       -0.10168338 0.11689954 0.06340386 -0.055171356
0001d0 86 1a d4 3d a6 46 45 3d f2 46 fb 3c 3a 2d 85 ba
       0.103566214 0.04816308 0.030673478 -0.0010160573
0001e0 a6 7c b4 bb 04 24 5d bc 61 25 cb 3d 41 d7 4d 3c
       -0.0055080233 -0.013497356 0.09919239 0.012563528
0001f0 37 1d ef 3c 35 34 a4 3d b2 17 68 bd 2b 1c 92 bc
       0.029188735 0.0801777 -0.056663223 -0.017835697
000200 59 a6 1d 3e c3 af bb bd d2 42 e5 bd 41 36 8b bd
       0.15395488 -0.09164383 -0.111943856 -0.067974575
000210 dc 3f 5f 3d 6e 64 71 3d da a0 57 3e eb 2e b0 bd
       0.05450426 0.058933668 0.21057454 -0.08602699
000220 63 58 9e 3c 16 16 9b 3d 91 e2 9b bd 00 b7 0b 3d
       0.019329255 0.07572572 -0.076115735 0.03411007
000230 0d 57 7c bd b8 cb 89 bd 06 dd 89 bd 51 6f 8f 3d
       -0.061606456 -0.067283094 -0.0673161 0.07003654
000240 93 65 af 3d d5 d2 00 ba a8 0a 7e 3d 84 45 34 3d
       0.085642956 -0.0004914229 0.06202188 0.044011608
000250 9b bb 0c 39 a2 86 f0 bd 3d 10 94 bd 51 98 1d 3d
       0.00013421329 -0.11744429 -0.0722966 0.03847534
000260 60 73 b3 3c 8f 41 a1 3c a8 f3 36 3d c8 d1 95 3d
       0.021905601 0.019684581 0.044665962 0.07315403
000270 56 47 53 bd 2b 8a 36 bd 5b 87 74 be 8a 25 2e 3e
       -0.051581703 -0.04456536 -0.23879759 0.17006508
000280 97 91 18 3e fc fe 30 bd 54 45 09 be 74 82 cb bc
       0.14899288 -0.043211922 -0.13405353 -0.024842478
000290 c4 7e 4b be a0 f6 48 3c d4 9a 96 3d 4e b0 70 3d
       -0.19872576 0.012265831 0.0735375 0.058761887
0002a0 6a 3b 26 3e 78 22 19 bd e2 c7 cd bd eb bc 03 3e
       0.16233602 -0.037386388 -0.1004789 0.12865035
0002b0 80 5c 77 be 6b 44 84 bd 53 6d 08 3d d2 9c e2 3c
       -0.2415638 -0.06458362 0.033307385 0.027662668
0002c0 4b c4 0f bd 0f ae d7 bd 22 b0 8f bc 45 65 a6 3c
       -0.03509931 -0.10531246 -0.017540041 0.020311961
0002d0 9c 50 54 bb 20 6e a2 3c aa c5 e9 bd fb e5 fe bd
       -0.003239668 0.019827902 -0.114146546 -0.12446209
0002e0 2c af e4 bd 51 63 8a 3d bd 39 e7 bc 3b 0f 13 bd
       -0.11166224 0.06757224 -0.028225774 -0.035903197
0002f0 2c 64 32 bd 5c 7f 0a 3e c4 d5 ed 3c b2 91 66 3d
       -0.043552563 0.13525146 0.029032595 0.05629129
000300 21 ab 9b 3d e7 81 d8 3b e7 ed d5 3d 58 06 26 3d
       0.076009996 0.0066072824 0.10445767 0.040533394
000310 0a b8 a5 3d 21 9b 12 be 80 cd cf 3d 97 f8 35 3d
       0.08091743 -0.1431699 0.10146618 0.044426527
000320 69 8d 54 be 22 3b 26 3e 1b 53 a7 3d 05 0b 3e 3e
       -0.20757069 0.16233495 0.08170148 0.18558891
000330 07 30 32 3e 1b 55 72 3d d3 b0 7c be 02 48 26 3c
       0.17401133 0.059163194 -0.24676828 0.010149004
000340 d9 e6 3c bd 61 76 b1 3d 60 43 1e bd 91 25 22 3e
       -0.04611859 0.08665157 -0.038638473 0.15834643
000350 8d d5 f3 bc 32 be 95 3c 00 55 90 bd 86 72 c0 bd
       -0.029764915 0.018279169 -0.070474625 -0.093968436
000360 fe 74 8d 3c 1a 57 d5 3c 48 66 9a 3d a0 14 ad bc
       0.0172677 0.02604251 0.0753904 -0.021127999
000370 16 fc d7 bc a9 75 74 3e 50 7b a8 3d 93 4a e1 bc
       -0.026365321 0.23873009 0.08226645 -0.02750138
000380 d8 da 78 bd 6b 66 3a be 5c 46 a5 bd 55 ec 45 3c
       -0.06075558 -0.18203132 -0.080700606 0.012080272
000390 92 a4 c5 bc 9c 25 ee 3d d7 3a 88 bb 93 a8 ba bd
       -0.024126325 0.11628267 -0.004157405 -0.09114184
0003a0 ea 3b 19 3d da 9d 99 bc cb 8e d9 3c 12 ff 2b bd
       0.037410654 -0.018752027 0.026557347 -0.0419913
0003b0 25 d4 94 bd a1 ad d8 bd a7 4f 91 bd 09 3a 0e 3e
       -0.07267026 -0.10579992 -0.070952706 0.13889326
0003c0 cc a5 d7 bd dc 06 c3 bd c1 5c 9b bd 13 fa 15 be
       -0.1052967 -0.09522793 -0.07586051 -0.14646177
0003d0 d3 07 9f 3c 0c 5d e7 bd 07 c2 ab bd 5d 7b 5b bd
       0.01941291 -0.11297044 -0.08386617 -0.053584445
0003e0 d9 ed a0 bd b2 b6 1c be 5a 25 b4 bb c0 94 3a 3d
       -0.07857866 -0.15304068 -0.0054976167 0.045552015
0003f0 d2 13 9e bd 4d 55 95 bd 36 a2 37 3e 34 21 33 3e
       -0.07718624 -0.072916605 0.17932972 0.17493135

network_body._body_endoder.seq_layers.2.bias f4 [128]
000000 81 1a 9e bd 67 a4 c3 bd 1a 7d 0e 3d 3a a2 81 bc
       -0.07719899 -0.09552842 0.034787275 -0.015824426
000010 93 9e 8e 3d bc 29 12 bd 59 14 0b 3b 75 72 7d bd
       0.069638394 -0.035684332 0.0021221845 -0.061876733
000020 22 d5 bc bc e2 70 08 bd a5 76 bf bc c8 e4 c6 3d
       -0.023050848 -0.03331078 -0.023372004 0.09711605
000030 85 6f 83 bd f6 79 b2 3d 47 d2 48 bd 71 6d 40 bd
       -0.06417755 0.087146685 -0.04902866 -0.04697937
000040 46 7a a7 bc b5 1b e8 3d 1e bb 63 bd 68 42 12 3d
       -0.020444047 0.1133341 -0.05559837 0.03570786
000050 61 9d 03 bd 62 ea 5e bd 66 cd 1f bc f9 d8 1f 3c
       -0.03213251 -0.054422744 -0.009753561 0.00975632
000060 ea d4 00 3b b0 b1 c9 bc 0e a1 9e bd 05 c8 b8 bc
       0.0019658157 -0.02462086 -0.077455625 -0.022556314
000070 a9 43 37 bd 71 a6 4a bd 23 83 38 3c 8a 53 01 bd
       -0.04474226 -0.049475137 0.011261734 -0.03157381
000080 b0 2d 13 bc 44 1a 87 bd e7 4d 1e 3d 3b 5c ac 3c
       -0.008983061 -0.06596807 0.038648512 0.021040073
000090 35 9b c6 bd d5 73 96 bd 4e 29 f8 3b f2 03 f9 bc
       -0.09697572 -0.07346312 0.0075732833 -0.03039739
0000a0 b7 79 5d bd 9c cd 2c 3c 8f bf e0 3c 4c fa 11 bd
       -0.054071154 0.010547068 0.027435092 -0.035639092
0000b0 8c 8b 67 bd 89 03 ad 3d eb a3 3d bd 32 30 49 3d
       -0.056529567 0.0844794 -0.046298902 0.04911823
0000c0 d3 1d 24 3d b0 44 96 bd c9 10 a0 bd 27 f0 cd bb
       0.040067505 -0.0733732 -0.078157015 -0.006284732
0000d0 f2 6a f8 3d e0 8c 1e 3d df 00 47 3d 5c 92 c5 bd
       0.12129773 0.038708568 0.048584815 -0.096470565
0000e0 72 96 a0 3b 51 31 cd bb a9 f5 cc bd 91 51 5e bd
       0.004900747 -0.0062619825 -0.100077935 -0.054277007
0000f0 10 14 ac 3d 02 c9 df 3c 5e b8 8a bc c9 08 b1 3c
       0.08402264 0.027317528 -0.016933616 0.021610634
000100 80 2e e3 3c a0 2b 8e 3d 23 eb ec 3c 39 a3 ea bc
       0.027732134 0.069419146 0.028920716 -0.028642284
000110 b0 b1 c9 3c 2a 4c de bc c5 b4 38 3b e8 f4 12 3d
       0.02462086 -0.027135927 0.002818392 0.035878092
000120 97 2c 2d bd 0e 7e 20 3c c8 0f ce bd 42 8c a1 bc
       -0.042278852 0.009795679 -0.10061604 -0.0197202
000130 87 ca 71 bd 43 87 de 3d bc c9 3f bd 44 2c bd bc
       -0.059031036 0.10865643 -0.04682325 -0.023092397
000140 a8 86 24 3d c4 da 1b 3d 94 a6 11 3d 5f 5d 8a bc
       0.04016748 0.038050428 0.035559252 -0.016890226
000150 1c ac f8 bc 5e 01 25 3d 3c 44 c5 3c 51 3b 58 bd
       -0.030355506 0.040284507 0.024080388 -0.052790944
000160 c4 ae df 3d de 92 c8 3a 9d 50 2e 3d 8e a6 18 3b
       0.10922006 0.0015302559 0.042557348 0.0023292634
000170 64 f2 26 bd cc cc 13 3e 37 89 8d 3d 13 e4 94 3b
       -0.040758505 0.14433593 0.06910937 0.00454379
000180 c6 53 a8 bc 86 f0 09 3c de a1 ee 3c c9 bb a2 bb
       -0.020547759 0.008419162 0.029129919 -0.0049662334
000190 2e 0d 18 3d fe 30 31 bc a2 d1 9f bd 4e 1c ab 3c
       0.037121944 -0.010814903 -0.07803656 0.02088752
0001a0 47 02 17 bd e9 0e 29 bd 3d 96 01 3d 21 86 f4 3d
       -0.036867406 -0.041273985 0.03163742 0.119396456
0001b0 92 74 4c bd f0 39 f3 3d b8 0f 02 bb ca de 4e 3b
       -0.049915858 0.11876285 -0.0019845795 0.0031565898
0001c0 e3 d9 07 3e 36 e0 09 bd cd e0 5a bd ad fb 04 3d
       0.13266711 -0.03366109 -0.053437043 0.03246658
0001d0 1b fe 89 bb 7d f1 c3 bd 86 c9 0a 3e 69 d0 15 bd
       -0.0042112 -0.095675446 0.13553438 -0.03657571
0001e0 a3 f1 f4 bc cb fa d3 3d 08 23 bb bb aa 85 ac bc
       -0.029900378 0.10350569 -0.005710963 -0.02105983
0001f0 86 c7 30 bd 08 fd 11 3d 56 53 3b bd 7b 4d 13 bd
       -0.04315903 0.0356417 -0.045733772 -0.035962563

action_model._continuous_distribution.log_sigma f4 [1, 3]
000000 94 50 7c 3c 5b c2 3e 3d 7c 7d 9a 3d
       0.015400071 0.04657207 0.075434655

action_model._continuous_distribution.mu.weight f4 [3, 128]
000000 58 4d 22 bd de be 8e bd fd e8 f3 ba 18 35 32 3c
       -0.039624542 -0.06969999 -0.0018608865 0.010876916
000010 8a c3 59 3b df 2d 54 bd b4 e3 8a b8 09 cf 91 bd
       0.0033228123 -0.05180156 -6.622766e-05 -0.07119567
000020 ad 07 4a bc 19 2b 00 bd d7 f4 75 bc 52 4c 18 3d
       -0.012330932 -0.0312911 -0.015011988 0.03718216
000030 8e ad 81 bd ab 06 f8 3c ad 2f 93 bc 58 a0 4a bc
       -0.06331931 0.030276617 -0.01796707 -0.0123673305
000040 c0 6d d2 ba b5 bb d1 3d 80 ff 53 bc b0 c6 dc 3b
       -0.0016054437 0.102408804 -0.012939334 0.0067375526
000050 15 80 fc bc 4b 12 6e bd ef aa 23 bb 29 3c 0b bb
       -0.030822793 -0.058122914 -0.002497371 -0.0021245575
000060 65 f3 aa bb 41 67 ee bc d2 95 ab bd cf ef f9 bb
       -0.005217003 -0.02910197 -0.08378185 -0.0076274644
000070 bf 38 b3 bc 03 53 84 bc b3 57 01 bd 9b b7 48 bd
       -0.021877645 -0.016152864 -0.031577777 -0.049003225
000080 f3 b4 85 bb f2 f5 74 bd 0a 27 c9 3c c5 cb b4 3c
       -0.0040804087 -0.059804864 0.024554748 0.022069821
000090 23 47 e2 bd 66 8a 7e bd 1b a8 e1 bb 70 d0 c7 bb
       -0.110487245 -0.062143706 -0.006886495 -0.0060978457
0000a0 6e 54 95 bb c2 27 ea bb 72 56 01 3c de c6 11 bc
       -0.004557184 -0.007145853 0.007894145 -0.008897511
0000b0 a9 36 14 bd 65 98 30 3d f9 4b 6f bd be e1 95 3c
       -0.03618494 0.043114085 -0.058422063 0.018296119
0000c0 2e a8 f3 3b ab f9 99 bd 7a 58 81 bd c6 52 bb bc
       0.00743582 -0.075183235 -0.06315704 -0.022866618
0000d0 68 c8 86 3d 27 5f 25 3b e9 81 85 3b 25 37 93 bd
       0.06581193 0.0025233717 0.0040743244 -0.07188252
0000e0 94 65 0a bc 7b 43 21 bc b2 85 db bd bc c9 6c bc
       -0.00844707 -0.009842749 -0.1071886 -0.014452394
0000f0 21 09 8b 3d b8 f6 27 3c 23 f7 81 bb 27 b5 50 3c
       0.067888506 0.010251693 -0.0039662286 0.012738503
000100 77 0a 06 bb bf 48 28 3c b5 7f cd 3c 5c 81 02 bd
       -0.0020453015 0.01027125 0.02508531 -0.031861648
000110 93 b3 0f bc ee c3 10 bc f8 dc c7 3c b2 74 a7 3c
       -0.008770841 -0.008835776 0.024397358 0.020441387
000120 8b 31 3c bd 76 bb b6 3c 51 d4 d1 bd 5b 15 1d bc
       -0.045945685 0.022306185 -0.10245574 -0.009587611
000130 12 1c da bc e0 0f ce 3d 53 30 5a bd 1b 03 84 bc
       -0.026624713 0.10061622 -0.05326874 -0.016114762
000140 b2 3e ab 3c 90 f0 5a 3c 2d 0e 8a 3c 3d 52 52 3b
       0.020903919 0.013363019 0.016852463 0.0032092475
000150 a6 f4 f5 bc 74 ea 37 3c 68 c8 d9 3c 55 da 68 bd
       -0.030023884 0.011225332 0.026584819 -0.056848843
000160 19 aa 4d 3c 87 88 bf bc 6d 87 f4 3b ce 04 68 3c
       0.0125527615 -0.023380531 0.007462433 0.014161302
000170 36 c7 72 bb 19 c3 71 3d 74 e7 3e 3d 18 a6 eb 3b
       -0.0037045009 0.05902395 0.04660745 0.007191431
000180 cf 4a 08 bc db 06 1f bd 71 00 1b 3d 5c 2b 16 3b
       -0.008318617 -0.038824897 0.037842218 0.0022914028
000190 92 45 7f 3c 32 e4 a1 3a 69 69 32 bd 3a 23 1c 3d
       0.015580552 0.0012351333 -0.04355756 0.038119532
0001a0 4a fe 59 bd 46 f3 51 bd 0b 65 15 3d 21 a8 09 3d
       -0.053221025 -0.051257394 0.036473315 0.033607606
0001b0 ec 1f 2d bd be 1d 6f 3d 88 d1 4d 3c 2f 67 10 bd
       -0.04226677 0.058377974 0.012562163 -0.035254654
0001c0 a7 93 57 3d d2 5a 48 bd 70 9a 63 bd a5 d6 73 3b
       0.052631047 -0.048914738 -0.055567205 0.0037206796
0001d0 b1 43 d3 bb 6a 05 54 bd 1d f9 02 3d d4 3c 40 bd
       -0.0064472784 -0.051762976 0.031975854 -0.04693301
0001e0 8a 21 38 bd df d8 53 3d 36 7e 6c bc f1 6b 23 bd
       -0.04495386 0.051720496 -0.014434388 -0.039897863
0001f0 03 76 ce bc 20 f1 57 3c c6 de 52 bd 9d c7 48 bc
       -0.025202757 0.013180047 -0.051481985 -0.012254623
000200 be 4e d3 ba 1b a6 78 3c fe a3 66 bc 01 a8 d3 3c
       -0.001612149 0.015176321 -0.014077185 0.025836946
000210 e4 04 61 bc 9d 59 7a 3d 3e 65 27 3b 55 b1 b0 3d
       -0.013734076 0.061120618 0.0025542523 0.086275734
000220 75 2e 0e ba f9 1d b0 bb 72 8e 7c bb 5d ac c1 3b
       -0.0005423793 -0.005374667 -0.0038537052 0.00591044
000230 e0 3a 89 3d 7a 34 35 3d f8 00 bf 3b 29 ad 9f 3b
       0.06700683 0.0442395 0.005828973 0.004872937
000240 8d ef ac 3c cf e3 4a 3c 44 5e a8 3c 63 85 0c ba
       0.02111032 0.012383415 0.020552762 -0.00053604523
000250 91 0a 96 bb 96 26 a8 3d 0d 16 8a 3b f3 f4 78 bc
       -0.0045788963 0.08210485 0.0042140544 -0.015195119
000260 99 00 96 bc a8 44 2c 3d 81 92 0b bc e2 2f cf 3b
       -0.018310832 0.042057663 -0.008518816 0.0063228467
000270 fa 42 0e 3d ae 60 a2 3c ff 3f 64 3d 5f 66 38 3d
       0.034731843 0.019821491 0.055725094 0.045019504
000280 e3 99 29 3d 6a 73 b7 3d d4 42 02 bc e7 7e 7e 3c
       0.041406523 0.0895756 -0.007950503 0.015533186
000290 29 44 8e 3d a9 83 44 3d 9c 01 ca bc 6b af 4f 3b
       0.06946594 0.047977123 -0.02465897 0.003169025
0002a0 d7 98 e8 3b 5d de 02 bd 4a f9 b6 bc 0e 81 29 3b
       0.007098298 -0.031950343 -0.022335667 0.0025864276
0002b0 38 72 8b ba 51 c9 1c 3d b0 41 e0 3d a3 9d 7d bb
       -0.0010638898 0.038277928 0.10950029 -0.0038698695
0002c0 49 9f 86 bb 36 b9 89 3d 00 81 36 3c d5 e2 06 bd
       -0.0041083437 0.06724779 0.011139154 -0.032931168
0002d0 f4 47 a7 bc 5f db 11 bd 30 77 c5 3b cf 20 6e 3d
       -0.020420052 -0.0356096 0.006026171 0.058136757
0002e0 40 c3 0d 3d 2d b3 8c bc 9b 37 ab 3d 90 ab 1e 3d
       0.034610033 -0.017175281 0.08360215 0.038737833
0002f0 c5 8b d7 bc f0 67 1e bd e8 f0 e8 3c 3a 40 c1 bb
       -0.026311764 -0.03867334 0.028435186 -0.005897549
000300 06 dd 94 ba 30 16 3d 3d fe 89 14 3c 6f 06 bf bb
       -0.0011357374 0.046163738 0.009066103 -0.0058296244
000310 07 25 85 3d 24 62 b1 bb db 14 15 3d c4 d2 10 bd
       0.06501203 -0.0054133106 0.036396842 -0.03535725
000320 9a c4 c1 3c 5a d2 a4 3c a6 c4 95 3d 0d 86 1b 3b
       0.023653317 0.020119835 0.07312898 0.0023731024
000330 bc 55 ec 3c c4 23 0b 3d d2 93 a1 3d c7 21 04 bc
       0.028849475 0.033969656 0.078895226 -0.008064694
000340 da 1a 3d bc 31 a0 44 bb c7 43 42 bb 9a 55 0f 3d
       -0.011542046 -0.0030002708 -0.002964245 0.034993745
000350 d8 65 e5 bb 98 d6 9c bb e2 29 83 ba 67 d3 9b 3d
       -0.007000666 -0.0047863238 -0.0010006989 0.07608681
000360 ba 37 e0 3b 73 29 04 bd 69 76 04 bc db 08 a2 3c
       0.0068425806 -0.03226609 -0.008084872 0.019779613
000370 40 47 a3 3c 9e 4b 21 bc 2c 61 04 bd b7 66 be 3c
       0.019931436 -0.009844689 -0.032319233 0.023242338
000380 20 11 7d 3c b2 69 63 3d 25 f1 a8 3b 7a db 20 3c
       0.015445977 0.05552072 0.0051557 0.009817952
000390 d0 53 25 bc 3f 10 38 3c 93 80 14 3c 10 a7 a6 3c
       -0.010090783 0.011234342 0.009063858 0.020343333
0003a0 b1 4f 2a 3c 80 f8 a6 3d 0c e5 fc 3b f6 8f fe 3b
       0.0103949765 0.08152866 0.007717734 0.0077686263
0003b0 80 c0 83 3c 5e 6d 2c b9 5f 6a e2 3c 2d 73 7a 3d
       0.016083002 -0.0001644394 0.027638612 0.061144996
0003c0 e1 25 50 bb 20 c9 b7 3d 50 2a 97 3c de 55 1c bd
       -0.003176086 0.089739084 0.018452793 -0.038167827
0003d0 46 3a 9e 3c 5e be 90 3c c0 d8 bf 3b 88 7b bc 3d
       0.019314896 0.0176689 0.005854696 0.09203249
0003e0 2e 03 2e 3d 86 2e 26 bd 34 a0 6c bc f2 dd 3c 3d
       0.0424835 -0.040571712 -0.014442492 0.0461101
0003f0 a6 c1 a3 3b 04 e0 79 bb d5 8c 1c 3c a8 7b 72 3c
       0.00499745 -0.0038127908 0.009555061 0.01479999

action_model._continuous_distribution.mu.bias f4 [3]
000000 9d 16 64 3d 46 8e 1b bd dd 2a bc 3b
       0.05568563 -0.03797748 0.0057424144

exp_avg f4 [128, 1]
000000 3a 99 e1 35 9f bd 53 36 6d 84 15 b7 d2 e4 c9 b8
       1.6808401e-06 3.1551824e-06 -8.911925e-06 -9.627048e-05
000010 dd ae 96 b8 79 ce fe b8 02 cd 0c b9 6f 10 ab 36
       -7.185128e-05 -0.00012150122 -0.00013427812 5.0981103e-06
000020 00 b2 1f b9 5d 72 64 36 32 00 f3 38 72 58 64 b8
       -0.00015229732 3.4041216e-06 0.00011587179 -5.4441807e-05
000030 83 35 f3 b6 fb 41 5b b8 72 26 17 37 47 44 2f b7
       -7.248194e-06 -5.2275118e-05 9.009253e-06 -1.044671e-05
000040 96 d2 96 b7 b4 32 b1 b8 2f 5d 33 b6 87 c3 23 b5
       -1.7979455e-05 -8.449462e-05 -2.6727319e-06 -6.100676e-07
000050 ec d4 1c 36 91 77 42 b6 a8 6c 37 35 8e 83 b2 b6
       2.3369748e-06 -2.897785e-06 6.833093e-07 -5.3201284e-06
000060 2b 1d e0 36 50 a8 69 b8 e6 86 3a b9 82 c0 82 35
       6.679116e-06 -5.5708282e-05 -0.00017788596 9.741782e-07
000070 c3 f3 0a b9 6c 24 32 b6 ff 38 8c b8 55 c0 36 b4
       -0.00013251514 -2.6545267e-06 -6.6863366e-05 -1.7020041e-07
000080 f4 ae bf b8 0b 0d 96 37 16 e0 4c 34 e6 4c 2f b9
       -9.140177e-05 1.7887467e-05 1.9080503e-07 -0.00016717947
000090 22 1a 81 b8 30 ef 8c 36 7b 9a e3 36 02 56 d9 b8
       -6.156067e-05 4.20017e-06 6.783111e-06 -0.000103633865
0000a0 40 69 06 35 37 99 38 35 fa 06 45 38 90 f8 9b b6
       5.007205e-07 6.87683e-07 4.6974958e-05 -4.6482965e-06
0000b0 d4 68 1a b8 da 0a f6 38 a0 ae b1 33 bf 14 9c 38
       -3.681409e-05 0.00011732215 8.273969e-08 7.442524e-05
0000c0 a6 52 20 b5 e1 e4 0a b9 b1 26 c0 b8 76 b1 d5 36
       -5.9724914e-07 -0.0001324597 -9.16248e-05 6.368554e-06
0000d0 bc 90 17 38 57 fc 46 b7 15 ea e3 b7 92 51 6c b7
       3.6136e-05 -1.1860472e-05 -2.7169512e-05 -1.4085688e-05
0000e0 3d 14 00 b6 19 f3 26 b7 03 89 05 37 c7 5b c5 36
       -1.9085267e-06 -9.950972e-06 7.959318e-06 5.881742e-06
0000f0 c8 13 69 36 ab 38 dc b8 7f 07 b8 b6 dd 91 00 b9
       3.473122e-06 -0.00010500973 -5.4845e-06 -0.0001226137
000100 04 68 04 b9 f8 9d a1 36 bb eb b5 b6 f7 71 9f b8
       -0.0001262725 4.816564e-06 -5.421663e-06 -7.6029384e-05
000110 c2 d9 e1 b8 f9 82 58 b7 d7 93 0e b9 89 00 98 b6
       -0.000107693966 -1.2905098e-05 -0.0001359725 -4.5300153e-06
000120 ac 05 24 b7 a3 47 bc b6 69 01 dc b5 51 24 17 38
       -9.776482e-06 -5.611176e-06 -1.6391688e-06 3.6035028e-05
000130 fd d0 a3 b5 2a 10 3d b7 05 2c a1 35 b6 2a 19 b7
       -1.220527e-06 -1.1269041e-05 1.2008246e-06 -9.129455e-06
000140 ec 07 00 37 b4 91 27 b8 e6 0a e8 37 27 66 c2 b8
       7.631239e-06 -3.99516e-05 2.766163e-05 -9.269668e-05
000150 39 8d d0 37 db 83 a4 38 bd 11 4f 33 22 ca e1 b5
       2.4861294e-05 7.8446894e-05 4.8212076e-08 -1.6822635e-06
000160 6e 6a b9 b8 64 c0 79 37 28 b6 e6 b8 e5 9e 3e b8
       -8.8413115e-05 1.4886351e-05 -0.00011001184 -4.5447512e-05
000170 b2 90 f0 b8 b1 ce cf b5 bb 46 4e b7 b6 72 41 b7
       -0.000114710434 -1.5482857e-06 -1.2295025e-05 -1.1530405e-05
000180 71 27 02 b7 ed 3f 17 b6 da aa b7 35 c7 f5 a7 35
       -7.757787e-06 -2.2537963e-06 1.3684287e-06 1.2514e-06
000190 c5 9b 80 b6 cf b9 a5 b8 bb 5e 70 b6 d0 ee 0a b9
       -3.832831e-06 -7.902423e-05 -3.5817927e-06 -0.0001324967
0001a0 5c 04 54 b6 23 cd d5 b5 0b d4 00 36 c0 b1 57 36
       -3.1593e-06 -1.5929439e-06 1.9196912e-06 3.214096e-06
0001b0 93 c8 ac b7 3e 7f 2e 37 87 5e 16 38 d7 b0 3c 38
       -2.0597397e-05 1.0400834e-05 3.5850822e-05 4.4987388e-05
0001c0 7c 00 9a 38 3a ea c2 36 04 cb e7 b6 3c 05 a6 b8
       7.3433825e-05 5.808918e-06 -6.9079706e-06 -7.916472e-05
0001d0 b8 02 a5 b8 e2 d3 2b b6 66 3a 88 b7 2d 09 6d 37
       -7.8683195e-05 -2.5604318e-06 -1.6239657e-05 1.4128437e-05
0001e0 37 2e b5 b8 6f d1 a8 35 96 07 0a b9 2b 9b 9a 36
       -8.639361e-05 1.2577929e-06 -0.00013163532 4.6076216e-06
0001f0 8d 97 06 b8 98 fa 56 36 80 4c 6b b7 47 98 3d 37
       -3.2089232e-05 3.203435e-06 -1.4024903e-05 1.1300733e-05

exp_avg_sq f4 [128, 1]
000000 03 4f 45 35 c3 9e 86 35 5f 4f 96 35 cf 63 bb 34
       7.3503196e-07 1.0029984e-06 1.1198971e-06 3.4904085e-07
000010 81 ff 90 34 9a a2 68 35 6f a1 28 35 41 63 39 35
       2.7007994e-07 8.666335e-07 6.2819794e-07 6.9062304e-07
000020 50 fa 1c 35 65 02 f5 35 78 46 a7 35 30 84 85 34
       5.847878e-07 1.8254619e-06 1.2462979e-06 2.486936e-07
000030 50 5c 70 36 f3 7d 3f 34 58 5e a9 34 00 6a 7e 36
       3.581652e-06 1.7834081e-07 3.1547347e-07 3.791065e-06
000040 56 f5 54 34 f2 7e 62 35 de c1 26 36 7f 71 e1 35
       1.9833291e-07 8.437629e-07 2.4848773e-06 1.6796838e-06
000050 07 e8 64 36 62 04 05 36 19 79 24 36 cb 25 63 35
       3.4109705e-06 1.9821096e-06 2.4508392e-06 8.4619086e-07
000060 1d 7d 1c 36 c5 27 44 34 6f 33 64 35 f8 67 0c 35
       2.3318637e-06 1.826839e-07 8.5011465e-07 5.230536e-07
000070 6b b4 bf 35 af 7f 44 35 38 9e 82 34 0c 3c 8a 35
       1.4283117e-06 7.3201494e-07 2.4329506e-07 1.0299277e-06
000080 59 d1 88 35 3a 50 3b 35 a2 b8 95 33 93 1a ad 35
       1.0193718e-06 6.9779674e-07 6.971938e-08 1.2897239e-06
000090 e9 dc b2 34 4a 81 a4 35 03 e1 26 36 d2 07 97 34
       3.3315817e-07 1.225658e-06 2.4866902e-06 2.8131632e-07
0000a0 36 d6 7c 35 f2 b2 bd 34 1b b9 76 35 08 c8 7a 36
       9.4189033e-07 3.5334193e-07 9.1911505e-07 3.7369336e-06
0000b0 bb ff d4 34 c1 0b 29 35 70 4b 41 34 2f 45 6a 34
       3.9674146e-07 6.297451e-07 1.800197e-07 2.1818117e-07
0000c0 2e cd db 35 35 61 98 34 85 4d 19 35 28 16 0f 35
       1.6376487e-06 2.8382934e-07 5.710975e-07 5.3303893e-07
0000d0 80 cc 2c 34 85 80 bc 34 a7 9f ce 34 8a a4 89 34
       1.6093145e-07 3.511124e-07 3.8486652e-07 2.5637956e-07
0000e0 7c 6d 1c 36 aa 04 eb 33 8e 52 7c 36 61 ef fc 34
       2.330954e-06 1.09438886e-07 3.759898e-06 4.711283e-07
0000f0 74 fc 8a 35 62 53 a4 35 90 ec 9e 34 19 61 56 35
       1.0355275e-06 1.224322e-06 2.9601915e-07 7.986251e-07
000100 3d d1 4d 35 bc 2d 94 35 78 a6 24 36 9d 06 6a 34
       7.6672933e-07 1.104017e-06 2.4534802e-06 2.1795354e-07
000110 7e ac 58 35 ea 39 30 35 a0 1d 42 35 32 2a f1 35
       8.071728e-07 6.5649385e-07 7.231374e-07 1.796818e-06
000120 0b dc 22 36 81 c5 c9 35 c6 65 ed 34 6e c2 70 34
       2.4267963e-06 1.5033148e-06 4.421874e-07 2.2422475e-07
000130 5b 5d 98 35 eb e5 27 35 43 3a c7 35 45 72 bb 35
       1.1352053e-06 6.254692e-07 1.4843612e-06 1.3965843e-06
000140 c2 e5 c8 35 86 cd dc 33 fe fd d0 34 65 68 08 35
       1.496803e-06 1.0281933e-07 3.8927823e-07 5.081586e-07
000150 8b a8 c0 35 3a 10 0e 34 4b 2d b7 36 7a ef df 35
       1.4354167e-06 1.3230684e-07 5.459098e-06 1.6684492e-06
000160 8e 53 7c 34 88 5a ab 35 26 27 00 35 0d 58 fc 33
       2.3499726e-07 1.2766841e-06 4.7740684e-07 1.1750681e-07
000170 c5 4b e3 34 a4 6e 0b 35 b5 36 c3 33 5c 69 20 36
       4.2337174e-07 5.194254e-07 9.090346e-08 2.3903185e-06
000180 98 2c 3e 36 96 ba de 34 95 df ea 35 cc 15 fe 35
       2.8338163e-06 4.1486481e-07 1.749943e-06 1.8930818e-06
000190 e5 a1 82 35 08 98 cc 33 4d bb 2f 34 cf bf b3 35
       9.732872e-07 9.5271446e-08 1.6366285e-07 1.3392363e-06
0001a0 a1 6b 05 35 1d 74 06 35 fd 72 6c 36 55 f1 e5 34
       4.970298e-07 5.0087857e-07 3.5233672e-06 4.2830166e-07
0001b0 46 cd 15 34 f1 e0 b8 34 3f ca 4e 34 58 a4 47 35
       1.3951384e-07 3.4436337e-07 1.9258822e-07 7.437243e-07
0001c0 7c 67 aa 34 b6 25 34 35 1a ed c0 35 e9 3c 50 35
       3.1740262e-07 6.71101e-07 1.437412e-06 7.7574674e-07
0001d0 fa 24 31 34 79 87 87 35 13 25 97 33 f5 cd be 35
       1.6497862e-07 1.0097712e-06 7.038229e-08 1.4216045e-06
0001e0 78 d8 b3 34 9d 70 41 36 e0 8e 79 35 ea b9 86 35
       3.349885e-07 2.882479e-06 9.296764e-07 1.0037886e-06
0001f0 d1 0c bf 34 39 8c 97 35 5a 82 b2 35 eb f9 0d 36
       3.5585848e-07 1.1291187e-06 1.3299971e-06 2.1156109e-06

exp_avg f4 [128]
000000 e8 e0 5b b7 5a 9f ad b7 c6 78 1e b7 33 93 bc b6
       -1.3105782e-05 -2.0697411e-05 -9.445654e-06 -5.619973e-06
000010 ad 26 95 38 b4 58 06 b8 40 2a 11 b8 ba f5 1c 36
       7.1120776e-05 -3.20307e-05 -3.4610042e-05 2.3388843e-06
000020 9a e5 cc b7 15 40 0a 37 44 6c 8d 38 b8 d2 86 b7
       -2.4425612e-05 8.240361e-06 6.74357e-05 -1.6072168e-05
000030 b6 18 9d 36 2b 2d 15 37 47 e2 13 38 35 cb a0 36
       4.6818413e-06 8.891609e-06 3.525827e-05 4.792028e-06
000040 7a fe a1 37 18 b8 bb b7 2a 05 dc b7 4b 38 a6 b6
       1.9311196e-05 -2.2377862e-05 -2.6228448e-05 -4.953739e-06
000050 0e dd b5 b7 35 d5 80 37 78 c0 7f 36 f4 45 4d b7
       -2.1679818e-05 1.5358071e-05 3.8109993e-06 -1.2235239e-05
000060 62 c3 a4 b7 44 4c f1 b7 dd 31 95 b6 ab fc 89 37
       -1.9641306e-05 -2.8764953e-05 -4.446351e-06 1.644933e-05
000070 95 f4 15 b7 5b c6 df b6 9b 8b 63 35 08 dd e5 b6
       -8.938038e-06 -6.6690095e-06 8.476724e-07 -6.8504633e-06
000080 67 34 12 b8 d2 ac c7 37 20 50 9b 37 6a bc 1f b8
       -3.4857916e-05 2.3803124e-05 1.8514751e-05 -3.808403e-05
000090 a2 71 cc b7 a1 58 15 b7 ed 26 16 b7 dd bc df b7
       -2.437161e-05 -8.901728e-06 -8.94976e-06 -2.6671618e-05
0000a0 e1 23 23 35 06 9e 6c b7 30 87 0d 38 26 b4 9e 36
       6.077444e-07 -1.4103489e-05 3.3742923e-05 4.729739e-06
0000b0 11 a3 c8 37 dd 6f 8e 38 db 0e 8a 37 ff aa 12 38
       2.3917792e-05 6.791924e-05 1.64578e-05 3.4968365e-05
0000c0 17 8b 71 37 a7 ca 14 b8 d3 3d 38 b8 bb 00 8e 36
       1.4397104e-05 -3.5474684e-05 -4.3926597e-05 4.232015e-06
0000d0 11 f5 56 38 28 6f 89 b7 6e 69 c9 37 fe 70 08 37
       5.124981e-05 -1.6383434e-05 2.4010162e-05 8.13254e-06
0000e0 42 e0 bd b7 c3 a7 83 b7 04 d2 ec 36 b8 58 6d b7
       -2.2634984e-05 -1.5694537e-05 7.057797e-06 -1.4146957e-05
0000f0 f2 43 6c b7 80 9b 0e b7 14 f6 7e b7 bb 8c 42 b6
       -1.4082516e-05 -8.500065e-06 -1.5196874e-05 -2.8990169e-06
000100 2c 1f 19 37 cb 3c 08 b7 d7 33 dc b7 a1 73 ec b7
       9.126768e-06 -8.120386e-06 -2.6250184e-05 -2.8187236e-05
000110 cd 3d de b6 95 58 c6 36 5b 2f 26 37 63 b7 e7 b7
       -6.62331e-06 5.911172e-06 9.905397e-06 -2.7622742e-05
000120 25 8f 57 b8 4f 15 29 b7 f7 7b 09 b7 09 9d 4e 37
       -5.139331e-05 -1.0078146e-05 -8.194699e-06 1.2315119e-05
000130 09 72 e2 b6 79 61 b9 37 72 3a 24 37 76 32 01 37
       -6.7486003e-06 2.2099108e-05 9.78877e-06 7.700748e-06
000140 2b b9 d6 36 88 6b 37 37 77 b9 2a 37 99 ce 1d b7
       6.3992534e-06 1.0932687e-05 1.01759715e-05 -9.4060315e-06
000150 fd f8 a3 35 31 03 8f 37 47 b3 f2 b6 02 9c 89 36
       1.2216912e-06 1.7048415e-05 -7.2330326e-06 4.10108e-06
000160 76 0d fa b7 dd 30 eb 37 21 96 72 b6 85 84 89 37
       -2.980859e-05 2.8036937e-05 -3.6148197e-06 1.6393382e-05
000170 f0 3d 39 b7 fe e3 8f b7 88 5f 92 b7 28 7c e3 b7
       -1.104128e-05 -1.7153096e-05 -1.7449041e-05 -2.7118323e-05
000180 9d 5d 20 b6 21 0c 02 37 9a 07 08 37 49 64 6f 37
       -2.3896348e-06 7.751428e-06 8.108002e-06 1.426886e-05
000190 61 a8 ad b6 63 f8 c2 b7 de 07 78 b7 f2 54 0d b7
       -5.1754037e-06 -2.3242266e-05 -1.4783784e-05 -8.424033e-06
0001a0 8a 14 18 b8 3e 92 23 37 f8 83 44 b7 15 b0 3f b6
       -3.6258753e-05 9.749607e-06 -1.1713237e-05 -2.856371e-06
0001b0 ec 71 01 b8 5e c6 0f b7 e3 19 88 37 7e 5f a3 b6
       -3.0862095e-05 -8.56965e-06 1.6224518e-05 -4.8688953e-06
0001c0 9b df 84 38 cc c6 3f b7 40 50 61 b7 a0 b0 cb 37
       6.3359e-05 -1.1430773e-05 -1.342973e-05 2.4281733e-05
0001d0 73 21 ba b7 e4 dc c0 36 7f 03 1c 37 73 bf 59 35
       -2.2188504e-05 5.747761e-06 9.299139e-06 8.1117395e-07
0001e0 df c6 a5 37 ab 3d 97 b6 0c ab 67 37 c6 1c 0e b7
       1.976214e-05 -4.50733e-06 1.3808498e-05 -8.470559e-06
0001f0 b2 1f ce 35 48 a1 f6 35 eb 32 7b b7 15 61 5c 37
       1.5357421e-06 1.8375367e-06 -1.4972621e-05 1.31356255e-05

exp_avg_sq f4 [128]
000000 7b 0e 6a 33 3f 73 39 32 42 1a 35 32 89 fd cf 32
       5.449554e-08 1.0794621e-08 1.0541557e-08 2.4213266e-08
000010 33 8c 47 33 69 f6 95 33 9f 13 67 33 c9 82 ce 31
       4.646081e-08 6.983175e-08 5.3801724e-08 6.0102576e-09
000020 43 a3 44 33 66 b1 12 33 4b f0 f0 33 de 5a be 32
       4.5783292e-08 3.4154617e-08 1.121958e-07 2.2160233e-08
000030 55 fb f8 32 21 8a 41 32 65 64 bb 32 62 b2 88 33
       2.8985292e-08 1.1265485e-08 2.181532e-08 6.365441e-08
000040 52 96 03 33 10 01 81 33 0e 4c e1 32 e7 78 63 32
       3.063753e-08 6.007224e-08 2.6228033e-08 1.3240629e-08
000050 6f be de 32 2a 3b ab 32 7a 40 c1 32 98 cf f1 31
       2.59308e-08 1.9933925e-08 2.2497478e-08 7.037624e-09
000060 96 2d 96 32 0a ba e2 32 a6 bf 79 33 8e a4 48 32
       1.7483028e-08 2.6394464e-08 5.8149134e-08 1.1678948e-08
000070 66 1c a5 33 fc ba e3 31 7a d5 a8 32 8a 5c 0e 32
       7.688577e-08 6.627827e-09 1.9654852e-08 8.286529e-09
000080 cd 02 3a 33 ed e1 37 32 ad 3e a0 31 3b fb d0 33
       4.3309047e-08 1.07033715e-08 4.6637383e-09 9.731453e-08
000090 c2 c1 d8 32 96 e7 8a 32 94 18 82 32 9a 3f b7 32
       2.523382e-08 1.6170628e-08 1.5145169e-08 2.1332927e-08
0000a0 6b d6 ee 31 fd 48 9c 32 4b 5e 3f 32 75 83 bd 32
       6.951088e-09 1.8193981e-08 1.1139103e-08 2.2062276e-08
0000b0 ba 58 ee 32 de 71 5b 33 eb 7c 21 32 64 99 c9 32
       2.7747195e-08 5.1093473e-08 9.3998365e-09 2.3469234e-08
0000c0 0c 73 80 32 b7 32 c6 32 6c 02 93 33 1c 32 80 32
       1.4953478e-08 2.3073296e-08 6.8456615e-08 1.4923948e-08
0000d0 b7 4f 97 32 ff b2 b0 31 c2 60 d6 32 f7 39 ad 32
       1.7614964e-08 5.1426237e-09 2.495688e-08 2.016621e-08
0000e0 81 a0 b6 32 12 20 f4 31 c9 ba fa 32 d4 be 23 33
       2.1260577e-08 7.1049806e-09 2.918877e-08 3.8124952e-08
0000f0 d5 44 00 32 a8 22 cb 33 96 6b 60 31 24 51 93 33
       7.466231e-09 9.459228e-08 3.2657446e-09 6.85998e-08
000100 1c f2 93 33 5f d4 36 32 3c b5 aa 32 81 59 da 32
       6.8892604e-08 1.0642082e-08 1.987302e-08 2.5419242e-08
000110 ff fd 5a 33 35 cd 46 33 4e 37 54 33 d1 6d f1 32
       5.098809e-08 4.6287102e-08 4.9410396e-08 2.8106031e-08
000120 01 f2 0a 33 98 92 49 32 f0 35 57 32 dc ba 99 32
       3.235073e-08 1.1733071e-08 1.2526911e-08 1.7896518e-08
000130 f8 76 67 32 d8 6e 2f 33 de 5a 9a 32 70 ac 7c 32
       1.347302e-08 4.0846174e-08 1.7969281e-08 1.4707538e-08
000140 99 33 2e 32 8a ec 1f 32 4e d6 0c 33 01 55 23 33
       1.0139865e-08 9.308801e-09 3.27912e-08 3.8028706e-08
000150 c8 4d 3a 32 2b b2 41 32 5c 74 24 33 6d 9e 89 32
       1.084431e-08 1.1274589e-08 3.8290054e-08 1.6020943e-08
000160 2e 24 f8 32 01 b1 83 32 f3 b6 31 33 55 bb 1a 32
       2.8887452e-08 1.53309e-08 4.1377415e-08 9.006574e-09
000170 c9 66 fa 32 46 97 c0 31 77 ad 22 32 12 88 11 33
       2.9150572e-08 5.6051332e-09 9.469082e-09 3.38842e-08
000180 1a c3 51 33 7d 40 96 31 c0 ce 99 32 c3 61 8d 32
       4.883905e-08 4.372906e-09 1.7905563e-08 1.6459017e-08
000190 f8 5e 45 32 5c b8 55 32 70 48 cc 32 b6 99 c9 33
       1.1488503e-08 1.244015e-08 2.3781666e-08 9.387752e-08
0001a0 bd 6a 40 32 ff fe 3b 32 fe a7 d1 32 c0 b0 c9 31
       1.120014e-08 1.0942812e-08 2.4407196e-08 5.869964e-09
0001b0 d2 92 d1 32 79 dd 7a 31 a1 7a 7f 32 11 c6 3b 32
       2.4397568e-08 3.650568e-09 1.4870836e-08 1.0929868e-08
0001c0 91 dd 3d 33 d2 d0 15 32 e9 0f 3d 32 d0 5a a1 33
       4.4206505e-08 8.720422e-09 1.10048655e-08 7.5136654e-08
0001d0 c3 b0 6e 32 77 59 14 32 d3 b6 cc 31 e9 d5 3f 32
       1.3893614e-08 8.635076e-09 5.957966e-09 1.1166301e-08
0001e0 20 04 01 33 b8 00 15 33 6f eb 99 33 d3 f7 43 32
       3.0038905e-08 3.469242e-08 7.167443e-08 1.1406843e-08
0001f0 38 95 fc 32 27 c2 80 32 db 65 4c 32 b3 68 9b 32
       2.9404518e-08 1.4989451e-08 1.1897522e-08 1.8091987e-08
