TWP_2/results/DynPnp15/RobotArm/RobotArm-1499847.onnx (onnx, 79646 bytes, 9 tensors)

network_body.observation_encoder.processors.0.normalizer.running_mean f4 [12]
000000 35 9f 41 c0 1c 73 a8 41 17 46 56 40 10 3f 05 c0
       -3.0253422 21.056206 3.348028 -2.081974
000010 b7 1e 10 40 3d 0b 0b 40 ab 4b 5e bf b1 ff 3f 40
       2.2518747 2.172561 -0.8683421 2.9999812
000020 96 68 05 3f d2 7d b2 41 07 7d 1c 42 e9 90 a5 3e
       0.5211271 22.311436 39.122097 0.3233712

network_body._body_endoder.seq_layers.0.weight f4 [128, 12]
000000 27 c2 ac be 73 c5 98 3e 52 d3 64 be d8 4a df 3e
       -0.33741876 0.29838142 -0.22346237 0.4361179
000010 6c 44 0b bf ea 35 ba be a0 9a e5 3e 1f 73 95 3e
       -0.5440128 -0.36369258 0.44844532 0.29189393
000020 bf a8 e9 3e ba 50 54 be bd cb 77 3e 95 30 9c be
       0.45636556 -0.2073392 0.24198814 -0.30505815
000030 4c 6f e9 be 6c 39 c3 3d b4 da 86 3e 22 14 10 3f
       -0.45592725 0.09532437 0.26338732 0.5628072
000040 2c 16 41 be 67 40 80 3d ff 64 ea be 9a 0b 26 3f
       -0.18856114 0.06262284 -0.4578018 0.6486145
000050 50 43 dd 3d 2f 68 53 3e 18 40 3e be 85 09 37 3d
       0.108038545 0.20645212 -0.18579137 0.044686813
000060 f5 16 dd 3e d2 5b 97 3e 18 01 ab bd b6 d8 1d 3e
       0.43181577 0.2956224 -0.08349818 0.154147
000070 72 c0 78 be 90 c7 75 3e d6 fa 79 be f3 c0 e6 be
       -0.24292162 0.24001908 -0.24412093 -0.45069084
000080 3e 69 fa bd 37 98 d0 3d 70 3b 75 be ce 02 e6 3d
       -0.122271046 0.10185283 -0.23948455 0.11231004
000090 61 43 68 3e d7 34 99 bd 20 81 98 3d cf f4 b5 be
       0.22681953 -0.074807815 0.07446504 -0.35538337
0000a0 85 d4 06 3e 21 ef 25 3e 3b 8a ba 3c 78 a1 a5 3e
       0.13167007 0.16204502 0.022770992 0.32349753
0000b0 c8 79 d4 bd 01 fe ba be 6c be 07 bf e6 08 fb 3e
       -0.103747904 -0.36521915 -0.53024936 0.49030226
0000c0 75 da 93 be c0 77 60 be 2a 5a 5c be d2 33 15 be
       -0.28877607 -0.21920681 -0.2151877 -0.14570549
0000d0 df f7 4b be 3e 88 24 be 8e 2b c1 be 0f 57 c3 be
       -0.19918774 -0.16067597 -0.37728542 -0.38152358
0000e0 ea 45 f2 3e 85 8a 19 bf a8 99 92 be b5 88 85 3e
       0.47318965 -0.5997699 -0.28632855 0.26080862
0000f0 10 29 80 3d d2 f0 84 bd cc ad 93 be 0e c6 61 bc
       0.06257832 -0.06491245 -0.28843534 -0.01378013
000100 85 8b cf 3a 4b 02 36 bf 64 71 44 bd 4b eb 06 3f
       0.0015834427 -0.7109725 -0.0479597 0.5270278
000110 f5 a5 75 3f f9 aa ce bd 3f 1c ad 3d d9 e8 8b 3e
       0.95956355 -0.10091204 0.08452653 0.27326086
000120 26 c5 3e be 7f 9d 49 3d b0 04 a1 3c 52 06 29 bd
       -0.18629894 0.049222466 0.019655555 -0.041265793
000130 a4 0a 98 be 8d 7d 06 bf 1d 4c cf 3d c6 96 04 bd
       -0.29695618 -0.52535325 0.10121939 -0.03237035
000140 ce 90 9d be 53 0b c8 3b ad eb 99 3e 82 d6 fe bd
       -0.3077454 0.0061048656 0.3006262 -0.12443258
000150 bb 31 a8 bd 97 c9 70 be 53 67 7b be 90 90 e7 be
       -0.0821261 -0.235144 -0.24551134 -0.4522748
000160 c9 69 c9 3d 25 d0 04 3e 0a 3f 48 3e 4b ff 71 3e
       0.0983463 0.12970026 0.19555297 0.23632543
000170 27 69 cf be 23 72 ec 3e b0 c3 e4 3e e2 59 54 3d
       -0.40509912 0.4618083 0.44680548 0.05184353
000180 de 51 55 3d 1f 13 56 be 41 c2 da bb 2a 29 59 3e
       0.052080028 -0.20905732 -0.006675989 0.21207109
000190 fa 26 0c bf 0c 89 a4 3e c6 61 f9 3e 53 e0 62 be
       -0.54746974 0.32135808 0.48707408 -0.22155885
0001a0 bd a1 46 bf c5 67 aa 3e 96 a5 18 be 89 98 67 3e
       -0.77590543 0.33282295 -0.14906916 0.22616781
0001b0 84 41 84 bd 7f 09 4d bf fa 32 15 be c4 23 8b be
       -0.064578086 -0.80092615 -0.14570227 -0.27175725
0001c0 5c 25 5f 3e be 84 d4 3c 69 b0 1a 3e cf b6 e8 be
       0.21791595 0.025942203 0.15106358 -0.45451972
0001d0 46 70 1f bf ad 84 54 be 0b c6 2c be e8 99 1c be
       -0.6228069 -0.20753737 -0.16872422 -0.15293086
0001e0 81 85 b8 be 07 9d 3e be 68 62 be 3e 02 9d 0f 3e
       -0.36039355 -0.18614589 0.37184453 0.14024737
0001f0 4c 46 8f 3d a9 76 ce 3d 8a 37 83 be 20 19 a8 bd
       0.0699583 0.100812264 -0.2562831 -0.08207917
000200 65 6d 85 3e e2 ae de 3d 45 0f 88 be 99 14 ab be
       0.26060024 0.108732 -0.2657415 -0.33414152
000210 37 6d d2 3e c5 50 82 be 92 ba b0 bc 63 55 dd 3e
       0.4109895 -0.25452247 -0.021573339 0.43229207
000220 df fd a2 3d d7 f8 a8 bd 45 20 83 be 3e 19 e7 be
       0.07958578 -0.082505874 -0.25610557 -0.45136446
000230 31 da be be 54 ee 08 be 1a 08 ce be 13 e0 4d 3d
       -0.37275842 -0.13372165 -0.40240556 0.050262522
000240 94 62 a3 3e a4 09 2a 3b c5 74 54 3e e0 51 cb bd
       0.31911147 0.0025945688 0.20747669 -0.09927726
000250 79 ff 8a 3e 3d 64 20 be 81 48 10 3f 87 c8 31 be
       0.27148035 -0.15663238 0.5636063 -0.17361651
000260 ea 4e 04 be 98 56 c5 3d 0b f3 54 be 38 77 b0 bd
       -0.12920728 0.09635657 -0.20795839 -0.08616489
000270 e1 e4 1c be 9c a3 ab be 16 19 63 3a 23 b1 69 be
       -0.15321685 -0.33523262 0.0008663101 -0.22821479
000280 70 55 8e 3e b2 94 c2 be a4 6f 2a 3e 2e 3e fe 3d
       0.2779956 -0.3800407 0.1664415 0.124142036
000290 e9 04 3b 3f 04 4c a0 3e 48 64 db bd d8 4c 46 be
       0.7305437 0.31307995 -0.107124865 -0.19365251
0002a0 be 4c 87 be c5 b2 47 3e 38 32 a9 3e 0f ea 0b be
       -0.26425737 0.19501789 0.33046126 -0.13663505
0002b0 a9 49 96 3d d8 38 92 be 37 52 0d 3e 2d 51 83 be
       0.07338268 -0.28558993 0.13800894 -0.2564787
0002c0 bc 70 9f 3e 23 90 d5 bd 20 b2 a8 3e ef ed cb bd
       0.31140697 -0.104278825 0.329484 -0.099574916
0002d0 cb 1a d4 bd 25 91 6b 3d c6 7d 0a bf dc 0a 6e 3e
       -0.10356673 0.057511467 -0.54098165 0.2324633
0002e0 41 f9 da be 70 d8 cd 3e 20 8a 78 bc 8b bd 0a 3e
       -0.4276829 0.4020419 -0.01516965 0.13548867
0002f0 2b 0b 69 3e ac 87 e0 bc da 85 89 3d b1 2a d3 3d
       0.22758166 -0.027408443 0.06714983 0.10310877
000300 74 5b 88 3e 13 aa 9e be 0c 1b 94 3e a8 8b 33 be
       0.26632273 -0.3098913 0.28926885 -0.17533743
000310 e8 86 2f bd 60 87 af be 3b 01 85 be 2c 63 d9 bd
       -0.042853266 -0.3428297 -0.259775 -0.10614619
000320 c3 95 2c be 60 b2 ef be 15 88 8b be d7 9d 13 3e
       -0.16854005 -0.46815777 -0.2725226 0.1441568
000330 ab 36 02 3d df 07 a8 bd 29 0d e0 bd 54 15 e7 3e
       0.031790417 -0.08204626 -0.1094001 0.4513346
000340 76 ae 44 3f 59 f6 a6 bd 44 44 aa 3e 82 95 85 3e
       0.76828706 -0.08152456 0.33255208 0.26090628
000350 0a 7e 32 be bd 0a 25 3e bd 3e 82 be b7 a1 31 be
       -0.17430893 0.16117378 -0.2543849 -0.17346846
000360 da a4 48 bd a2 1c 60 be b6 43 02 bf c1 88 bd bd
       -0.04898534 -0.21885923 -0.5088457 -0.09254599
000370 00 ae 67 be f1 b2 dd 3e 13 a7 92 3e e7 f6 52 bd
       -0.2262497 0.43300584 0.28643093 -0.051504996
000380 05 13 68 3e 4f b7 21 3e 28 60 ca 3e 20 2b 85 3e
       0.22663505 0.15792583 0.39526486 0.26009464
000390 d3 a2 94 bd ce a9 11 3d 48 78 e8 be da 3a 01 be
       -0.07257619 0.03556233 -0.45404267 -0.12620106
0003a0 e1 1f 89 3e cc b3 d2 3c 57 a8 f1 be d5 cd 71 be
       0.26782134 0.0257205 -0.47198746 -0.23613675
0003b0 4c 71 76 3e 6a 75 0b 3f 93 c1 07 3f 27 fb 4f bd
       0.24066657 0.54476035 0.53029746 -0.050776627
0003c0 63 65 dc 3d ee 6f 07 3f 53 c8 be 3e 29 8d fe bd
       0.107615255 0.52905166 0.3726221 -0.12429268
0003d0 dc 74 31 bf 55 32 2f be f9 dd ee 3e 20 e4 ac 3e
       -0.6931894 -0.17109044 0.46653727 0.33767796
0003e0 46 0c 34 bf 8d 8d 42 3e f2 45 aa 3e 0c 49 f2 3b
       -0.7033123 0.1899931 0.3325649 0.007393962
0003f0 66 61 cb 3c f3 54 0b 3f 7b dc d9 3e 7a fd b3 3e
       0.024826717 0.544265 0.42551026 0.35154325

network_body._body_endoder.seq_layers.0.bias f4 [128]
000000 a9 18 71 3e a6 50 47 3e c0 a5 ff bd 32 50 f8 b9
       0.23544563 0.19464359 -0.12482786 -0.00047361996
000010 05 82 85 3d 0d b0 8a 3e 4d 82 31 3e ab 09 01 be
       0.0651894 0.2708744 0.17334862 -0.12601344
000020 aa d1 87 bd 85 ee 26 3d 9d 1c d9 3c 80 e1 40 3e
       -0.06631787 0.040754814 0.026502902 0.18836021
000030 4b d3 d2 3d 14 57 f1 3d 34 ae a3 3d 81 3d d2 3d
       0.10294207 0.11784187 0.07992211 0.10265637
000040 ba 28 be 3c 17 d7 d5 3d 61 8e 19 bd 0e f0 98 bd
       0.02321278 0.10441416 -0.0374893 -0.07467662
000050 c7 da 01 3d 04 07 3b 3e fa de d6 3d 45 46 3c 3e
       0.031702783 0.18264395 0.10491748 0.1838618
000060 28 4b fc bc bb 87 8c 3d 01 94 9c 3d 5c d9 e1 bd
       -0.030797556 0.06861826 0.07645417 -0.11027786
000070 3e 2a 5c 3d be 36 89 3d 2e 49 42 3d a2 ec 45 bd
       0.053751223 0.06699894 0.04743307 -0.048321374
000080 4c 4d 7c bc 46 46 27 3e 9a 1e 50 bd 35 64 9f 3b
       -0.015399288 0.16335401 -0.050810434 0.0048642405
000090 d3 c0 9a bd 39 32 4e 3e 4e c0 9f 3d 9e 05 2f be
       -0.075563096 0.20136346 0.07800351 -0.17091987
0000a0 9b 49 3a bd 79 53 3b 3e 0e d5 7d 3e b7 10 9e 3d
       -0.045480352 0.18293561 0.24788305 0.07718032
0000b0 78 13 01 3d af d9 b3 3d 62 1d 78 be e8 be 57 3d
       0.031512707 0.08781754 -0.24229959 0.052672297
0000c0 a7 e1 f9 3d 4c 4e 10 bd 80 08 1d 3c 48 4f 6c bc
       0.12201243 -0.03523092 0.009584546 -0.014423199
0000d0 23 12 41 3e f5 04 84 3d 26 f9 20 bc 86 92 b5 bd
       0.18854575 0.06446258 -0.009825027 -0.08865838
0000e0 bb f9 45 3e f1 f7 82 bd ea 47 10 3e 6f 75 3a 3e
       0.19333546 -0.06394947 0.14089933 0.1820886
0000f0 3c 45 1d 3e 83 ff 59 3d 4d 38 61 3e 98 7f 76 3e
       0.15358442 0.05322219 0.21994133 0.2407211
000100 a1 2c 58 3c ad 79 2f 3e 89 1d e5 3d bd 04 40 3a
       0.013194234 0.1713626 0.11187274 0.0007324925
000110 b3 42 00 be f3 bd 26 3e b4 3e 81 bd 8e d5 bd bd
       -0.12525444 0.16283397 -0.06310788 -0.09269248
000120 fc 5b 3f bd 70 d3 e5 3d 3b 35 f8 bd 61 20 d7 3d
       -0.046718583 0.11221969 -0.12119528 0.10504223
000130 0e ae 41 3e bc 15 4d 3e 5c 33 e3 3d 27 78 41 3e
       0.18914053 0.20027822 0.110937804 0.1889349
000140 2d ce 6b 3e 45 24 b3 3d e4 a5 85 3e cd 26 33 3c
       0.23027869 0.08747152 0.26103127 0.010934544
000150 48 cf 0f 3e b1 65 f9 bd 54 79 59 3d e2 f8 c4 bd
       0.14043915 -0.12177599 0.053094223 -0.09617783
000160 14 35 05 3e 1f 0d d2 3d 67 a9 39 3e ec 3e 54 3e
       0.13008529 0.10256409 0.18131028 0.20727128
000170 c2 de 34 bc f3 74 e2 3c 88 21 fb 3d b9 cf ab bc
       -0.011039438 0.027643656 0.12262255 -0.020973073
000180 c3 90 7f 3d a3 76 7c 3d 5f 7d a1 3d fc 14 8c 3d
       0.062393915 0.06163658 0.07885241 0.0683994
000190 48 45 69 3e 36 1c 35 3e 0a c9 c2 bd dd 30 15 3e
       0.22780335 0.17686543 -0.095110014 0.14569421
0001a0 d0 39 4e 3e f2 62 4c 3e c2 bb 5d be 27 02 8e 3e
       0.20139241 0.1995962 -0.21653655 0.27736017
0001b0 e6 3c ad 3d 05 af 06 3e e9 61 c8 3c 57 4d cb 3d
       0.08458881 0.13152702 0.02446075 0.09926861
0001c0 ca 78 04 3d b6 f5 52 3d 1b 77 82 3d c8 79 b3 bc
       0.032341756 0.05150386 0.06370374 -0.021908656
0001d0 f2 35 6f 3e ec 40 4a 3d db e6 31 be 64 3e b6 3d
       0.23360422 0.04937832 -0.1737322 0.08898619
0001e0 72 eb 9e 3d 13 18 07 3e 53 d9 c4 bc 74 02 9a bc
       0.077597514 0.13192777 -0.02402941 -0.018799998
0001f0 24 a0 f5 bd 81 50 2d 3e 6b 5d 1c 3e 7d d0 a9 be
       -0.11993435 0.16925241 0.15270011 -0.33166876

network_body._body_endoder.seq_layers.2.weight f4 [128, 128]
000000 f4 a5 c5 3d 9e 52 de bd cb e6 ce 3c e3 57 74 bd
       0.09650794 -0.10855602 0.025256535 -0.059654128
000010 ec 8a 25 be 7f 88 18 3e df f2 c2 bc 00 b7 90 bc
       -0.16166276 0.14895819 -0.02379745 -0.017665386
000020 e2 a1 33 bd 93 7d cf bd fa ae c5 3c 95 4b 0f 3e
       -0.043855555 -0.10131373 0.024131287 0.13993676
000030 a9 7a 31 3e d8 0e 86 bd 98 dd 16 3e 2f b9 f6 bb
       0.17331947 -0.065458 0.14732969 -0.0075294
000040 ee 4a 79 bc cc a0 ca 3c d8 18 07 3e 4b 27 db bd
       -0.015215619 0.024734877 0.13193071 -0.10700854
000050 8f d5 73 bc 4f 39 be bd fc c2 74 bc 90 cd 07 3e
       -0.014882459 -0.092882745 -0.014939066 0.1326201
000060 7c c2 2e bd b6 e8 17 3e 74 7e 1e 3e ad ee a5 bd
       -0.042665944 0.14834866 0.15477926 -0.081021644
000070 7b e3 3b 3e 5e 50 28 bd 76 b1 23 bd b6 ae 72 be
       0.18348496 -0.04109227 -0.03996416 -0.2369946
000080 ac 85 e9 3d 8d bf bb 3d 68 ac 60 3d 60 31 40 3d
       0.11402449 0.09167395 0.05485192 0.046922088
000090 0f b5 d4 3d 9b a9 aa bc b1 e1 94 bd f2 72 a6 bc
       0.10386097 -0.020832827 -0.0726961 -0.020318482
0000a0 96 f0 5a 3e 10 c6 39 bd fd a0 83 be bd 6e 0e 3e
       0.21380839 -0.045354903 -0.25708762 0.13909431
0000b0 c1 59 9c bd f3 6d 24 bd b2 da 33 3c 6c 4f bb 3d
       -0.07634307 -0.04014392 0.010977434 0.09146008
0000c0 9f cd 52 3d a7 c6 4b be 4f 4a 41 bc bd ad 29 be
       0.051465627 -0.19899999 -0.011797502 -0.16570182
0000d0 60 1e 8c 3c d5 07 0d bd 17 03 e0 bd 24 c1 d4 bc
       0.017104328 -0.034431297 -0.10938089 -0.025971003
0000e0 ab 28 89 3e 41 7d 61 3d 95 e7 45 bc ba 6e 55 3e
       0.2678884 0.055051092 -0.012079139 0.2084302
0000f0 ab 72 80 bd dd a6 a8 3d 3d e6 0f bd 31 70 9b 3c
       -0.06271871 0.08234952 -0.03513168 0.018974395
000100 a7 7e 79 3b a2 d7 67 3e 80 3c a5 be 0b b2 b8 bd
       0.0038069875 0.22640851 -0.3227272 -0.09018334
000110 6e c4 51 3e e7 f1 75 3d 3d 45 fb bd 07 c1 d1 3d
       0.20485088 0.06004515 -0.122690655 0.10241895
000120 50 b6 73 3d d9 c7 84 bd 1e 47 d1 bd 7d 95 a7 bd
       0.05950004 -0.064834304 -0.10218643 -0.081828095
000130 fc d2 2e 3e e9 da 9a bc 36 aa b5 3b 50 1c 46 3d
       0.17072672 -0.018903213 0.0055439724 0.048366845
000140 66 7c 27 3e 16 7f 08 3c f2 f3 5d 3d 24 b0 ad b9
       0.16356048 0.008331081 0.054187723 -0.00033128366
000150 a8 7d b0 bc 43 bf 17 3e 0f 0b 04 3e 05 b9 65 3e
       -0.021544293 0.14819054 0.12894844 0.2243386
000160 73 d1 22 bd 69 04 4a 3d c0 59 b0 bd 31 0d a4 bd
       -0.039750528 0.049320612 -0.086108685 -0.080103286
000170 4b d6 36 be fb cd 64 3d db dc b8 bc 48 9a b0 3d
       -0.17855184 0.0558605 -0.02256625 0.08623177
000180 85 9b 62 3d 6b 19 05 3c 44 16 03 be 64 9b 0f 3e
       0.055324096 0.008123736 -0.12801462 0.1402412
000190 fe 09 5f bd 96 09 04 bd 7b ea ab bc 7f 44 64 3d
       -0.05445289 -0.032235704 -0.020985832 0.055729385
0001a0 a3 25 07 3e 8f fc 10 3e 15 39 9b bd da d0 40 3d
       0.13197951 0.14158843 -0.07579247 0.047074176
0001b0 af 05 e8 3d 58 51 cd bd 42 77 9b 3c 86 e5 09 3d
       0.11329209 -0.10025281 0.018977765 0.033666156
0001c0 0f e5 c0 bd f4 d6 b8 bb 4f d3 18 3d 2b bd 2f bc
       -0.094186895 -0.005640859 0.037310895 -0.0107262535
0001d0 48 a4 af 3d 51 42 0a bd 04 e8 08 3e f1 d7 7e 3e
       0.08576256 -0.03375465 0.13369757 0.24887063
0001e0 8f 70 da 3c c8 e5 c5 bb 3d 4b 68 3e 31 a8 bc bd
       0.026665 -0.006039355 0.22684951 -0.092117675
0001f0 fb 3d 0b bd c9 50 9b 3c 4a 7d 43 3e 9f 14 74 be
       -0.033994656 0.01895942 0.19090763 -0.23835991
000200 01 35 24 be 92 0f 12 be 67 ef 41 3d d7 16 a2 bd
       -0.16035844 -0.14263752 0.047347452 -0.079145126
000210 e4 23 11 be b7 22 86 be bf 9a 16 bd c3 6a f5 3d
       -0.14173847 -0.2619836 -0.03676867 0.11983254
000220 73 17 1e bd 93 98 7a 3d ae 34 53 bd 28 4f 31 be
       -0.03859658 0.061180662 -0.05156391 -0.17315352
000230 6f 6f 0b 3c 33 36 91 3b fc 3c ef bd 0c 7e 14 bd
       0.008510455 0.00443151 -0.11681554 -0.03625302
000240 0a 0a 0f 3d 7b 4a 5e bd 25 33 f3 3d ab 17 5e bc
       0.034921683 -0.05427025 0.118749894 -0.013555448
000250 41 f7 ed bd 2e 64 47 be 96 22 69 bc 90 d3 89 3c
       -0.116194256 -0.1947181 -0.014229437 0.016824514
000260 06 5d d5 3d 73 2d 89 3e 8b bf d0 3d 07 3f 89 3c
       0.104181334 0.26792488 0.10192784 0.016753687
000270 b0 5c e1 bd c3 2b 8c bd 0f ff 3c 3d 5a 2b 56 bd
       -0.11004007 -0.068442844 0.04614168 -0.052287437
000280 12 b0 c1 bd ce d5 01 be 78 0d 6f 3d 9a 9e a7 3c
       -0.09457411 -0.12679216 0.058362454 0.02046137
000290 0b 71 49 3d eb 60 39 be 31 e9 a6 3d 57 fc 75 3e
       0.04918007 -0.18103378 0.081499465 0.24022041
0002a0 9b b5 38 bd fd 33 4e be 82 58 0e be 58 f6 06 3e
       -0.045095067 -0.2013702 -0.1390095 0.1317991
0002b0 b1 27 ae 3d 5c a8 0b be 99 4d e3 bb 04 d6 89 bd
       0.08503664 -0.13638443 -0.0069367406 -0.06730273
0002c0 25 16 be bc 4f c9 5f 3d 7d a4 8c 3c 64 75 6f 3d
       -0.023203919 0.054635342 0.017168278 0.05846156
0002d0 8e e7 0c be 2c ab 1b bd 1b 3f 9c 3d 1f 3e dd bd
       -0.13760206 -0.03800504 0.07629224 -0.10802864
0002e0 a4 99 54 be 01 af 3e 3e ff 12 04 bd 8d f0 45 be
       -0.20761734 0.18621446 -0.03224468 -0.19330044
0002f0 c3 12 54 bd 89 73 7e 3c 60 74 ce bd b0 07 c5 bd
       -0.051775705 0.015530475 -0.100807905 -0.09620607
000300 e8 37 11 bd 3d 56 98 3c fd 70 53 3c 06 ea 88 bd
       -0.035453707 0.01859581 0.0129053565 -0.066852614
000310 fd 86 10 be 28 7b d6 bd 28 ce d9 bc b4 f8 a0 3c
       -0.14113994 -0.10472709 -0.02658756 0.01964984
000320 7a 5c 39 3d a2 2b 0a 3c 76 f5 9d 3b 88 3e 38 bd
       0.04525421 0.008433254 0.004820521 -0.04498151
000330 b3 e5 3e 3d 0d 57 94 bd 72 bb c7 bd 0b a8 99 bd
       0.046605777 -0.07243166 -0.09752549 -0.07502755
000340 10 ca 06 be 4e 1b 65 be 73 dd b9 bd 39 6d 36 3d
       -0.13163018 -0.22373697 -0.09075441 0.044537757
000350 40 7b e1 3c 05 6d 5b bc 59 ae bd 3d b5 8d 29 3d
       0.02752459 -0.0133926915 0.0926177 0.041394908
000360 af 69 fb bd f1 3d d3 bc e0 d4 1c 3d d7 a1 c1 bd
       -0.12276017 -0.025786372 0.03828895 -0.094546966
000370 c9 4a 6e 3d b5 2b 11 3d 6d 7e 7b bd c7 71 94 bc
       0.05817679 0.035442073 -0.061399866 -0.01812066
000380 01 cd ab bd 3a 8a d1 3d 4a 37 6c bd 33 d8 44 bd
       -0.08388711 0.10231443 -0.057669915 -0.048057746
000390 1c d5 4c bc e3 ee dc 3c f1 a9 77 3a 37 bf 8b 3d
       -0.012501981 0.026969379 0.00094476255 0.06823581
0003a0 22 a9 92 be 29 2d 93 bd 9c 0d 2d bd 58 91 f7 3c
       -0.28644663 -0.07186348 -0.042249307 0.030220672
0003b0 8f 16 1b 3e bf 17 5a be 65 9d a9 bc 7f bf 2f bd
       0.15145324 -0.21298121 -0.020704934 -0.042907234
0003c0 4c 51 86 3c 54 f2 a3 bd 3c 65 bd bd 0b 81 ab 3d
       0.016396187 -0.08005205 -0.092478245 0.08374222
0003d0 c4 51 4b bd 95 e9 7b bd 38 7e a7 bc 90 d8 e0 bd
       -0.049638525 -0.061502058 -0.020445928 -0.10978806
0003e0 10 dd d0 bd ce 52 1e be f5 18 41 be ef f4 88 bd
       -0.10198414 -0.15461275 -0.18857177 -0.066873424
0003f0 09 83 48 3d 82 55 a4 bd a7 4e d9 bc 62 be 9c bd
       0.04895309 -0.08024122 -0.026526762 -0.076535

network_body._body_endoder.seq_layers.2.bias f4 [128]
000000 a4 8e b0 3d 3d 9c 20 be c8 4a 0f be 98 47 41 be
       0.086209565 -0.156846 -0.1399337 -0.18874967
000010 dc 72 e4 bd 6b 25 2f be c0 53 58 3d 7e c3 35 3e
       -0.1115472 -0.17104118 0.052814245 0.17750356
000020 ec d9 fd 3d a1 40 51 3d 5f 4f 13 3e ef c8 24 3e
       0.12395081 0.051087026 0.14385746 0.16092275
000030 9c 93 04 be ef 7f b3 3d 7d 37 8d 3d 53 dc b4 3c
       -0.12946934 0.08764636 0.06895349 0.022077715
000040 8a 9f 42 3e 7b 61 a1 3d 44 6d d3 bc 53 23 44 3d
       0.19006172 0.07879921 -0.025808938 0.04788525
000050 86 00 0b 3e e9 f7 98 bd 61 f7 25 bd f1 5e 26 3d
       0.13574418 -0.0746916 -0.040519122 0.040617887
000060 47 f0 fd 3d 02 3c 26 3e 75 d3 2e be c9 03 26 3e
       0.12399345 0.16233829 -0.17072852 0.16212381
000070 ae 10 25 be c7 bd 38 bd c9 3e 8c 3d 20 d4 f1 3d
       -0.16119644 -0.04510286 0.06847913 0.11808038
000080 80 59 34 3e 64 b6 ed 3d 21 e6 bb bd a1 bc 87 3d
       0.17612267 0.11607054 -0.09174753 0.06627775
000090 72 b0 b9 3c 61 ba 36 3e f8 a2 09 3e c5 56 07 3d
       0.022667143 0.17844535 0.13441074 0.033041734
0000a0 71 ec 2a be 41 73 3f 3e 40 4f 78 3d ed 6b 92 bb
       -0.16691758 0.1869631 0.060622454 -0.004468432
0000b0 d3 db f1 bd db 9e 1f bd 0b bf 35 3e 0a 79 50 3e
       -0.11809506 -0.038969856 0.17748658 0.20358673
0000c0 05 95 35 be 43 54 5f 3e c5 86 41 3e ba ed 34 3e
       -0.17732628 0.21809487 0.18899067 0.1766881
0000d0 4f 6a 3f be 0b aa a5 3d 8a a5 7f bd d5 4b f1 bd
       -0.18692897 0.08089074 -0.06241373 -0.11782042
0000e0 02 5f ec 3c 99 ad f4 3d 9f 0b 44 bc 47 3e 0f 3e
       0.028853897 0.119471736 -0.011965661 0.139886
0000f0 02 d0 2f be 27 5b dc 3d 11 8a 54 3d 4b 36 b3 3b
       -0.17169192 0.107595734 0.051889483 0.0054691187
000100 03 18 0c 3e 79 71 52 3e 91 8f b5 3d e1 12 2d be
       0.13681035 0.20551099 0.08865274 -0.16901733
000110 fd 36 28 3e 6d bb 1f be ae e5 34 be c5 f2 07 3e
       0.16427226 -0.15598841 -0.17665741 0.13276203
000120 18 c7 1a 3e 05 4b 21 be 72 57 34 3e 1f 74 1e be
       0.1511501 -0.15751274 0.17611483 -0.15473984
000130 60 28 41 3e 9d 9a 12 3d 2e b9 13 3e 2b 3e 57 be
       0.18863058 0.035791982 0.14426109 -0.21019809
000140 e8 3a 00 be 9e 4e 11 be 24 01 9f bb ff 4d 27 3e
       -0.12522471 -0.14190146 -0.004852431 0.16338347
000150 dc 36 52 3e bf 89 94 bc 7d 7b 76 3d d9 ea 4c bd
       0.2052874 -0.018132089 0.06017636 -0.050028656
000160 ad 11 06 3d 9b b0 d6 3c f9 ec 39 be b2 6c a7 bd
       0.0327317 0.026207259 -0.18156804 -0.08175029
000170 d7 58 b9 bc c8 55 31 3e ef 1a 9b bd 4f 57 2c be
       -0.02262537 0.17317879 -0.075734966 -0.1683018
000180 71 a0 88 bd 73 fe 80 3d 1a b0 15 3d d9 07 e7 3d
       -0.06671227 0.06298532 0.036544897 0.11280794
000190 e7 90 a9 bd e3 86 3e be e9 f3 9e bd 63 0a 2f 3c
       -0.08279591 -0.18606143 -0.07761366 0.010683629
0001a0 72 c6 28 be a6 be 8f 3d 3c e3 28 be 97 02 33 be
       -0.16481951 0.07018785 -0.16492933 -0.17481457
0001b0 a1 85 30 be fa 79 27 3e 2a 93 a0 3b fa d4 30 3e
       -0.17238475 0.16355124 0.004900356 0.17268744
0001c0 9a ee 89 3d 8f b5 93 bc 6b 87 2b be d7 11 27 3e
       0.06734963 -0.01803091 -0.16750877 0.16315399
0001d0 da f0 61 bd 71 2a 14 3e 41 d6 2e be 64 ad 17 be
       -0.055161335 0.14469315 -0.17073919 -0.14812237
0001e0 6d 59 03 be 80 7e 44 3d 62 e9 d2 bd 0e 38 bd 3d
       -0.12827082 0.047972202 -0.102984205 0.09239207
0001f0 dd 15 3d be e0 b7 26 3e e0 51 15 3d f7 38 32 3e
       -0.18465371 0.1628108 0.036455035 0.17404543

action_model._continuous_distribution.log_sigma f4 [1, 3]
000000 da 3d 21 be a7 df 4f bf 73 0f 2b be
       -0.15746251 -0.8120064 -0.16705112

action_model._continuous_distribution.mu.weight f4 [3, 128]
000000 b8 72 d6 bd 53 7c 38 3d e6 a1 5d 3d a5 93 b6 3d
       -0.104710996 0.04504044 0.054109477 0.0891488
000010 cd 0d 14 bd d6 4f 97 3d ad 8d 68 bd 5c c6 47 3e
       -0.036145974 0.07388274 -0.056775738 0.19509262
000020 24 d6 bb bc f9 88 c3 3c a0 19 ba 3d 89 fa a6 3c
       -0.022929259 0.023869025 0.09086919 0.020383136
000030 3b e7 99 bd e9 aa 7b 3d 2f 8f b4 3b f5 fb 47 3d
       -0.07514807 0.06144229 0.005510233 0.04882427
000040 cf dd 50 be 39 8e 01 be ea 06 16 3e 40 80 0f be
       -0.20397113 -0.1265191 0.14651075 -0.14013767
000050 b9 39 28 3d 7c 96 b5 bd 38 6f 53 3b f2 5b 0e be
       0.041070674 -0.08866593 0.0032262336 -0.13902262
000060 71 7e 20 be 62 ba df bd 40 3e c9 3d a2 9f 54 3e
       -0.15673234 -0.109242216 0.09826326 0.2076402
000070 5e f6 88 bc 65 06 1a 3e 42 4c a8 bd 2d c1 22 3e
       -0.01671904 0.15041502 -0.0821767 0.15894003
000080 56 7f 6a 3c 15 9d 0a be e3 5b 02 3d 2f 02 ac bd
       0.014312586 -0.13536485 0.03182591 -0.08398854
000090 97 4d 1a be 61 7f c6 3d 4c 84 17 bd f5 f2 21 3e
       -0.1506866 0.09692264 -0.036991403 0.15815337
0000a0 c0 1d d8 3d 85 74 05 be 84 40 c7 3d 9f 4f cc 3d
       0.10552549 -0.1303273 0.09729102 0.09976124
0000b0 49 9f 13 3e 12 f4 9a 3c 2f af 32 3d f3 aa 1a bd
       0.14416231 0.01891521 0.0436241 -0.037760686
0000c0 6d b2 1d 3d 42 e8 8e 3a 7a b1 d0 3d 98 f8 59 bd
       0.03850024 0.0010902958 0.10190101 -0.053215593
0000d0 3e 61 a6 3d 5c 71 0e 3e 4b db 3e 3d cb de b3 3d
       0.08124016 0.1391043 0.046595853 0.08782729
0000e0 26 68 3b 3d 8a 8b 39 3c a1 2d 16 be ed c6 02 be
       0.04575362 0.011324773 -0.14665844 -0.12771197
0000f0 db ef 2b 3d 39 32 c1 3c be ea 2f 3e 12 b9 2c 3d
       0.04197679 0.023583518 0.17179391 0.042168684
000100 aa 03 12 3b 2d 25 f3 3b 2d d1 c8 3d 54 d2 3d bc
       0.0022280016 0.007420203 0.09805522 -0.011585791
000110 c5 c0 1e 3e 01 18 8f 3d 2d d4 5c 3d d5 d0 80 3d
       0.15503223 0.06987 0.053913284 0.062898315
000120 b2 9d db bd aa 51 9b 3b ab 6a 6e 3d 6a 0b bb 3d
       -0.10723437 0.0047399597 0.058207195 0.091330364
000130 21 61 b4 3d 07 f0 10 be 1b 0c e1 3d c7 77 84 3d
       0.08807588 -0.14154063 0.10988637 0.06468158
000140 e3 d2 42 3d 44 9d 5b 3d 7c ab 9e 3d 0b fc 0e be
       0.0475644 0.053616777 0.07747552 -0.13963334
000150 16 bf a7 bd b3 33 09 3d 03 c7 1f be c3 a4 0d 3e
       -0.081907436 0.03349657 -0.1560326 0.13832383
000160 79 98 b3 3d 7b 8b 7f 3d 73 60 90 3d da 2a 0b bd
       0.08769316 0.06238888 0.07049646 -0.033976413
000170 90 23 54 3d f8 9c 3b bd fa 88 3f 3e 32 c1 8f bd
       0.051791728 -0.045803994 0.18704596 -0.07019271
000180 3f dd ac 3d 52 c8 a1 3d 5e 55 f1 bc 9d f3 03 be
       0.08440637 0.07899536 -0.029459652 -0.128859
000190 6f 3d b5 bc 90 ba 83 3d ad ec 03 3e 40 95 81 3d
       -0.02212402 0.06432068 0.12883253 0.06327295
0001a0 2e 2f 26 3d 70 16 bc bd be 67 71 3d b7 1a 61 3d
       0.040572338 -0.09183967 0.058936827 0.054957118
0001b0 30 28 c1 3c c8 11 8a bd 04 f2 d0 3d a0 90 83 3c
       0.023578733 -0.06741673 0.10202411 0.016060174
0001c0 2c ac 13 3e 37 fb f5 3d 6e 69 ac 3d 80 e0 8b bd
       0.14421147 0.12010806 0.084185466 -0.06829929
0001d0 18 40 91 bd 9b 66 a6 bd 3f d0 5b 3d 12 a7 ae 3c
       -0.07092303 -0.08125039 0.053665396 0.0213199
0001e0 97 90 ee 3d f8 72 31 bd 8b dd 59 3d 4d b0 5a bd
       0.11648672 -0.043322533 0.053189795 -0.05339079
0001f0 ea 36 55 3d ea 50 06 be 4e 87 99 3d 34 18 0a 3e
       0.052054323 -0.13116804 0.074965104 0.13485795
000200 0d b0 c0 bb b1 8e 01 3e 58 77 24 3d 46 70 4e 3e
       -0.005880362 0.12652089 0.040152878 0.20160016
000210 53 73 d8 3c 66 04 48 3e c3 21 be 3c 46 ca 57 bd
       0.026422178 0.19532928 0.023209458 -0.052683137
000220 a1 96 79 bd c1 f8 17 bd dd 57 a5 bd 1e b6 24 bd
       -0.060934667 -0.037102465 -0.08073399 -0.040212743
000230 42 58 19 3e 79 37 1b bd f0 22 0f 3b b6 4f 0e bb
       0.14975074 -0.0378947 0.0021840893 -0.0021714992
000240 92 46 e5 bc c2 db 57 bc a2 ea ff 3b 4c 0b 0d 3d
       -0.027987752 -0.013174953 0.007809953 0.0344346
000250 df 9c 40 bd 1e d0 bd 3d 9f 0b 7c 3c 43 32 8b bc
       -0.047024604 0.09268211 0.01538363 -0.01699174
000260 3e a4 4d bd e4 a5 6b bd 48 04 3e 3e d5 f1 93 bd
       -0.05020546 -0.057531253 0.1855632 -0.0722386
000270 89 32 85 3d e6 e1 17 3a 55 68 a1 bc 12 98 57 bd
       0.065037794 0.00057938544 -0.01970307 -0.05263526
000280 e6 b5 b0 bd 97 2d e9 bc 9b eb 1e 3c e3 6e 07 3c
       -0.086284444 -0.028464122 0.009699727 0.008266184
000290 7a 13 42 bc 87 6b a9 bd fb 49 86 bc 1d ab 66 bc
       -0.011845464 -0.08272462 -0.016392699 -0.0140788825
0002a0 10 95 f9 3d a1 26 f8 bc b4 76 a4 ba df de 90 bc
       0.121866345 -0.030291857 -0.0012547583 -0.017684398
0002b0 4c 99 ee 3d 8a 19 70 bb 89 ba a3 bd dc 6c b7 bd
       0.11650333 -0.0036636316 -0.07994563 -0.0895631
0002c0 d3 27 5d 3e c1 2f c2 bd ec 99 bd bd 7d 68 97 bd
       0.21597223 -0.094817646 -0.09257874 -0.073929764
0002d0 8d 6a 21 3e f3 fc 42 bd 3b 69 90 3c 88 a9 37 3d
       0.15763302 -0.047604512 0.017628303 0.044839412
0002e0 bf e8 48 bc 5d c2 96 bc 4a 4d 3a 3d 0f e9 3c bc
       -0.012262522 -0.018403227 0.045483865 -0.011530175
0002f0 3e 96 1c 3e 7f 05 b5 bc 84 ec 19 bd 64 25 2a 3c
       0.15291688 -0.022097347 -0.037579075 0.010384891
000300 ea dd 28 bd 1f 4a 91 bd 05 26 4b bd 2d 7e 0c 3e
       -0.04122726 -0.070942156 -0.049596805 0.13720007
000310 28 bd 72 bd 77 98 9c 3d 01 96 5f 3e 5e 86 71 bd
       -0.059262425 0.07646268 0.21834566 -0.058966033
000320 ef c9 07 bd 58 98 c7 3d 59 cd 9a bd a1 06 64 3e
       -0.033151563 0.09745854 -0.07558698 0.22268154
000330 69 35 cc bd a4 49 00 3d f0 ec 88 bd f5 5d 0a 3e
       -0.09971125 0.03132023 -0.06685817 0.13512404
000340 21 8e a0 3d b3 2f 5b 3e 08 44 ff 39 87 27 75 bd
       0.07839609 0.21404915 0.00048688077 -0.05985215
000350 c2 b8 9b bd 1e a2 42 3c 28 51 18 3c bb 0d e0 bb
       -0.07603599 0.011879472 0.009296693 -0.0068375743
000360 7b b7 9a bc e5 69 43 3c 69 a2 79 3e 80 d0 40 3d
       -0.018886318 0.011927103 0.24378361 0.04707384
000370 85 fc a9 3c 39 1d 66 bd 37 66 83 3c 4c 05 aa 3d
       0.020750294 -0.056180213 0.01603995 0.083017915
000380 e0 87 9c 3c 6a c5 19 bd c9 98 23 bc 7c 73 f5 bc
       0.019107759 -0.037541784 -0.009985157 -0.029962294
000390 ce 63 2a 3d 07 db 17 3e 5c ab 4d 3d a8 c7 3e bc
       0.041599087 0.14829646 0.05021225 -0.011644281
0003a0 fe a1 68 3e 52 52 d2 bb 57 7f 06 3e 54 4a 37 3e
       0.22718045 -0.0064185048 0.13134514 0.17899448
0003b0 12 4b 0e 3e 07 cf 63 bd 3a e3 d6 3c c0 2d 00 be
       0.13895825 -0.05561736 0.026231397 -0.12517452
0003c0 06 b0 bb bc e8 d5 d7 3b 7f f0 c8 3d 17 46 c6 bc
       -0.022911083 0.006586779 0.09811496 -0.024203343
0003d0 fa 2f 60 3d 0e 1c eb bc 74 41 86 3e 8e 30 85 3d
       0.054733254 -0.028699901 0.26221812 0.06503402
0003e0 61 11 2e 3e d6 7c 85 3a 9a 3c 23 3d a4 f9 cc bc
       0.16998817 0.0010184299 0.039852716 -0.025021382
0003f0 5e 7f ea 3d ab e8 0b bd d4 6f 90 ba df 3d 81 bd
       0.114500746 -0.034157436 -0.0011019656 -0.06310629

action_model._continuous_distribution.mu.bias f4 [3]
000000 12 bd 3d bd 7e 1c 4d be 2b f7 8d 3b
       -0.04632289 -0.200304 0.0043324432

onnx::Div_51 f4 [12]
000000 3f 46 a7 41 2d 61 90 41 cd 2e 9e 41 44 28 bf 41
       20.9093 18.04745 19.772852 23.89466
000010 43 9f 04 40 12 1c b7 41 45 38 bb 41 3a 1c 09 3b
       2.0722206 22.888706 23.402475 0.0020921365
000020 ed 30 bc 41 4e 90 94 41 79 89 9f 41 b0 7e ef 3e
       23.52389 18.570461 19.942125 0.46776342
