TWP_2/results/PnP11/RobotArm/checkpoint.pt (torch, 464354 bytes, 44 tensors)

network_body.observation_encoder.processors.0.normalizer.running_mean f4 [12]
00000000: 1fc3 8240 b79f 1042 34d0 1040 90b6 2940
00000010: 448e 5340 1052 1240 ece3 ec3f 1066 4640
00000020: 93a0 92be fa4a 2342 7b3d 4e42 43d4 b63d
4.0863185 36.15597 2.2627077 2.6517677 3.3055582 2.2862587 1.8507056 3.0999794
-0.28638133 40.82322 51.56004 0.089272045

network_body.observation_encoder.processors.0.normalizer.running_variance f4 [12]
00000000: 8507 f74c c11f 3b4d c978 a24c c253 9c4d
00000010: d693 f44a efef 984d e008 8e4d 97c1 2941
00000020: c7d4 9d4d 27ef 754d fc80 0d4d f18c 2e47
1.29514536e+08 1.9621378e+08 8.5182024e+07 3.2784186e+08 8.014315e+06 3.2073264e+08 2.978683e+08 10.609763
3.3099594e+08 2.5788069e+08 1.4837754e+08 44684.94

network_body.processors.0.normalizer.running_mean f4 [12]
00000000: 1fc3 8240 b79f 1042 34d0 1040 90b6 2940
00000010: 448e 5340 1052 1240 ece3 ec3f 1066 4640
00000020: 93a0 92be fa4a 2342 7b3d 4e42 43d4 b63d
4.0863185 36.15597 2.2627077 2.6517677 3.3055582 2.2862587 1.8507056 3.0999794
-0.28638133 40.82322 51.56004 0.089272045

network_body.processors.0.normalizer.running_variance f4 [12]
00000000: 8507 f74c c11f 3b4d c978 a24c c253 9c4d
00000010: d693 f44a efef 984d e008 8e4d 97c1 2941
00000020: c7d4 9d4d 27ef 754d fc80 0d4d f18c 2e47
1.29514536e+08 1.9621378e+08 8.5182024e+07 3.2784186e+08 8.014315e+06 3.2073264e+08 2.978683e+08 10.609763
3.3099594e+08 2.5788069e+08 1.4837754e+08 44684.94

network_body._body_endoder.seq_layers.0.weight f4 [128, 12]
00000000: 3092 edbe d8ba 5bbe bad1 063f ce9f 07bf
00000010: 7a8b 0c3e 5691 c6bd b7c9 a03d 3171 ccbe
00000020: cdb3 0bbf 0f74 33be 0054 dbbe 5310 78bd
00000030: 177c bfbe ad09 eabd 0e04 42be 2589 3dbe
00000040: 16d1 2d3d 7fb9 1cbf af6d 20bd b7af 033e
00000050: a661 2cbd 957f 163e 586a 443e df0b 0f3e
00000060: 9a46 773d f070 753e 39b0 10bf feb5 b73d
00000070: c831 adbe c474 2a3e b3e0 653d a37b 9bbe
00000080: 0af0 c33d bf99 2a3e c328 b93d 8bf2 493e
00000090: c187 f03e a03d 9abe 99a0 ba3e b08f 053e
000000a0: e2e5 aa3d bdc2 39be 4146 8ebd 899d f9bd
000000b0: bc0e a03e 7e14 c3be a9b3 cbbc 1a3f 47be
000000c0: dbfa 853e 2ef4 c6be a0f9 16be f0f8 4b3e
000000d0: 0488 8cbe caed 23bf 2ae5 a53c 28de a1be
000000e0: 5e36 58be 3bfe af3e 5f8d 80be 840f 78be
000000f0: eaad 0ebe b9ad 953e 8be4 dfbe aa1e 373f
00000100: 5567 40bf 02b4 26bf 96de 7fbe 6cc7 b5bc
00000110: fa2c b83d f592 553e 211c 933c 5d03 4d3e
00000120: 9b5b 103f 6f82 ff3d 9882 ebbc 8ed2 653e
00000130: 6e25 26bf d33b 943e 15d2 69be d31a 1abe
00000140: 2116 b23e 3099 0d3e f5ef f5be fd89 debe
00000150: 2f42 673e 8f90 663d 13ae e4be 8064 dbbd
00000160: b281 893e 6bf6 06bd 45ad de3e a776 35bd
00000170: ab80 8c3d 5d31 d9be 609d e23e 300b 2f3e
00000180: cb69 9cbe 489c bd3e 104f 793e 3bfb 94be
00000190: d171 2ebe b505 d8bd 72a3 4f3e 8e7d 0abe
000001a0: a794 7c3e e25b efbd 1936 33be aa4a ddbe
000001b0: 8ef9 ae3e a470 af3e 2e3e 5cbe 85d7 ed3d
000001c0: 7552 edbe 3b2b e7be 52ee a1be c219 bbbe
000001d0: 4e5d 97bd dbd6 d03e e786 86be 5fb9 673d
000001e0: 9430 613e 491d a43e 97b1 e3be a394 ba3d
000001f0: 6dd4 40bc f668 153f 0699 693c 117a 83bd
00000200: 38bf 29be be4d d1be 0cae d3be a858 373e
00000210: b52b 4ebe b4f1 0f3d 615f 32be 4374 1abf
00000220: 40a0 4abe 7515 db3d e92f c73d 1c6c 513e
00000230: 319a 49be 6304 4b3e af4a b73d 6c0f c1be
00000240: 450c 153e 6dc5 953e 9b17 1cbe 6c4a 043f
00000250: 7ee2 ce3e 2a38 37be 6463 c73e 65c9 c33c
00000260: b5ac 40be fa42 b83a a467 43be e6cc 80be
00000270: c719 78be 1bfa 05bf 2241 863d d3ec e53d
00000280: 1a5d 83be 24cb 453e f808 fdbd 354b 903d
00000290: 105f 063d 8da0 153f 7e90 f4be 7154 f63e
000002a0: f9eb 443e 7fee 923e 475c 143d 1142 a83e
000002b0: 78fc 693e b51d 4a3d 7a52 ad3e a2fc fcbe
000002c0: f625 ed3e 6ec8 20be 7792 0b3f 3cf8 243e
000002d0: b66c a0bd e7c7 a8bd f8a6 803e f574 3e3d
000002e0: 805d 81bd 0a1e 32be c154 8e3e 91fc 4c3c
000002f0: 1894 7e3b 9336 263e ee19 f23e 4308 b63b
00000300: 944a d0bd fafd 163e bd7d 8dbe a87d b93b
00000310: d674 5cbd 2b7f b7be f2fb c53c c0d8 1dbe
00000320: 61d9 073d a381 babe 1541 023d 3d0b eabc
00000330: d32c 203d 8409 d13e 5745 efbd 0cd0 03be
00000340: fbf9 313d c555 b7bb c186 03bd 9eb2 5fbe
00000350: 94b5 26be 831a 0a3e c06d 37bd 5f21 a73e
00000360: 5fd5 d03d dde8 5a3f 38d2 9dbe 5764 0ebe
00000370: 2694 fabe 05aa a93c 59bc 98be 921b 473f
00000380: 99e7 9c3d 835e a3be dd00 0abd b232 1b3e
00000390: e9cc 0fbf 3015 8bbe 9f2a dbbd 2dba 02be
000003a0: 29b1 d23b 2788 7d3e a656 1fbf bffa ad3e
000003b0: 4484 16bf 06a6 253d 1143 b83e 1bf9 dabe
000003c0: 15a3 3ebe 0dd0 833e a5da e9bc cb91 0e3e
000003d0: 8705 acbc 8c39 1ebd 61db ce3e d2ba 793e
000003e0: 9074 b9be 583e 3ebe 4d72 08bf 818c efbe
000003f0: f8a0 9bbe be14 39be 3f83 80bd 3623 3a3e
-0.46400595 -0.21457994 0.5266377 -0.5297822 0.13725081 -0.096956894 0.07850974 -0.39930108
-0.5457123 -0.17524742 -0.42837524 -0.060562443 -0.3739936 -0.11427627 -0.18946859 -0.18509348
0.042435728 -0.61220545 -0.039167102 0.12859999 -0.042085312 0.14697106 0.19181192 0.13969372
0.060370065 0.23968863 -0.56518894 0.08970259 -0.33827043 0.16646105 0.056122493 -0.30367765
0.09567268 0.16660212 0.09040978 0.19721429 0.46978572 -0.3012514 0.3645065 0.13043094
0.08344628 -0.18140693 -0.069469936 -0.121882506 0.3126124 -0.38101572 -0.024865942 -0.19457665
0.2616795 -0.3885817 -0.14743662 0.19919181 -0.27447522 -0.6403471 0.020250876 -0.31614804
-0.2111449 0.3437365 -0.25107858 -0.24224669 -0.1393353 0.29234102 -0.43729052 0.71531165
-0.7515767 -0.6511842 -0.24987254 -0.022189818 0.089929536 0.20856841 0.017957749 0.20020814
0.5638978 0.1247605 -0.028748795 0.22443601 -0.64900863 0.28951892 -0.22834046 -0.15049295
0.34782508 0.13827968 -0.48034635 -0.43464652 0.22583841 0.056290206 -0.44664058 -0.10712528
0.26856762 -0.032949846 0.4349157 -0.04430261 0.06860479 -0.42420474 0.44260693 0.17094111
-0.30549464 0.37033296 0.24346566 -0.29097924 -0.17035605 -0.105479635 0.20277193 -0.13524458
0.24666081 -0.11687447 -0.17501105 -0.43221027 0.3417477 0.34265625 -0.21508095 0.11613373
-0.46351972 -0.4515017 -0.31627136 -0.3654309 -0.07390843 0.40788922 -0.26274797 0.056573268
0.21991187 0.32053593 -0.44471428 0.091103815 -0.011769396 0.5836328 0.014257675 -0.06419767
-0.1657685 -0.40879625 -0.41343725 0.17904913 -0.2013386 0.035142615 -0.17419197 -0.6033365
-0.19787693 0.10697452 0.09725935 0.20451397 -0.19687726 0.19825892 0.08949792 -0.37707078
0.14555462 0.29252186 -0.1524338 0.5167606 0.40407175 -0.17892519 0.38943017 0.023899743
-0.18815883 0.0014058047 -0.19082505 -0.25156325 -0.24228583 -0.52334756 0.06555392 0.11226811
-0.25656968 0.19315773 -0.12355226 0.070455946 0.032805502 0.58448106 -0.4776649 0.481113
0.19230641 0.28697583 0.036220815 0.32862905 0.22850215 0.049344737 0.33851987 -0.49411494
0.46318024 -0.15701458 0.5452036 0.16110319 -0.07833235 -0.08241253 0.25127387 0.046498258
-0.06316662 -0.17394271 0.27799037 0.012511388 0.0038845595 0.16231756 0.47285408 0.005555184
-0.10170475 0.14745322 -0.27634993 0.0056607313 -0.05382236 -0.3583921 0.024167988 -0.15414715
0.033166293 -0.3642703 0.03180035 -0.028569812 0.039105248 0.40827572 -0.116831474 -0.12872332
0.04345129 -0.0055949413 -0.032110933 -0.21845481 -0.16280204 0.13486676 -0.0447824 0.32642648
0.10196947 0.8551157 -0.30824447 -0.13905464 -0.48941153 0.020710954 -0.29831198 0.77776444
0.07661361 -0.31908044 -0.03369223 0.15156057 -0.56172043 -0.27164602 -0.10701489 -0.12766333
0.0064298105 0.24758969 -0.6224159 0.33980367 -0.5879557 0.040441535 0.35988668 -0.42768177
-0.18616898 0.25744668 -0.02854664 0.13922803 -0.02099873 -0.0386291 0.40401748 0.24387673
-0.36221743 -0.1857847 -0.5329941 -0.46786883 -0.30396247 -0.18074319 -0.06275033 0.18177494

network_body._body_endoder.seq_layers.0.bias f4 [128]
00000000: de1d 8a3d b475 b93d 341a 02be fba8 e2bb
00000010: b001 743d 80d4 4f3d 6489 b83d 30a2 133d
00000020: d89c 413d 0de8 d03b 89ba b23d b79b a63d
00000030: a3c1 c03d c61e 83bd 9f12 8b3d 8c98 95bd
00000040: e608 b23d 458b edbd 4f08 96bd 1ed3 b73c
00000050: 124a 233e 09c5 fd3d 3641 833d 86b4 d1bd
00000060: e4ab a5bd 927b 303d 2480 dd3c 993e ab3d
00000070: 58df 07bd ac4a ba3d c3bf 743d d8fa a33d
00000080: d3ea 8b3d 4c8a 20bd 953b fc3c d4de 303d
00000090: 31df 7ebd 29a8 953b 34f3 f23d 733f b63b
000000a0: 584e 8d3d b7eb e93d c54c d03b d8d1 96bd
000000b0: 9f84 07bd aab9 cb3d c600 383d afe2 50bd
000000c0: 7ad2 0dbc 6ce5 b33d a30c d13d 93a7 c23d
000000d0: ecdd cc3d 7be7 d1bd f10f 5a3c 58bd 113e
000000e0: bc28 dabd a7f6 523d 233e c3bd 423b d03d
000000f0: 8023 db3d 8d1b 883c ab8f f23c a85a 68bd
00000100: dc30 9f3d 2799 2ebe 0d66 9f3d eaf0 b1bd
00000110: 7f7c a93d 8e12 9c3d 5b62 febd b5d0 0b3d
00000120: be5d a4bd 474f afbd 83c4 d8bd fcee d0bc
00000130: a1c8 8e3d b07a ce3d 9ced 1b3e 7967 c13d
00000140: 4c36 a63d ca75 e63b cf11 dcbc 8948 e03d
00000150: 9252 043e 61e9 9f3d cff2 0d3e 920a 173d
00000160: fc90 07bd 5d4c 903d 6d96 8ebc 7b34 f93d
00000170: cc3f 233e 5603 59bc b14f 36be 6654 88bd
00000180: 00f6 21bb b7c7 873d 37f1 24ba 8f65 8bbd
00000190: 21af cbbd 9176 3dbe b731 1e3d 6bda 0dbd
000001a0: 62dd b5bd 9fb1 e03d c806 41bc 8f52 c1bd
000001b0: e1af edbd e9e0 783d 59a4 923d 7a53 a03c
000001c0: 8135 cfbd a982 dfbc 5cac c23d 6715 3b3d
000001d0: b618 943d f723 84bc 5dfa 9abd d992 723c
000001e0: bcd4 e43d 50b6 a43d 38af 7f3d 10da ae3c
000001f0: a620 ec3c e8dc a2bd 4a57 aa3c 9fcb 5dbb
0.06743978 0.09055653 -0.12705308 -0.0069171167 0.05957192 0.050739765 0.0901058 0.036043346
0.04726872 0.006375319 0.08726985 0.08135169 0.09411933 -0.06402354 0.06790661 -0.07304487
0.086931035 -0.11598829 -0.073258035 0.022439536 0.15946224 0.12391097 0.064089224 -0.1023951
-0.08089426 0.043086596 0.027038641 0.08361549 -0.03317198 0.09096274 0.05975319 0.08006829
0.068318985 -0.03919439 0.03079013 0.043181255 -0.06222457 0.0045671654 0.118627936 0.005561763
0.068997085 0.11421912 0.006356808 -0.07364243 -0.03308546 0.09947522 0.044922613 -0.050997432
-0.008656139 0.08783993 0.102074884 0.095046185 0.10003266 -0.102492295 0.013309465 0.14232385
-0.10652301 0.051504757 -0.09533336 0.101675525 0.107001305 0.0166147 0.029609522 -0.05672708
0.07772991 -0.1705061 0.077831365 -0.08688529 0.08275699 0.076207265 -0.124211036 0.034134585
-0.080256924 -0.08560043 -0.10584357 -0.025504582 0.06971861 0.100819945 0.1522736 0.09443564
0.08115825 0.0070330845 -0.02686396 0.10951335 0.12922123 0.07808185 0.13862155 0.036875315
-0.033097252 0.07045815 -0.017405713 0.12168213 0.15942305 -0.013245424 -0.17803837 -0.06656723
-0.0024713278 0.066298895 -0.00062920473 -0.0680648 -0.099455126 -0.1850226 0.03862163 -0.034632128
-0.08880116 0.109713785 -0.011781402 -0.09439575 -0.11605812 0.060761366 0.07160253 0.019571055
-0.10117627 -0.027283983 0.09505531 0.045674708 0.07231276 -0.01613043 -0.07567284 0.014805519
0.11173388 0.08042586 0.06242296 0.021344215 0.028824162 -0.07952291 0.020793576 -0.0033843291

network_body._body_endoder.seq_layers.2.weight f4 [128, 128]
00000000: bc01 70bd aea4 5c3d 05bf 873c 1480 04bd
00000010: 64d1 39bd e538 aa3c d4a2 9abd a07a d6bd
00000020: 4297 14be 48c9 29be c8c8 c7bd 4a6a 283e
00000030: 3b3d 3fbc ea48 97bd c236 273d 056e d7bd
00000040: 949d 273d 55a9 8b3c 5aeb 863c ecd4 f8bd
00000050: 56fc 9c3c 3a3d bd3c 12c5 453d 7427 183e
00000060: 52f8 29bd ecc8 8d3d fde8 6e3d f647 58bd
00000070: f9af 073e f45f 11bd e286 353d b3ff 353d
00000080: 7b54 2bbe 52f0 473c bf5b d6bc ca75 083d
00000090: 7605 a8bd 2d5d 16be 2746 5bbd 1b32 bfbc
000000a0: 7b5e 0a3d 4497 82bd 2d58 7a3d af70 c8bd
000000b0: 1ac7 b3bc c011 0a3e 8c37 0fbe d845 9e3d
000000c0: ecfb 87be 911a a6bb 2f03 48bd 5d42 babd
000000d0: 4eb8 053e 55f2 0fbe 0a40 e7bd 628f c33d
000000e0: d603 dabc fd70 c5bd 16d1 b4bd e646 b2bd
000000f0: 68fd 1ebd ddd1 153d f30e d33d 7c98 73bc
00000100: 3a8d 10bd 871f e9bd e04c 353e a0c1 e5bd
00000110: b99e 8dbc f0f1 553e eb21 a23c d609 0b3e
00000120: 089e ef3d 9e38 47bd 1447 2abe af43 333e
00000130: 131e 853e 2ec5 553e fe10 8d3e e60f 0d3e
00000140: 7a46 033e fb3c 10be 8f25 85bd 9e39 8a3d
00000150: c871 953d 2ad4 37bc e2b9 1d3e a80c 99bd
00000160: 50a4 b23c 2088 f9bc 33d5 d6bd 03c3 063e
00000170: 4599 403d 0ede 383c d339 81bc 3fa9 d0bc
00000180: d8ab 003d e58f 75bd 7093 a53d f249 3dba
00000190: 9831 0c3d 6f16 81bd f5ed d83d a0fa 8bbd
000001a0: 4614 1bbd 5bd7 dc3d e4aa e63d 6e00 fc3c
000001b0: 4ba2 9cbd 86c0 2bbd a14c a33d ee2b 643d
000001c0: 7147 b93d 42de 16bd bc60 ca3d f1df 0fbb
000001d0: 6b65 bf3d 1f38 133d 7c11 b7bd d9ab edbc
000001e0: d13c 12be 2100 e4bd 7203 c73b 3b1d 323e
000001f0: deff 54be 38f0 6fbd cf38 4a3d 598b dfbc
00000200: 655f 7c3d bcb9 eb3c ff59 f53c 47ce 193e
00000210: 691f dabd 14cc dcbd 6b86 2c3e cfdb 243e
00000220: b055 ad3d aabe 0abe 9572 e03d 522a f9bd
00000230: d3e0 b73c 7895 1cbd 478b 9e3c 4463 013b
00000240: 1796 1f3e 0c69 31bd 517b a2bd 0b0c 37bd
00000250: a991 943a a080 8ebd e0c9 e83d b169 b9bc
00000260: 9cab 37bd dc8d cdbd 2be8 093d 6e0b cb3d
00000270: a198 fe3d 5bf9 9e3e f3fe 063d f16c 29be
00000280: 5124 923d e37f 89bd 08df 053e 9961 27be
00000290: d904 adbd bb32 603d d119 2b3d 4f05 3c3a
000002a0: 6d59 163e 3679 c73c 7ec3 053e e619 303d
000002b0: 5d3b 0dbe cb53 7abe 2f8d 763e afc8 24bd
000002c0: fff2 873d c5bb a0bd fe29 533e 000e b73d
000002d0: 4701 133d 85a2 603d 1098 f93d 148e ff3c
000002e0: 1ee2 d5bd fe86 473e 1682 bebd 6c6b 6b3d
000002f0: da54 813d eb8e f23d 006a 7a3c 9df2 2a3d
00000300: 77ff 4fbe 6ca1 4c3d f738 913c 92f2 283e
00000310: 4ef5 3dbd 0fed b53d 97ba 57bd 565d 483d
00000320: d60e 4dbd d3ee c33d ce24 cabd 93ca b1bc
00000330: f11d b5bd 3910 81bd 63d6 ce3d 24a2 cdbd
00000340: 231d aebc 01e0 69bc 6925 b43d 941a 10be
00000350: 379f 9cbd a628 f43d 6e69 b8bd dbed 43bd
00000360: c401 5fbd db9b e63d 3e97 05be a783 8d3d
00000370: a972 1fbe 5b5b dabb b14f 81bc f754 44bd
00000380: 1f1f 4439 2886 3d3d d7a0 2ebd e08d 12bd
00000390: 6177 24bd ecab 3cbe acc9 193d 9c25 dbbd
000003a0: 45d9 963d 04a1 e3bd d144 4b3d 543f b13d
000003b0: 723d ccbc 8598 09bc ac11 283d e5b7 063c
000003c0: cb95 1c3c fbf9 f0bc 175b bf3d 74bb 92bd
000003d0: c059 14bd d33f 17be 1970 273b be8e 283c
000003e0: 2724 643d 7a63 833c 5b2a 81bd c3b0 6dbe
000003f0: 7f14 fdbc 5232 dfbd cc6d 433d 2c0f a03d
-0.058595404 0.05386799 0.016570577 -0.032348707 -0.045365706 0.020779083 -0.07550588 -0.104726076
-0.14510825 -0.16580689 -0.09755093 0.16446796 -0.011672313 -0.07386954 0.040823705 -0.105190314
0.040921763 0.017048517 0.016469646 -0.121499866 0.019163292 0.023100484 0.048283644 0.148588
-0.041496582 0.069230884 0.058327664 -0.052803002 0.13250722 -0.0354919 0.044318087 0.044433307
-0.16731445 0.012203293 -0.026166795 0.033315457 -0.082041666 -0.14683981 -0.0535337 -0.023339322
0.03378151 -0.06376508 0.061119247 -0.09787118 -0.021945525 0.13483334 -0.13986033 0.077281654
-0.2655939 -0.005069085 -0.04883116 -0.09094689 0.13058588 -0.14057286 -0.11291511 0.095488325
-0.026613157 -0.096406914 -0.088289425 -0.08704929 -0.038815886 0.036577094 0.10305586 -0.014867898
-0.035290934 -0.113829665 0.17705107 -0.11218572 -0.017287599 0.20893073 0.019791564 0.13577971
0.11700064 -0.04863798 -0.16628677 0.17506288 0.25999507 0.20876 0.27552027 0.13775596
0.12819853 -0.14085762 -0.06501304 0.06749271 0.07297093 -0.011220017 0.1540294 -0.07473117
0.021806866 -0.030460417 -0.10489883 0.13160329 0.04702117 0.011283411 -0.015774643 -0.025471328
0.031413883 -0.05995168 0.08084762 -0.00072207965 0.034226984 -0.06303107 0.10592262 -0.06834912
-0.03786113 0.10783263 0.112630635 0.030761924 -0.076481424 -0.04193165 0.079736 0.055705957
0.090468295 -0.036833055 0.09881732 -0.0021953548 0.09345516 0.035942193 -0.08938882 -0.029012607
-0.14281012 -0.11132837 0.0060734088 0.17393963 -0.2080073 -0.0585787 0.049370583 -0.027288126
0.061614413 0.028775088 0.02995014 0.15020095 -0.10650522 -0.10781112 0.16848151 0.16099475
0.08463609 -0.13549295 0.10959355 -0.12166275 0.022446072 -0.038228482 0.019353522 0.0019743005
0.15584598 -0.04331307 -0.07933677 -0.04468922 0.0011334914 -0.06958127 0.113666296 -0.022633405
-0.044841394 -0.10036823 0.03366868 0.099142894 0.124314554 0.31049618 0.032957982 -0.16545464
0.07135833 -0.067138456 0.13073361 -0.16345824 -0.0844819 0.05473588 0.041772667 0.0007172422
0.1468255 0.02434979 0.13062856 0.04299345 -0.13792177 -0.24446027 0.24077295 -0.04023045
0.06638145 -0.07848314 0.20621487 0.08938217 0.03588989 0.05484249 0.12187207 0.031195678
-0.10443519 0.19485089 -0.09302156 0.057475492 0.06315012 0.11843666 0.015284061 0.04173528
-0.20312296 0.04995863 0.017727358 0.16498783 -0.04637652 0.08883106 -0.05266818 0.048917137
-0.050062977 0.095670365 -0.09870301 -0.02170304 -0.088436015 -0.06301922 0.10099485 -0.100406915
-0.021254128 -0.014274598 0.08796198 -0.14072639 -0.07647555 0.119218156 -0.09004484 -0.04783426
-0.054445043 0.11260196 -0.13045976 0.06909876 -0.15571083 -0.0066637225 -0.01578507 -0.04793259
0.0001870361 0.04627052 -0.042633858 -0.035779834 -0.04015291 -0.18424958 0.037545845 -0.10700533
0.073656596 -0.11114696 0.049626175 0.08654657 -0.024931643 -0.00839818 0.04103248 0.008222555
0.009557198 -0.029416075 0.09343546 -0.0716466 -0.036218405 -0.14770441 0.0025548993 0.010287939
0.05569854 0.016038645 -0.06306907 -0.2321196 -0.030893562 -0.1089827 0.047712132 0.07815394

network_body._body_endoder.seq_layers.2.bias f4 [128]
00000000: b661 c13d 7e73 5e3d 5369 f9bc d80b b5bd
00000010: c3eb a93d f7f5 6b3d 6f32 f13d 40d4 b5bd
00000020: 9c97 b4bd 67a2 aa3d 8c42 c9bd 2e6d 25bd
00000030: 5f31 6fbd 82b0 4f3d 28b5 583d 4731 3e3d
00000040: f3b5 ec3d 0a51 9a3d 21b2 1c3d e098 483d
00000050: 9eea aa3d 6fcd 9cbd f58f 8c3d 0bbe f2bc
00000060: 243c c33d 9e28 bf3d fdf2 073d d934 a0bd
00000070: 2eb4 c03c 96cc 99bd bb7f aebd 5c00 4d3d
00000080: aa50 f13c 5b72 a5bc 3ddb c2bc ab80 a7bd
00000090: b7df cd3d 8804 d33d 1bb1 783d a9b3 ab3d
000000a0: 8152 b4bd a52b f2bd 5d92 bebd 3d42 c5bd
000000b0: 264c 883c f66a 97bd 06d3 053e 52d3 803d
000000c0: c65f 583c 08a5 e23d 9aba 86bd ffdd 0cbd
000000d0: ee30 02bd 058b 103d 3e1e 8fbd 9fad 5a3d
000000e0: 20d5 c63d f10a 213c 9de7 193d 7a9f 2dbd
000000f0: 64f4 613d b845 35bc aa27 a13d 617f 1ebd
00000100: 81f4 c1bc dc70 a33d eeaf 91bc 5ab3 fdbc
00000110: 2d9c 803d 6204 e93d e034 6ebd 88a7 6ebc
00000120: be5c 683d 428a 863d bc10 053d da55 e4bd
00000130: 8140 883d 652f e4bd 4544 103d 55e0 cc3d
00000140: af49 853d a71b 3d3d 1841 98bd 252f 103c
00000150: 86aa 9cbd a10f ddbd f0a3 dc3b 7588 133c
00000160: ca4a 433d 33c8 b0bd c66f 223d 5aec 85bc
00000170: 7285 cd3d 09c1 77bd b323 e63b 5c86 b83d
00000180: e340 6e3d 0218 a9bd d8b3 f93c bc3d dd3d
00000190: 679c 7c3d 9a11 dd3d e680 9f3d 0ff8 88bd
000001a0: f934 98bd 810d 683d d3e5 a5bd 477b 9d3c
000001b0: 11de d6bd 48af 863c 8436 dabc 4d71 96bd
000001c0: 79b0 823d 3ac9 b53d c632 d23d 8228 e63d
000001d0: 3e5d 98bd b723 a23d 3050 9b3d 76ba c73d
000001e0: 9070 a8bd 801c 8cbc c461 ce3d 1c69 713d
000001f0: 61cf b53c 24c3 cf3c 2e3e ad3d cb74 c3bb
0.09442465 0.05430936 -0.03044573 -0.0884015 0.08296921 0.057607617 0.117771976 -0.08878374
-0.0881798 0.08331757 -0.09827146 -0.040387325 -0.058396693 0.05070544 0.05290714 0.046433713
0.115581416 0.07534988 0.038255814 0.048973918 0.08345531 -0.07656371 0.06863395 -0.029631635
0.09532955 0.09333919 0.033190716 -0.0782258 0.023523416 -0.07509725 -0.085204564 0.05004917
0.029457409 -0.02019613 -0.023786182 -0.08178838 0.10052436 0.10303599 0.060715776 0.08383877
-0.08804799 -0.11824731 -0.0930526 -0.096317746 0.016637873 -0.07393448 0.1306878 0.06290306
0.013206428 0.110666335 -0.0657856 -0.0343914 -0.031784944 0.03528883 -0.0698819 0.053388234
0.09708619 0.009829269 0.0375744 -0.042388417 0.05516471 -0.0110639855 0.078688934 -0.038695697
-0.023676159 0.079805106 -0.017784085 -0.03096931 0.06279788 0.11377789 -0.058155894 -0.01456631
0.05672907 0.06569339 0.032486662 -0.111491874 0.06652928 -0.11141852 0.035221357 0.100037254
0.06508195 0.04616895 -0.07434291 0.008800303 -0.07649712 -0.107939966 0.00673341 0.009004702
0.047678746 -0.08631935 0.039657377 -0.016348053 0.10035218 -0.060486827 0.0070232986 0.09010002
0.05816735 -0.08256532 0.030481264 0.108027905 0.061672594 0.10794373 0.07788257 -0.066879384
-0.07431979 0.056653503 -0.08100476 0.019223822 -0.104915746 0.016441002 -0.026637323 -0.07345829
0.06381316 0.088762715 0.102635905 0.11238195 -0.074396595 0.07916968 0.07583654 0.097523615
-0.082245946 -0.017103434 0.10077241 0.05893813 0.022193613 0.025361605 0.084591255 -0.0059648505

action_model._continuous_distribution.log_sigma f4 [1, 3]
00000000: b862 9cbd 5cb5 0dbe 2120 1fbd
-0.076360166 -0.13838714 -0.038849

action_model._continuous_distribution.mu.weight f4 [3, 128]
00000000: 1442 65bd 4750 123d 7a3f 06bd e4b0 aa3c
00000010: 3ab6 08bb eb20 62bd 409e 7c3d d8f3 5237
00000020: 24cd c13b d412 4abd f800 dfbc f2e9 bcba
00000030: 40b0 853d e23f 363c 70dd cb3c 1d85 293d
00000040: 87c5 953c 3b20 e43c 6c46 a33c 1910 2e3d
00000050: 1c1e 85bb 42f7 49bc f8fb 2c3c a7f2 0fbc
00000060: b8c7 af3b 1e7f 9bbc 2e42 bdbc 5bfc 483c
00000070: fe1b bc3c 5c69 003d e7fd 8f3b 508c 463d
00000080: 8523 80bb dfee 0cbd 6c03 b13c ca8c 663c
00000090: d9a3 6dbd 291b 9c3c c15c 52bc 4211 19bd
000000a0: e8b5 13bd 3fe8 5abc 2275 f6bb 14ad 453b
000000b0: 48cf cd3b e91b 143d e009 c73b d8e3 51bc
000000c0: 0ea9 bebc 73ee dbbc 5538 56bc 487b e0bc
000000d0: 7089 f63c 3dc3 213d 593b c7bc 5387 9fbc
000000e0: 21cc ae3c d0ec bb3c 973f 223d 8dcf 923a
000000f0: 9864 81bd 1da3 d93c d1a1 12bc b905 e03c
00000100: 6fc7 d83c 4125 433d 22c2 ba3c b54e a23c
00000110: 941a 133c ca5a 933d de42 3d3d b635 8b3c
00000120: 41b0 fc3b 2100 803d cc8b 2b3d a4d1 32bd
00000130: 13e5 c5bc 1dff a33b a530 893c 2698 0fbd
00000140: 0694 3dbd 3332 aebd b1b6 0eba 4aae 56bd
00000150: 114d f43c 37a3 053d 524e 19bd 554a 8e3d
00000160: f4ed 22bd d223 443c a314 39bd 94b7 ebbc
00000170: d8aa d4bb 0edc f53c 60e9 fe3b 0da9 f63c
00000180: 20b4 92bc 0707 e53c a89b 2d3d 7748 a53c
00000190: 0b4d 413d 2ea0 003d 1509 90bd d65b 1abd
000001a0: 011a 99bd ad4e 603d 21c3 e3bb 1e0e 23bc
000001b0: c58f 673c 3fe9 d3bc 4c3b ae3a 29bd f0bc
000001c0: 6517 bf3d 3355 2e3c 5908 b63c 4665 9e3c
000001d0: a01d 9d3b da25 393c e452 343d dff1 1bbd
000001e0: 63e1 b8bc 07b4 b03c cf46 623d a499 e23c
000001f0: f3bb ce3b 50c4 4fbc b4d2 8cbd 44df fd3c
00000200: c5b8 fcbc a438 12bd 4202 863c 567b fc3d
00000210: fc2e 0dbc a8ca 94bc d255 c1bd 6262 ff3c
00000220: 8bd2 c23d 4cc3 6bbc d15f 073e 5430 0c3d
00000230: 4c16 993d c55a fdbc 86d9 00bd 94a1 63bc
00000240: 611c 51bd 4df5 13bd 9fbe b9bc 92ee ddbc
00000250: f0a3 e2bc 7be4 8f3d d521 46bd e179 c93c
00000260: 53db 46bd 5461 0bbd cce4 febb aeec c53c
00000270: 4491 82bc 0633 793d df8f ef3d b08d 27bd
00000280: ffe2 bbbc 8755 26bb ce35 3a3c 4d4a b93c
00000290: 565a 23bd dc93 91bd f3e2 fbbc fd4b 65bd
000002a0: 7a00 a73d 9e46 993d c334 0d3d 478e 223e
000002b0: d9c7 0fbc dacf ce3d bbab 80bd a085 6bbc
000002c0: ac0c 23bc 6ad5 3abd c116 7d3d a966 d93b
000002d0: e153 e13c 9e16 80bc 177d e03c 57e5 dbbc
000002e0: c5bc 89bd 2f57 18bc 012d 45bc bf77 513b
000002f0: 04c4 a6bc e035 d23c 489e 61bd a2a4 b73d
00000300: cd87 263d cf66 17bd 9a86 97ba c524 b83c
00000310: c7b1 65bc f7b7 8ebd 0fbb 1c3d 6c4d 9f3b
00000320: 2102 aabc 22ff 09bd 4e48 50bc 0608 c83d
00000330: abcd 74bc 774e 0d3e d707 4abc 0d6b 70bd
00000340: c30c f0bc a009 0d38 bb78 703d 6e3c a9bb
00000350: 1780 a13d 246e 093e d3b2 d83b 9e83 65bb
00000360: b868 abbc e5bd c53d 9d86 42bb fef8 033b
00000370: a641 50bd 9713 2c3d 81c0 283b 9607 42bd
00000380: d080 09bd 235c 053e 4db9 3e3c a172 12bd
00000390: 29ed 3fbd 7f2a 75bd 96fb 15bd 9e1f 383d
000003a0: eb7c 493d 3d95 6cbc d01a 423d 38e0 b73b
000003b0: 4606 bb3d 850e 0c3c 4741 053c 4799 d03d
000003c0: 05a4 22bd 2578 0ebd 4906 adbd aa15 74bd
000003d0: ca3f 333d 1221 3fbd be0a 28bd 0844 5fbd
000003e0: 64e0 6f3d 66f2 383c 2d18 67bd 3919 5dbc
000003f0: 81eb d5bb 9d78 87bc 4882 13bd 2032 a2b9
-0.05597122 0.03572109 -0.03277538 0.020836301 -0.0020860569 -0.055207174 0.061674356 1.257375e-05
0.0059143472 -0.049334362 -0.027222142 -0.0014412983 0.06527758 0.011123629 0.024885863 0.041386712
0.018282665 0.0278474 0.01993104 0.04249582 -0.004062427 -0.012327017 0.010558121 -0.00878588
0.0053643845 -0.018981513 -0.023102846 0.0122671975 0.022962566 0.03135048 0.004394281 0.048473656
-0.0039104843 -0.034407493 0.021608077 0.014071653 -0.058017585 0.01905592 -0.012839497 -0.037369974
-0.03606215 -0.013361036 -0.0075212875 0.0030162977 0.0062808134 0.03615943 0.0060741752 -0.01281067
-0.023273971 -0.0268471 -0.013074954 -0.027402535 0.030094832 0.039492834 -0.024320291 -0.019473707
0.02133757 0.02294007 0.039611425 0.0011200771 -0.06318015 0.026567036 -0.008949713 0.027346479
0.026462285 0.04764295 0.022797648 0.019812921 0.008978505 0.07195051 0.046206348 0.016993385
0.007711441 0.062500246 0.041881368 -0.04365696 -0.024157083 0.005004777 0.016746828 -0.03505721
-0.046283744 -0.085056685 -0.0005444093 -0.05241231 0.029821904 0.032626357 -0.037428208 0.069477715
-0.03977771 0.011971431 -0.045185696 -0.02877406 -0.0064900927 0.030012157 0.0077792853 0.030109907
-0.017908156 0.027957452 0.042384773 0.020176155 0.047192615 0.03140276 -0.07032982 -0.037685238
-0.07475663 0.05476253 -0.0069507514 -0.009952096 0.014133398 -0.025868056 0.0013292818 -0.029387074
0.09330634 0.01064043 0.022220777 0.0193354 0.0047947913 0.011300528 0.044024363 -0.038072463
-0.02256841 0.021570219 0.05524331 0.027661152 0.0063090264 -0.012681082 -0.06876126 0.03099025
-0.030849824 -0.035698548 0.016358498 0.12328212 -0.008617159 -0.01816304 -0.09440197 0.031174842
0.09512814 -0.014389824 0.13220145 0.034225777 0.07474956 -0.030927071 -0.031457447 -0.013893504
-0.051052455 -0.03612261 -0.022673903 -0.027091298 -0.027666062 0.07026001 -0.04837211 0.02459425
-0.048549008 -0.034028366 -0.0077787396 0.02416071 -0.015938409 0.060839675 0.11697363 -0.040906608
-0.022935389 -0.0025380568 0.011365367 0.022618437 -0.039881073 -0.0710828 -0.030747866 -0.05598067
0.08154388 0.07484172 0.034474146 0.15874587 -0.008775675 0.10098238 -0.06282755 -0.01437512
-0.009951752 -0.045613684 0.061789278 0.0066345525 0.027505817 -0.015635785 0.027403397 -0.026842756
-0.06725458 -0.00929813 -0.012034656 0.0031962243 -0.02035714 0.025660455 -0.05508259 0.08966948
0.040656853 -0.03696328 -0.00115605 0.02247847 -0.014019436 -0.06968682 0.03826433 0.0048615243
-0.020752968 -0.03369058 -0.012712551 0.09767155 -0.014941613 0.13799463 -0.012330971 -0.05869584
-0.02930296 3.3625984e-05 0.058708888 -0.0051646745 0.07885759 0.13420922 0.0066131144 -0.0035021077
-0.020923957 0.0965536 -0.0029682287 0.0020137425 -0.050843857 0.04201087 0.0025749507 -0.047370516
-0.03357011 0.13023429 0.011640859 -0.03575385 -0.046857033 -0.05985498 -0.036616884 0.044952027
0.049191397 -0.014439878 0.04738885 0.0056114458 0.09132056 0.008548384 0.008133239 0.10185485
-0.039707202 -0.034782548 -0.084484644 -0.059590973 0.043762006 -0.046662398 -0.04102587 -0.05450824
0.058563605 0.011288261 -0.05641954 -0.013494783 -0.0065283184 -0.016537005 -0.036012918 -0.00030936394

action_model._continuous_distribution.mu.bias f4 [3]
00000000: 4b78 ec3b 75cd d6bd 5ffd 3bbb
0.0072164885 -0.104884066 -0.0028684956

exp_avg f4 [128, 12]
00000000: c897 b538 e37d fb38 c84e dfb8 a221 1b39
00000010: 68da 2239 c71c 84b8 e05d aa36 7a8d 1cb4
00000020: dc64 07b7 fefb b038 0403 60b9 cedf 9a39
00000030: 4f0c 1739 b8d3 9bb9 846f b3b9 51d9 9339
00000040: f6e2 f8b8 0ab4 70b9 2c02 81b9 8a17 9735
00000050: 26f5 a838 5454 d8b9 a490 a9b9 2c1c 8739
00000060: 39e7 d438 be50 d7b8 46f2 e2b8 e664 1138
00000070: 8e1b 88b8 d468 28b8 48dd 99b8 ced7 ba33
00000080: a8ea 0237 655e dbb8 e06e 50b8 407c b838
00000090: 2f8e b938 a223 5e36 64cf 75b9 6961 9f38
000000a0: 3017 de38 e8d8 1cb9 cae7 a4b8 5fbe 3a33
000000b0: 29f2 af38 b09b 20b6 0088 8236 b1db 2a39
000000c0: 6a3e 7c38 bb0b 88b9 7d82 d6b9 2014 4338
000000d0: 2d04 12b8 cc05 53b9 0f96 36b9 5755 3d35
000000e0: 69fa 86b6 cb9b 6eb9 1f8a 8a38 d615 b138
000000f0: 5896 fab8 7715 4eb9 dbf5 7fb9 f661 05b9
00000100: ca34 07b8 1843 21b9 e6b7 6bb9 9d5c 4035
00000110: c651 49b8 2538 4ab9 aa71 0fb9 3a20 c938
00000120: ce93 88b9 f3af 9739 3940 a1b8 c12d 30b9
00000130: 2f7a fa37 ff34 89b8 93db 4639 0cd3 42b5
00000140: bcff c4b8 4162 8d39 526e b8b7 4388 97b8
00000150: f122 b0b9 36cd 3a39 2c19 7839 c685 9cb9
00000160: 14da 65b9 b24c 2539 3c14 2a39 d2f6 67b5
00000170: 309f b9b8 2bee a139 cc35 4139 8a2e f1b9
00000180: 5472 22b9 0789 a5b8 74b2 16b8 78a9 cbb8
00000190: a682 2836 4c03 e4b7 40ed e638 5ad6 0c35
000001a0: 2f8a b738 1bf8 8eb8 e932 0439 08f4 81b6
000001b0: ce1f ce38 955e a2b9 a897 76b9 62e8 5338
000001c0: 81ea 81b8 905f c4b8 b850 8cb9 2ac5 9b35
000001d0: ea3b f438 506f 8db9 ed33 9a38 810a 8e39
000001e0: 2b1f f2b9 d8ff 083a 3f2b 3c39 c7d9 a2b9
000001f0: 6cf6 17b9 c64a ba38 d27a 1f39 6e7b 09b6
00000200: 6e8c 5cb9 7dd6 113a 1b07 3fb8 8a7e 61ba
00000210: 52c7 8238 a867 1839 a4f7 fa38 bc9b 17b7
00000220: e6b0 5f39 8ae2 1e39 c2a2 5d39 000d 92b1
00000230: 49e7 9f39 e435 7439 fd20 043a 50ee 8438
00000240: 66a5 a5b9 cbfa 2b39 ea21 d6b8 b76e 8ab9
00000250: f471 0038 46b8 75b8 20a0 46b5 9428 16b5
00000260: 0f6e 26b9 95af 6d39 d42a 2d38 64a0 2238
00000270: d560 4c39 4d3f 21b9 9902 5d38 742d f338
00000280: 7094 c736 7828 efb6 f322 43b9 f740 2335
00000290: 8cc4 0238 37b4 2bb9 8ef7 49b9 1c19 8039
000002a0: 493f a1b9 a5cd f038 84ed 94b8 be2b 8fb9
000002b0: 260f 58b9 e018 d736 a432 cc38 9469 29b5
000002c0: 5060 f7b8 2d38 5939 fac4 db38 d6bd cdb9
000002d0: 4cf4 083a 00e8 e0b6 88c9 5eb8 90ad f639
000002e0: 4c24 87b7 1896 cdb8 c417 96b9 f47f ebb3
000002f0: ae74 3139 2503 a1b8 784f dbb9 aaba 6b39
00000300: eef7 88b9 7ba6 c9b8 cc99 70b9 81be 12b9
00000310: c116 b438 558e 13b9 1d7a 38b8 e89a 2c35
00000320: fa29 a1b7 3ef5 feb8 ada4 1f38 14e1 0539
00000330: 5e9b 8838 1c6c b8b7 ff09 8a38 865f 2a37
00000340: e05a 7235 2ad5 ab38 290d 11b8 9eef aa33
00000350: 3c26 d137 a846 b836 d97b 8538 c32c 2f39
00000360: e9d8 9938 6704 99b7 0c1c 99b7 4f18 d138
00000370: ec22 b1b6 eef6 1438 e4d8 cbb8 a092 0235
00000380: bc27 ac38 423e afb7 7fc3 ce38 aeb5 0c39
00000390: 00e4 42b5 202c bc36 d31e 5339 ba40 51b8
000003a0: fa26 dc38 5036 a738 b495 1738 24cd 4833
000003b0: 7c57 8ab8 087e 8a37 da65 7838 f2ac b838
000003c0: b554 51ba 4ca4 2339 5887 01ba d8d6 ebb9
000003d0: dc83 ce38 74c1 46b9 9366 1139 6e4b 7d34
000003e0: d07b 68b9 2f6f 1139 0689 ae39 6a5d 4c38
000003f0: 8466 14ba 1234 8639 9029 0338 d1c2 cbb9
8.659024e-05 0.00011992061 -0.00010648143 0.00014794481 0.00015530887 -6.299611e-05 5.0773233e-06 -1.4580101e-07
-8.07011e-06 8.439271e-05 -0.00021363428 0.00029539916 0.00014405067 -0.00029721647 -0.00034224626 0.00028199938
-0.00011867836 -0.00022955253 -0.00024606416 1.1257227e-06 8.056527e-05 -0.0004126156 -0.00032341958 0.00025770196
0.00010152016 -0.00010267038 -0.00010821647 3.4664663e-05 -6.490118e-05 -4.015195e-05 -7.3368254e-05 8.7005546e-08
7.803239e-06 -0.00010460316 -4.9694325e-05 8.796947e-05 8.847971e-05 3.310132e-06 -0.0002344228 7.599855e-05
0.00010590104 -0.00014958123 -7.8633035e-05 4.347964e-08 8.389756e-05 -2.393248e-06 3.8901344e-06 0.00016294305
6.013961e-05 -0.0002594868 -0.00040914482 4.6510366e-05 -3.4813e-05 -0.00020124688 -0.00017412774 7.053217e-07
-4.022663e-06 -0.00022755486 6.60608e-05 8.444085e-05 -0.00011948933 -0.00019653687 -0.00024410283 -0.00012720362
-3.2235672e-05 -0.00015379151 -0.00022479854 7.1660344e-07 -4.7998292e-05 -0.00019285137 -0.00013679886 9.5904295e-05
-0.00026050064 0.00028932057 -7.689041e-05 -0.00016801713 2.9859219e-05 -6.54254e-05 0.00018964549 -7.2577745e-07
-9.3936425e-05 0.0002696682 -2.1985881e-05 -7.225622e-05 -0.0003359537 0.0001781479 0.000236605 -0.00029854308
-0.00021920382 0.00015764197 0.00016220001 -8.6413377e-07 -8.8511384e-05 0.00030885762 0.00018425955 -0.00046001776
-0.00015492114 -7.8933364e-05 -3.5928984e-05 -9.71136e-05 2.5109998e-06 -2.7181253e-05 0.00011011446 5.2465987e-07
8.751859e-05 -6.817301e-05 0.00012607466 -3.8729086e-06 9.8287695e-05 -0.00030969517 -0.00023516885 5.0522744e-05
-6.194879e-05 -9.363808e-05 -0.0002676302 1.1605782e-06 0.000116459865 -0.0002697655 7.352964e-05 0.00027092177
-0.0004618106 0.0005226112 0.00017945188 -0.00031061305 -0.00014492281 8.883099e-05 0.00015209176 -2.0486436e-06
-0.00021033149 0.0005563272 -4.5544566e-05 -0.00086019246 6.236009e-05 0.00014534465 0.000119670556 -9.036561e-06
0.00021332837 0.00015152447 0.00021136834 -4.250637e-09 0.00030499164 0.00023289729 0.0005040316 6.33864e-05
-0.00031594484 0.00016401258 -0.00010210632 -0.000264039 3.0623705e-05 -5.858417e-05 -7.399376e-07 -5.5938403e-07
-0.00015871994 0.0002266749 4.12863e-05 3.8773185e-05 0.00019491029 -0.00015377738 5.2692925e-05 0.00011595609
5.9479426e-06 -7.1274662e-06 -0.00018609669 6.081677e-07 3.1177464e-05 -0.00016374966 -0.00019261075 0.0002443277
-0.00030755464 0.00011482396 -7.101431e-05 -0.00027307676 -0.00020605008 6.410395e-06 9.7369106e-05 -6.311104e-07
-0.000117958174 0.0002071566 0.000104794235 -0.00039242086 0.00052243914 -6.7027286e-06 -5.3116615e-05 0.0004705009
-1.6110156e-05 -9.803119e-05 -0.00028627936 -1.0966315e-07 0.00016923502 -7.677664e-05 -0.00041830144 0.00022480884
-0.00026124663 -9.615436e-05 -0.00022945477 -0.00013994613 8.587307e-05 -0.00014072035 -4.3982745e-05 6.430041e-07
-1.9212242e-05 -0.00012157344 3.806192e-05 0.00012767717 6.513925e-05 -2.1984852e-05 6.582215e-05 1.015503e-05
9.0284266e-07 8.19362e-05 -3.458295e-05 7.959828e-08 2.4932546e-05 5.491853e-06 6.3650026e-05 0.00016705976
7.336011e-05 -1.8241071e-05 -1.8252082e-05 9.9704244e-05 -5.2790765e-06 3.551592e-05 -9.720193e-05 4.864214e-07
8.209e-05 -2.0890617e-05 9.8592594e-05 0.00013419121 -7.2602415e-07 5.6079734e-06 0.00020134011 -4.9889764e-05
0.000104976774 7.973297e-05 3.6140627e-05 4.6752703e-08 -6.596648e-05 1.650957e-05 5.9222664e-05 8.806017e-05
-0.00079853396 0.00015606097 -0.0004941127 -0.00044982764 9.847406e-05 -0.00018954818 0.0001386649 2.3589902e-07
-0.00022171368 0.00013869697 0.00033289957 4.872439e-05 -0.0005661028 0.00025597267 3.1271542e-05 -0.00038864327

exp_avg_sq f4 [128, 12]
00000000: 9f3b 3736 a3f2 0336 f1fc 5536 1870 9f35
00000010: 31d9 0935 47bb 6a35 7401 5435 141d 872d
00000020: 0f6c 4e35 8449 1136 d170 a635 25aa 7535
00000030: bfcd 8136 2be5 1636 eb7f 8d36 378e e535
00000040: 3a85 8135 59f8 8f35 038c 6535 d06c 9d2d
00000050: 4ce9 8135 6181 2a36 a8c3 b035 45fb a935
00000060: 301c 1134 131d 3f34 7ae2 0c35 0e92 aa33
00000070: 9d52 a633 5c40 0c34 8de9 9033 709d b12b
00000080: 27dc 9133 f431 5834 55e1 e933 3b44 8434
00000090: 0134 7f34 1f1a c334 8c58 1d35 640c ec33
000000a0: 386d 1b33 a14e 0834 7af4 1534 7fb0 1a2c
000000b0: 1e29 1334 9361 ed34 635d 2f34 63b7 ba33
000000c0: bf1d 8135 cdb0 9a35 cb9b 2a36 ecbc ea34
000000d0: 3d9e 2d33 c585 0735 f949 dd34 cf40 0c2d
000000e0: 7be8 fe34 9554 ad35 23ed ec34 3eae 5434
000000f0: 72a0 ad35 39e0 e235 9fc5 a136 9343 2135
00000100: 159f d833 6dc8 8335 5961 2d35 d192 5d2d
00000110: 7b6e 2b35 79d7 fc35 cc23 2035 587c 1335
00000120: 7332 0135 2dac 1135 9e6b 5135 7205 8c34
00000130: 4478 6a32 6395 3734 7ad8 8634 1d97 9b2c
00000140: ba3c 7d34 5b43 1c35 227a 8d34 4db8 ae33
00000150: 45c2 8c35 47d3 8335 5869 0936 0abc 3635
00000160: 2a7f 8635 c021 1f35 70f0 e834 4f9f 082d
00000170: 1f8e e434 8053 9d35 07ea 5a35 0b24 7635
00000180: 5e39 0d35 f6b6 9834 4d90 d134 a668 4d34
00000190: b03b 2532 341a c533 5754 f233 2c5e 1b2c
000001a0: 4507 e733 cb9c ad34 f658 ef33 66e0 e432
000001b0: c0c8 ad34 d5e1 f934 0eb7 b535 d38a 4434
000001c0: 3992 3633 6f15 ab34 9e1d 8334 0903 8d2c
000001d0: cdf9 6034 b416 0835 a691 7d34 7095 8434
000001e0: f991 0436 c850 1e36 2e8e 9036 e955 8935
000001f0: 408f 4c35 2f51 6b35 a26c 7135 c282 962d
00000200: 5fa8 8335 5647 3436 62b5 8f35 76c9 d635
00000210: 4385 a436 55a1 1336 7c27 5936 2445 0836
00000220: 2940 dd34 627d 8335 c216 5835 822d a62d
00000230: 76f9 7e35 a261 2836 8e0d b435 879a eb34
00000240: c6c7 5a35 5756 7f35 34d3 0f36 da18 1135
00000250: e416 3a35 cf38 0c35 72d4 ad34 8caa 0a2d
00000260: 058e d634 5387 8f35 902c 0b35 125e 0035
00000270: aacb b234 749c a734 bc6e 3a35 6591 3b34
00000280: 7b80 2d34 74b6 8234 3074 1834 82a5 352c
00000290: b4d1 f633 8215 b634 25bc ac34 a71f d934
000002a0: 473b 7634 a146 7234 471c 0b35 fe17 5934
000002b0: 7429 fc34 dcd9 8a34 3c4d f333 5252 032c
000002c0: 8424 0434 af8a 9934 f062 b334 30f1 e934
000002d0: 6776 9735 a924 7e35 e0fd 0e36 e068 7c35
000002e0: 22c8 b335 8aa4 9335 e0f5 0e35 c55e 212d
000002f0: bf8e eb34 349e 8935 3640 c935 007f b735
00000300: c2d6 c635 28a3 e735 6771 9236 d174 2b35
00000310: 09a9 3634 d5ac 6635 274b 1435 6716 4a2d
00000320: 7a2f 2635 c668 0736 6e09 1835 3919 da34
00000330: 683b 0933 2cf0 1633 8652 a633 3b45 3d33
00000340: 0f14 0534 b757 5933 a1b7 ca32 40c8 d92a
00000350: 8123 9132 65d1 2833 ff93 ac33 e7df 2134
00000360: 5ac0 b933 84bc ee33 0b27 ab34 3d30 4933
00000370: e3a6 df32 5430 a133 596e 7d33 8084 8f2b
00000380: cd38 5e33 f88c 0834 9a2b 6533 e3a8 e433
00000390: f5cc 6434 5101 3134 6a4b 9e34 4c8f 2134
000003a0: 1f10 2134 2e5a 1e34 1333 aa33 44ac c32b
000003b0: da2a 9433 46fd 5434 9401 6d34 f75d 0234
000003c0: cd92 8636 5a4c 4436 cbfa b936 4752 ce35
000003d0: e445 3833 9250 a935 a08a 9535 a9f9 df2d
000003e0: 3692 9535 cd75 5c36 b5e3 bc35 82cf 2a34
000003f0: 4cc0 5d36 a99a 3236 dfb3 8e36 b131 b535
2.730383e-06 1.9661754e-06 3.1886705e-06 1.1879047e-06 5.135253e-07 8.744432e-07 7.897827e-07 1.5360636e-11
7.6898226e-07 2.1649475e-06 1.2400798e-06 9.1517205e-07 3.8684516e-06 2.2485135e-06 4.217019e-06 1.710322e-06
9.650023e-07 1.0726609e-06 8.551289e-07 1.7897156e-11 9.679147e-07 2.5407282e-06 1.3169965e-06 1.266461e-06
1.3514432e-07 1.7798838e-07 5.248363e-07 7.942809e-08 7.7450046e-08 1.306193e-07 6.748005e-08 1.2620304e-12
6.792134e-08 2.013474e-07 1.0890896e-07 2.463656e-07 2.3767645e-07 3.6340586e-07 5.861591e-07 1.099186e-07
3.6188084e-08 1.2694592e-07 1.3965646e-07 2.1982691e-12 1.37054e-07 4.4215685e-07 1.6332119e-07 8.694658e-08
9.619906e-07 1.152535e-06 2.5422657e-06 4.3723355e-07 4.042362e-08 5.048608e-07 4.121828e-07 7.972469e-12
4.748034e-07 1.2914121e-06 4.4130965e-07 1.9807428e-07 1.29362e-06 1.690357e-06 4.82118e-06 6.007551e-07
1.0087221e-07 9.818592e-07 6.458918e-07 1.2594995e-11 6.3863234e-07 1.8838174e-06 5.9656736e-07 5.494271e-07
4.812966e-07 5.426726e-07 7.801517e-07 2.6080994e-07 1.3647938e-08 1.709755e-07 2.5116952e-07 4.422142e-12
2.3584553e-07 5.8212544e-07 2.635216e-07 8.1360305e-08 1.0487353e-06 9.82175e-07 2.047591e-06 6.8073916e-07
1.0020788e-06 5.928123e-07 4.338831e-07 7.766079e-12 4.2571716e-07 1.1721713e-06 8.1551883e-07 9.169459e-07
5.2610073e-07 2.8445328e-07 3.9034276e-07 1.9130184e-07 9.617835e-09 9.178294e-08 1.12843445e-07 2.20791e-12
1.0758098e-07 3.2337843e-07 1.1145487e-07 2.6644738e-08 3.2369826e-07 4.654418e-07 1.3538827e-06 1.8304426e-07
4.2508166e-08 3.1866827e-07 2.44222e-07 4.007798e-12 2.0952503e-07 5.0696985e-07 2.3615448e-07 2.4695646e-07
1.97545e-06 2.3590856e-06 4.3080863e-06 1.0232299e-06 7.620438e-07 8.766246e-07 8.993758e-07 1.7111094e-11
9.809263e-07 2.6863613e-06 1.070712e-06 1.6002875e-06 4.9030946e-06 2.1998615e-06 3.2358503e-06 2.0305824e-06
4.121114e-07 9.796752e-07 8.049939e-07 1.8892225e-11 9.4985387e-07 2.509078e-06 1.341499e-06 4.3884594e-07
8.1502037e-07 9.5120544e-07 2.1431597e-06 5.4052873e-07 6.932371e-07 5.223673e-07 3.2378335e-07 7.882261e-12
3.996394e-07 1.0693715e-06 5.184638e-07 4.7820606e-07 3.330327e-07 3.122001e-07 6.945154e-07 1.7468626e-07
1.6158621e-07 2.434714e-07 1.4198372e-07 2.5813522e-12 1.14934124e-07 3.391579e-07 3.217439e-07 4.044243e-07
2.29321e-07 2.2563701e-07 5.1822684e-07 2.0218428e-07 4.696882e-07 2.5863017e-07 1.1329618e-07 1.8661917e-12
1.2306742e-07 2.8599376e-07 3.3413335e-07 4.357512e-07 1.1284836e-06 9.467572e-07 2.1307424e-06 9.402993e-07
1.3394786e-06 1.1000241e-06 5.325692e-07 9.1728335e-12 4.3876022e-07 1.0253339e-06 1.4994355e-06 1.3671524e-06
1.4814652e-06 1.7258326e-06 4.364341e-06 6.3872454e-07 1.7011565e-07 8.593318e-07 5.524366e-07 1.1487345e-11
6.1908906e-07 2.0177554e-06 5.6638135e-07 4.0624016e-07 3.1951828e-08 3.514303e-08 7.744988e-08 4.4067956e-08
1.2393888e-07 5.0604026e-08 2.35994e-08 3.8685895e-13 1.6896367e-08 3.930599e-08 8.0362945e-08 1.5075749e-07
8.6497224e-08 1.11170294e-07 3.187964e-07 4.6842832e-08 2.6036508e-08 7.5059376e-08 5.9006513e-08 1.0197537e-12
5.1740063e-08 1.2717271e-07 5.3357873e-08 1.0647798e-07 2.1308718e-07 1.6484888e-07 2.9484664e-07 1.5046425e-07
1.5000158e-07 1.4747704e-07 7.925532e-08 1.3903397e-12 6.899582e-08 1.9836179e-07 2.2072919e-07 1.2141378e-07
4.010601e-06 2.9250718e-06 5.542626e-06 1.5372142e-06 4.2904404e-08 1.261493e-06 1.114171e-06 2.5463036e-11
1.1143918e-06 3.2851124e-06 1.4073363e-06 1.5907975e-07 3.3043498e-06 2.661409e-06 4.2528695e-06 1.3500013e-06

exp_avg f4 [128]
00000000: 003b 03b8 604e 7d39 149f 9c37 af89 1c37
00000010: 87b5 1e39 663f 2139 da4f 23b9 c171 42b9
00000020: 461d ec38 1d93 8239 487d e6b9 80df 74b5
00000030: c3bd fbb8 08d9 0839 a102 0eb9 c468 c5b7
00000040: c2af 1039 9049 8f37 dce7 da38 8052 2837
00000050: 2153 5438 fe8a 55b9 e72d c4b9 d22c 9e37
00000060: b638 a439 7686 d938 b48d 9737 f037 dab7
00000070: ef89 ddb7 516f fcb9 7c0e de38 ab43 39b8
00000080: 5629 c138 cf84 063a fab2 21b9 985b 5538
00000090: 9477 fe38 d70b e338 8b96 8039 e3fc 0639
000000a0: fba7 08b9 a4ab 98b8 70c9 de36 2388 22b8
000000b0: e489 b338 474b 7539 1d5e 8fb9 0a6c 1f39
000000c0: 671c 15b9 c14e 15b9 d922 99b9 fffc f138
000000d0: 27cb d5b9 777f 0a38 36bb 9738 bb71 4939
000000e0: 8ec1 3137 d96a 1ab9 ca1c c6b7 53ec 2eb9
000000f0: dc00 9b36 84c5 9136 284d 3437 1638 e1b6
00000100: 24c0 2ab8 b530 d6b7 ecea c338 aecd f6b8
00000110: dc80 d937 3027 12b6 ac58 dd36 8051 9ab6
00000120: 5038 c436 eaa2 2b38 e8e4 3ab7 e9cf 0339
00000130: 26cc a4b8 1479 c4b7 8209 c1b9 5aac 1fb9
00000140: 9796 6739 bcec f636 735e 81b7 2de7 6938
00000150: fc5c ffb8 e009 6e37 ab8e 6139 0717 d1b8
00000160: f4f8 96b8 5ff0 fb38 08c9 9737 9274 e8b7
00000170: fea2 0eb8 4884 1237 e941 2938 bb9b 2939
00000180: c822 fdb7 0cfc fcb8 7565 10b9 ecb1 f536
00000190: f2f6 8f38 9634 2337 a688 43b8 50c0 88b8
000001a0: c47b 7939 fa93 12b9 28d7 4738 c89a 82b6
000001b0: 40fc 76b8 c4e4 1039 3ee8 a7b9 9401 e8b8
000001c0: 901c 25b9 06c2 2538 6879 d3b9 c01b 8fb5
000001d0: e0f0 98b9 197f b4b6 c0e9 0137 482e fd36
000001e0: a176 fe38 7ca7 beb8 ecac ec38 b4cc 4d38
000001f0: 004d 90b5 40ba 26b6 acfa 5f38 e012 ba37
-3.1287782e-05 0.00024157157 1.8670726e-05 9.3303815e-06 0.00015135678 0.00015377774 -0.00015574638 -0.00018543658
0.000112588095 0.0002490514 -0.0004396236 -9.122232e-07 -0.000120039585 0.00013050821 -0.00013543155 -2.3533015e-05
0.00013798385 1.7081184e-05 0.00010438237 1.0032789e-05 5.062216e-05 -0.00020365042 -0.00037418233 1.8855939e-05
0.0003132277 0.000103724116 1.8066588e-05 -2.6013673e-05 -2.6409483e-05 -0.00048148123 0.00010588483 -4.4170458e-05
9.2106566e-05 0.00051314844 -0.0001542083 5.086846e-05 0.00012133937 0.00010826409 0.00024526226 0.00012873443
-0.00013032548 -7.279895e-05 6.639566e-06 -3.8750597e-05 8.561069e-05 0.00023393064 -0.00027345205 0.0001520367
-0.00014220328 -0.00014239085 -0.00029208398 0.000115389 -0.00040777886 3.3020475e-05 7.235112e-05 0.00019211222
1.0595088e-05 -0.00014726388 -2.3616845e-05 -0.00016681971 4.61946e-06 4.3443306e-06 1.07468e-05 -6.712052e-06
-4.0710103e-05 -2.5533469e-05 9.342082e-05 -0.00011768505 2.592842e-05 -2.1778505e-06 6.596636e-06 -4.5990455e-06
5.847811e-06 4.0921303e-05 -1.113976e-05 0.00012570586 -7.858155e-05 -2.3421402e-05 -0.00036818912 -0.00015227628
0.00022085976 7.358931e-06 -1.542198e-05 5.5766828e-05 -0.00012176667 1.4188205e-05 0.0002151082 -9.970186e-05
-7.1989285e-05 0.00012013385 1.8094215e-05 -2.7710837e-05 -3.4007237e-05 8.733077e-06 4.0354123e-05 0.0001617511
-3.0176147e-05 -0.00012063244 -0.00013770706 7.322282e-06 6.8647685e-05 9.727801e-06 -4.6618887e-05 -6.520806e-05
0.00023792597 -0.0001397877 4.7645677e-05 -3.892321e-06 -5.8885897e-05 0.00013818132 -0.00032025756 -0.00011062916
-0.00015746267 3.9519764e-05 -0.0004033551 -1.0662407e-06 -0.00029171165 -5.379214e-06 7.743423e-06 7.5453754e-06
0.0001213376 -9.0911024e-05 0.00011285566 4.9066453e-05 -1.0751246e-06 -2.484434e-06 5.34008e-05 2.2181717e-05

exp_avg_sq f4 [128]
00000000: 37ee 5f35 d463 8535 802a 9f33 5068 0834
00000010: a45c f534 bbca 3f35 60d2 7e34 37c3 e834
00000020: 17ff 0434 32ad 6a34 e270 8035 4176 8a35
00000030: 9ff6 eb34 bde1 1134 7672 e333 ded1 fe34
00000040: 957d 3735 ef21 b432 9ab3 7033 4108 a733
00000050: da09 b935 4ea6 9235 40b9 6336 ee3a 5533
00000060: 902e ff34 9848 d734 2210 4634 176a 1535
00000070: bbc3 8c33 2e88 eb35 bfb5 6434 975c 5634
00000080: 30ba 8334 c59e ec35 1127 3f34 688f 4d35
00000090: f285 ce33 d8c9 8a34 f366 ab35 c273 4535
000000a0: 1b72 af33 0f3b f634 fbb0 b233 3ca5 8833
000000b0: d172 3734 11de a835 aad2 8635 2733 7034
000000c0: b08c 3734 615e 9133 3b30 9035 0ad9 ad35
000000d0: 7780 b435 5731 8c33 df03 2734 8215 9834
000000e0: 29a4 9c32 f889 1e35 ea28 ce34 f98b c435
000000f0: 954d 6b34 391d 8733 1faa 5234 047a 1334
00000100: 4a71 6635 f5d7 8332 d7cf 3b35 8ea6 d533
00000110: a535 f934 f0d4 8b34 1f52 9132 1e35 1935
00000120: 02cf 6834 481a 8d32 a7df 9a33 9fc5 ba34
00000130: bd14 0e34 d270 fc34 51f6 0b36 69f7 8734
00000140: 946d 9035 b41b cf33 b2e8 1b34 c805 a235
00000150: 52b4 1834 61da 2135 2b88 1436 e220 4a34
00000160: 417a 2c34 7cf7 8b34 8320 7535 3ba9 4035
00000170: bd3c dc34 7a1c 3334 9f37 cb33 524c 1c34
00000180: b610 8a34 646e 1635 ea9c 0135 fb52 1933
00000190: 4f2b e533 7e9b ac33 c7c2 8234 9fb9 8b33
000001a0: fcf3 3435 2561 7e34 94c4 fe33 817c 6934
000001b0: a01b cc33 0d36 a134 dbca 0935 fe74 d834
000001c0: 84f9 9934 deb6 8933 40f1 6335 2bad 2c34
000001d0: db72 a135 cad6 1734 132e b132 b2a6 7334
000001e0: 1b52 ab35 16f7 5034 bd8f 1d34 2409 7934
000001f0: ccdb aa34 a7dc 3d34 bf76 c134 73e0 be34
8.342062e-07 9.938326e-07 7.411745e-08 1.2703936e-07 4.570221e-07 7.1448056e-07 2.3732127e-07 4.3355405e-07
1.2386259e-07 2.1855956e-07 9.569596e-07 1.0316218e-06 4.3951601e-07 1.35863e-07 1.05913315e-07 4.7463885e-07
6.835556e-07 2.097019e-08 5.60427e-08 7.778045e-08 1.3786441e-06 1.0926249e-06 3.3933466e-06 4.9646523e-08
4.753133e-07 4.009969e-07 1.8446056e-07 5.5661206e-07 6.554861e-08 1.7548498e-06 2.1300274e-07 1.9963987e-07
2.453612e-07 1.7629578e-06 1.7802473e-07 7.6577135e-07 9.616987e-08 2.5851364e-07 1.2770455e-06 7.355667e-07
8.169828e-08 4.5864041e-07 8.3209635e-08 6.3630495e-08 1.7084973e-07 1.2581605e-06 1.0045089e-06 2.2370351e-07
1.7094385e-07 6.769256e-08 1.0742873e-06 1.2952671e-06 1.3448433e-06 6.528233e-08 1.5554495e-07 2.8327855e-07
1.8235442e-08 5.906036e-07 3.840026e-07 1.4643875e-06 2.1914305e-07 6.291743e-08 1.9619664e-07 1.3734831e-07
8.5846534e-07 1.5348613e-08 6.9965375e-07 9.9488815e-08 4.6418896e-07 2.60457e-07 1.6917566e-08 5.707424e-07
2.1681993e-07 1.6426512e-08 7.211866e-08 3.4788988e-07 1.3232325e-07 4.7020745e-07 2.085599e-06 2.5325724e-07
1.0760727e-06 9.644228e-08 1.4520154e-07 1.2071623e-06 1.4221703e-07 6.0294957e-07 2.2132979e-06 1.8824679e-07
1.6063224e-07 2.6070836e-07 9.1316923e-07 7.1771836e-07 4.1022386e-07 1.6681034e-07 9.4630416e-08 1.4556397e-07
2.5716662e-07 5.6039994e-07 4.8284585e-07 3.569856e-08 1.0671521e-07 8.037658e-08 2.4356106e-07 6.506456e-08
6.741027e-07 2.3690934e-07 1.1863554e-07 2.174511e-07 9.504515e-08 3.0027914e-07 5.133167e-07 4.0318258e-07
2.8680017e-07 6.412823e-08 8.4915155e-07 1.6081746e-07 1.2028862e-06 1.414111e-07 2.0626464e-08 2.2691782e-07
1.2764389e-06 1.9461399e-07 1.4674056e-07 2.3193257e-07 3.182489e-07 1.768227e-07 3.603545e-07 3.5553566e-07
