TWP_2/results/StaticDragDrop2/RobotArm/RobotArm-2980342.onnx (onnx, 73052 bytes, 7 tensors)

network_body._body_endoder.seq_layers.0.weight f4 [128, 1]
00000000: 3b0d 813e dd4f d6be dbaf 7f3f 6442 b2be
00000010: 8b43 e43d 8086 a5bf 50e5 12bf fb76 a53e
00000020: f0d2 763e da60 82bf 0f4c a6bf a0f8 ed3f
00000030: 18f9 95be 2973 0ec0 69d3 b7bd a13f 073f
00000040: 7b5d bebf c4e6 44be b4cf d33f df93 373e
00000050: 131f 83bf fd85 3dbe 882b 963f ffe9 d7bf
00000060: 1a92 05bf 20a8 c1bf 4733 073f 5f46 27bf
00000070: b28b ef3f a970 f5bd 5e10 37bf aeb0 863f
00000080: 4322 7dbd af25 d8be 5172 383f 9248 5cbf
00000090: d7dc dfbf 0db1 963e 17c9 463e 106a 913f
000000a0: f9b7 853f aed9 0e3f 1931 adbf 09d9 33bf
000000b0: d775 6abd 48c3 ad3f b624 60bf f580 713e
000000c0: 41f1 f1bf 7751 e33f 9032 a6bf 8b48 88bf
000000d0: 9867 893f 5b1b 623f b83f 0ebf 43d7 01bf
000000e0: e9f4 1cbf 6461 35be 3b0c 27bf e3d8 99ba
000000f0: dcdb 793e 7ead 1a40 68fc 9ebf 52b4 9b3e
00000100: c6d3 8d3f a005 52bf e58a f63f 249e 1a3f
00000110: f442 18c0 4434 813e b513 d13e 0b7f 4cbf
00000120: e63d 05bf 39b7 a93f 07dc 9f3f bc45 edbe
00000130: 53c8 fb3e 5faf 5dbf 65df 033e 77ff ef3e
00000140: bbbb 2fbd 2cd2 aabc fa94 f53e 2eb0 fa3e
00000150: 6fad 303f 191e 0abe d622 5bbe 32f4 373f
00000160: b435 4dbe c53c d3be 70ad 1c3f 77d8 1a3f
00000170: 7fba 3abf 1738 34bf b0be cb3f ca32 6b3f
00000180: 9ee1 9a3f e15f ca3e e806 cbbf 978e 3c3f
00000190: 24ac 14bf 490a ab3f 10a6 543e 0df5 233f
000001a0: f7b8 383f d1c7 aa3f ead5 b93e 4808 47bf
000001b0: 099f 8dbe 838a 60be c63d 8c3f 18bb 993f
000001c0: 748f cbbf 1d69 d9bf 918c a6be 137b 8bbf
000001d0: 51e3 94bf e7f3 d2bf 6a69 3c3f 268d 10bf
000001e0: 15ec 6dbe c81e b8bf df9f c6bf c3c8 22be
000001f0: 2cde 563d 5b0c ff3e 1c1e 4dbf d651 21bc
0.25205407 -0.41857806 0.9987771 -0.34816277 0.11145695 -1.2931671 -0.57381153 0.32317337
0.24103904 -1.0185807 -1.2991961 1.8591499 -0.29291606 -2.2257788 -0.0897587 0.52831465
-1.4872278 -0.19228655 1.6547761 0.17927502 -1.0243858 -0.18508144 1.1732035 -1.6868285
-0.5217606 -1.5129433 0.5281262 -0.6534175 1.8714507 -0.11984379 -0.7150935 1.0522668
-0.061800253 -0.4221625 0.72049433 -0.86048234 -1.748927 0.29431954 0.19412647 1.1360493
1.0446769 0.558009 -1.3530608 -0.70253044 -0.057241287 1.357522 -0.87556016 0.2358435
-1.890175 1.7759236 -1.298418 -1.0647138 1.0734739 0.8832299 -0.5556598 -0.5071909
-0.61311203 -0.17712933 -0.6525304 -0.0011737611 0.24400276 2.4168391 -1.2420778 0.3041101
1.1080253 -0.82039833 1.9261137 0.60397553 -2.3790865 0.25235188 0.40835348 -0.7988135
-0.52047575 1.325904 1.2489022 -0.46342266 0.49176273 -0.8659572 0.12878187 0.46874592
-0.042903643 -0.02085217 0.47965223 0.4896254 0.6901464 -0.13488044 -0.21400008 0.7185699
-0.20040017 -0.412573 0.61202145 0.6048655 -0.7294082 -0.70398086 1.5917568 0.9187437
1.2100103 0.39526275 -1.5861483 0.73655075 -0.58075166 1.3362514 0.20766473 0.6404579
0.72157234 1.3342229 0.36296016 -0.7774701 -0.27660397 -0.21927838 1.0956352 1.2010221
-1.5903153 -1.6985203 -0.3252912 -1.0896934 -1.1631871 -1.6480683 0.7359835 -0.56465375
-0.2323459 -1.4384394 -1.5517539 -0.15896897 0.052457973 0.49814114 -0.8012407 -0.009846171

network_body._body_endoder.seq_layers.0.bias f4 [128]
00000000: 5e21 8d3c 9fbf af3a 99f1 dc3d dfa8 b5bd
00000010: 1639 9abd 37b8 d6bb dbf0 afbd ca30 85bd
00000020: 7e9a 06be d7dd fabc 77fc c0bc 9533 6a3d
00000030: 0797 95bd be28 d8bc fb81 05be 6b9f ad3c
00000040: 5a0f 773d 2e13 60bd 4729 763d 37b0 333d
00000050: 0b38 533d 9aa5 dfbd 52bf 823d 3806 a6bd
00000060: 2f33 a83c 7165 2ebd 099e f6bc e0eb 91bd
00000070: e61e 793c 6409 d2bd d416 3fbd 0bf5 bf3d
00000080: 8931 07be 3018 efbc cec7 843d 1a0c 88bd
00000090: a14b 67bc b533 f3bd 90c9 fcbd 3dcd 103d
000000a0: 4076 1ebc acef 143d 0648 02bd 4ca5 d23b
000000b0: 12c5 a4bd 0e3e d73d bbf6 9cbd cd7e 7bbd
000000c0: 5367 08bc 54d9 093d 0647 3fbd fc1c fdbc
000000d0: 92a7 ddbc 6f09 fc3d d101 8ebd d7e9 0d3c
000000e0: 7307 b3bd 46e9 473c f14d 2cbd a374 453e
000000f0: 660d 93bd f35b 283d 1509 a53c 1210 bdb8
00000100: 861c 3cbd 62e8 843c 5904 fc3d 5d06 b1bc
00000110: aa51 9e3d 74ae 93bd 8062 a2bc 46ef 573d
00000120: c2f2 afbc eb60 133e a496 cf3d 3b0f c5bd
00000130: f58e 9a3d 97c5 843b 6608 fcbd f7e6 63bc
00000140: eaf5 e6bd bc4d 24be 6e7c d13d 6778 9bbc
00000150: 4f4b 253d 9b5e 3ebd 0c4a e0bd 4d38 b33d
00000160: be24 99bd 09d7 c6bc 3611 b73d 2574 5fbd
00000170: ddfd 95bd 1d52 213d 72b1 cc3d de58 e33d
00000180: a4ce 963d 2673 4d3d 2f79 773b f253 29bd
00000190: 2050 94bd e9ca c53d e50c c8bc d956 b8bb
000001a0: 33ea f23d b1a6 733d 96ac e0bd fc28 2ebd
000001b0: 8e20 49bd 7374 92bd 42e9 273e d937 133d
000001c0: acd5 443d 2136 83bd ebca 7ebd 7ae7 403d
000001d0: 6b4a 11bd f91c 3e3d 21e7 e23d 1cef c23c
000001e0: 2280 8bbd cb02 6d3d 6e5e 4f3d 9dc8 c9bd
000001f0: cb0e 13bc 1338 053d 0786 f8bc 1b72 c6bd
0.017227825 0.0013408548 0.107882686 -0.088701 -0.075304195 -0.006552722 -0.085908614 -0.065034464
-0.13144872 -0.03062336 -0.023557885 0.0571781 -0.07304197 -0.026386615 -0.13037865 0.02119418
0.060317375 -0.05470579 0.06009796 0.043869223 0.05156712 -0.10920258 0.06384148 -0.08106655
0.020532219 -0.04257721 -0.030104654 -0.07125068 0.015205121 -0.10255697 -0.04665263 0.0937291
-0.1320249 -0.029186338 0.06483422 -0.06642933 -0.014117152 -0.11875097 -0.123431325 0.03535198
-0.009671748 0.03636138 -0.03180697 0.0064283963 -0.08045401 0.10509883 -0.076642476 -0.061400224
-0.008325416 0.033654526 -0.046698593 -0.03089761 -0.027057443 0.12306487 -0.0693394 0.008661709
-0.08741655 0.012201613 -0.04206652 0.19282775 -0.0718029 0.041103315 0.020145932 -9.0152156e-05
-0.04592564 0.01622409 0.12305517 -0.02160948 0.0773042 -0.07211009 -0.01982236 0.052718423
-0.02147806 0.1439244 0.10136154 -0.096220456 0.07546798 0.004051875 -0.123062894 -0.013910047
-0.11277373 -0.16045278 0.10228811 -0.01897831 0.040355023 -0.04647694 -0.10951623 0.08750973
-0.07477711 -0.024272459 0.089388296 -0.054554123 -0.07323811 0.03938495 0.099947825 0.111009344
0.07363632 0.050158642 0.003776144 -0.041339822 -0.07241845 0.09657843 -0.024420211 -0.0056255874
0.11861076 0.05948514 -0.10970418 -0.042519554 -0.049103312 -0.07151117 0.16397575 0.035941932
0.048055336 -0.06406809 -0.062205236 0.047095753 -0.03547136 0.04641435 0.110792406 0.023795657
-0.06811549 0.05786399 0.050627165 -0.09852717 -0.008975695 0.03252418 -0.030337347 -0.09689733

network_body._body_endoder.seq_layers.2.weight f4 [128, 128]
00000000: d50c babb 0b23 3dbe 3c5c c33d a80b f0bc
00000010: 3b77 9d3d 6aea 0539 b932 8a3d 8d09 243d
00000020: 9bb6 08be 8cf4 fabc d1cf fabd c769 9d3d
00000030: 1da3 ce3d 994f 723c 29c5 e73d fa6e 53be
00000040: 6da4 843d 5f02 a83d 78de 57bc 4100 c2bd
00000050: 032d c7bd 79f0 d5bd 05fc 24be cc71 713d
00000060: 9afa 643c 91ff 2fbb 9120 1bbe 442f 2b3e
00000070: 2b91 86bd ab6f 863d b26d e53d e39a 9cbd
00000080: 6f50 2f3e fb64 84bd 2045 ecbc 8149 34bd
00000090: 9aac b43d f199 10bd 08b8 b1bc f0f5 cabb
000000a0: b723 fcbd 0205 1c3d 7727 733c 6713 0dbe
000000b0: 0577 c73d beac b2bd d031 513c 6669 f8bd
000000c0: 538b d9bd 81b1 b03d f28a ca3d f8e2 f4bd
000000d0: 723e bc3c 2537 b4bd a7d5 16be 399c fe3d
000000e0: ba7f e33d 6dd9 7d3d 04a9 11be 3a28 54be
000000f0: 211e 313d 66a9 d83c 8d43 ca3d 09a5 8ebd
00000100: 0a3c e6bb ab58 3ebd 47f7 7bbc 6940 07bd
00000110: c4d1 89bd 1329 e73d 993f 9abd 275c 2bbc
00000120: 5a78 82bc 419f 3bbe 5379 983c c36b ee3d
00000130: 0bb4 06be 3416 b8bc 825b 153d 6a08 e4bd
00000140: 429d 883d 3b76 043d 3844 68bd 49a5 69bc
00000150: d0f2 afbd 3ef9 30bd a8fe 6abd 015e 36bd
00000160: db9a ad3d b610 993d 2d22 2cbe a7dd aa3b
00000170: 12a6 3c3d 99ba 49be 65d6 f0bb bb8d 113d
00000180: 499c e8bc 8a20 4abd 4075 8e3d cca3 02be
00000190: 91f2 003e e52a e3bd c2cf 33bd 41f7 55bd
000001a0: e9f3 3bbe 1ffc 563d fc86 16be 22be 9dbd
000001b0: 3093 013d 023a 823d 6100 463b 7c87 1cbc
000001c0: ce2f 333d 22bb 25bd 444c 2d3e ed84 413d
000001d0: b569 a53d 6e70 19bd bf92 53be f8e9 9dbd
000001e0: 514f ffbb a550 43bc 22f3 2ebe c3a4 2bbd
000001f0: e31a b33d bee3 febd 798a db3c 7204 513e
00000200: 80be 963d a46f ffbc bc63 8abd 7308 2e3c
00000210: 9469 043e 4681 b7bb 29fc 36bd 37b9 0a3d
00000220: 0d2b 7a3d fc3a 833e d130 2a3d 3261 5bbe
00000230: bf91 dbbc 2870 973d 0ad2 e93d 4be1 023e
00000240: e333 b53d 5fc5 77bd 4afc 2abe dde0 0d3d
00000250: 321f 0bbd c0fc 0e3e a852 76bd 5cdd 093e
00000260: 3806 e43d 5ab9 f9bb fb0b b03d b14c 933e
00000270: 9389 f03d f771 9f3d 8abc 363d 4a2e c23d
00000280: bcc1 62bd 4242 72bd f0f0 153e 1f35 4ebd
00000290: 79af 273e 0c20 683e 7b43 343d 5876 f5bc
000002a0: 6197 1a3e 61c4 b4bd 153e 063d fb61 02be
000002b0: 452c 5b3e 0c7a c3bd 85d2 99bb 26cd 4b3d
000002c0: 65e5 de3d 219b 9abd 9a4f 1fbc cf7e 9ebd
000002d0: 2b68 8e3d b65e 2a3e 8b78 cfbd f3dd 45be
000002e0: 22f1 8abd 818b b73b 43d7 96bd 21d3 cfbd
000002f0: 5f7d 85bd d897 95bd ed67 96bd 5073 87b9
00000300: 03f5 7e3c aeae 9b3d eb9f 58bd 421c e23d
00000310: 33c9 783d 513a d0bd 531c 823e 1242 e7bc
00000320: 700d c9bd 0ef2 d6bc b807 4fbb e288 75bb
00000330: b9af 273e 3a5e 113d dc27 db3d eb7f c3bd
00000340: ae1b 013e 3051 543e cb91 c7bb 44ab 8cbc
00000350: 8f8a 303e a6d6 ae3d c2e6 123e d3b2 d93d
00000360: 8ba0 9d3d 649d 3dbd 3699 013e be00 2b3e
00000370: 51a8 133e 84b8 2f3d 1a7f 1c3e c551 e23d
00000380: c54c 62bd e391 a6bd 94cc 6abd 8a82 d33d
00000390: 0826 183d 5b32 093d 6686 e73d 4e62 993e
000003a0: 8c61 3b3d 5f01 0e3d 73cf 7bbc eccc 83bd
000003b0: b765 ecbc 6023 60bd 14ec 283e 227d 9c3d
000003c0: da31 adbd ad7e f63d 2881 2a3e 7671 cd3d
000003d0: ff9c eabd f2f4 acbc 7ec1 313d fc2e 4b3b
000003e0: fec6 a43d 7adc 343c f870 15bd cb7c 11be
000003f0: cac2 6b3e cbc1 bb3d f323 66be a089 1b3e
-0.005677799 -0.18470399 0.09539077 -0.029302433 0.07688757 0.00012771194 0.06747956 0.04004817
-0.13350908 -0.030634187 -0.12246669 0.07686191 0.10089705 0.014789485 0.11316902 -0.20647803
0.06476674 0.08203577 -0.013175599 -0.09472705 -0.09725382 -0.10446257 -0.16111763 0.058946416
0.013975764 -0.002685521 -0.15149142 0.16717249 -0.06570657 0.06564268 0.11202563 -0.0764673
0.17120527 -0.06464573 -0.028841555 -0.04401541 0.08821984 -0.03530306 -0.021694198 -0.006193869
-0.123114996 0.038090713 0.014840952 -0.13776933 0.09739498 -0.08724354 0.012768224 -0.12129478
-0.10622277 0.08627606 0.09889783 -0.11957353 0.022978995 -0.087995805 -0.1472994 0.12432141
0.11108346 0.06197493 -0.1422463 -0.2071847 0.043241624 0.026447963 0.098761655 -0.06965072
-0.0070262 -0.04647128 -0.01537878 -0.03302041 -0.06729463 0.11287131 -0.075316615 -0.010458983
-0.015926529 -0.1832247 0.01861254 0.11641648 -0.13154618 -0.022471525 0.03646422 -0.11134417
0.066706195 0.032339316 -0.056705683 -0.014260598 -0.08591235 -0.043206446 -0.057371765 -0.044523243
0.08476802 0.074738905 -0.16809912 0.0052144113 0.046056814 -0.19700088 -0.0073497766 0.035535555
-0.028394835 -0.049347438 0.069559574 -0.12757796 0.12592532 -0.11092166 -0.043899305 -0.052237753
-0.18354763 0.052486535 -0.1469993 -0.077022806 0.03163451 0.0635872 0.0030212628 -0.009553786
0.043746762 -0.040461667 0.16923624 0.04724591 0.08076803 -0.037460737 -0.20661448 -0.077106416
-0.0077914377 -0.011921083 -0.17084935 -0.041905176 0.087453626 -0.12445782 0.026799427 0.20411852
0.07360554 -0.031181164 -0.06757304 0.010622132 0.129309 -0.0056001274 -0.044674072 0.03386804
0.061076213 0.2563094 0.04155046 -0.21423796 -0.026802896 0.07394439 0.11417015 0.12781255
0.08847787 -0.060490962 -0.16697803 0.034638274 -0.033965297 0.13963604 -0.06013742 0.13463348
0.11133999 -0.0076209726 0.08596035 0.28769448 0.1174499 0.07785409 0.0446134 0.09481485
-0.05536054 -0.05914522 0.14642692 -0.05034363 0.16375531 0.22668475 0.044009667 -0.029963657
0.15096809 -0.08826519 0.03277405 -0.12732689 0.21403606 -0.09544763 -0.0046942853 0.04975619
0.10883597 -0.0754912 -0.009723568 -0.077390306 0.06953462 0.16637692 -0.101304136 -0.19322948
-0.06784274 0.005601347 -0.07365277 -0.101476915 -0.06518053 -0.073043525 -0.07344041 -0.0002583512
0.015561345 0.07601677 -0.052886885 0.11040546 0.060738754 -0.10167373 0.25412235 -0.028229747
-0.09817016 -0.026238468 -0.0031590294 -0.0037465622 0.16375627 0.035490252 0.10700962 -0.09545883
0.12608215 0.20734096 -0.006090378 -0.01717151 0.17240356 0.08537035 0.1434584 0.10629811
0.07696637 -0.046292678 0.12656102 0.16699502 0.14419676 0.042900577 0.1528286 0.110507526
-0.055248994 -0.081332944 -0.057324007 0.10327633 0.037145644 0.03349529 0.11304931 0.29957813
0.045747325 0.034669276 -0.015369284 -0.0643557 -0.028857095 -0.054721236 0.16496307 0.07641055
-0.08456774 0.1203588 0.16650832 0.100314066 -0.11455726 -0.021112893 0.04339742 0.0031003347
0.08045767 0.011038894 -0.03648469 -0.14207761 0.23023525 0.091678225 -0.22474651 0.15189219

network_body._body_endoder.seq_layers.2.bias f4 [128]
00000000: 8232 c7bd 2ef1 dbbd c8a5 4dbd 3189 6fbd
00000010: cb3f 263c 12d6 873c 24b9 81bd ee69 f6bd
00000020: 3493 1bbd 4c64 8e3d 25f4 bf3d 144a 81bd
00000030: dead 30bd a3d7 83bd c180 2bbd a5e0 603d
00000040: 33ab 013e 4433 ffbd 1e1b 96bd 97a7 f43c
00000050: 7f39 963d d6f6 f6bd 2004 6c3d e4c3 a63c
00000060: 61e5 823d 6838 d8bd 5eaa 9f3d 2cbd 1c3c
00000070: 400d 96bd f3c8 acbc 572c 4a3d 81c4 c0bd
00000080: ccb8 d9bd 832e 0a3c 6520 a1bc 5fdf 75bc
00000090: 2749 b3bd c833 d23c 936b 96bd fc3d f7bc
000000a0: f6f5 b0bd d15d 1dbd 3cac f9bd 38a5 8d3d
000000b0: 5a59 1d3d 270b 873d 1144 27bd a981 a9bd
000000c0: e79c 3fbb 0046 6d3d 40b1 02bd cfd0 823d
000000d0: 2ac0 a6bd f95b 1c3c f9c8 80bd c47f 173d
000000e0: 5f1d 13bd 9f00 4c3d c7d6 15bd fde1 acbd
000000f0: 8758 5d3b 5e95 42bd 53e8 b4bd 1df2 2cbd
00000100: 8793 2fbd ddfe 7cbd 355f aebd 5726 893d
00000110: 3e4e 183d d1f6 6fbb d55e a63c 113b 853d
00000120: e4b5 1c3d b479 b0bd 7d2a 373d a2e2 cfbd
00000130: adc7 573c 3ae3 653d 5724 90bd 1a99 893d
00000140: 6594 d9b9 a2f5 313d 3ee5 be3c d7ad a1bd
00000150: d2c1 073e 568d 01be 9bf8 6f3c b04e debd
00000160: 5581 8bbd fce1 c6bd 0161 e2bd 02d4 24bd
00000170: 8e9d 053d 9a2d 4dbd f116 6dbd f3a9 88bd
00000180: d65a dcbd cbd1 f8bd c442 833d 527c 2f3d
00000190: ab5c 8ebd 92dd 7e3d 495d 59bc 328a a7bd
000001a0: 9939 913d 1e26 9ebd e93a a0bd 8884 6b3d
000001b0: 1ad7 8e3d 2efb afbd c92a a9bc 12fc 91bd
000001c0: 7b38 9fbd 5d6d 4e3d 69be 773d 491c 22bd
000001d0: 9227 323d 4430 86bd 563c 0abd f132 bbbd
000001e0: e479 e5bd 2c29 9abd 5d6b d9bd e6b8 bbbd
000001f0: 8595 b0bd d8da c5bd 3ef5 b8bd 95e0 81bd
-0.097264305 -0.10739361 -0.05020693 -0.058480445 0.010147045 0.016581569 -0.06334141 -0.12031923
-0.03798218 0.06952724 0.09372739 -0.063129574 -0.043134563 -0.06437614 -0.041870836 0.054901738
0.12662964 -0.1246095 -0.07329391 0.02986507 0.07335185 -0.12058799 0.05762112 0.02035708
0.06391407 -0.10557634 0.07796167 0.009566586 -0.07326746 -0.021091914 0.049358692 -0.0941248
-0.1063095 0.008433941 -0.019668767 -0.015006869 -0.08754187 0.025659457 -0.07344737 -0.030180924
-0.08640663 -0.03841955 -0.12191054 0.069162786 0.03841529 0.06593924 -0.040836398 -0.08276684
-0.0029237808 0.057928085 -0.03190732 0.06387483 -0.08142121 0.009543412 -0.062883325 0.03698708
-0.035916682 0.04980528 -0.03658178 -0.08441541 0.003377469 -0.04750573 -0.08833375 -0.042223085
-0.042865302 -0.061766494 -0.08514253 0.06696766 0.037183993 -0.003661562 0.020308891 0.06505407
0.038259402 -0.08616963 0.044718254 -0.10150649 0.013170165 0.056124903 -0.07038181 0.06718655
-0.00041500028 0.043447144 0.02330267 -0.078944854 0.1325753 -0.12651572 0.0146466745 -0.10854852
-0.068117775 -0.09711072 -0.11053658 -0.04024125 0.03262096 -0.050092317 -0.057883207 -0.0667304
-0.10759513 -0.1214939 0.06409219 0.04284317 -0.06951269 0.062223025 -0.01326687 -0.081806555
0.07091064 -0.07722114 -0.07823736 0.05749944 0.06974621 -0.085928306 -0.020650284 -0.07128157
-0.07774445 0.050397266 0.060484324 -0.039577756 0.04349477 -0.06552175 -0.033748947 -0.09140576
-0.112048894 -0.07527384 -0.10616181 -0.09166126 -0.086222686 -0.09660882 -0.09031151 -0.06341664

action_model._continuous_distribution.log_sigma f4 [1, 3]
00000000: b661 5abd 7016 0ebd 85b3 fe3b
-0.05331584 -0.034689367 0.0077728652

action_model._continuous_distribution.mu.weight f4 [3, 128]
00000000: f910 233e b12d 1f3d 5abe 3e3d 9d90 7b3c
00000010: f0ab 223b 14f3 aa3a c1b8 8a3c 9f03 2e3e
00000020: e47b 863c c56f 4cbd 7ffa edba f6ea fb3c
00000030: 84bd 2b3c 487a 083e a379 c83c 48e1 94bc
00000040: dc88 c4bd 4ef5 0b3e 4c38 a43c 00ed 983a
00000050: 271e a9bb 0cfb 573e 1eb2 80bc 40ee 68bc
00000060: 265e 6fbc 8c1a 2a3e 0761 f6bc 00bc 25bb
00000070: e53c d13c 63e8 e83b f7db 79bc e7e3 3d3e
00000080: d6c1 283e 31a9 b53a 1c73 5e3c 78cd 773c
00000090: 019d 3d3e afaf f0bb ac88 bb3c 0154 383c
000000a0: 9ef5 013e 7259 773b b46c 313e 9a0e 66bc
000000b0: cb61 5bbc 090a c3bc 03ef 8d3c 0ee8 193d
000000c0: 342d 603c fe18 02bd ba04 113e 0870 9abc
000000d0: 0beb 033e ffb1 1cbb e30c df3c 0655 7cbc
000000e0: 2668 123e ca9c 9abc f7bb 983d 9fe4 243e
000000f0: 2839 37bc 5b1d 233c 2ec0 103e 27f9 9a3b
00000100: c35a 123c 4d90 5e3d 6386 4a3e f485 a3bc
00000110: ac87 36bc 1f8e 6f3b 73a4 fcbb a868 2abd
00000120: 4291 ebbc 65b0 3c3c 486b 8ebc 9572 f93c
00000130: bf4f 3d3b a7c3 e23b b2ea eb3c 1600 f4bc
00000140: 9648 583c c696 6bbc d1c9 27bc 2d21 493c
00000150: 99ae f5bd 0e57 263e d4cd 4538 d1a2 413e
00000160: be1b e83c c1ac 463e 5f4a f93d 5359 a13b
00000170: 4ccc 4abc ea02 983c da02 fc3c 4757 f73c
00000180: c480 4b3e ad76 263e 4900 90bd 4b7e d1bb
00000190: b0f0 1a3e 3c59 8fbc 5c1f 233c b21d 0d3d
000001a0: 44ab f2bc c41a fd3c fa87 1c3e 0ebc 41bc
000001b0: 16a4 42bd ada9 ce3d d6bb 283c c1b7 8f3c
000001c0: cdf8 013d c5ab 44bc c445 adbc d503 353c
000001d0: bbc9 eebc b6d2 cf3d 5962 093c d3cb 163e
000001e0: a12f 373e ff95 903b 2566 393e 0bc3 2e3e
000001f0: d077 363e 46fe a53c c125 e23c 1d25 bf3b
00000200: 5365 c73c a3cb bc3a 5e44 9ebc ba96 c2ba
00000210: 64ff 2dbc f031 b53c 1514 0cbb 79a2 013d
00000220: e7aa 39bb 33af e23c e2d1 00bc d455 40bc
00000230: 1f30 e3bb 248a 033d 1511 f6bc e60a ddbc
00000240: f963 e83c 3edf c53c 12a0 303c 19cc 55bd
00000250: 9565 b7bb c4b8 513c f081 e8bc 0a47 753c
00000260: c609 9cbb 7c51 f83c 250a 89bc 2b60 82bb
00000270: 877e 3a3c 5f07 3cbc 19a5 2c3b 9887 363a
00000280: eb28 b13b e216 8ebc c3ae d0bb dd0a 1cbc
00000290: 188f 823b 1e7f 233c 8acc 53bc b943 b03c
000002a0: d810 c73c 6e27 e9bb e658 2e3d 4171 8abc
000002b0: f837 5fba ef92 2cbd e5ff e03b 58b9 c939
000002c0: 6488 65bc 0386 253c 11d6 963d caff 8c3c
000002d0: 0c87 90bb b690 7c3b 3735 e7bc 29be f1bc
000002e0: bd95 1d3d f1a7 383c 8420 ddbc 8013 083d
000002f0: 2649 51bc c764 773a 3459 babc 3994 6cb9
00000300: 734a 113b 807e 44bc ca8e d0bc 14cf 053c
00000310: 3e2b d43c 46b7 a8bb 2aa5 0e3c 17e3 653c
00000320: 0efc 47bc d2ae 6a3a 9a34 debb 87c2 f637
00000330: 49de 8dbb 6413 923d ef61 ea3c 063c d8ba
00000340: 204c bcbc 8e26 51bd 9725 3d3c 1d3d 8f3a
00000350: 72ca 5a3d 4448 723c 1f66 603a 1401 ee3c
00000360: a305 61bc adeb cb3b e2dd 883b da85 943c
00000370: cc5a 0fbc eb3c 12bc 9af9 28bb f004 cdbc
00000380: 6c86 4aba 3602 2c3c a1b2 2b3c 8c25 5ebb
00000390: 059f 94bc a915 13bb 9a2f 07bd d26c 72bc
000003a0: e60e 78bc d0fb c83c 0a21 4dbc 2bb2 de3a
000003b0: a0a4 513c 9a0a c0bc 4db1 3cbc 2478 d03b
000003c0: 8588 01bc aad5 3d3c ce14 2fbd 401a 88ba
000003d0: ba40 8ebc 813f 9bbc d7b8 ea3c 7546 fd3c
000003e0: d9cc 4d3d 0858 c73a 4274 14bc f1e1 dc3c
000003f0: 7d38 503d 1170 04bc f1c4 183c e359 233a
0.15924443 0.038861934 0.046568252 0.015354303 0.002482172 0.0013042414 0.0169338 0.16993569
0.016416498 -0.04991128 -0.0018156319 0.030751687 0.010482196 0.13327897 0.024472063 -0.018173829
-0.09596416 0.13667795 0.020046376 0.0011667311 -0.005161065 0.2109186 -0.015709933 -0.0142169595
-0.014609849 0.1661169 -0.030075563 -0.0025289059 0.025541732 0.007107781 -0.015250198 0.18543969
0.16480193 0.0013859627 0.013577249 0.015124671 0.18516923 -0.007345162 0.022892319 0.011250497
0.12691352 0.0037742523 0.17326623 -0.014041567 -0.013390015 -0.023808496 0.017325884 0.03757482
0.013682652 -0.031762116 0.1416196 -0.018852249 0.1288263 -0.0023909805 0.027227825 -0.015401131
0.14297542 -0.018873591 0.074577264 0.16102837 -0.011183061 0.009955729 0.1413581 0.0047294083
0.008932772 0.054336835 0.19777827 -0.019961335 -0.011140745 0.0036553217 -0.0077100336 -0.041603714
-0.028755788 0.011516665 -0.01738514 0.030450145 0.0028886644 0.0069202962 0.028798435 -0.029785197
0.0132009 -0.014379209 -0.010240988 0.012275976 -0.119961925 0.16244146 4.7160152e-05 0.18909766
0.028333541 0.19401838 0.12172388 0.0049239784 -0.01237781 0.018556077 0.030763078 0.030192984
0.19873339 0.16256209 -0.070313044 -0.006393229 0.15130877 -0.017498605 0.009956207 0.034452148
-0.029622681 0.030896552 0.15286246 -0.011824621 -0.047519766 0.10090957 0.01029869 0.017543675
0.031731416 -0.012003844 -0.02115143 0.011048277 -0.029148927 0.10147612 0.008385264 0.1472619
0.17889263 0.004412412 0.18105371 0.1706659 0.17819142 0.020262849 0.027605893 0.0058332817
0.024340307 0.001440395 -0.01931971 -0.0014845945 -0.010619972 0.022118539 -0.0021374275 0.031649087
-0.0028330626 0.027671432 -0.00786254 -0.011739213 -0.0069332267 0.032114163 -0.030037442 -0.026982736
0.028367983 0.024154302 0.010780351 -0.052196596 -0.0055968263 0.012800399 -0.028382272 0.01497055
-0.0047619073 0.030312292 -0.01672847 -0.0039787493 0.0113827055 -0.011476367 0.0026343523 0.0006962954
0.005406489 -0.017344896 -0.0063684895 -0.009524074 0.0039843433 0.009979038 -0.012927184 0.021516668
0.024300024 -0.007115296 0.04256525 -0.016899707 -0.0008515115 -0.042132314 0.0068664425 0.000384758
-0.014009569 0.010102752 0.07365049 0.017211813 -0.00441063 0.0038538403 -0.028223617 -0.02950962
0.03847288 0.011270509 -0.026993044 0.03322172 -0.012773788 0.0009437319 -0.022747613 -0.00022561931
0.002216962 -0.011993051 -0.025458712 0.008167047 0.025899526 -0.005148801 0.00870637 0.014031193
-0.012206091 0.0008952442 -0.006781173 2.9416069e-05 -0.004329477 0.07132605 0.028611152 -0.001649738
-0.022985518 -0.05106216 0.011544607 0.0010928247 0.053415723 0.014787737 0.0008560139 0.029053248
-0.013734254 0.006223163 0.004176841 0.018130232 -0.008749675 -0.008925657 -0.002578354 -0.025026768
-0.0007725719 0.010498574 0.0104796 -0.0033896891 -0.018142233 -0.002244333 -0.03300438 -0.014796453
-0.015140271 0.024534136 -0.012520084 0.0016990354 0.012795597 -0.023442555 -0.011516881 0.006361978
-0.007906084 0.011586586 -0.04274445 -0.00103838 -0.017364848 -0.01895118 0.028652592 0.030917386
0.050244186 0.001520873 -0.009060921 0.026963206 0.05083512 -0.008083359 0.009324298 0.00062313507

action_model._continuous_distribution.mu.bias f4 [3]
00000000: 1909 d0bd e03a a0bc 784b 13bb
-0.10157985 -0.019559324 -0.0022475403
