TWP_2/results/StaticDragDrop2/RobotArm/RobotArm-999989.onnx (onnx, 73052 bytes, 7 tensors)

network_body._body_endoder.seq_layers.0.weight f4 [128, 1]
0	0x3e7ec30f	0.24879096
1	0xbed6493a	-0.41852742
2	0x3f808ddc	1.0043292
3	0xbeafdb09	-0.34346798
4	0x3de64263	0.11243131
5	0xbfa53b6d	-1.290876
6	0xbf126949	-0.571919
7	0x3e9c93d0	0.30581522
8	0x3e6fb1d9	0.23407687
9	0xbf833d14	-1.0253015
10	0xbfa71489	-1.3053142
11	0x3feeb6de	1.8649557
12	0xbe992b53	-0.29915866
13	0xc00fc71d	-2.246528
14	0xbdac7a29	-0.08421738
15	0x3f08f65a	0.535009
16	0xbfc08571	-1.5040723
17	0xbe4c422d	-0.19947119
18	0x3fd3f7ad	1.655996
19	0x3e29d776	0.16586098
20	0xbf86d3c1	-1.0533372
21	0xbe38892c	-0.18021077
22	0x3f97035a	1.1797898
23	0xbfd7f397	-1.6871213
24	0xbf0a9b32	-0.5414306
25	0xbfc2fdb4	-1.5233674
26	0x3f0a150e	0.53938377
27	0xbf269b87	-0.65081066
28	0x3fefa727	1.8722886
29	0xbdf965c6	-0.12177615
30	0xbf391501	-0.72297674
31	0x3f87de6c	1.0614753
32	0xbd927b8c	-0.07152471
33	0xbed65db9	-0.4186838
34	0x3f39c39d	0.7256411
35	0xbf60c8fc	-0.8780668
36	0xbfe01431	-1.7506162
37	0x3e946c47	0.2898886
38	0x3e3d8f1f	0.18511628
39	0x3f926f73	1.1440262
40	0x3f867415	1.0504175
41	0x3f0ffba3	0.5624334
42	0xbfad7893	-1.3552421
43	0xbf36e78d	-0.7144707
44	0xbd59e2ef	-0.053194936
45	0x3faebf8a	1.3652203
46	0xbf5ef12e	-0.8708676
47	0x3e6cabf7	0.23112474
48	0xbff296f0	-1.8952312
49	0x3fe3222e	1.7744806
50	0xbfa70279	-1.304763
51	0xbf8af453	-1.0855812
52	0x3f8a5706	1.0807807
53	0x3f674332	0.90336907
54	0xbf0da888	-0.55335283
55	0xbf03c634	-0.5147431
56	0xbf22e501	-0.6363068
57	0xbe4a0759	-0.19729365
58	0xbf292d06	-0.66084325
59	0xbb02bfee	-0.0019950825
60	0x3e6ea6e4	0.23305851
61	0x401b56b3	2.4271667
62	0xbfa2a7c9	-1.2707454
63	0x3e9254cf	0.2858033
64	0x3f8f0af7	1.1175221
65	0xbf52b14d	-0.8230179
66	0x3ff5beb1	1.9198819
67	0x3f1c080d	0.60949785
68	0xc0195c86	-2.3962722
69	0x3e80176b	0.25017866
70	0x3ecf2c39	0.40463427
71	0xbf4ce3f0	-0.80035305
72	0xbf09454c	-0.53621364
73	0x3fab8827	1.3400925
74	0x3f9fba1e	1.2478673
75	0xbef6d4ac	-0.4820913
76	0x3efb0718	0.4902885
77	0xbf63b143	-0.88942355
78	0x3e00573a	0.12533274
79	0x3eefe565	0.46854702
80	0xbd2dd662	-0.04244078
81	0xbc87202c	-0.016494833
82	0x3efb062c	0.49028146
83	0x3efb51ea	0.49085933
84	0x3f339957	0.70155853
85	0xbe03253f	-0.12807177
86	0xbe6045f1	-0.2190168
87	0x3f3af888	0.7303548
88	0xbe467474	-0.19380361
89	0xbed7e560	-0.42167187
90	0x3f1d80cd	0.6152466
91	0x3f1ca304	0.6118624
92	0xbf397610	-0.72445774
93	0xbf35600a	-0.7084967
94	0x3fcbc09c	1.5918155
95	0x3f6d126b	0.9260623
96	0x3f9b8012	1.2148459
97	0x3ec6ecad	0.38852444
98	0xbfcc61d5	-1.5967356
99	0x3f3e0a24	0.74234223
100	0xbf14f5a6	-0.5818733
101	0x3fab7bb4	1.3397126
102	0x3e513830	0.2043159
103	0x3f265ee6	0.64988554
104	0x3f3d59cc	0.73965144
105	0x3fac2d8b	1.3451399
106	0x3eb67d09	0.3564227
107	0xbf48e43c	-0.7847326
108	0xbe8b96fc	-0.2726363
109	0xbe5e0aed	-0.21683855
110	0x3f90527d	1.1275173
111	0x3f9a8460	1.2071648
112	0xbfcd057a	-1.6017296
113	0xbfd9d049	-1.7016689
114	0xbeb005a7	-0.34379312
115	0xbf8d84bb	-1.1056131
116	0xbf94405a	-1.1582139
117	0xbfd50c29	-1.6644336
118	0x3f3dc86b	0.7413394
119	0xbf10a435	-0.5650056
120	0xbe70ac4d	-0.23503228
121	0xbfb9a841	-1.4504472
122	0xbfc920eb	-1.5713171
123	0xbe1c0055	-0.15234502
124	0x3d672d6c	0.056439802
125	0x3effe627	0.4998028
126	0xbf4fc6b4	-0.8116257
127	0xbc6f2798	-0.014596842

network_body._body_endoder.seq_layers.0.bias f4 [128]
0	0x3a0324da	0.0005002745
1	0xb9231fa3	-0.00015556677
2	0x3d5b6d10	0.053570807
3	0xbd99b35a	-0.07504912
4	0xbd30ead9	-0.04319272
5	0xbca57706	-0.020198356
6	0xbd958622	-0.073009744
7	0xbd889112	-0.06668295
8	0xbda70853	-0.081558846
9	0xbc9f9abf	-0.019482968
10	0xbc8222e9	-0.015885787
11	0x3c8b0709	0.016971128
12	0xbd73f670	-0.059561193
13	0xbcb0cc21	-0.021581711
14	0xbde4c49e	-0.11170314
15	0xbc15b0ce	-0.009136392
16	0x3d795d95	0.060880262
17	0xbd4febf1	-0.05076212
18	0x3ca10231	0.019654365
19	0x3d2eccd7	0.04267582
20	0x3d39ab7f	0.045329567
21	0xbdd335b7	-0.1031298
22	0x3c4f6d70	0.012660369
23	0xbd9416f7	-0.07230943
24	0x3ce04d3c	0.027380578
25	0xbc94e536	-0.018175703
26	0xbda8f7af	-0.08250367
27	0xbd911081	-0.07083226
28	0x3a3fac88	0.0007311781
29	0xbdc5b580	-0.09653759
30	0xbd091d7c	-0.033475384
31	0x3d359fba	0.04434178
32	0xbde869ff	-0.11348342
33	0xbd2fbee0	-0.042906642
34	0x3c32a4f4	0.010903586
35	0xbd57afef	-0.052658018
36	0xbd16356b	-0.036672037
37	0xbd8c7f60	-0.06860232
38	0xbd9e9e45	-0.07745031
39	0x3c2242b5	0.0099035995
40	0xbcceaa50	-0.025227696
41	0xbc683c6f	-0.014174565
42	0xbd115548	-0.03548172
43	0x3c4aefc8	0.01238627
44	0xbda202a8	-0.07910663
45	0x3d8e1c38	0.06938976
46	0xbd9849b1	-0.074359305
47	0xbd3fe8dc	-0.04685293
48	0xbc860fd1	-0.016364964
49	0x3bf98d14	0.007615695
50	0xbd2a5234	-0.0415823
51	0xbb4a2a60	-0.0030848011
52	0xbd142bc0	-0.036174536
53	0x3d966116	0.073427364
54	0xbd526d82	-0.051373966
55	0x3cc1f750	0.023677498
56	0xbd927c27	-0.071525864
57	0x3cdf9c6d	0.02729627
58	0xbce6d79e	-0.028178986
59	0x3e2f8896	0.17141947
60	0xbd66726a	-0.056261458
61	0x3caa7ea1	0.020812334
62	0x3d076ba3	0.033061635
63	0xbc872877	-0.016498787
64	0xbd5769aa	-0.052591003
65	0x3ca5d58b	0.020243427
66	0x3db36c75	0.08760921
67	0xbd5d91c5	-0.054094095
68	0x3d603b01	0.05474377
69	0xbd1c1804	-0.03810884
70	0xbd1b2e3b	-0.037885886
71	0x3d653571	0.05595917
72	0xbcc047da	-0.023471761
73	0x3dc590d1	0.09646762
74	0x3d6c0ec9	0.057631288
75	0xbda48dab	-0.080348335
76	0x3cb38186	0.021912348
77	0x3c4b7060	0.012416929
78	0xbdb00e5d	-0.085964896
79	0xbd176cfd	-0.036969174
80	0xbdc8c27f	-0.09802722
81	0xbe0f127b	-0.13971893
82	0x3d854fff	0.06509399
83	0xbd421489	-0.047382865
84	0xba0d19eb	-0.0005382585
85	0xbd46b8f8	-0.048516244
86	0xbdb12421	-0.08649469
87	0x3d1aa396	0.037753664
88	0xbd90643e	-0.0705037
89	0xbcd7045f	-0.026247201
90	0x3d286940	0.041116
91	0xbd436b70	-0.047709882
92	0xbd9030c2	-0.0704055
93	0x3c87c869	0.016575055
94	0x3d826d46	0.063684985
95	0x3d8314ed	0.06400476
96	0x3d1fa7db	0.03897844
97	0x3c7083c3	0.014679852
98	0xb8f10b08	-0.0001149383
99	0xbd47c2fa	-0.04876993
100	0xbd877907	-0.06614881
101	0x3d6ece2c	0.05830209
102	0xbcb434a5	-0.02199776
103	0xbd38af09	-0.0450888
104	0x3d6d1d8c	0.057889506
105	0x3cdeb69f	0.02718669
106	0xbdba9f86	-0.09112458
107	0xbcbd3f22	-0.023101393
108	0xbd4ead26	-0.050458096
109	0xbd9a2af1	-0.07527722
110	0x3df42512	0.11921133
111	0xbca10179	-0.019654023
112	0x3d32f4c1	0.043690447
113	0xbd5b1f02	-0.05349637
114	0xbd1cfa9e	-0.038324945
115	0x3d4ed6f4	0.050497964
116	0xbd24d58e	-0.040242724
117	0x3d448e69	0.047987375
118	0x3d708086	0.05871632
119	0x3d00631e	0.031344526
120	0xbd7bff86	-0.061522983
121	0x3d3153d6	0.043292843
122	0x3d4895f1	0.04897112
123	0xbdbeadcd	-0.093104936
124	0xb964ec64	-0.00021831837
125	0xbc333bf7	-0.01093959
126	0xbcea80d6	-0.028625887
127	0xbd95c822	-0.07313563

network_body._body_endoder.seq_layers.2.weight f4 [128, 128]
0	0x3ce90de0	0.028448999
1	0xbe3e96ec	-0.1861226
2	0x3df815c4	0.121135265
3	0xbcee5cf2	-0.029097054
4	0x3dc4a095	0.09600941
5	0xbc0084b9	-0.007844144
6	0x3d84d634	0.064861685
7	0x3da39304	0.079870254
8	0xbdd126af	-0.102124564
9	0xbd1a3e06	-0.037656806
10	0xbe05c5c8	-0.13063729
11	0x3d95bfaa	0.07311948
12	0x3dcf2698	0.10114783
13	0x3bc0c50f	0.005882866
14	0x3de251bb	0.11050745
15	0xbe1c8cbf	-0.15288065
16	0x3d65bff3	0.05609126
17	0x3da78686	0.08179955
18	0xbc64d78c	-0.013967406
19	0xbd8d2a7f	-0.06892871
20	0xbdd6336b	-0.10459026
21	0xbdd558b5	-0.1041731
22	0xbe177e15	-0.1479419
23	0x3d4e2b4d	0.050334264
24	0x3c3341c6	0.010940975
25	0xbc37d754	-0.011220772
26	0xbdcfb183	-0.101412795
27	0x3e278529	0.1635939
28	0xbd8f3bfe	-0.069938645
29	0x3d86d8ec	0.06584343
30	0x3ddc0f39	0.10745091
31	0xbd60efed	-0.05491631
32	0x3e2da507	0.16957484
33	0xbd85deab	-0.06536611
34	0x3c8f4793	0.017490184
35	0xbd4c081f	-0.049812432
36	0x3da2c081	0.079468735
37	0x3b0d3630	0.002154719
38	0x3b84f70f	0.004057772
39	0x3c0d97e0	0.008642167
40	0xbdd54127	-0.104128174
41	0x3dbac5d2	0.091197625
42	0x3bda42db	0.006660802
43	0xbe1246d5	-0.14284833
44	0x3dc535a8	0.09629375
45	0xbda257e3	-0.07926919
46	0x3be8f726	0.0071095405
47	0xbdb6946c	-0.08915028
48	0xbdebb282	-0.11508657
49	0x3daa4e4c	0.08315715
50	0x3dba263a	0.090893224
51	0xbe01fd88	-0.12694371
52	0x3d21c8a2	0.03949798
53	0xbd5860d1	-0.052826706
54	0xbe1959be	-0.1497564
55	0x3df89da0	0.121394396
56	0x3ddd63d9	0.1081006
57	0x3d7a394a	0.06108979
58	0xbe15e005	-0.14636238
59	0xbe53d127	-0.20685254
60	0x3d9bfc55	0.07616488
61	0x3cb50060	0.022094905
62	0x3db9bde2	0.090694204
63	0xbcf7c3e0	-0.030244768
64	0x3bcbea48	0.006222997
65	0xbd5701f1	-0.052492086
66	0xbc8fedd3	-0.017569458
67	0x3c834b6b	0.016027173
68	0xbd9c12ec	-0.076207966
69	0x3e171427	0.14753781
70	0xbcd82f33	-0.026389694
71	0xbc87054f	-0.016482024
72	0xbc952fa3	-0.018211192
73	0xbe311f57	-0.17297111
74	0x3cf8d91a	0.03037696
75	0x3dec4dce	0.115382776
76	0xbd9bdd20	-0.076105356
77	0xbcea81fc	-0.028626435
78	0x3d61f852	0.055168457
79	0xbd7672cc	-0.060168073
80	0x3d8262df	0.063665144
81	0x3cf980d7	0.030456943
82	0xb9ff031f	-0.00048639716
83	0x3d1a57e0	0.03768146
84	0xbd1d07eb	-0.03833763
85	0xbd396895	-0.045265753
86	0xbd681aa6	-0.05666604
87	0x3b2fb242	0.002680913
88	0x3dae25e5	0.085033216
89	0x3d96e0b4	0.073670775
90	0xbde8a197	-0.11358946
91	0x3d5fb06c	0.05461161
92	0x3d2a8c27	0.041637566
93	0xbe4ec799	-0.20193328
94	0xbbc0b784	-0.005881252
95	0x3d8a5273	0.06754007
96	0xbc846ecb	-0.016166111
97	0xb8339e66	-4.2824446e-05
98	0x3d794f84	0.060866848
99	0xbdb2e591	-0.087351926
100	0x3dfc4cf9	0.12319369
101	0xbdd2507a	-0.10269256
102	0xbc6e4e9a	-0.014545107
103	0xbb9012b2	-0.00439676
104	0xbe0b1609	-0.13582624
105	0x3d738ba6	0.05945935
106	0xbdd60080	-0.10449314
107	0xbda8d5da	-0.08243914
108	0x3d017855	0.0316089
109	0x3d83ed63	0.06441762
110	0x3cccd5ba	0.025004257
111	0x3a78a7ad	0.0009485435
112	0x3d0f4a05	0.0349827
113	0xbd492690	-0.04910904
114	0x3e2d1c14	0.16905242
115	0x3d21ddec	0.03951828
116	0x3d95d7fa	0.07316585
117	0xbd3d7de5	-0.04626264
118	0xbe23900a	-0.15972915
119	0xbda54ad4	-0.08070913
120	0xbbf9f856	-0.007628481
121	0xbca7dc01	-0.020490648
122	0xbe37d78b	-0.17953317
123	0xbd2dc6a3	-0.042425763
124	0x3dcdbdb8	0.100459516
125	0xbd909f48	-0.070616305
126	0x3caf783e	0.02141964
127	0x3e4c7679	0.19967069
128	0x3d6f82fa	0.05847452
129	0xbd128bf8	-0.035778016
130	0xbd8f8ecd	-0.07009659
131	0x3ba4593e	0.0050155213
132	0x3df80c51	0.12111724
133	0xbc042619	-0.008065724
134	0xbd47e053	-0.048797917
135	0x3c4464f1	0.011986957
136	0x3d32290e	0.043496184
137	0x3e81ee68	0.25377202
138	0x3d2037d0	0.039115727
139	0xbe43c4f3	-0.19118099
140	0xbd0539b8	-0.032525748
141	0x3d925f0d	0.07147036
142	0x3dd798c6	0.10527186
143	0x3dc842cc	0.097783655
144	0x3db07347	0.086157374
145	0xbd8815ce	-0.06644784
146	0xbe15774a	-0.14596286
147	0x3cd9cbb3	0.02658639
148	0xbd14eed9	-0.036360595
149	0x3e0845bd	0.13307853
150	0xbd55af02	-0.052168854
151	0x3e0750ae	0.1321437
152	0x3ddc553b	0.10758444
153	0xbc24908a	-0.010044226
154	0x3d5ea87c	0.054359898
155	0x3e9169ba	0.28400975
156	0x3e0f9d78	0.14024913
157	0x3d8ec0cf	0.06970369
158	0x3d295cc6	0.04134824
159	0x3dc4e5f2	0.09614171
160	0xbd86ddda	-0.065852836
161	0xbd8380f3	-0.064210795
162	0x3df8f72b	0.121565185
163	0xbd5a7801	-0.0533371
164	0x3e25204f	0.16125606
165	0x3e52890d	0.20560093
166	0x3cf36ac1	0.02971399
167	0xbcc47663	-0.023982232
168	0x3e19f872	0.1503618
169	0xbdf2e697	-0.11860388
170	0x3cf8b1a8	0.03035815
171	0xbe05b1df	-0.13056134
172	0x3e504753	0.20339708
173	0xbda2e743	-0.07954266
174	0xbbfb6e32	-0.0076730484
175	0x3d0a4556	0.03375753
176	0x3dd9e6f6	0.106397554
177	0xbd5a8cb0	-0.053356826
178	0xbc4760fa	-0.012169117
179	0xbda37761	-0.07981754
180	0x3d910bac	0.07082304
181	0x3e1f5d38	0.15562904
182	0xbdd886ea	-0.10572608
183	0xbe49d916	-0.19711718
184	0xbd9307b3	-0.07179203
185	0xb7eb8f7e	-2.8081002e-05
186	0xbd9de49a	-0.07709618
187	0xbdb0819e	-0.086184725
188	0xbda6f0d9	-0.08151407
189	0xbd43ee98	-0.047834963
190	0xbd9b30c1	-0.075776584
191	0xbc9b8186	-0.01898266
192	0x3c99b14e	0.018761303
193	0x3d9606be	0.07325505
194	0xbced567e	-0.028971907
195	0x3da26e0a	0.079311445
196	0x3d6ebf02	0.058287628
197	0xbdf37c51	-0.11888946
198	0x3e6926c8	0.227687
199	0xbcfe7214	-0.031060256
200	0xbdd1e919	-0.10249538
201	0xbc3383ee	-0.010956747
202	0x3c0c26b2	0.008554148
203	0xbc0dea9c	-0.008661892
204	0x3e0ae5c4	0.13564211
205	0x3d06a71d	0.032874215
206	0x3dc4fbb4	0.09618321
207	0xbdffaa85	-0.12483696
208	0x3dd7d23b	0.10538145
209	0x3e1f864c	0.15578574
210	0xbd07ceca	-0.033156194
211	0xbd424c6e	-0.04743617
212	0x3e1580e8	0.14599955
213	0x3da36d5f	0.07979845
214	0x3e0c71a0	0.1371522
215	0x3da8afef	0.08236682
216	0x3d9085c4	0.07056764
217	0xbd518154	-0.051148728
218	0x3dc8c799	0.09803695
219	0x3e0b5a67	0.13608705
220	0x3e1034e3	0.14082675
221	0x3d22a83a	0.039711215
222	0x3e31a066	0.17346343
223	0x3dd0c241	0.10193301
224	0xbd397c18	-0.04528436
225	0xbdd82d0f	-0.10555469
226	0xbd74ca44	-0.059763208
227	0x3d9f2bbb	0.07772013
228	0x3d079354	0.033099487
229	0x3d46b6de	0.04851424
230	0x3dcd1621	0.100139864
231	0x3e8a11c1	0.2696667
232	0x3cba5c77	0.022749169
233	0x3d4af0f1	0.049546186
234	0xbd285e18	-0.04110536
235	0xbd8a1f47	-0.06744247
236	0xbd0d27db	-0.034461837
237	0xbd7a503b	-0.06111167
238	0x3e2f162c	0.17098302
239	0x3daed18a	0.0853606
240	0xbdb20d23	-0.08693912
241	0x3df16a99	0.1178791
242	0x3e251057	0.16119514
243	0x3dc8a4c8	0.097970545
244	0xbdefca53	-0.11708512
245	0xbcc02b0b	-0.023458024
246	0x3ca831c2	0.020531539
247	0xb9f9b587	-0.0004762823
248	0x3d98c3e2	0.07459237
249	0x3c0e2995	0.008676906
250	0xbd1f497f	-0.03888845
251	0xbe183a88	-0.14866078
252	0x3e69d555	0.22835286
253	0x3d7f8554	0.06238301
254	0xbe6923f1	-0.22767617
255	0x3dd8eee0	0.10592437

network_body._body_endoder.seq_layers.2.bias f4 [128]
0	0xbdcb440f	-0.099250905
1	0xbdc51d29	-0.096247025
2	0xbd532ff3	-0.0515594
3	0xbd62b8fc	-0.055352196
4	0x3b08c3b6	0.0020868606
5	0x3c85d5d0	0.016337305
6	0xbd67927f	-0.056536194
7	0xbdcd5056	-0.100250885
8	0xbc68908c	-0.014194619
9	0x3d561141	0.05226255
10	0x3d7d7663	0.06188048
11	0xbd223088	-0.039597064
12	0xbcba370a	-0.022731323
13	0xbd9649aa	-0.07338269
14	0xbd223ed7	-0.03961071
15	0x3d2cd677	0.042196717
16	0x3dd8789e	0.10569881
17	0xbde03605	-0.109478034
18	0xbd00f547	-0.031483915
19	0x3d1fa83e	0.038978808
20	0x3d67b7a1	0.056571607
21	0xbdd0d74a	-0.10197313
22	0x3d0fd755	0.035117466
23	0x3cf8bfa2	0.030364815
24	0x3d313ed1	0.043272797
25	0xbdd51e49	-0.10406167
26	0x3d8af64d	0.067852594
27	0xbc9e4054	-0.019317783
28	0xbd714551	-0.058903996
29	0xbbcfd6dd	-0.0063427524
30	0x3cedda73	0.029034829
31	0xbdc3957a	-0.09549995
32	0xbdb4cf66	-0.088286206
33	0xbb5cce78	-0.00336924
34	0x3b4a8d1f	0.0030906869
35	0xbbfe5c15	-0.007762442
36	0xbda9919d	-0.08279727
37	0x3c5fbc0f	0.0136556765
38	0xbd3adfbc	-0.045623526
39	0xbc609837	-0.013708166
40	0xbd9a32f9	-0.075292535
41	0xbd04877f	-0.03235578
42	0xbdce6f53	-0.10079827
43	0x3d3cd9a7	0.046106007
44	0x3ce25723	0.02762944
45	0x3d736ffa	0.05943296
46	0xbcc8fe92	-0.024535451
47	0xbd274592	-0.04083783
48	0x3c9e5fcb	0.019332787
49	0x3d29c1fa	0.041444756
50	0xbd3a7fcf	-0.045532044
51	0x3d35f711	0.044425074
52	0xbd87a6e4	-0.06623629
53	0xbb5b4e91	-0.0033463577
54	0xbd35c048	-0.044372827
55	0x3c890e81	0.016730549
56	0xbd351812	-0.04421241
57	0x3d0c44dc	0.034245357
58	0xbcb07bbe	-0.02154338
59	0xbd9eac36	-0.077476904
60	0xbb5d82a1	-0.0033799785
61	0xbca5eea6	-0.020255398
62	0xbda031f0	-0.07822025
63	0xbd14fba3	-0.036372792
64	0xbc5d83b4	-0.01352017
65	0xbd5f1ced	-0.054470945
66	0xbdadb453	-0.0848166
67	0x3d629536	0.05531808
68	0x3cfe4453	0.031038439
69	0xbcb32946	-0.021870267
70	0x3c8dbcf7	0.01730202
71	0x3d3f19de	0.04665553
72	0x3cd4a1cf	0.025956063
73	0xbd70a97b	-0.05875538
74	0x3cc8ec11	0.024526628
75	0xbdb36049	-0.08758599
76	0x3c55fbe8	0.013060547
77	0x3d6b9786	0.05751755
78	0xbd3edd42	-0.046597727
79	0x3d46d157	0.048539486
80	0x3c27db69	0.010245183
81	0x3ce4be9c	0.02792292
82	0x3c2a6ff8	0.010402672
83	0xbd6677cc	-0.05626659
84	0x3de6cfcb	0.11270102
85	0xbde59e36	-0.11211817
86	0xbc842150	-0.016129166
87	0xbdc4d82b	-0.09611543
88	0xbd1b55bd	-0.037923563
89	0xbdd6d25f	-0.10489344
90	0xbdb8d3c0	-0.09024763
91	0xbc164439	-0.009171539
92	0x3cc2a30c	0.023759387
93	0xbd1d77da	-0.038444377
94	0xbd68c64b	-0.056829732
95	0xbd2d7ca1	-0.042355184
96	0xbdcae914	-0.099077374
97	0xbdde12bf	-0.10843419
98	0x3d2e98bc	0.042626128
99	0x3cb3770f	0.021907357
100	0xbd7a4aa5	-0.061106343
101	0x3d3e4528	0.04645267
102	0x3adc9d36	0.001683152
103	0xbd88cb0a	-0.06679352
104	0x3d82784b	0.063706
105	0xbcffbfcc	-0.031219386
106	0xbd947b00	-0.07250023
107	0x3d18794a	0.037225045
108	0x3d42626e	0.04745715
109	0xbd8c4b4e	-0.06850301
110	0x398d9229	0.00027002514
111	0xbd32f3ed	-0.043689657
112	0xbd86af07	-0.065763526
113	0x3d07312d	0.033005882
114	0x3d8bf544	0.0683389
115	0xbd2bcda7	-0.041944172
116	0x3cdb1f4f	0.026748328
117	0xbd51f04a	-0.051254548
118	0xbd09e42c	-0.033664867
119	0xbd94628d	-0.072453596
120	0xbdc482a6	-0.09595232
121	0xbd1a7514	-0.03770931
122	0xbdd08e6c	-0.10183415
123	0xbda50af5	-0.080587305
124	0xbdb6374d	-0.088972665
125	0xbd6b5813	-0.05745704
126	0xbd8e8869	-0.06959612
127	0xbd01b6ed	-0.031668592

action_model._continuous_distribution.log_sigma f4 [1, 3]
0	0xbd30b856	-0.043144546
1	0xbd1a3356	-0.037646614
2	0x3b9e6e4f	0.004834927

action_model._continuous_distribution.mu.weight f4 [3, 128]
0	0x3e113a11	0.14182307
1	0x3d1406d3	0.03613932
2	0x3d2ec87b	0.04267166
3	0x3c6b7e37	0.014373354
4	0x38130dfc	3.5060555e-05
5	0xba7cdc6e	-0.00096458837
6	0x3c837bcb	0.01605024
7	0x3e1c6f47	0.15276824
8	0x3c1f246b	0.009713273
9	0xbd33f991	-0.043939177
10	0xbbebe573	-0.0071989833
11	0x3cdfa80b	0.027301809
12	0x3bf636e0	0.007513866
13	0x3df07208	0.117405
14	0x3cae2b9d	0.02126103
15	0xbcc32b43	-0.02382434
16	0xbd803473	-0.06260004
17	0x3df86c1d	0.12129996
18	0x3c972898	0.018451974
19	0x3b941584	0.0045191664
20	0xbc4b2131	-0.01239805
21	0x3e49fdae	0.19725677
22	0xbc90290d	-0.0175977
23	0xbc639e49	-0.013892719
24	0xbc9105e9	-0.017703013
25	0x3e17d5eb	0.14827697
26	0xbd0ddcbb	-0.034634333
27	0xbc050080	-0.008117795
28	0x3ccb74f6	0.024836045
29	0x3baa4230	0.0051958784
30	0xbc5b0337	-0.013367466
31	0x3e25cac9	0.16190638
32	0x3e1cbbc4	0.15306002
33	0xba6c99fc	-0.0009025631
34	0x3b6c9548	0.003609972
35	0x3c37de4e	0.011222435
36	0x3e27f075	0.16400321
37	0xbbc3ad49	-0.005971585
38	0x3c82b46a	0.015955169
39	0x3c21443d	0.009842929
40	0x3de35545	0.11100248
41	0x3bf852d7	0.0075782347
42	0x3e241bb1	0.16026188
43	0xbc7d5fbe	-0.015464721
44	0xbc4b0d5a	-0.01239332
45	0xbced1bf8	-0.028944
46	0x3c41f222	0.011837514
47	0x3d176ec8	0.036970884
48	0x3c170ca7	0.009219325
49	0xbceab669	-0.028651433
50	0x3ded56ed	0.115888454
51	0xbcbd5627	-0.02311237
52	0x3deb3dc2	0.11486389
53	0xbba6f340	-0.0050949156
54	0x3ccd6c47	0.025076045
55	0xbc7659ae	-0.01503603
56	0x3de7faab	0.11327108
57	0xbc8e0021	-0.017334046
58	0x3d74bb7c	0.05974911
59	0x3e1213a3	0.14265303
60	0xbbb81d95	-0.005618761
61	0x3c3d98cf	0.011572077
62	0x3e02d969	0.12778248
63	0x3be2e656	0.006924431
64	0x3c1094f2	0.008824574
65	0x3d49efa3	0.0493008
66	0x3e31e690	0.17373109
67	0xbca41613	-0.020030057
68	0xbc6899ba	-0.0141968075
69	0xba3d34d1	-0.0007217648
70	0xbbec4a34	-0.007210994
71	0xbd1f9706	-0.038962387
72	0xbcccc112	-0.024994407
73	0x3c31e924	0.010858808
74	0xbc785f22	-0.0151594
75	0x3ce29803	0.027660375
76	0x3addb69c	0.0016915384
77	0xbbf9563d	-0.0076091574
78	0x3d04ef8e	0.03245502
79	0xbcdfe4ff	-0.027330874
80	0x3be21379	0.006899294
81	0xbc9fe59e	-0.01951867
82	0xbc3e234d	-0.011605096
83	0x3c811fc4	0.015762217
84	0xbdaba35c	-0.08380768
85	0x3e16bf77	0.14721476
86	0x3ae00756	0.001709203
87	0x3e31240a	0.17298904
88	0x3cb11319	0.021615552
89	0x3e2bb86e	0.16769573
90	0x3ddae3b1	0.1068796
91	0x3b2fd7bd	0.002683147
92	0xbc45ef7f	-0.012081026
93	0x3c6db823	0.014509234
94	0x3ce51ab5	0.027966836
95	0x3cbf128a	0.02332427
96	0x3e3aecd4	0.18254405
97	0x3e190a8c	0.1494543
98	0xbd50cb65	-0.050975222
99	0xbc60081f	-0.013673811
100	0x3e0647c9	0.13113321
101	0xbc8d95f2	-0.017283414
102	0x3afc886d	0.0019266732
103	0x3d04273b	0.032263976
104	0xbd2ffc23	-0.042965066
105	0x3cdce80e	0.026966121
106	0x3e08913e	0.13336655
107	0xbc1afc55	-0.009459575
108	0xbd15df81	-0.036590103
109	0x3db47961	0.08812214
110	0x3bd4694d	0.0064822794
111	0x3c978d1c	0.018499903
112	0x3ce8bb3d	0.028409595
113	0xbc323bc7	-0.01087851
114	0xbcb49f3f	-0.02204859
115	0x3c166fc6	0.009181922
116	0xbccaa75d	-0.024738008
117	0x3dad6034	0.08465615
118	0xbb09325f	-0.0020934565
119	0x3e06ce33	0.13164596
120	0x3e27cd3f	0.16386889
121	0x3c74888c	0.014925133
122	0x3e28e9bb	0.16495411
123	0x3e1decf4	0.15422422
124	0x3e24c51e	0.16090819
125	0x3ca3ab05	0.01997901
126	0x3cd64ddd	0.026160175
127	0x3bd4ac9c	0.006490303
128	0x3c782704	0.015146021
129	0x3b3b1d84	0.0028551528
130	0xbcce9065	-0.025215337
131	0xbb7e6604	-0.003881813
132	0xbc18f0ee	-0.009334786
133	0x3cbc34ab	0.022974333
134	0xbb2864ff	-0.0025694964
135	0x3bdfa0c0	0.006824583
136	0xbad5e260	-0.0016318075
137	0x3ccf14ec	0.025278531
138	0xbb055590	-0.0020345189
139	0xbc3b1cd8	-0.011420451
140	0xbbdc19f6	-0.006716962
141	0x3c982fde	0.018577512
142	0xbd003aa7	-0.031305935
143	0xbc9782eb	-0.018495044
144	0xba10e197	-0.00055267796
145	0x3c80e9f7	0.015736563
146	0x3c21657c	0.009850856
147	0xbd4a958d	-0.04945903
148	0xbb3eb402	-0.0029098992
149	0xbba595a1	-0.0050532375
150	0xbcf850e3	-0.030312007
151	0x3ca06104	0.01957751
152	0xbb717c8e	-0.0036847922
153	0x3cb8dc61	0.022566022
154	0xbc558606	-0.013032442
155	0xbc31e122	-0.0108568985
156	0x3c767c55	0.0150442915
157	0xbc5e0698	-0.013551377
158	0x3b0fa540	0.0021918565
159	0xbb5470e6	-0.0032415926
160	0xbad7721b	-0.0016437204
161	0xbcb4a6b6	-0.02205215
162	0xbb8a4415	-0.004219542
163	0xbc3acc18	-0.011401199
164	0x3b6e47c9	0.0036358705
165	0x3c279f78	0.010230891
166	0xbc6cf698	-0.014463089
167	0x3cb5dd55	0.022200266
168	0x3c9ffb8b	0.019529125
169	0xbc8b53a3	-0.017007655
170	0x3cb4a600	0.022051811
171	0xbc8bdefe	-0.017074104
172	0xbae8b03a	-0.0017752715
173	0xbd38dbe4	-0.04513158
174	0x3c0364cd	0.008019638
175	0xbbb2cf00	-0.005456805
176	0xbc896515	-0.016771832
177	0x3c0c48ba	0.008562261
178	0x3d6bb413	0.05754478
179	0x3cb1ea36	0.021718126
180	0xbb6d7045	-0.0036230248
181	0x3badbbac	0.0053019132
182	0xbce6fcd2	-0.028196726
183	0xbcf7a69c	-0.030230813
184	0x3d145520	0.036213994
185	0x3c6741c9	0.0141148055
186	0xbcd3f85b	-0.025875261
187	0x3cecacdb	0.028891018
188	0xbafcf6c0	-0.0019299611
189	0x3b1b0d26	0.002365896
190	0xbce83214	-0.028344192
191	0xba4d356f	-0.00078280916
192	0x3be97c46	0.0071254103
193	0xbc84c3e4	-0.01620669
194	0xbccb1a4d	-0.024792815
195	0x3c284584	0.01027048
196	0x3c94d79a	0.018169213
197	0xbc2cddca	-0.0105509255
198	0x3c0cae4c	0.0085864775
199	0x3c53ba89	0.012922891
200	0xbc8aa07d	-0.01692223
201	0x3b4441ee	0.0029946524
202	0xbbfdf005	-0.00774956
203	0x3a6b5aa1	0.00089780433
204	0xbc910d7d	-0.017706627
205	0x3d7b7903	0.061394703
206	0x3ce8478d	0.02835443
207	0xbb2fbbfa	-0.0026814924
208	0xbcf9c46a	-0.030489165
209	0xbd624fe9	-0.05525199
210	0x3c4a81ed	0.012360078
211	0x3bda6db1	0.0066659083
212	0x3cbded00	0.0231843
213	0x3bd90d74	0.006623918
214	0xbc4c5874	-0.012472261
215	0x3cd5e552	0.026110325
216	0xbc56d3f6	-0.013112059
217	0x3b3bedf0	0.0028675757
218	0xbba50626	-0.0050361333
219	0x3cc8902a	0.024482805
220	0xbc1b096f	-0.009462698
221	0xbc101310	-0.008793607
222	0xbb52acd9	-0.0032146482
223	0xbcce6b59	-0.025197672
224	0xbb5fc3a5	-0.0034143713
225	0x3b6657e1	0.0035147595
226	0xbb6838cd	-0.0035434247
227	0xbbba5ea8	-0.0056875534
228	0xbc6cbc63	-0.014449212
229	0xbae7cc0b	-0.0017684711
230	0xbd1646a5	-0.036688466
231	0xbc7c0cb1	-0.015383885
232	0xbbe466b1	-0.0069702496
233	0x3c221997	0.009893796
234	0xbc4cc0cf	-0.012497141
235	0xba41ebaa	-0.00073974824
236	0x3bcf43d1	0.006325223
237	0xbcf932be	-0.030419704
238	0xbc48290a	-0.012216816
239	0x3c36a9e5	0.011148904
240	0xbc1ab639	-0.009442859
241	0x3c3bf0d3	0.011470991
242	0xbd2dea0f	-0.042459544
243	0xbab9a9e2	-0.0014165009
244	0xbcbbf415	-0.022943536
245	0xbca21087	-0.019783271
246	0x3cee9c1f	0.029127179
247	0x3c949880	0.018139124
248	0x3d24834d	0.04016428
249	0x3c17ce49	0.009265491
250	0xbc3bbbdb	-0.011458362
251	0x3ce1a295	0.027543345
252	0x3d2ccdc4	0.04218842
253	0xbc3d2562	-0.011544557
254	0x3c6fb833	0.014631319
255	0x3b34daf9	0.0027596338

action_model._continuous_distribution.mu.bias f4 [3]
0	0xbdae4f0b	-0.0851117
1	0xbc063aba	-0.008192712
2	0x3cbcb1af	0.023033945
