TWP_2/results/DynPnp13/RobotArm/RobotArm-499752.onnx (onnx, 79646 bytes, 9 tensors)

network_body.observation_encoder.processors.0.normalizer.running_mean f4 [12]
000000 32 57 5f c0 6e 52 27 42 23 66 81 3f a5 a7 16 3f
       -3.489697 41.830498 1.0109295 0.58849555
000010 b5 ff 3f 40 b0 55 b6 bc 6d 13 a1 bd b5 ff 3f 40
       2.999982 -0.022257656 -0.07865033 2.999982
000020 b5 f1 0e 3e 3a 3c 3a 42 27 4b 29 42 00 00 00 00
       0.13959391 46.558815 42.32339 0.0

network_body._body_endoder.seq_layers.0.weight f4 [128, 12]
000000 ed 86 0d 3e c1 99 b4 bd 9d 0a f2 3c 48 41 3b 3e
       0.13821001 -0.08818389 0.029546076 0.18286622
000010 8e 5d b6 3d 68 1d be 3d 1a 0f 1f be a0 13 ca 3d
       0.08904563 0.092829525 -0.15533105 0.098670244
000020 4e 33 39 bd 15 78 24 be 42 fe 9b be 70 c9 1e bf
       -0.045214944 -0.16061433 -0.3046742 -0.6202612
000030 37 38 cf be ea ce a5 3e e9 2d 9e 3e cd d3 06 bd
       -0.40472576 0.32384425 0.30894402 -0.032916833
000040 f4 a8 03 bd bf 99 84 bd e8 a3 4b be 05 85 a8 be
       -0.032143548 -0.06474637 -0.19886744 -0.32913986
000050 46 58 b5 be 6d 5c 3e 3d 12 bd 84 3d b0 dd 66 3b
       -0.3541891 0.046474863 0.06481375 0.003522735
000060 1b 7b e2 bc eb c1 8b be f0 40 f1 be 26 dc 49 3e
       -0.027646592 -0.27296385 -0.47119856 0.19712886
000070 b4 1a dd 3e cd 9e 4d 3e 9c 5e d8 be e2 93 69 3e
       0.43184435 0.20080109 -0.4225968 0.22810319
000080 6a 00 c1 3e 94 af 99 3c 8c 25 f9 be 77 ca 79 be
       0.37695628 0.01876048 -0.48661458 -0.2439364
000090 6c 4e b0 3e 8d e4 4e 3d 60 93 3d be 68 77 83 3e
       0.3443483 0.05051093 -0.1851325 0.25677037
0000a0 d1 3c 05 3e 59 43 31 bd a9 31 0d be ae 28 e2 be
       0.13011481 -0.04327712 -0.13788475 -0.4417166
0000b0 2f 28 28 3c fd 6d a5 3e 22 eb 06 3f 68 e4 af be
       0.010263487 0.32310477 0.52702534 -0.34353948
0000c0 3f 1a b2 be 2e a4 47 be da 81 50 be b6 b6 4b 3f
       -0.3478565 -0.19496223 -0.20362034 0.7957567
0000d0 08 30 b2 bd 6d cb 6c 3e 37 2a 01 3f d8 de c7 bd
       -0.087005675 0.23124476 0.5045504 -0.09759301
0000e0 66 58 68 bd 2c ea 31 3d 45 66 fc 3d c5 dd 21 3f
       -0.05672493 0.043436214 0.12324194 0.6322902
0000f0 1f 8c 62 be 32 05 54 be 92 96 53 3e 02 92 4c bd
       -0.22123764 -0.20705107 0.20662907 -0.04994393
000100 6b 26 24 3e 3d 63 f4 bd 87 9e c7 3d 3e c9 c0 be
       0.1603028 -0.11932991 0.097470336 -0.37653536
000110 dd 25 10 be 54 b6 c7 3e 47 56 f5 be 4c 2e 17 3e
       -0.14076944 0.39006293 -0.47917387 0.14763755
000120 02 06 bb be 82 a5 c2 3e 66 f3 22 3e ae dd 77 be
       -0.3652802 0.38016897 0.15913162 -0.24205658
000130 3e d6 89 3e 38 4b fe be 75 69 26 3d b8 ba 27 bf
       0.26921266 -0.49666762 0.040627915 -0.65519285
000140 18 0c 37 3f 45 44 41 3e 88 c6 be bd a8 83 b6 bd
       0.7150283 0.18873699 -0.093152106 -0.0891183
000150 f0 76 a1 be 45 e1 3c 3e 66 dc 45 be ab b4 db bd
       -0.31536055 0.18445309 -0.19322357 -0.10727819
000160 28 40 c6 be a7 e3 76 3d 06 36 8a 3e b4 37 2a be
       -0.38720822 0.0602757 0.26994342 -0.16622812
000170 b1 cd 88 bd 1d c5 84 bd 48 9e a8 be ca ef a3 be
       -0.066798575 -0.06482909 -0.3293326 -0.32018882
000180 0c 4a f9 bd 2a 6f b8 3e 24 3c 31 bd a5 0b 82 be
       -0.121723264 0.3602231 -0.043270245 -0.2539951
000190 8d 38 95 be b3 c0 bc be cb 37 3e be b0 61 0f bc
       -0.29144707 -0.36865768 -0.18575971 -0.008751318
0001a0 38 6d 23 be d9 fb 0e 3e b6 3b fe be b4 a7 9a 3e
       -0.15959632 0.1396326 -0.4965493 0.30206072
0001b0 c9 c7 56 3e c1 1f 03 3f a6 98 51 3e ee d2 05 be
       0.2097465 0.5122033 0.20468387 -0.13068745
0001c0 1b 01 c1 be 0a 24 ac 3e d7 1f 37 bf 1e cb a2 3d
       -0.37696156 0.33621246 -0.7153296 0.07948898
0001d0 ee 33 27 3e ad 6c 42 be b7 06 9f bd 16 9d 52 3e
       0.16328403 -0.18986769 -0.07764953 0.20567736
0001e0 ec 7b 0c 3d 0a b8 cd 3d 58 14 b7 3d 54 81 4e 3d
       0.03429787 0.10044868 0.08939427 0.050416306
0001f0 60 3d e7 3d 60 0d c0 3e ce 02 24 3e 8c bb 76 be
       0.11291003 0.37510204 0.16016695 -0.24094981
000200 38 26 e0 be a0 1c ae bd 5b b5 84 3e aa f9 e7 3d
       -0.4377916 -0.085015535 0.25919613 0.113269165
000210 a1 4b 9c bd cc a8 6f bb 19 c2 0a 3f a9 41 09 3f
       -0.076316126 -0.0036569117 0.5420242 0.53615814
000220 74 1e 6c 3b 2c b1 4f be 01 98 98 3e a8 03 26 be
       0.0036028894 -0.2028243 0.2980347 -0.16212332
000230 c8 38 65 3d 9c 56 60 be 92 a7 1d bc 61 b0 60 bd
       0.055962354 -0.21908039 -0.009622471 -0.054855708
000240 3a d2 9d 3e 64 f2 91 3e 45 72 5d 3e 32 37 e9 be
       0.30824453 0.28505242 0.21625622 -0.45549923
000250 6b 8b b5 be 9e 75 81 3e d9 8d 3a 3e 31 c3 fd 3d
       -0.3545793 0.25285047 0.18218173 0.123907454
000260 b8 f2 13 bf 76 ec 0c be a1 00 29 be d1 4d 4d be
       -0.57792234 -0.13762078 -0.16504146 -0.20049216
000270 15 b5 61 be ab 35 c5 bd 40 94 8d 3e b8 f4 41 bf
       -0.22041734 -0.09629377 0.27652168 -0.75764036
000280 ba dd 37 3e 39 49 c6 be 16 92 02 3f 43 49 0c 3d
       0.17955676 -0.3872774 0.5100416 0.034249555
000290 b5 3c 6b be 1f c0 a1 bd bc 5e e5 3d 58 ec 8c be
       -0.22972377 -0.07897972 0.1119971 -0.27524066
0002a0 2e 1b 9b 3e 6e 7a df be 9f 54 d5 3d 45 91 bf 3d
       0.30294174 -0.43648094 0.10416531 0.0935388
0002b0 ad 4c a8 3d 46 b4 fa 3d 1a b7 73 3d 56 b2 92 be
       0.0821775 0.12241416 0.05950079 -0.28651685
0002c0 76 2e 66 3d 3f 9e 81 3e ea cc 97 3e 77 9c 07 bf
       0.056196652 0.25316045 0.29648525 -0.5297312
0002d0 62 4b 38 be f4 12 29 be 82 33 9c be eb e1 08 3e
       -0.17997506 -0.16511136 -0.30508047 0.13367431
0002e0 c5 d9 1d 3d c0 25 24 3e 5d ab 2e 3c a1 41 dc bd
       0.03853776 0.16030025 0.010660973 -0.10754705
0002f0 65 81 1b 3f 9e d1 b3 bc a0 46 66 bc 11 66 c2 3d
       0.60744315 -0.02195054 -0.014054924 0.09492124
000300 a0 80 81 3e d7 5c a9 3e 9f 85 bd 3d 85 17 24 3e
       0.25293446 0.33078644 0.09254002 0.16024597
000310 64 e4 d3 be 45 b1 2c bc cc ba 1e 3e dd d6 b6 3e
       -0.41385186 -0.010540311 0.15500945 0.35710803
000320 de 01 75 3e 15 39 08 3e 1c 96 6a bd 29 72 00 bd
       0.23926494 0.13303025 -0.05727206 -0.03135887
000330 b2 30 81 bd 97 c1 6e 3e dd 42 bd 3d e8 0b fe 3d
       -0.06308116 0.23316036 0.09241269 0.12404615
000340 1f a5 fa bc b9 72 91 3e 00 e6 00 3f 21 06 b0 3d
       -0.030596314 0.2840784 0.5035095 0.08594919
000350 86 17 0e be d2 7e 35 3d 29 5b 15 3e 55 de 9a 3e
       -0.13876161 0.0443104 0.14585556 0.3024775
000360 ea aa 71 3d 31 6f b5 be c2 72 fd 3d a3 10 f7 bd
       0.059000887 -0.35436395 0.12375404 -0.1206372
000370 23 80 06 3f 04 cf 3e 3e 7c 7b 8d be 7c 55 57 3e
       0.5253927 0.18633658 -0.27633274 0.21028703
000380 72 07 a2 bd c3 ae 10 bf 50 46 a6 be 32 58 82 3e
       -0.07911576 -0.56516665 -0.3247552 0.25457913
000390 ef 7a 61 3e 84 2d b3 3d 0c b8 0a 3f d7 49 89 3e
       0.22019552 0.08748916 0.54187083 0.26814148
0003a0 4d ab dd 3d 63 a2 25 be 06 d9 c4 3e c9 0b d2 bc
       0.10823689 -0.16175227 0.38446826 -0.025640385
0003b0 11 d0 a1 3d 74 63 37 3e 81 10 31 be eb 00 c0 3d
       0.07901014 0.17909032 -0.17291452 0.09375175
0003c0 53 87 17 bd f8 e2 b3 be b8 85 65 3e 67 af 97 be
       -0.03699429 -0.351341 0.22414291 -0.2962601
0003d0 9f 02 fe 3e 8d c7 40 be 84 ef 2c be f5 d2 00 be
       0.49611375 -0.18826123 -0.16888243 -0.12580474
0003e0 c4 93 1b bf a7 10 d8 3e 39 d3 f0 3c 9a 63 68 be
       -0.6077235 0.42200205 0.029397594 -0.22694245
0003f0 54 fd 0b 3e 26 52 7c be af 9f 3d 3e 5c 55 36 be
       0.13670856 -0.24640712 0.18517946 -0.17806

network_body._body_endoder.seq_layers.0.bias f4 [128]
000000 24 60 8b 3d 81 49 95 bd a4 92 d4 bc d6 14 ef 3d
       0.06805447 -0.072894104 -0.02594883 0.11673896
000010 7d 66 ea 3d 58 9c 67 bd c9 a6 60 3d 1a 7c 91 3d
       0.11445329 -0.056545585 0.05484656 0.071037486
000020 5f 81 c5 bc 5d 5f 0f 3a a4 e9 d2 ba 3b 97 5b 3d
       -0.02410954 0.00054692273 -0.0016091359 0.05361102
000030 11 7e 45 3d 7a 3c 8a 3c e6 1a 8b bd 8f 23 28 3d
       0.04821593 0.01687454 -0.0679224 0.041049536
000040 86 f0 95 3d d7 35 33 bd fa 4c db 3d 6a 39 32 bc
       0.07321267 -0.043752518 0.107080415 -0.010877946
000050 26 e2 7a 3b a1 86 28 bd 45 e2 83 3d d5 35 58 3d
       0.0038281768 -0.041144017 0.06439642 0.052785713
000060 aa f2 fa 3c b7 9f d3 bb d6 67 87 3d 6e bc c5 3c
       0.03063329 -0.0064582485 0.06611602 0.024137702
000070 85 bb cd bc 9e 6b f4 3c ea 0e fe 3c 3b 17 b9 3c
       -0.02511383 0.029836472 0.031012971 0.022594085
000080 29 cd a9 bd a0 fa 5b 3c 84 f9 af bc fe 1e 59 3c
       -0.08291084 0.013426453 -0.021481283 0.013252018
000090 16 9f 80 3d 1f 00 9e 3d 4a d7 d2 3d 02 98 86 3c
       0.06280343 0.07714867 0.102949694 0.016429905
0000a0 11 2b 42 bd 38 df d6 3c be 58 e2 3d b4 8f 08 bd
       -0.047404353 0.026229486 0.110520825 -0.03334017
0000b0 48 eb a6 bd cd 9a 94 3d 9d 53 4f bc 93 2f d1 3c
       -0.08150345 0.072560884 -0.012654212 0.02553538
0000c0 ef aa 0b 3d 57 17 9d 3d 96 9b b3 bc 99 92 8b 3c
       0.03409856 0.07670467 -0.021924775 0.017037677
0000d0 4a b7 97 bc 71 5b 06 3e 20 2a a1 3d 85 09 7d bd
       -0.018520016 0.1312082 0.07869363 -0.061776657
0000e0 7d ab b2 3d f6 89 91 bd 22 c9 94 3d 26 c9 69 bd
       0.08724115 -0.07106392 0.072649255 -0.057076596
0000f0 ba e8 a4 3d 73 2a 71 3d 0a d0 a8 bb 13 e4 eb 3b
       0.080522016 0.058878373 -0.0051517533 0.0071988194
000100 d6 64 47 3d de 51 c1 bd 69 2b fb bd cb 68 e8 3c
       0.04868015 -0.09439443 -0.12264139 0.028370282
000110 73 d6 84 bc 25 32 1a bd 0d 56 e6 ba 0f 44 1b bd
       -0.016215539 -0.037645478 -0.0017573253 -0.037906703
000120 94 0b e7 bc 4c af 73 3d 19 8c 59 3d 82 9d 6f bb
       -0.028203763 0.059493348 0.053112123 -0.0036562388
000130 8d 0a 15 3d 45 7a c5 bb b2 64 f3 3d e1 38 dc 3d
       0.036387015 -0.0060265386 0.118844405 0.10753036
000140 39 5d 7f 3d 3f 7b 0e be 0f da f0 3d bd 98 2f bd
       0.062344763 -0.13914202 0.117603414 -0.042870272
000150 61 a4 d5 3d 20 11 ec 3d b1 3d aa 3d 06 86 bf 3d
       0.104317434 0.11526704 0.08312548 0.09351735
000160 31 90 85 3d 26 5e 2a bc 4d 1b 4f 3d 68 c7 fb bb
       0.06521643 -0.010398423 0.050563145 -0.007683683
000170 64 0b 12 bd 42 72 85 bc a7 82 df bb 1e 7b 14 3d
       -0.035655394 -0.016289834 -0.006820995 0.036250226
000180 56 50 ac 3c 05 44 cc 3c 02 b8 f3 bc 83 30 03 3c
       0.0210344 0.024934778 -0.029750828 0.008007172
000190 43 2e 0c 3e e6 78 b8 3d 5a a5 90 3d d2 58 94 3c
       0.13689522 0.090074345 0.07062788 0.01810876
0001a0 23 25 19 3d 97 22 d3 3d 73 b6 44 3e 3d 03 40 3c
       0.037388932 0.10309332 0.19210224 0.011719522
0001b0 07 a9 8b bd 10 34 e7 bc e6 6f 2c 3e 23 5b 92 bb
       -0.06819349 -0.028223068 0.16839561 -0.0044664307
0001c0 68 7d e8 bd c9 cf 5c 3d d5 f9 b6 3c 4f c8 2f bd
       -0.11352044 0.053909097 0.022335926 -0.04291564
0001d0 e0 01 a2 3d bd 30 84 3c 64 0d 8f 3d 96 ad 06 3e
       0.07910514 0.016136521 0.06984976 0.13152155
0001e0 5b 56 21 3d df d3 d2 3c a4 91 28 3e ec 34 ec bd
       0.039388996 0.025735794 0.16461807 -0.115335315
0001f0 e2 0a 8b 3d 90 15 33 bd 0c 9e f3 3d b3 ee d2 3c
       0.06789185 -0.043721735 0.118953794 0.025748586

network_body._body_endoder.seq_layers.2.weight f4 [128, 128]
000000 37 05 88 bc e3 79 ad 3a 97 96 1c be bc 95 9c 3d
       -0.01660405 0.0013235178 -0.1529182 0.07645747
000010 68 e8 67 bd c5 c5 45 3a a0 5b c3 3d a4 e9 51 3d
       -0.056618124 0.00075444236 0.095389605 0.051248208
000020 57 75 f9 bd 7a 38 87 bc 52 cf 0d be 76 d3 ae bd
       -0.12180584 -0.016506422 -0.13848618 -0.08536427
000030 a9 f4 60 3e 99 f9 c4 bc 07 86 53 3d c0 7d 6e 3e
       0.2196833 -0.024044799 0.05164149 0.23290157
000040 58 25 e6 3b 6b fe f1 3d 0d 24 1c 3c cf f5 4a 3b
       0.0070234947 0.118161045 0.00953008 0.0030969267
000050 99 a4 44 bd 72 a1 ff bd de 48 13 bd 11 60 6f bc
       -0.048008535 -0.12481965 -0.035958163 -0.014610306
000060 8a ea 1b 3d fe fe 19 be ce 2a 88 3d 5e fc e3 bc
       0.03806547 -0.15038678 0.06648789 -0.027830299
000070 c2 17 8d bd 45 9e 6a bd 96 16 30 3d 4e 8c 98 3d
       -0.06889297 -0.057279844 0.04299029 0.07448636
000080 2d 01 b9 bc 8b d2 13 3e 1b 3e b1 3c dd 62 29 be
       -0.022583568 0.14435785 0.02163606 -0.1654162
000090 94 18 46 3c ed 78 12 3e 56 1a 30 3e 2e 1a 79 bd
       0.012090821 0.14303942 0.17197546 -0.060815983
0000a0 f0 8a d8 bd 72 35 4c bc 8a 31 9c 3d 1a 8d 57 3d
       -0.10573375 -0.012463914 0.07626636 0.0526248
0000b0 11 15 35 be 47 c4 17 3e 04 6a 0c be fe ed 13 bd
       -0.17683817 0.14820968 -0.13712317 -0.03611564
0000c0 41 ce 8d bd bf a4 c9 3d 7c b2 9c bb 87 d1 bd 3c
       -0.069241054 0.09845876 -0.004782019 0.0231712
0000d0 0f a6 06 bd 35 a4 5b 3e 18 7e 33 3d a1 bb f3 bd
       -0.03287321 0.21449359 0.043821424 -0.11901022
0000e0 e8 c6 c5 bb ed 0a 10 3d c3 7a ac bd 90 87 37 be
       -0.0060356744 0.03516667 -0.084218524 -0.17922807
0000f0 c0 1b 6c bc a7 98 95 bb 7f 85 d7 bc 1d c3 13 3d
       -0.014410913 -0.0045653167 -0.026308773 0.036074746
000100 84 84 92 bc 03 68 17 3c 0b 78 4c bd 8f 5b 7a 3d
       -0.017885454 0.009241107 -0.04991917 0.061122473
000110 2d 79 3d bd cc 2b b1 bd df 1b 9c 3d 1b d3 43 bd
       -0.04625814 -0.08650932 0.076225035 -0.047808748
000120 af 91 c5 3c eb 5e 31 3d d5 18 bd 3c 3a 59 2b 3e
       0.024117319 0.04330341 0.02308313 0.16733256
000130 1f 17 85 3d a4 f0 2c bd 5b 4b 0f bd 3c 69 30 3d
       0.064985506 -0.04222168 -0.034983974 0.04306911
000140 77 2b f0 3d 62 50 13 be 0b 33 7f bc 09 29 17 bd
       0.1172704 -0.14386132 -0.015576134 -0.03690437
000150 a4 ad db 3d f9 c9 17 3d 92 d4 78 3d 85 b7 a8 3d
       0.10726479 0.03705785 0.060749598 0.082381286
000160 b9 e6 fb 3d 2e 2e ba 3c f8 10 12 3e 20 2f f5 3b
       0.12299866 0.022727098 0.14264286 0.0074824244
000170 e7 b4 b4 3c 0b 58 4f 3c f0 ab 07 bc ae ef c4 bd
       0.022058917 0.012655268 -0.008280739 -0.09616028
000180 06 59 8a be c8 4b 67 3e fa f3 10 be 63 b5 4d be
       -0.27021044 0.22587502 -0.1415557 -0.20088725
000190 c5 59 c5 bd 3a 73 72 bc 08 f9 c7 3c b4 df 41 3d
       -0.09636263 -0.01479798 0.02441074 0.04733248
0001a0 98 b3 11 3d 93 a6 cd 3d e9 c9 a9 3d 43 07 07 be
       0.035571665 0.10041537 0.082904644 -0.13186364
0001b0 0c bf 8a bd 33 2e 34 bc 45 16 47 ba 64 bc b0 3d
       -0.067747205 -0.010997343 -0.0007594566 0.08629683
0001c0 da 19 e5 3d fb 1e 0c be ef ac a4 bd 0f 64 32 be
       0.111865714 -0.13683693 -0.08040797 -0.17420982
0001d0 e1 38 00 3e c9 20 10 bd 9e 81 bd 3a f0 5f 88 bc
       0.12521698 -0.035187516 0.0014458185 -0.016647309
0001e0 d6 36 73 be 19 d3 2c 3e 50 58 16 bd 04 ca 69 3a
       -0.23751387 0.16877402 -0.036705315 0.00089183473
0001f0 74 6d 3b 3e 66 8f 4c bd 41 ce 99 3b bf 49 b5 3d
       0.18303472 -0.049941443 0.004693777 0.088519566
000200 b2 0e 6d bd 55 8f 49 bd d4 98 a1 3d de 42 b4 3d
       -0.057875343 -0.049208958 0.07890478 0.088018164
000210 1e 03 59 bd a7 f7 4f 3e d5 9a 84 3d 4f f7 b2 3c
       -0.05298149 0.20309316 0.06474844 0.021846442
000220 ef 53 a7 bd 57 57 42 bd 78 86 b8 ba fd 0c 86 bc
       -0.08170306 -0.047446575 -0.0014078161 -0.016363615
000230 ac 41 14 3e 4f a2 4b 3b e8 88 60 3d 6d 32 87 bd
       0.14478177 0.0031072085 0.054818064 -0.06601415
000240 d7 0e 2d 3d 25 9d 33 3c 3d ca e8 3c 59 5f 46 bc
       0.04225048 0.010962759 0.028416747 -0.012107694
000250 e5 4e 83 bd 6e 07 d6 ba 34 0e 5c 3d a0 22 88 bd
       -0.06411532 -0.0016329119 0.053724483 -0.06647229
000260 89 da 8c 3d ca c0 69 3d 7e 25 66 3d 34 b4 17 3b
       0.0687762 0.057068624 0.0561881 0.002314818
000270 69 93 70 3d b5 03 2b 3e 5d 8c 27 be d1 13 c2 bc
       0.05873433 0.16700633 -0.16362138 -0.02369109
000280 33 dc 9f bd e5 83 9f 3d 52 1a 47 3e 90 44 39 be
       -0.078056715 0.07788829 0.19443634 -0.18092561
000290 56 fa b8 bd 6e bb 25 3e 24 6e 4d bd 56 77 a4 3d
       -0.09032123 0.1618478 -0.050153866 0.08030574
0002a0 fe 44 cc bd dd b5 59 3d 36 75 c0 bd 8f 00 ad bd
       -0.09974097 0.053151954 -0.09397356 -0.08447372
0002b0 98 59 d3 3d 27 24 67 bd a3 9c b3 3c 71 81 2d 3d
       0.10319823 -0.056430962 0.021925276 0.042359773
0002c0 4a d2 52 3d 23 cf 1b bc e5 a4 8a 3d e4 3a 95 3d
       0.05147008 -0.009509834 0.067697324 0.07286623
0002d0 de 85 02 3e 1e 3f f8 3d 12 d9 00 be 31 a1 c0 3d
       0.12746379 0.12121414 -0.12582806 0.09405745
0002e0 5a 45 54 3d a4 9b 50 bd 7f 69 ff 3d ae 42 e0 bd
       0.05182395 -0.05092968 0.12471294 -0.10950218
0002f0 27 bd b9 3d 77 c3 f3 bd 09 ff 75 3d 58 c2 2d bd
       0.09069281 -0.11902516 0.060057674 -0.04242167
000300 e6 89 6a 3d 10 3c 8b 3d ba 1d 84 bc 2d eb 1f 3c
       0.057260416 0.067985654 -0.016127456 0.00976066
000310 83 7c 75 bd e2 fc 40 3d f4 d5 69 3c 5d f7 43 3c
       -0.059933197 0.047116168 0.014272202 0.0119608315
000320 46 9b 84 3d e9 68 de bd 24 11 16 3d 25 d3 b4 3d
       0.064749286 -0.10859854 0.03663744 0.08829335
000330 0d df 47 3d c7 aa c0 3b d2 f7 d4 bc a3 37 eb bd
       0.048796702 0.0058797332 -0.025997076 -0.11485221
000340 22 ec 35 3d 4c 19 a2 bc f8 7c 5a 3b 76 27 53 bd
       0.044414647 -0.019787453 0.0033338647 -0.051551305
000350 c6 ee b2 bb d2 aa 56 3d d8 4f 40 bd a2 bd 8e 3d
       -0.005460593 0.052409 -0.046951145 0.06969763
000360 07 36 9b 3d fd df cc bd 47 f7 23 3c 88 cc 10 3e
       0.07578664 -0.1000366 0.010007686 0.14140522
000370 ad f1 5a 3d 16 88 81 bd 78 7e 3c bd 5f 9a 07 3d
       0.053453136 -0.063247845 -0.046019047 0.033106204
000380 e6 aa 95 3d 3d d2 08 bc a5 c1 f5 bd 40 f3 57 3d
       0.07307987 -0.008350906 -0.119998254 0.052722216
000390 39 59 3c bb bc 3f 9e 3d 8a 50 fe 3d 1f 11 ff bd
       -0.0028739704 0.07727 0.12417705 -0.124544375
0003a0 de 4b 99 bd 9f c2 c1 3d e9 f1 30 3e 96 05 18 3d
       -0.07485174 0.09460949 0.17279781 0.037114702
0003b0 19 67 1a bd 74 0e 30 3e 14 69 52 bd c9 be 31 bc
       -0.037695978 0.17193013 -0.05136974 -0.010848709
0003c0 b1 b8 e6 bd c3 5a 07 bd 1c 05 9d 3d 93 d3 09 3c
       -0.11265696 -0.03304554 0.0766699 0.00841226
0003d0 40 37 bc bd d6 2a f7 bb d0 10 6c 3d af e7 d0 3c
       -0.091902256 -0.0075429482 0.05763322 0.0255011
0003e0 6b 29 be 3d bd 21 bc 3d 28 fa 32 3d 5e 47 15 3d
       0.092852436 0.091861226 0.0436956 0.036445014
0003f0 69 e7 f2 3c 2d 97 0e 3d 4f 3d 34 be 68 9c cb 3d
       0.02965136 0.03481214 -0.17601512 0.099419415

network_body._body_endoder.seq_layers.2.bias f4 [128]
000000 b0 82 dc 3d 42 e4 8a 3d 50 48 86 bd bf 2b 19 be
       0.10767114 0.06781818 -0.06556761 -0.14958094
000010 1c ef c6 bd 56 e1 5d 3d 8f 77 2a bd 11 2e ff 3c
       -0.09713575 0.054169975 -0.041617926 0.031149896
000020 51 27 c2 3d a7 72 9d 3c 5e c7 1a bd 6a a3 9b bb
       0.09480155 0.01921971 -0.037787788 -0.004749705
000030 c3 fe 8a bd 06 57 e6 3b 3d a7 32 3d 55 95 f5 3d
       -0.06786873 0.007029417 0.043616522 0.119913734
000040 4a 2a 2e 3d 26 d5 f1 bc 2f 55 8a 3d b2 83 f8 3c
       0.0425208 -0.029520582 0.06754529 0.030336235
000050 bb c7 90 3d ae ea 70 3d 44 f6 45 bd 82 75 14 be
       0.070693456 0.058817558 -0.04833056 -0.1449795
000060 3c 65 b1 bc 37 3a 87 3d 07 85 30 3d e7 b0 c6 3d
       -0.021654718 0.066029005 0.043095615 0.0970171
000070 a1 35 ea 3d 95 14 f6 bd 20 53 ce bd 91 7a 82 3d
       0.1143601 -0.120156445 -0.100744486 0.06371034
000080 a0 60 80 bd 95 aa 94 3d dd 8b d4 bd c5 56 5c 3d
       -0.0626843 0.072590984 -0.10378239 0.053793687
000090 5a c2 b5 bc dd c3 f4 bc fa d3 ec bd 50 1a 05 bd
       -0.0221874 -0.029878551 -0.11563869 -0.032495797
0000a0 bd b8 06 bd 60 0c a1 bc 6b 5c aa bd 39 5f a4 bd
       -0.032891024 -0.019659221 -0.083184086 -0.08025975
0000b0 44 2d d0 3d be 02 28 be 8e f7 fe 3c 67 2f be 3c
       0.10164884 -0.16407296 0.031123903 0.023215963
0000c0 7f b4 f0 bc ed 46 ba 3d 48 59 99 bc 39 8e c6 3c
       -0.029382942 0.09095559 -0.01871933 0.024237739
0000d0 d4 68 ae 3d e8 8f 34 bd f4 a1 a1 3d 06 b5 cf bd
       0.08516088 -0.044082552 0.07892218 -0.10141949
0000e0 a1 40 7f 3d 40 c6 ce 3d 43 fa ca bd 60 07 02 3e
       0.062317494 0.10096407 -0.09911015 0.12698126
0000f0 7b 64 f9 3c 67 5b a1 bd a9 1b 10 3e a1 04 0b be
       0.03044342 -0.07878762 0.14073052 -0.13575985
000100 80 2c b2 bd 03 83 fc bd 9f 39 27 bd 5e c9 80 3d
       -0.08699894 -0.12329676 -0.040826436 0.06288408
000110 c1 ea fd 3d 35 65 82 bd 69 fe 7d bd 1f 74 f4 bc
       0.123982914 -0.0636696 -0.062010203 -0.029840527
000120 a1 8b a9 3d db a6 07 be 12 20 cd 3a be d5 14 3d
       0.08278585 -0.13247244 0.0015649816 0.036336653
000130 0c 94 07 3e 70 89 c3 3d 3f 3d af 3d 56 24 22 bc
       0.13240069 0.095476985 0.08556604 -0.0098963585
000140 08 26 8f bd 65 df 1d 3e cf 32 28 bd 2e 7b aa bd
       -0.06989676 0.1541725 -0.04106408 -0.08324276
000150 2a ee a8 bd 19 58 a7 3d 3d f3 94 3d f9 df 85 3d
       -0.08248551 0.081711 0.072729565 0.0653686
000160 39 2b 79 3d 24 f8 ab 3d 95 e2 7f bd 9e 44 a0 3d
       0.060832236 0.083969384 -0.062471945 0.07825588
000170 d9 2a 15 bc ea 12 0d bc 4f 9a 42 be 46 e9 d0 3d
       -0.009104454 -0.0086104665 -0.19004177 0.102007434
000180 f1 5b 0e be 95 4b 60 bd be f8 04 3d f7 4d 70 3d
       -0.1390226 -0.05475958 0.03246378 0.058668103
000190 6d e2 37 be fd d9 4b 3d ec 98 6b 3d fe aa b4 bd
       -0.17957468 0.049768437 0.057518885 -0.08821677
0001a0 6d 88 99 3d 84 d0 40 be 86 74 8f 3d b5 07 95 3d
       0.07496724 -0.18829542 0.07004647 0.072768606
0001b0 52 51 14 be ca cc 06 be b7 da c6 bc d7 24 aa 3d
       -0.14484146 -0.13164058 -0.024274213 0.08307808
0001c0 42 0b 0d 3d 0a 67 c0 3d 0f 3c 25 bd ae b5 48 be
       0.034434564 0.09394653 -0.04034048 -0.19600555
0001d0 f4 dc 84 3d 23 e8 65 3d 46 4f c9 3d 60 b6 04 be
       0.06487456 0.056129586 0.09829573 -0.12960196
0001e0 dc d6 60 3d 8f ab ad 3d 79 a5 11 be 80 0b a9 3d
       0.054892406 0.08479988 -0.14223279 0.082541466
0001f0 78 1e 58 3d 77 f7 91 bc 60 cd 59 be 8a 49 66 bc
       0.052763432 -0.017818196 -0.2126975 -0.014055619

action_model._continuous_distribution.log_sigma f4 [1, 3]
000000 a7 80 8c 39 e7 f7 01 be 26 e5 c6 bc
       0.00026798734 -0.12692223 -0.024279188

action_model._continuous_distribution.mu.weight f4 [3, 128]
000000 fe 36 7f 3c 81 96 b3 bc a5 92 eb bc 67 40 0a 3b
       0.015577076 -0.021922352 -0.028756449 0.0021095516
000010 be dd d6 ba 2c 19 b8 3c 6c 89 79 3d 31 dd 43 3d
       -0.0016392989 0.02247294 0.06092207 0.047818366
000020 f4 9e 9e bc a0 c3 0f bc 7e 86 22 3d aa 8e 78 bd
       -0.019362904 -0.008774668 0.039679043 -0.06068293
000030 0d 5c f6 bc 33 76 39 bd ea 2c 05 3d 7a dd c0 3b
       -0.03007319 -0.04527874 0.032513537 0.005885777
000040 83 ab 92 3d 3f ef a9 ba 1f 09 6e bd 03 2f 35 bd
       0.071616195 -0.0012964978 -0.058114167 -0.044234287
000050 13 85 8b 3c 46 a2 b2 bd 5f af 7a bd 9f 14 b4 bc
       0.017031228 -0.087223575 -0.061202403 -0.02198249
000060 28 c1 05 3c ec 40 dd 3c 89 4d bf bc 4a ad 1b 3d
       0.008163728 0.027008496 -0.023352401 0.03800706
000070 b3 6e 97 bc 3b c1 35 bd 30 c9 d2 bb 66 8d 3a bd
       -0.018485403 -0.044373732 -0.006432675 -0.045545004
000080 39 d6 cd 3b 97 3f 11 3d ec 40 c9 bc d0 a4 12 3d
       0.006281641 0.035461035 -0.02456709 0.03580171
000090 fe 1c dd 3b ec be 17 3d 3d fe 2b bb 88 26 12 3d
       0.006747841 0.03704731 -0.0026244067 0.035681278
0000a0 16 6e 96 bb 92 bd 1a bc ea d1 5d bd c4 e3 cf 3c
       -0.00459076 -0.009444611 -0.054155268 0.025377162
0000b0 da fb 0e bd 72 e6 c5 3b 8d 1b 3d bc 8d 1e 1b bd
       -0.034908153 0.006039434 -0.011542213 -0.037870932
0000c0 db 8d a7 bc d7 78 3d 3d b7 d4 6e 3d ba e6 0f 3c
       -0.020453384 0.04625782 0.05830833 0.008783037
0000d0 23 f2 f0 bc 5c f2 ac bc 5f 25 bd bd 31 2b 32 bc
       -0.029412335 -0.02111166 -0.092356436 -0.010874555
0000e0 fd 30 02 bd fd f1 16 bd 86 ef 62 bc 96 3a 02 3c
       -0.031785 -0.03685187 -0.013851052 0.007948538
0000f0 0b 23 bd bb 0a 16 40 3c 1a 88 06 3b 16 38 27 bc
       -0.0057719997 0.0117240045 0.00205279 -0.010206243
000100 a4 00 ba b9 a1 af a8 bb bb c5 fe 3c 78 44 e9 bd
       -0.00035477162 -0.0051478897 0.031100145 -0.113900125
000110 73 2b 7e bd ce 63 bd bc 9d e9 81 bd d5 c7 29 3c
       -0.062053155 -0.02311888 -0.06343386 0.010362585
000120 3d 7f f0 3b d9 c4 5c bc a4 e6 cd bd ce 49 86 3d
       0.0073393867 -0.0134746665 -0.10053757 0.06557046
000130 d4 c0 1a 3b e1 c6 59 bd 2b eb 2d 3d a2 ff 33 3d
       0.002361347 -0.05316818 0.0424606 0.043944962
000140 b4 c1 86 3c 8a 21 6d 3c 0e 4c ca 3c 09 24 12 3c
       0.016449787 0.014473328 0.024694469 0.008919724
000150 1d 80 e3 3c 75 67 dc 3c ec d5 34 3d ab b8 96 bd
       0.02777105 0.0269048 0.044149324 -0.07359441
000160 5e a9 da bc f6 55 16 3c a0 e8 0f bd 0d 7a c8 3c
       -0.026692089 0.009175768 -0.035133958 0.02447226
000170 80 2e 7c 3d 07 31 d9 3c 25 27 34 bc b4 58 18 3d
       0.061567783 0.026512636 -0.010995661 0.03719397
000180 99 7c df bb 94 fa 56 3d 85 3b dc 3c 11 b5 20 bd
       -0.006820273 0.052485064 0.02688385 -0.03923518
000190 32 b4 bb bb 1a c1 96 3d e8 da 27 3a b4 c4 20 bc
       -0.005728268 0.0736105 0.0006403164 -0.009812523
0001a0 f6 33 8e 3c c4 08 46 bc 60 cf 32 ba 75 08 57 bc
       0.017358761 -0.012087051 -0.00068210624 -0.013124575
0001b0 e9 19 f9 3c 9a 19 9a bc 9c e8 c1 3b 8a 2c 0c bd
       0.030407863 -0.018811036 0.005917622 -0.034222163
0001c0 ba 10 99 3c 43 3d 6a bc dc 0e 41 3c 21 26 2c bc
       0.018684734 -0.0142968325 0.011783328 -0.0105071375
0001d0 20 23 8e 3c 48 a1 94 bd 07 69 49 bd 86 17 8a 3b
       0.017350733 -0.072573245 -0.049172428 0.00421423
0001e0 19 a9 07 3d d4 8f 8b 3d f2 b3 9b bc 00 00 10 3d
       0.03312025 0.068145424 -0.019006703 0.03515625
0001f0 d3 1b dd 3c 3e d4 78 3d b4 30 a8 bc c1 7b f1 bc
       0.026990807 0.060749285 -0.020531036 -0.029477956
000200 8e 05 5f bd c3 da cc bc d3 fc 14 3d 25 50 e1 3d
       -0.054448657 -0.025006657 0.036373924 0.110016145
000210 eb a8 27 3d 9e 76 11 bc 66 8c c4 3c 68 2d 32 bb
       0.040932577 -0.008878378 0.023992728 -0.0027187709
000220 7d fe 8e bd 21 b3 7a bc e0 d8 e7 3b 58 a0 8a 3c
       -0.069821335 -0.015301497 0.007075414 0.016922161
000230 8e f7 66 3d 9c 7d 5e bc 2e 4f cd 39 28 65 2b bd
       0.05638843 -0.013579752 0.0003915964 -0.041844517
000240 d4 a6 cb bc 24 56 2b 3b 52 87 91 bc eb 5c 41 3c
       -0.024859823 0.0026143873 -0.017764721 0.0118019385
000250 f6 b4 cd bc 25 ea 03 bd d2 4c 9b ba 44 72 c6 3d
       -0.025110703 -0.03220572 -0.0011848456 0.09689763
000260 12 cf 86 3c f0 1f 10 bd d6 57 99 bc cf 3f 81 bd
       0.01645616 -0.035186708 -0.018718641 -0.06310999
000270 84 cf 20 bd 97 d9 ff 3d e8 c0 18 3d df b2 f3 bc
       -0.039260402 0.12492674 0.037293345 -0.029748378
000280 00 a7 cb 3c 44 ef 2d bd 2c 8d 08 3d f0 0a 7d bc
       0.024859905 -0.04246451 0.033337757 -0.015444502
000290 b0 03 c2 3b 37 23 a8 3c c0 98 6e 3d 32 58 7d 3b
       0.0059208497 0.020524604 0.058251143 0.0038657305
0002a0 78 bd 97 3c 4e ef 9a 3a 46 8e da 3d 94 35 77 3c
       0.018522963 0.0011820586 0.10671668 0.015088458
0002b0 4e 09 4b bd ef c1 c7 3d d5 10 9f bc 70 c9 96 3a
       -0.04956942 0.09753787 -0.019417206 0.0011504125
0002c0 94 4f c6 3c 2c c6 03 bd 9c 69 36 3c 16 b6 21 bc
       0.024207868 -0.032171413 0.011133578 -0.009870073
0002d0 c9 0d 5d bd ab 00 0c 3c 9d 19 eb bc 53 89 96 3d
       -0.053968225 0.008545081 -0.028698737 0.07350411
0002e0 cc cf 9f bc d1 6c 37 bd cc 02 6f 3d 2f 95 ad bc
       -0.019508265 -0.04478151 0.058352277 -0.0211893
0002f0 71 70 41 bc 7d 6e 3c 3d f3 ee 9b bd 6d 27 bd 3d
       -0.011806593 0.046003807 -0.07613935 0.092360355
000300 45 d2 02 3d c1 e5 11 3e 77 14 25 3d 93 87 4f bc
       0.03193881 0.142478 0.04030272 -0.012666601
000310 3b 16 43 bd b1 ef 8b 3c 52 c1 48 3d 68 48 05 3c
       -0.047628623 0.017082067 0.04901249 0.008134939
000320 9a 49 f4 bc 36 c5 c0 3d de 4c 33 bc da c0 93 bc
       -0.029820252 0.09412615 -0.01094362 -0.018036295
000330 87 cb 26 bd b4 0f 3e bd cc 1a 0a bc 09 1b 61 3c
       -0.040721443 -0.046401694 -0.00842924 0.013739356
000340 0d f6 bc 3c 63 4e 82 bd 5d aa ca 3c 70 81 1e 3d
       0.023066545 -0.06362607 0.024739439 0.03869766
000350 d7 cb 60 3d dc 77 5f bc 3e c6 f3 bc 5d 0c 0a bd
       0.054881897 -0.013639417 -0.029757615 -0.033703197
000360 ec f4 03 bd 38 2c e6 bc f9 bb 13 3d c8 91 73 bc
       -0.032215998 -0.028097257 0.036067937 -0.0148663
000370 90 c1 41 3c f6 7b 94 bb 78 dd ca 3d c1 a2 fe bc
       0.011825934 -0.004531379 0.09905523 -0.031083466
000380 9c e6 fb 3d ff 51 94 3d 64 b2 d8 bb 88 db 7e bc
       0.122998446 0.07242202 -0.0066130627 -0.01555527
000390 ef 52 b0 3d 9f e5 11 bc 76 67 71 bc bb 4a b5 3c
       0.08609568 -0.008904844 -0.01473414 0.02213036
0003a0 47 58 d7 bc ae 67 15 3e e7 55 32 bd 82 b8 00 bd
       -0.026287211 0.14590332 -0.043538954 -0.03142596
0003b0 f5 2e b2 3d fe dc 0c 3e 9e 70 e3 3b ca 33 62 bd
       0.087003626 0.13756177 0.0069409152 -0.05522517
0003c0 94 60 93 bc fc a6 e7 bc 6b 23 e4 3c 01 c5 eb 3d
       -0.017990388 -0.028277867 0.02784892 0.11512185
0003d0 3f 6f a3 bc 6b 0f e8 bc 80 14 7f bd c2 18 00 3e
       -0.019950507 -0.028327664 -0.06227541 0.12509444
0003e0 a4 59 8f bc 7e ad 1a bd 05 79 76 3d 62 42 6c bd
       -0.017498799 -0.03776311 0.060174007 -0.057680495
0003f0 8c f6 be bc 31 a3 12 3c 43 4c 06 3e c0 9e f1 3c
       -0.023310922 0.008950041 0.13115029 0.029494643

action_model._continuous_distribution.mu.bias f4 [3]
000000 3a 91 21 3b 4e bc 04 be f2 71 2d 3c
       0.0024653212 -0.12962458 0.010586249

onnx::Div_51 f4 [12]
000000 35 6e 81 41 10 02 c5 41 e9 b4 7f 41 3a d2 bc 41
       16.178812 24.626007 15.9816675 23.60265
000010 d2 94 92 3b 07 87 bb 41 45 52 bb 41 d2 94 92 3b
       0.004473307 23.440931 23.41517 0.004473307
000020 43 a5 ba 41 98 14 bc 41 25 64 9e 41 db 68 b9 3a
       23.330694 23.510056 19.798899 0.0014145629
