TWP_2/results/DynTouch15/RobotArm/RobotArm-2499957.pt (torch, 430976 bytes, 36 tensors)

network_body._body_endoder.seq_layers.0.weight f4 [128, 1]
000000 3f d6 82 be 6b 47 a6 3e 51 98 aa 3f d9 d4 2f bf
       -0.25554082 0.32476363 1.3327733 -0.68684155
000010 de c2 b3 3d 81 85 76 be 2d 2e 49 be 7a 10 6b 3f
       0.08777402 -0.24074365 -0.19646521 0.91822016
000020 ff 58 29 bf 35 22 59 3f ba 49 1f 3f 29 cc 37 bf
       -0.6615142 0.8481782 0.6222187 -0.717959
000030 e6 91 3e bf 2b 53 8b 3e a7 41 a9 bf f7 d3 fe be
       -0.74441373 0.2721189 -1.322316 -0.4977109
000040 49 86 c4 bf 45 7d a6 3f 6c ca ae bf 3e d3 e4 3f
       -1.535348 1.3006979 -1.3655524 1.7876966
000050 59 7b 91 3d 57 2b 6e 3f 5d 1b f1 bf c8 18 4d 3e
       0.07103605 0.9303488 -1.8836476 0.20028985
000060 9d 3d 41 3f 64 8e c7 3f 54 8a 4a bf e2 06 fb 3f
       0.7548464 1.5590329 -0.7911732 1.9611475
000070 19 1f a1 3f 11 df 1e 3c 8f 4c ab bf e0 ab b1 3e
       1.2587615 0.009696738 -1.3382739 0.34701443
000080 88 4f 19 bf 03 1a 8b be e7 6d 40 bf e4 ac 3b 3f
       -0.5988698 -0.27168283 -0.751677 0.73310685
000090 87 a7 9e 3f 40 07 3f bd 3a a6 9f bf 5f 0f ae 3e
       1.2394875 -0.046637774 -1.2472603 0.33996102
0000a0 cf 10 ee 3e 06 fc 0e be 96 ba 8f 3e 54 d6 d7 3e
       0.464972 -0.13963327 0.2807204 0.42155707
0000b0 c3 20 84 3f 84 22 d2 bf 30 de af be ef c7 29 3f
       1.0322498 -1.6416783 -0.34349203 0.663207
0000c0 67 69 ec be 74 b2 68 3e 3d 25 d7 be 66 a6 3d 3f
       -0.46174166 0.22724324 -0.42020598 0.7408203
0000d0 93 00 85 3f 40 6b 78 3e c3 23 69 3d 00 47 8f 3f
       1.03908 0.24259663 0.05691887 1.1193542
0000e0 f1 8d ef be be 8b 65 3e 87 d1 c2 bc 03 74 4b 3f
       -0.4678798 0.22416589 -0.023781551 0.79473895
0000f0 60 01 a5 3f 4e 17 2d be c2 50 cd 3f 51 b6 53 bf
       1.2891045 -0.16903421 1.604027 -0.8270007
000100 f4 64 4b 3d d8 a8 e7 3e 20 2f 97 be 63 ed 38 bf
       0.049656823 0.45246005 -0.2952814 -0.72237223
000110 ce b6 c5 bf 0a 1f 2e bf 01 58 dc be d8 88 19 be
       -1.5446413 -0.6801611 -0.43035892 -0.14993608
000120 66 d3 ce 3f fe 39 7f 3f 78 37 22 40 39 b3 c9 3e
       1.6158264 0.99697864 2.5346355 0.3939455
000130 6c 7b d5 3f 26 eb a3 3e 77 f1 b4 3e 51 04 04 be
       1.667829 0.32015342 0.35340473 -0.12892272
000140 be 13 fa 3f 75 0a aa 3f 9b 61 99 3e 53 1e 87 3f
       1.9537275 1.3284441 0.2995728 1.0556129
000150 7c 04 9e 3e 6b 06 80 bf 53 ed 8d 3e 23 53 6f bf
       0.30862796 -1.0001959 0.27720127 -0.9348623
000160 7c d3 fd 3e f3 27 02 bf 17 97 3c 3f 20 aa 22 3f
       0.49575412 -0.5084221 0.73668045 0.6354084
000170 5c 8d 94 3f 67 73 ba bf 31 4d 2d 3f bb e2 66 bf
       1.160564 -1.4566468 0.6769591 -0.90189713
000180 98 a3 56 3e 02 61 48 3f 5b 11 a7 3f 63 df 58 3f
       0.20960844 0.7827302 1.3052171 0.8471586
000190 15 62 aa be 65 b7 68 3f cc fb ed be c9 8c 69 bc
       -0.33277956 0.9090484 -0.46481168 -0.014254757
0001a0 a3 7a 94 bf 8f 50 5a bf 44 36 0f be f2 82 1b c0
       -1.1599926 -0.8527917 -0.13985544 -2.4298673
0001b0 e3 af 50 bf 46 fa b5 bb cf ac 7a be 25 06 81 3f
       -0.8151838 -0.0055535166 -0.24479984 1.008
0001c0 de cc 27 be 3f 72 4e 3e ce 8a 02 be 09 e0 9e be
       -0.16386744 0.20160769 -0.12748262 -0.310303
0001d0 9c 73 b0 3f 6e 50 00 bf 9a 15 85 3f 8a 91 41 3e
       1.3785281 -0.50122726 1.0397217 0.18903175
0001e0 f4 90 0e be 4a 7f 30 40 95 7c af bf 54 99 02 c0
       -0.13922483 2.757769 -1.3709894 -2.0406084
0001f0 0a a6 29 3d 1b 4b 0f 3b 1c 60 9a bf 31 26 17 3f
       0.041418113 0.0021864835 -1.206058 0.5904265

network_body._body_endoder.seq_layers.0.bias f4 [128]
000000 bc 13 58 be 88 25 4d bd d5 fe 22 be e0 ed 0c 3e
       -0.21101278 -0.05008462 -0.15917523 0.13762617
000010 67 63 1c 3e f3 14 66 bd 10 1c 5e 3e e4 4e eb bd
       0.15272294 -0.056172322 0.21690392 -0.114896566
000020 89 ba 1e be 79 18 b4 bd be 0c 4f 3e db e2 10 3e
       -0.15500845 -0.0879373 0.20219705 0.14149038
000030 24 d6 1b be e1 7a b2 3d 4b 28 e5 3d 38 3d 68 3e
       -0.15218407 0.087148435 0.11189326 0.22679603
000040 f4 b3 08 be b6 07 18 be a3 31 05 3e 83 25 a9 bc
       -0.13349897 -0.14846691 0.13007216 -0.02064777
000050 9a e7 60 3e 42 f8 d9 3d 2d 0d 1f 3d 3d 44 2b be
       0.21963349 0.106430545 0.038830925 -0.1672525
000060 69 75 07 be d1 9c df 3d 36 8b ef bd c5 d1 12 be
       -0.13228382 0.10918582 -0.11696474 -0.14337833
000070 52 52 32 bd 81 d5 88 be 42 3a bc 3d f0 52 1e be
       -0.043535538 -0.2672539 0.09190799 -0.15461326
000080 35 ce 32 be 0f 05 f7 3d 4d 7d 4e 3d b1 8f 43 be
       -0.17461474 0.12061512 0.050412465 -0.19097783
000090 93 70 2a be d0 3e 80 be ab 64 81 bd 4a 73 2e be
       -0.16644506 -0.25047922 -0.06318029 -0.17036167
0000a0 51 76 03 3e d4 30 72 3e e0 ba ac bd 57 02 88 bd
       0.12838103 0.23651439 -0.08434081 -0.06641071
0000b0 23 0e 2f be 27 77 27 3e 5b a1 26 be 37 d9 d8 bd
       -0.17095236 0.16354047 -0.1627249 -0.105883054
0000c0 ac b5 4a 3e 19 bf 17 be 25 cd 77 3e 16 f7 97 bd
       0.19795865 -0.14818992 0.2419935 -0.07420175
0000d0 19 44 03 bd aa be 35 be be aa 5f 3e 96 7e 39 be
       -0.032047365 -0.17748514 0.21842477 -0.18114695
0000e0 c0 f1 1d be 54 9f 21 be ca a0 86 3e 9f b1 20 be
       -0.15424252 -0.15783435 0.26294547 -0.15692757
0000f0 16 97 0f bd 47 8b fa bd 0f 69 d1 bd 5f a6 f0 bd
       -0.035056196 -0.12233596 -0.102251165 -0.11750483
000100 f3 dd 7c 3e 31 77 46 be 67 0e 31 be 40 1f 2e be
       0.24694042 -0.19381405 -0.1729065 -0.17004108
000110 a5 c0 3b bd 29 9e 22 be c7 fc f2 bd ac 10 99 bd
       -0.045838017 -0.15880646 -0.1186462 -0.07473883
000120 ed 40 10 be 48 85 f5 bd 4e 6a 23 3d 45 17 f3 bd
       -0.14087267 -0.11988312 0.039896302 -0.11869673
000130 fa 5a 86 bd 72 6e 61 be b2 c0 03 3e 53 95 82 3e
       -0.06560321 -0.22014788 0.12866476 0.2550455
000140 2a b1 95 bc b2 ee 21 bb dd ae 08 3e fc 8a 2d 3e
       -0.018272955 -0.0024708924 0.13347955 0.1694755
000150 f0 69 19 be d2 eb ed 3d 12 e7 bd bc 0b b0 29 be
       -0.14981818 0.11617245 -0.023181472 -0.16571061
000160 0d 9a fb bd e4 21 a5 3d 47 1b f5 bb 98 d3 07 3e
       -0.12285242 0.08063105 -0.0074800584 0.1326431
000170 aa 9e 40 bd 99 a9 0d 3e 2d 07 0d be d9 35 f7 bd
       -0.047026314 0.13834228 -0.13772269 -0.120708175
000180 7c 31 cb bd 81 6a a2 bd 3a 36 ae bd 37 2c 2a be
       -0.09921548 -0.0793047 -0.08506437 -0.16618429
000190 be 9f 3e be 0c 7b 24 be 2a 91 d4 bd 0c 9e 8a be
       -0.18615624 -0.16062564 -0.1037925 -0.27073705
0001a0 b6 0e 2a be 7b dd 47 3d 1b 00 75 be e0 81 23 3e
       -0.16607174 0.048795205 -0.23925821 0.15967512
0001b0 d9 1f 8d bd 23 e0 82 3e b5 85 51 3e a6 bc b1 bc
       -0.0689084 0.25561628 0.20461161 -0.0216964
0001c0 8d 4c 61 be 37 7e 3c be 7a c4 43 be f6 26 52 be
       -0.22001858 -0.18407522 -0.19117919 -0.20522675
0001d0 1a e7 d4 bd b2 bf c0 3d 8e fd e2 bd ef a1 94 3d
       -0.103956416 0.09411563 -0.11083518 0.07257449
0001e0 2e 4f 93 3e 85 72 f2 3d 13 82 03 bc ea 99 b6 3d
       0.28771347 0.11838249 -0.008026618 0.089160755
0001f0 61 b6 14 be 9a 95 be 3a 2e a8 4c 3d c1 30 4d be
       -0.14522697 0.0014540434 0.049965076 -0.2003813

network_body._body_endoder.seq_layers.2.weight f4 [128, 128]
000000 3f 28 f8 bd 85 3d 0e 3e 4a c4 36 bd cc 85 9b bd
       -0.12117051 0.13890655 -0.04462079 -0.07593879
000010 b0 77 5a 3d 7d 43 54 bc 98 14 b7 bd 24 91 c0 bd
       0.0533368 -0.012955544 -0.08939475 -0.094026834
000020 f3 c5 20 3c f1 ea 28 3e ee a3 a7 ba 75 ed 06 be
       0.00981282 0.16495873 -0.0012789944 -0.1317652
000030 08 c3 09 3d ec 6c a4 bc 10 e6 18 3c 6f 97 d8 3b
       0.033633262 -0.02007147 0.009332195 0.006609849
000040 11 22 de bc 6f c5 c6 3c ff 7e 8f 3d 26 36 a4 bd
       -0.027115854 0.024264066 0.070066445 -0.080181405
000050 77 37 e1 3c e0 0b c4 bd 80 3c 68 3d d0 d5 b4 3c
       0.027492268 -0.095725775 0.056698322 0.02207461
000060 af 2e 4f 3d 81 11 aa 3d 96 b7 4f bd 4c e9 a5 bd
       0.05058163 0.0830412 -0.05071219 -0.081011385
000070 eb 46 12 bc 80 35 b1 bd 5c 71 17 3d d1 50 c4 bd
       -0.008928041 -0.086527824 0.036973342 -0.09585727
000080 8a 44 1f bd b3 94 16 3e 39 c7 15 be 29 82 8d 3d
       -0.038883723 0.14705162 -0.14626779 0.06909592
000090 55 d3 45 bd df d8 95 3d 2f f4 19 3c fa 5e 13 bd
       -0.048297245 0.073167555 0.009396597 -0.03597925
0000a0 59 04 3b bc a5 c2 20 be a3 52 f8 bc d1 9f 2a be
       -0.011414611 -0.15699251 -0.030312842 -0.16662528
0000b0 75 fa 27 3d 95 99 2d bd 32 fa 57 3d e7 af 00 3d
       0.04101034 -0.042382795 0.05272884 0.031417754
0000c0 e8 05 b2 3c 74 58 d7 3c 08 3b 20 3c 64 5c b2 3b
       0.021731332 0.026287295 0.009779699 0.0054431427
0000d0 97 c4 80 bd b7 07 b3 3c 98 35 1a 3e 47 ca d9 3d
       -0.062874965 0.021854265 0.15059507 0.106342845
0000e0 eb 09 af bc 5e 4e fb bd 86 18 77 3d bd bb 02 be
       -0.021367034 -0.12270807 0.06032612 -0.12766929
0000f0 1e a3 b2 bd f0 29 e3 3d 3b f4 3c be 09 d6 72 3d
       -0.087225184 0.11091983 -0.18452542 0.05928615
000100 ce bb 75 bc 9c ca 54 bd 04 76 27 3c 6d 0f e5 bd
       -0.014998389 -0.051951036 0.010221008 -0.11184583
000110 9d bb 47 be 78 b6 54 3a 70 24 c2 bd e5 24 02 be
       -0.19505163 0.0008114348 -0.09479606 -0.12709387
000120 39 a7 5f bd 07 09 90 3c 59 be 23 3e df c3 0a be
       -0.054602835 0.01758243 0.1599058 -0.13551281
000130 58 54 48 bd d6 04 7d 3d cb d7 8d bc 86 b0 2d be
       -0.04890856 0.06177219 -0.017314812 -0.1696187
000140 84 4c 6a bd ba a1 6d bd 3d 9b 89 be 42 12 e4 3d
       -0.057201877 -0.058015563 -0.2687625 0.11136295
000150 c2 67 01 3d 08 6d 9c bd c9 0c 8e 3c b7 64 04 3d
       0.03159309 -0.076379836 0.01734008 0.03232261
000160 0c 59 cc bc a9 1d 20 3d 31 43 14 bc 5f c3 e4 3d
       -0.024944805 0.039090786 -0.009049223 0.111700766
000170 90 f7 e6 3b 84 a4 35 3e f2 b2 c8 bd 7a ff 7b bd
       0.0070485547 0.17738539 -0.09799756 -0.06152294
000180 22 e6 1d 3e 4e c2 a8 bd b4 3c ab ba 82 fd 54 bd
       0.1541982 -0.08240186 -0.0013064356 -0.051999576
000190 17 01 c2 3d 06 31 5e 3d 94 45 43 be 63 3a b8 bc
       0.09472864 0.05424597 -0.1906951 -0.022488778
0001a0 33 99 9f 3d a2 a3 09 3e 0c 2d 04 3e 11 63 0e bd
       0.07792892 0.13441327 0.12907809 -0.034762446
0001b0 18 4e 1a bd 61 6f 97 3d fc 55 9f 3d 0f 27 a6 bd
       -0.037672132 0.07394291 0.07780072 -0.081129186
0001c0 04 73 13 be 42 19 31 bd 90 9d 55 bd 50 78 a0 3c
       -0.14399344 -0.04323698 -0.052152216 0.01958862
0001d0 d4 35 e7 bc 49 bc 5c bd 16 1d 1f 3d d7 0f 27 bd
       -0.02822391 -0.0538905 0.038846098 -0.04078659
0001e0 4b 70 70 bc 87 b7 be 3d 21 60 e6 3b 80 50 91 3d
       -0.01467521 0.09312349 0.0070305024 0.07095432
0001f0 d1 c2 55 bd 29 ad 6c 3c b4 e8 00 3c cb 87 4a 3c
       -0.052187745 0.0144455815 0.007867981 0.012361477
000200 1f 16 25 be 4b fe 88 bd 81 08 54 bd 7f 7f 17 be
       -0.1612172 -0.066891275 -0.051765922 -0.1479473
000210 77 3b 01 3d af da b1 bd da 80 1a 3d 06 c7 92 3d
       0.03155085 -0.08684289 0.03772054 0.07166867
000220 6a b5 17 3e 04 6b 9c bd 53 3e 3a be 38 31 a3 ba
       0.14815298 -0.07637599 -0.18187837 -0.0012450581
000230 1c ef 26 3e 88 07 0f bd 49 67 62 3e 9d da e9 bc
       0.1630215 -0.03491929 0.22109713 -0.028546626
000240 cd c5 92 3c cc 5d 0a bd 92 6d 37 be 29 fe 5d 3c
       0.017916584 -0.033780858 -0.17912892 0.013549366
000250 08 70 d1 bd 2e 87 9f bb 55 c0 26 bb 17 a3 ca 3d
       -0.102264464 -0.0048684096 -0.0025444229 0.09894388
000260 c7 1f 16 bc c3 5e 03 be a3 15 dc 3d 86 1e 3f be
       -0.00916285 -0.12829117 0.107463144 -0.18663988
000270 1f 84 13 3d cb 1a 9c 3e 9b d5 9a be 05 1c b0 bd
       0.036014672 0.3048919 -0.30241093 -0.08599094
000280 39 9b 2a bd b6 c1 28 be ba 8b db bc b0 ed ae 3b
       -0.041651938 -0.16480145 -0.026800025 0.005338393
000290 76 66 bb 3d 09 6e c6 3e 5e 8d 3a ba 64 d8 ec 3d
       0.09150402 0.38755825 -0.0007116402 0.11564711
0002a0 5f ea 7c bd ed b8 1b be 40 b1 a5 bd 7a 94 cb bd
       -0.06174695 -0.15207262 -0.080904484 -0.09940429
0002b0 f2 8d 47 be 18 bb a2 bd 41 c6 94 3e ea 51 09 bc
       -0.19487742 -0.079458416 0.29057506 -0.008381346
0002c0 45 db 9a bd 62 f9 20 bb 14 23 60 bd b4 84 1b be
       -0.075613536 -0.0024562706 -0.054720953 -0.15187341
0002d0 c7 e0 4e bd 2e 34 4d 3d 09 f0 31 be 63 6a 0f 3d
       -0.050507333 0.05009859 -0.17376722 0.035013568
0002e0 c5 7b b6 3d 6a 75 b5 3d bf 26 7e be d4 40 16 3b
       0.08910326 0.088602856 -0.24819468 0.0022926824
0002f0 70 28 46 bd 8f 57 ec 3c 71 9e 76 bd 66 6a ce 3d
       -0.048378408 0.028850345 -0.060209695 0.10078888
000300 b5 90 49 be 25 51 1a bd 27 bb d1 3d 23 fe 90 bd
       -0.19684108 -0.03767504 0.102407746 -0.07079723
000310 be 69 e5 bd 1f 4b ff bc cb a7 a2 3d 17 05 74 3e
       -0.11201809 -0.03116375 0.0794216 0.23830067
000320 04 9a 3e bd 0f d0 14 bd e2 7d 87 be 41 9b 35 3d
       -0.0465336 -0.036331233 -0.26463228 0.044337515
000330 8e d9 f0 bd 1d c1 0c 3d 48 d2 60 bd f7 c7 72 be
       -0.11760245 0.034363855 -0.05488804 -0.23709093
000340 c6 6b e4 bd 9f bf 54 bd 1e b0 6d be ef 51 20 be
       -0.11153369 -0.051940557 -0.23211715 -0.15656255
000350 6c 1a 46 3e 2a 0c 38 be 0d 2c 13 bd 5d c1 ac bc
       0.19346017 -0.1797339 -0.035930682 -0.021088297
000360 bc f0 b0 3d 18 f4 f2 bc 9e d6 6f bd f6 5f c7 bd
       0.086396664 -0.029657409 -0.058554284 -0.097351
000370 b0 c8 29 be e4 84 06 be 9b ac 6f ba ce 73 2e 3e
       -0.16580462 -0.13136631 -0.00091428467 0.17036363
000380 5a 90 0d 3b 6f 5d aa bd ee 28 76 3c 9d fc 8c 3d
       0.0021600933 -0.08318602 0.015024407 0.0688412
000390 46 8c 19 bd 9f f7 04 be c9 fe 0b bc 76 d4 a2 3e
       -0.03748729 -0.12985085 -0.008544632 0.3180272
0003a0 fd 3b 4f bd 63 26 52 bd bd 9d 91 3e f9 ee bb bc
       -0.05059432 -0.05130614 0.28440657 -0.0229411
0003b0 8a 3f 99 3d af c4 d5 be 35 70 73 bb 18 ec fc bd
       0.07482822 -0.4175162 -0.0037145738 -0.12349719
0003c0 7f 56 65 3e b8 bb 10 3e bd 00 1b 3e 27 bb 74 bd
       0.22396277 0.14134109 0.15137 -0.059748795
0003d0 4a 03 93 bd f5 bf 1d 3e 03 ea 4b be 6b e0 31 bd
       -0.07178362 0.15405257 -0.19913487 -0.043426912
0003e0 ff 86 6c bd 3a e2 3c bd 72 d5 d7 bd f7 ff 4a bc
       -0.05774593 -0.046114184 -0.10538758 -0.012390128
0003f0 f3 f9 1e 3e 40 a6 66 bd 7a 9e 74 3d 46 ff 19 3d
       0.15525036 -0.056310892 0.059721448 0.037596963

network_body._body_endoder.seq_layers.2.bias f4 [128]
000000 7d e0 59 3d 33 df 6a be f1 80 8d be 5e e8 8c 3c
       0.053192604 -0.22936706 -0.27637437 0.017200645
000010 90 d6 a6 3d 3c b7 57 3d de e1 5d 3c f0 88 9a bd
       0.08146393 0.05266498 0.01354262 -0.0754565
000020 8b 0b fe bd 5b 11 3f be 15 54 98 be e6 44 51 be
       -0.124045454 -0.18658964 -0.2975165 -0.20436439
000030 20 ab 47 3e 2f e9 b1 bc bf c1 8d be 0b b6 71 bd
       0.19498873 -0.021717636 -0.2768688 -0.0590115
000040 aa f5 43 3d 5c f0 83 be 75 3f c4 bd de 5b 15 3e
       0.047841705 -0.25769317 -0.09582416 0.14585826
000050 b4 f0 d9 3d 49 89 4f be 44 da 14 3d 1d 46 bd bd
       0.106416136 -0.20267214 0.036340967 -0.09241889
000060 ef da 79 be 91 23 8c bc c9 82 e8 bd 8a 17 e9 3d
       -0.24399923 -0.017106803 -0.1135307 0.11381443
000070 fd 0d 11 bd 84 9a 01 3d 22 8c 71 3d 8e 41 d8 bd
       -0.03541373 0.0316415 0.05897153 -0.105593786
000080 8f fb 5d 3e a4 6e 00 be 05 d5 0e 3e 80 a5 6c 3e
       0.21677993 -0.12542206 0.13948448 0.23110008
000090 56 d1 4a bd 2e 0a 29 3e 27 96 90 bd 24 25 9f 3a
       -0.049516045 0.1650779 -0.07059889 0.0012141806
0000a0 51 ff bc 3d dd 4c f0 bc f1 f1 78 bd 15 22 a3 3d
       0.09228385 -0.029333526 -0.06077761 0.07965485
0000b0 34 a1 8b bc 52 65 0b be 4f 1f 2c be c5 70 21 be
       -0.017044641 -0.1361287 -0.16808818 -0.15765674
0000c0 b7 82 bc bd 75 e3 31 3e 10 f0 43 3e 16 1c 94 3b
       -0.092046194 0.17371924 0.19134545 0.0045199497
0000d0 91 9b 94 bc 71 7a 9c 3d 12 c6 c2 bd cf 0a a1 bd
       -0.018140586 0.07640541 -0.09510435 -0.0786339
0000e0 0b 50 28 3e cf 98 fe bd 7e a7 06 be ed eb 09 be
       0.16436784 -0.1243149 -0.1314983 -0.13468905
0000f0 ab c3 0a 3e 00 d8 c7 bd 1d 1c 09 be 41 e0 55 bc
       0.13551204 -0.097579956 -0.1338963 -0.013053955
000100 bf 3e 7c 3e 80 27 31 3e 50 73 3d be 6a f8 f9 bd
       0.2463331 0.17300224 -0.1850102 -0.12205584
000110 bb 6a b6 bc 2d da 43 3e 02 7b 3f 3e 34 14 8d bd
       -0.02226769 0.19126196 0.18699268 -0.06888619
000120 8d 15 40 3e 80 f5 40 3e 3b 69 c1 bd b8 5b 10 be
       0.18758221 0.18843651 -0.09443899 -0.14097488
000130 05 be 32 3e 8b 34 d5 3c 1b 56 5e bd 7d 6b 5b be
       0.17455299 0.026026031 -0.054281335 -0.21427722
000140 64 f2 8a be 51 13 33 be 70 35 b1 bd bb 57 68 be
       -0.27138054 -0.17487837 -0.086527705 -0.22689717
000150 3c f0 bc 3c 41 ca 40 3e f6 c8 d6 3c f5 3b 16 3e
       0.023063771 0.18827154 0.026218873 0.1467131
000160 4c 32 04 be 37 56 0d 3e 43 0e 2d 3e 7a 8a b2 3d
       -0.12909812 0.1380242 0.16899972 0.087178186
000170 59 69 2c bd bb 36 a7 bd b1 c6 0f 3e 3f 5a 3d be
       -0.042092655 -0.08164736 0.14040639 -0.18491457
000180 07 2b 70 be ef c8 a6 3d cb 78 bb ba f6 a3 95 bd
       -0.23453914 0.08143794 -0.0014302967 -0.07306664
000190 e2 ae 1e be 57 84 c6 bd 9e f6 8f bd 07 1c fa bd
       -0.154964 -0.096932106 -0.0702946 -0.12212377
0001a0 a0 8d ce 3d 2e fb 22 3e a4 98 a0 bd 86 ae e1 bc
       0.100856066 0.1591613 -0.07841614 -0.02754904
0001b0 5b 7c 42 be 44 38 e6 bd b3 b5 9b be f0 c1 90 be
       -0.1899275 -0.112412006 -0.30412063 -0.28272963
0001c0 80 05 6e bd 62 cb cc 3d f5 c7 b8 3c 03 10 50 3e
       -0.058110714 0.0999973 0.022556284 0.20318608
0001d0 29 16 02 be 0c 07 d7 3d 95 12 83 3d b0 82 e3 bd
       -0.12703766 0.10499391 0.064000286 -0.11108911
0001e0 1a 98 75 bd f1 85 02 be 15 7f b7 bd 38 c3 d7 bd
       -0.05995951 -0.12746407 -0.08959786 -0.10535282
0001f0 40 fe d3 3d 95 62 95 bd c0 18 d6 bd 4b 51 2b 3e
       0.10351229 -0.07294194 -0.104539394 0.1673023

action_model._continuous_distribution.log_sigma f4 [1, 3]
000000 8c 07 aa be 96 19 0a bf 27 4e 1b be
       -0.33208883 -0.5394529 -0.15166532

action_model._continuous_distribution.mu.weight f4 [3, 128]
000000 11 dc 9e 38 24 5f 3d bd 0c cb 8f 3c 30 4d b7 ba
       7.575018e-05 -0.04623331 0.017552875 -0.0013984796
000010 2b 97 19 bc 6f 80 f3 3c bd 98 29 bc 6a 1f 24 bc
       -0.00937442 0.029724328 -0.010351357 -0.010017255
000020 5e 5c f5 3b a2 ca 28 bd 60 d0 93 3b 7d 35 75 bd
       0.0074878177 -0.04120887 0.004510924 -0.059865464
000030 3d e1 0a bd a8 c2 31 3b 3a 06 2d bb f4 43 85 bc
       -0.03390621 0.002712408 -0.0026401416 -0.016267754
000040 16 d1 39 bb 9b 63 12 bb 68 e9 69 bd 41 5d 64 bd
       -0.0028353385 -0.0022337202 -0.05710736 -0.055752996
000050 92 07 7d ba 17 77 56 bd bf 9c 32 bc f7 c9 78 3c
       -0.0009652312 -0.052359667 -0.010901629 0.015184871
000060 e5 5a f6 bc 1d 9f 22 3c 0a 35 2e bc bd 99 cf bc
       -0.030072639 0.009925631 -0.010632763 -0.025341863
000070 22 b0 3a 3a b7 76 62 3d 92 f6 7b bd 6a 56 99 3c
       0.0007121583 0.055288997 -0.061514445 0.018717963
000080 5a 7e fb 3c 46 83 03 bd 71 02 82 bd e6 40 f5 3c
       0.030699898 -0.032107614 -0.06348122 0.029938173
000090 ef 9c f9 bc fe 3f 53 bd 32 93 cd bd 53 01 61 ba
       -0.03047034 -0.0515747 -0.10037841 -0.0008583266
0000a0 d7 a2 a0 b9 c1 28 85 3b 48 2e 13 3c 80 bd d8 3a
       -0.00030638903 0.004063696 0.008983202 0.0016535968
0000b0 25 c8 e9 ba f5 5b e0 3b f2 6d fb 3c e2 da 92 bd
       -0.0017836137 0.0068468996 0.030692074 -0.07170655
0000c0 47 30 23 3d 05 e4 2d bd 62 b8 05 3d a9 fd ef ba
       0.039840963 -0.042453784 0.032646544 -0.001830985
0000d0 e6 6f 97 3a c3 bf 78 bb b6 51 98 bd dc 65 e9 bc
       0.0011553734 -0.0037956096 -0.0743746 -0.028490953
0000e0 7b aa 55 bd ec 74 96 bc 52 bf a5 bc c1 57 97 bb
       -0.052164536 -0.0183663 -0.02023283 -0.0046186154
0000f0 83 73 b6 bc 32 da 6c bc 6e 6a 37 bb 41 db 02 3c
       -0.022271877 -0.014456319 -0.002798702 0.0079868445
000100 07 b8 84 bd cf 17 84 3c 88 6b 1b bc 24 33 32 bc
       -0.06480413 0.016124634 -0.009486087 -0.010876451
000110 13 56 99 bc 48 1f 97 3c 72 56 17 3d 2d a9 3f bc
       -0.018717801 0.018447533 0.036947675 -0.0116980495
000120 e3 fb f9 3c a6 04 9d bd ac 28 70 3b c9 b5 4a 3c
       0.030515617 -0.07666902 0.0036645336 0.0123724425
000130 81 27 77 bd ef 8b aa 3a d8 39 ac ba 3b c2 74 3b
       -0.06034041 0.0013011674 -0.0013139797 0.0037347216
000140 e8 71 62 3c 4f af 3b 3d 40 12 df bd c3 81 07 bd
       0.013821103 0.045821484 -0.10892153 -0.033082735
000150 a6 ab c4 bc f5 58 39 3d b7 c5 31 ba 9e 42 17 bd
       -0.02400763 0.04525085 -0.0006781476 -0.036928765
000160 14 48 86 bc 2c 65 b0 bd 7b 0f 07 bd a5 81 ed 3b
       -0.016391791 -0.08613047 -0.032973748 0.007248121
000170 21 4a 66 3b 2e c5 0c bc f4 b4 3a bc 5d 40 15 bc
       0.00351394 -0.008591933 -0.011395682 -0.009109584
000180 34 77 17 bd be c3 ab 3b dd 2d 11 3d 0b 56 66 bd
       -0.036978915 0.00524184 0.03544413 -0.0562344
000190 c0 67 4e bb 3a 95 08 bd 15 7e 07 bc fd 88 0c 3b
       -0.0031494945 -0.03334544 -0.008269806 0.0021443956
0001a0 5c ef 5d bc ce 8b 80 3d 89 18 19 3c 01 d6 86 bd
       -0.013545837 0.06276666 0.009344229 -0.06583787
0001b0 2d ed 61 bd 60 26 e3 39 f4 14 f5 3c 1d 2d 04 3d
       -0.05515783 0.00043325406 0.029917218 0.032269586
0001c0 9d b9 c2 3b a0 60 aa bc c8 0a 79 3d a2 b6 12 bd
       0.005942537 -0.020798028 0.060801297 -0.035818703
0001d0 41 77 be bc 35 af 07 bb 46 0d 57 bc 15 6f 1d bd
       -0.023250224 -0.0020703797 -0.013125723 -0.038436014
0001e0 58 57 58 bd 98 57 e4 bb 04 14 39 bb 86 a2 65 bd
       -0.052817672 -0.00696845 -0.002824069 -0.056063198
0001f0 e2 aa 4e bd f5 0d dc bc 53 71 8f bc ea 0c 91 3c
       -0.050455935 -0.026862124 -0.017510092 0.017706353
000200 3a 1e b2 bb 8b cd 1c 3e 09 f9 38 3e 11 75 db 39
       -0.005435732 0.15312783 0.1806375 0.00041858156
000210 16 43 8c bc e6 6b cd bc e3 4e 9a 39 0f 82 6a 3c
       -0.017121833 -0.025075864 0.00029431944 0.014313235
000220 4e e2 2d 3d 90 ac f7 3d 44 d4 2e 3e 9e cf 2f 3e
       0.04245215 0.120934606 0.1707316 0.17169043
000230 ad db e9 bd 38 c9 54 ba 74 1f 2b 3e 9c cc ac 3c
       -0.11418853 -0.0008117142 0.16711217 0.02109366
000240 aa 2f 14 bc 61 51 40 3e 48 0b ae 3d 1c ae 44 bd
       -0.009044567 0.18781044 0.084982455 -0.048017606
000250 4a be 4e bd 41 4c 00 3e 81 11 4f ba 79 b2 85 3c
       -0.050474443 0.12529089 -0.00078990316 0.016320454
000260 ce 98 25 3e 1d 61 c7 3a 5b e5 29 3d 3b 10 de bc
       0.16171572 0.0015211437 0.041478496 -0.027107349
000270 69 5c 26 b9 c1 50 15 bb ca 33 d0 bc 3d 6b 09 3a
       -0.00015865419 -0.0022783729 -0.02541532 0.0005242115
000280 83 4a 4b be a5 f8 e9 3c 60 c8 99 bd 72 5d 11 be
       -0.19852643 0.028560946 -0.075089216 -0.14195803
000290 74 28 32 3c 80 18 9f bd 92 df a1 3d 22 d9 01 3a
       0.010873903 -0.07768345 0.07903971 0.0004953315
0002a0 d2 54 f0 bb 37 2b 80 ba 1c 5d 5d 3c 9c e5 1d bc
       -0.00733433 -0.0009778504 0.013510969 -0.009637263
0002b0 5c f6 53 3a bc b6 50 3d 16 c4 d1 3d ac ff d1 3d
       0.00080857216 0.05095552 0.102424785 0.10253844
0002c0 0a 12 58 3d 9e c0 da bd a6 fb 9d bd 5d 36 69 39
       0.05275158 -0.1068127 -0.07714014 0.00022240863
0002d0 81 dd ee b9 dc 6c 89 bc d8 17 87 3d 1f 9b d3 3b
       -0.0004555993 -0.016775541 0.06596345 0.006457701
0002e0 cf bd ea bd f7 71 86 3d 2f 4c f7 3c 2e 36 49 3d
       -0.11461984 0.06564706 0.030187694 0.049123935
0002f0 33 2a 16 bd 2a dd 12 3d 19 5a 45 3d a3 3d e6 ba
       -0.036661338 0.03585545 0.048181627 -0.0017565977
000300 00 89 00 be 78 e8 ce bd dd ed 88 3d a8 cf 44 3d
       -0.12552261 -0.10102934 0.06685994 0.0480496
000310 d3 88 4d 3b 36 b8 b7 bd c2 37 87 bd e9 0e 01 3c
       0.0031362071 -0.08970682 -0.06602432 0.00787709
000320 6f 7f c5 bd 43 7e e5 bd 0f 38 10 3c 57 f6 2a 3d
       -0.09643447 -0.11205723 0.008802428 0.041738834
000330 bf 2b 96 bd 5b 18 e1 b9 a7 58 0a 39 3f 47 ff 3d
       -0.07332563 -0.0004293349 0.00013193731 0.12464761
000340 0a c2 24 3e d7 95 b1 3d 60 ea 1b 3d 3a 0f f1 3d
       0.16089645 0.08671158 0.038065314 0.11770482
000350 98 c4 50 3c 69 fd ae bd c7 34 1a 3b d9 51 86 bd
       0.012742184 -0.08544428 0.0023529993 -0.0655858
000360 db 3a 0a 3d b0 f7 ab bd 37 fb b5 bd 76 cf 11 bd
       0.033747535 -0.08396852 -0.08885806 -0.03559824
000370 af bd 52 ba 55 c5 64 3c cc 9f 3d bd 25 e9 bb 3d
       -0.00080391293 0.013963063 -0.046294972 0.09175328
000380 63 c6 21 3e f1 b4 85 bc 7e 82 c9 3a 8d 1e b7 3d
       0.15798335 -0.016321631 0.0015373973 0.08941374
000390 d6 1a 2e 3d 3e 26 6c 3d ee 19 8d 3c 5f be 0c 3c
       0.04250606 0.057653658 0.017224278 0.00859031
0003a0 ed 5e 0d bd 3e 42 9a bd 76 cd 6a 3c 00 0f 5c 3b
       -0.034514356 -0.07532166 0.014331212 0.0033578277
0003b0 64 8f 07 3e 61 3a b6 3c bf e0 16 3e f3 b8 3c 3e
       0.13238293 0.022244634 0.14734171 0.18429928
0003c0 b5 50 b9 3b d7 fa 0d bd b9 2c 4d bc 48 02 19 be
       0.005655373 -0.034663048 -0.01252287 -0.14942276
0003d0 a9 63 91 3d d2 87 f2 bc d1 bc d8 bb 30 37 98 3d
       0.07099087 -0.02960578 -0.0066143055 0.07432401
0003e0 77 f6 2f 3d e0 e6 f0 3c 4d 7f b3 3c d5 33 17 3d
       0.042959657 0.029406965 0.021911288 0.036914665
0003f0 62 b2 eb bc a3 bf b9 3b 20 41 c7 3c 5d 98 b0 bd
       -0.028771583 0.005668597 0.024323046 -0.08622811

action_model._continuous_distribution.mu.bias f4 [3]
000000 5a 99 25 3c 38 f2 39 be 22 83 dd 39
       0.010107363 -0.18158805 0.00042250106

exp_avg f4 [128, 1]
000000 83 7f e6 b9 13 8c 8f b8 86 72 22 b9 3a 8f b6 38
       -0.00043964022 -6.844862e-05 -0.00015492187 8.705114e-05
000010 7e 64 05 3a 4e f9 71 b9 dd 2d 20 3a 86 d6 7e b9
       0.0005088522 -0.00023076424 0.000611035 -0.00024303244
000020 50 03 50 b9 09 31 33 b9 c2 c4 0c 3a b4 b7 b5 37
       -0.0001983766 -0.00017089037 0.00053698954 2.1662425e-05
000030 e3 72 a4 b9 74 ee 07 39 2e e5 2a 39 9f fd 8b 39
       -0.00031366115 0.00012963434 0.0001629784 0.00026701108
000040 ac d1 4e b9 d0 cb 82 b9 40 19 fa 38 67 c9 35 39
       -0.000197238 -0.00024947384 0.00011925632 0.00017336533
000050 a7 50 75 3a 5d ff 4a 39 c5 9f bd 37 88 1d ac b9
       0.00093580264 0.00019359351 2.2604954e-05 -0.000328284
000060 04 bc ac b9 78 d3 14 39 9f c5 61 b9 13 aa 5d b9
       -0.0003294648 0.00014193158 -0.00021531292 -0.0002113956
000070 06 b0 1c b9 37 1f 94 ba c7 18 84 38 17 ba 57 b9
       -0.00014942893 -0.0011300807 6.2988656e-05 -0.00020573322
000080 84 1e 57 b9 de 32 7f 39 7c 31 df b8 4e 36 92 b9
       -0.00020515366 0.00024337645 -0.00010642686 -0.0002788775
000090 dc 99 a9 b9 5e f7 7a ba 6f 5f 49 b9 b9 ea 0e ba
       -0.00032348826 -0.0009573604 -0.00019204406 -0.00054518465
0000a0 f0 e8 63 39 42 ef 4f 3a 1c 95 3e b9 47 9b 84 b8
       0.00021735183 0.00079320755 -0.0001817536 -6.323173e-05
0000b0 6f 46 d6 b9 d9 42 4f 38 c5 14 79 b9 53 0e 0b b9
       -0.00040869738 4.9414903e-05 -0.00023754228 -0.00013261409
0000c0 94 25 01 39 02 6b b4 b9 5c 1b cc 39 71 83 80 b9
       0.00012316398 -0.00034412002 0.00038930296 -0.00024511994
0000d0 1a 18 6c b8 67 2e ee b9 d8 05 93 3a 3a 66 78 b9
       -5.628923e-05 -0.0004542947 0.0011216952 -0.00023689205
0000e0 b3 91 67 b9 fe 27 c4 b9 2c f8 98 3a 92 1b 7e b9
       -0.00022084154 -0.0003741383 0.0011670641 -0.00024233598
0000f0 71 a7 0b b9 32 26 bb b9 82 45 19 b9 26 2a 30 b9
       -0.0001331845 -0.00035695877 -0.0001461711 -0.0001680037
000100 ce c4 c7 3a 11 47 a7 b9 b6 a8 a9 b9 63 6a 8f b9
       0.0015241147 -0.0003190567 -0.0003235989 -0.0002735435
000110 76 b0 3a b7 de 91 78 b9 ae ec 8a b9 8c 9d 81 b9
       -1.1127549e-05 -0.00023705463 -0.0002649775 -0.0002472218
000120 e3 36 89 b9 56 f1 41 b9 6d d1 71 39 d9 08 6e b9
       -0.0002617157 -0.00018495819 0.00023061568 -0.00022700745
000130 90 63 37 38 b9 d4 ff b9 ec 75 71 39 aa 64 31 3a
       4.3723325e-05 -0.0004879588 0.0002302748 0.0006767014
000140 53 c6 f6 38 ac d6 38 39 28 08 39 39 13 25 a8 39
       0.00011767135 0.00017627579 0.00017646013 0.0003207108
000150 57 9d 67 b9 a5 14 a7 b8 5f 38 59 b8 0a f5 00 b9
       -0.0002208849 -7.967026e-05 -5.178933e-05 -0.00012298315
000160 11 25 90 b9 80 30 24 b8 20 4d d8 b7 cf 2d 77 b7
       -0.00027493437 -3.9145816e-05 -2.578512e-05 -1.4733013e-05
000170 8d cb 82 b8 bc 53 fd 38 c3 f3 57 b9 3e 4c 32 b9
       -6.236797e-05 0.00012079577 -0.00020594806 -0.00017003805
000180 f2 89 58 b9 e1 f9 75 b9 8f 6e 8c b9 76 d8 37 b9
       -0.00020650754 -0.00023458108 -0.00026785253 -0.00017532878
000190 5b 6e 22 ba 1c bb d1 b9 4d c7 82 b9 ec 30 88 ba
       -0.0006196254 -0.00040002994 -0.00024944023 -0.0010390556
0001a0 76 dc a5 b9 c7 ca 2b 39 f0 e4 2e ba f8 15 fc 38
       -0.0003163551 0.00016383371 -0.00066716876 0.000120203884
0001b0 82 e2 10 b9 87 93 ff 3a a8 3e 97 39 ac 15 83 35
       -0.00013817291 0.0019498923 0.00028847647 9.766568e-07
0001c0 06 1f 10 ba fc 9d fc b9 72 2d ed b9 11 46 a9 b9
       -0.0005497787 -0.00048182893 -0.00045238022 -0.00032286395
0001d0 f8 82 81 37 53 af be 38 97 12 47 b9 77 0c c4 38
       1.5438985e-05 9.092563e-05 -0.00018985044 9.34833e-05
0001e0 54 b0 42 3a 6c f4 e9 39 7c 15 84 b8 e6 89 49 39
       0.00074267876 0.00044623332 -6.298252e-05 0.00019220225
0001f0 76 70 19 ba 84 f1 2a 36 f5 16 a0 37 d5 5d 78 b9
       -0.0005853245 2.5472555e-06 1.9084177e-05 -0.00023686078

exp_avg_sq f4 [128, 1]
000000 cc 4e 10 36 28 fa 97 33 a8 0d 9d 34 b8 2d fb 34
       2.1503538e-06 7.0769886e-08 2.9253465e-07 4.6785658e-07
000010 d9 9e 0a 36 23 28 da 34 a4 6b 28 36 c7 c8 db 34
       2.0656064e-06 4.0634868e-07 2.5096606e-06 4.0938014e-07
000020 80 84 f3 34 a0 14 2b 34 0e fd d2 35 a0 6a ca 34
       4.5358684e-07 1.593312e-07 1.5719868e-06 3.7703012e-07
000030 5a 96 93 35 d2 68 33 34 5b b2 ec 35 e9 a3 15 35
       1.0996112e-06 1.6708807e-07 1.7635278e-06 5.5745346e-07
000040 ac 96 8f 35 d4 51 bb 34 cd 12 9d 35 5b 3f 83 34
       1.0698182e-06 3.4891002e-07 1.1702883e-06 2.444675e-07
000050 a1 ad dc 36 1e 21 8b 34 0e 5c d6 34 a5 72 65 35
       6.576724e-06 2.5914863e-07 3.9927585e-07 8.547598e-07
000060 64 10 56 35 4d 24 58 34 83 68 c4 34 73 97 25 35
       7.9745064e-07 2.0129774e-07 3.6583887e-07 6.168768e-07
000070 62 15 2c 34 da d9 14 37 7c 35 9b 34 65 71 8f 34
       1.6026527e-07 8.87221e-06 2.8909915e-07 2.671833e-07
000080 8e f1 13 35 3e fc a9 35 fb 6b b6 34 c1 0c 04 35
       5.5113276e-07 1.2664893e-06 3.3978708e-07 4.919239e-07
000090 a5 1b 46 35 0b c0 06 37 b3 58 e0 34 1d 21 e5 35
       7.3800976e-07 8.031736e-06 4.1787789e-07 1.7071467e-06
0000a0 81 19 b1 34 8a b1 a3 36 cf c6 5e 34 61 46 d0 33
       3.2987376e-07 4.878447e-06 2.0747687e-07 9.6985566e-08
0000b0 47 b9 98 35 15 c8 0b 34 f7 d8 ae 35 bb f8 8d 33
       1.1378805e-06 1.3018173e-07 1.3027155e-06 6.611068e-08
0000c0 27 08 e0 34 8e 5f 48 35 65 70 79 35 44 09 a6 34
       4.1729183e-07 7.4644856e-07 9.2923284e-07 3.092665e-07
0000d0 49 23 81 33 6e ac b5 35 4f 87 3b 37 3f 10 0a 35
       6.013449e-08 1.3535735e-06 1.1177573e-05 5.143265e-07
0000e0 c0 d1 96 35 f6 47 86 35 c5 1f 3a 37 4b b9 bc 34
       1.1236916e-06 1.0004721e-06 1.1093861e-05 3.5152547e-07
0000f0 26 79 c6 33 67 19 5d 35 58 98 19 34 97 6c 2a 35
       9.24213e-08 8.236588e-07 1.4304658e-07 6.3487954e-07
000100 77 32 a4 37 c9 a9 3f 35 f9 1e a2 35 76 1a 52 35
       1.9573823e-05 7.1400115e-07 1.2078955e-06 7.82696e-07
000110 41 e4 8c 34 93 49 a0 35 97 a0 09 35 b1 95 ac 34
       2.624311e-07 1.1942342e-06 5.1270166e-07 3.214641e-07
000120 b5 75 59 35 35 e5 58 34 34 56 1d 35 e1 12 f8 34
       8.1010086e-07 2.0199953e-07 5.86125e-07 4.6207336e-07
000130 6a 2c a2 33 25 0c cb 35 62 83 10 35 de 85 8a 36
       7.551792e-08 1.5128213e-06 5.383537e-07 4.1283047e-06
000140 b2 13 d2 33 39 67 4a 34 99 fa 8e 34 9c de 1d 35
       9.7824696e-08 1.8850268e-07 2.6631895e-07 5.8810997e-07
000150 ff 98 07 35 19 3b 7f 34 da b1 10 34 9c 4f c7 34
       5.051406e-07 2.3770225e-07 1.3475747e-07 3.7124562e-07
000160 51 3b 46 35 e3 ab 09 34 79 f5 c6 32 d6 c0 d9 33
       7.3847065e-07 1.2821651e-07 2.3161862e-08 1.01399266e-07
000170 b5 9f 0a 34 e3 7f be 34 a8 d7 c1 34 3f 2a 8b 34
       1.2910353e-07 3.5483308e-07 3.6105962e-07 2.5921506e-07
000180 9e 30 56 34 c1 17 1d 35 a6 22 cd 34 a5 09 45 34
       1.994799e-07 5.8521624e-07 3.8209436e-07 1.8350563e-07
000190 a8 a7 8b 36 3d af 8d 35 26 6d 1f 35 8d cb 03 37
       4.1620406e-06 1.055632e-06 5.939095e-07 7.855601e-06
0001a0 ab b7 08 36 e2 33 9a 35 ca 65 8b 36 4a 26 d6 34
       2.0372488e-06 1.1488994e-06 4.1543726e-06 3.9888465e-07
0001b0 4a 81 53 34 62 01 ec 37 05 8e 0c 35 bd 1f 26 32
       1.9697941e-07 2.8134036e-05 5.236073e-07 9.669688e-09
0001c0 e5 67 6d 36 a3 c1 c2 35 5b 2c 38 36 d0 e6 a9 35
       3.5376227e-06 1.4510482e-06 2.7443955e-06 1.2658656e-06
0001d0 8e 4b 76 33 7a 2d 32 35 82 9a 8a 34 5f b3 23 34
       5.7345055e-08 6.6376344e-07 2.5816922e-07 1.5245813e-07
0001e0 07 ae 75 36 bb ab a1 35 92 80 46 34 58 ab 9f 35
       3.6609142e-06 1.2045415e-06 1.848696e-07 1.1896291e-06
0001f0 68 e7 01 36 8e ef ff 31 ed 9a 84 34 9b 0a d2 34
       1.9357194e-06 7.448711e-09 2.469964e-07 3.9123265e-07

exp_avg f4 [128]
000000 a6 e4 43 ba 65 fd b0 b8 e3 e2 b0 b9 05 19 04 39
       -0.0007472731 -8.4395324e-05 -0.0003373838 0.00012597821
000010 88 5c 85 3a b6 91 c3 b9 31 27 8c 3a 33 20 05 ba
       0.0010174671 -0.0003730186 0.0010692832 -0.00050783454
000020 a8 b2 47 b9 44 11 b0 b9 10 d8 9f 3a cf 20 97 b8
       -0.00019044674 -0.000335822 0.0012195129 -7.206352e-05
000030 be ef 9e b9 46 ea b1 39 e8 5a 60 38 cc 73 08 3a
       -0.0003031473 0.00033934618 5.3490425e-05 0.00052052434
000040 1e e2 ed b8 05 96 0b ba ec 90 a1 b8 29 d9 bb 39
       -0.00011343158 -0.0005324784 -7.704072e-05 0.00035829216
000050 e6 7e e6 3a a8 d4 02 3a cc 41 76 37 b2 cd 35 ba
       0.0017585426 0.00049907947 1.4678062e-05 -0.0006935253
000060 e4 55 3b ba a0 03 bc 39 16 fd af b9 50 68 d3 b9
       -0.00071462826 0.00035860855 -0.00033567165 -0.00040322775
000070 f9 b3 b4 b9 71 bc 06 bb f5 bc 69 b8 d6 26 eb b9
       -0.00034466365 -0.0020559097 -5.572751e-05 -0.00044851628
000080 59 9f cc b9 07 38 b7 39 fc f8 af b9 c8 08 30 ba
       -0.00039028635 0.00034946224 -0.0003356411 -0.00067151757
000090 fe 1e 38 ba aa 9a d7 ba a3 70 6c b9 78 94 96 ba
       -0.0007023661 -0.0016449292 -0.00022548674 -0.0011488339
0000a0 e8 62 1d 3a ba bd bb 3a 10 da ad b9 b6 a6 e8 b8
       0.0006003813 0.0014323511 -0.000331596 -0.000110936744
0000b0 fb 08 60 ba e8 a8 81 38 be 62 c3 b9 c2 b8 93 b9
       -0.000854626 6.1826606e-05 -0.00037266867 -0.0002817568
0000c0 75 2a bb 39 67 d9 3b ba 6c a2 67 3a 50 c0 06 ba
       0.00035699052 -0.00071658794 0.00088361534 -0.0005140351
0000d0 b2 9d 1b b8 d9 4f 77 ba ba b0 03 3b 4a c5 1a ba
       -3.7101745e-05 -0.00094342005 0.002009435 -0.0005904032
0000e0 d6 52 97 b9 18 50 47 ba 68 00 0a 3b ac 3f 13 ba
       -0.00028862682 -0.00076031825 0.002105737 -0.0005617093
0000f0 eb fc 8e b9 88 44 23 ba 50 45 b2 b9 7a d9 52 b9
       -0.0002727279 -0.00062281685 -0.00034002448 -0.00020108177
000100 b2 db 2f 3b b6 3f 41 ba 40 86 ed b9 92 ab e1 b9
       0.002683383 -0.00073718594 -0.00045304187 -0.00043043174
000110 74 3d 7d b8 96 64 bc b9 a7 9c ec b9 28 3a 09 ba
       -6.0377133e-05 -0.00035933097 -0.00045130143 -0.0005234801
000120 b0 8e 22 ba ac ce d3 b9 a2 ad 15 3a 78 44 f8 b9
       -0.00062010717 -0.0004039904 0.0005709772 -0.0004735326
000130 fa 5d fc 38 ca 25 89 ba 1c 77 0b 3a 37 b8 9e 3a
       0.00012033801 -0.0010463533 0.0005320178 0.0012109344
000140 e6 28 6a 39 7d 5a b1 39 f7 2e fe 39 70 db 4c 3a
       0.00022331215 0.0003382749 0.00048481647 0.0007814681
000150 c8 e6 01 ba 5b e1 03 39 bc 01 27 b7 77 7f 13 b9
       -0.00049553486 0.00012577085 -9.9543795e-06 -0.00014066497
000160 f4 7f 13 ba c0 2c 31 b7 00 19 6e b6 d0 97 d5 37
       -0.00056266715 -1.0560441e-05 -3.5479316e-06 2.5462272e-05
000170 51 59 db b8 fe 99 ac 38 4c fb f3 b9 8a a0 9d b9
       -0.0001045937 8.2302824e-05 -0.00046535803 -0.00030064984
000180 a9 54 eb b9 b7 4f f8 b9 da fd 04 ba f5 c7 e5 b9
       -0.0004488577 -0.00047361638 -0.0005073227 -0.00043827263
000190 5d ac 51 ba 32 d4 59 ba 19 48 cf b9 bc 13 fd ba
       -0.00079984014 -0.00083095126 -0.00039535834 -0.001930825
0001a0 50 7b 86 b9 80 61 71 37 ad 10 84 ba d1 f9 1a 39
       -0.00025650347 1.438742e-05 -0.001007577 0.00014779648
0001b0 b7 18 99 b9 80 83 5b 3b 48 4e 3e 3a 93 f2 3d 38
       -0.00029200848 0.0033495128 0.00072595896 4.5287026e-05
0001c0 f0 7b 4b ba ca 27 86 ba 4c 69 25 ba a2 7d 1e ba
       -0.00077623036 -0.0010235247 -0.0006309941 -0.00060459424
0001d0 d4 aa a5 b6 86 b6 33 38 f7 a2 e9 b9 e2 2e 75 39
       -4.93727e-06 4.2846914e-05 -0.0004456264 0.00023382486
0001e0 0e 18 ca 3a 02 74 8d 3a b3 51 1c b9 94 56 1d b8
       0.0015418546 0.0010792019 -0.00014907755 -3.751235e-05
0001f0 fc c5 91 ba 43 2e b5 b7 dc 0b bc b8 f2 bf 1b ba
       -0.0011121626 -2.1598424e-05 -8.9667476e-05 -0.0005941383

exp_avg_sq f4 [128]
000000 0c b0 a8 36 43 46 35 34 3f 78 85 35 b2 2c 9a 34
       5.0272847e-06 1.68825e-07 9.944268e-07 2.8717255e-07
000010 31 16 0c 37 b7 a7 70 35 df a6 05 37 a5 47 c8 35
       8.349817e-06 8.9651024e-07 7.9662705e-06 1.4922012e-06
000020 57 44 e2 34 fb d2 23 35 29 d7 00 37 96 24 21 34
       4.2145504e-07 6.102925e-07 7.67949e-06 1.5007603e-07
000030 3a fc d9 35 60 b2 85 35 07 f7 63 35 ae 80 0a 36
       1.6241167e-06 9.961186e-07 8.492356e-07 2.0638504e-06
000040 02 90 b2 35 a4 a1 a1 35 37 1a a7 34 e9 b3 4b 35
       1.3303945e-06 1.2042478e-06 3.1125248e-07 7.5885197e-07
000050 ed b2 c9 37 57 98 a1 35 bf fe 3e 34 e3 ad 80 36
       2.4044386e-05 1.2039771e-06 1.7787805e-07 3.8349403e-06
000060 5d 84 54 36 16 35 86 35 42 e9 94 35 11 65 03 36
       3.1667507e-06 9.999228e-07 1.1094746e-06 1.957935e-06
000070 45 d6 24 35 f6 6f 02 38 a1 72 fc 33 97 3d a8 35
       6.1406564e-07 3.1098687e-05 1.1755515e-07 1.25349e-06
000080 a1 1a c7 35 11 eb d6 35 95 9c 34 35 1d cb 16 36
       1.4834405e-06 1.6012656e-06 6.728308e-07 2.246997e-06
000090 8e d3 38 36 8b 5b c4 37 61 ef 85 35 25 b6 00 37
       2.7541278e-06 2.3407649e-05 9.978941e-07 7.671803e-06
0000a0 a8 23 e6 35 88 68 78 37 f7 95 4e 35 b2 34 a2 34
       1.7146713e-06 1.480629e-05 7.695921e-07 3.0213192e-07
0000b0 e4 27 8a 36 29 98 ba 33 3b ed 12 36 25 0c 98 34
       4.1173644e-06 8.688978e-08 2.1893782e-06 2.8321043e-07
0000c0 5b 70 e2 35 74 25 64 36 2c 14 ac 36 1d d0 95 35
       1.6871012e-06 3.3996448e-06 5.1283478e-06 1.1161934e-06
0000d0 58 30 0f 34 2c a8 c9 36 81 33 15 38 4b 9f 14 36
       1.33355e-07 6.0098446e-06 3.5572335e-05 2.214644e-06
0000e0 a2 ae b9 35 0b 81 92 36 ef e8 11 38 c1 67 c7 35
       1.3834399e-06 4.3661616e-06 3.478763e-05 1.4856852e-06
0000f0 9a 3a 9a 34 09 28 40 36 a7 64 06 35 6b 6b 40 35
       2.8727374e-07 2.8633533e-06 5.006536e-07 7.168189e-07
000100 86 a3 82 38 13 ea 63 36 49 92 09 36 1f 3c 0a 36
       6.229342e-05 3.3961885e-06 2.049974e-06 2.0598598e-06
000110 ac d2 46 34 5f b9 eb 35 eb f8 e4 35 b6 0d c1 35
       1.8516829e-07 1.7562814e-06 1.7059768e-06 1.4383611e-06
000120 3e 9d 4b 36 61 be 48 35 2e 0e 01 36 0c 97 02 36
       3.0340884e-06 7.4782844e-07 1.9230752e-06 1.945943e-06
000130 e8 58 59 34 8b d5 e6 36 59 a7 2d 36 b9 e9 51 37
       2.0242044e-07 6.879394e-06 2.5876418e-06 1.2511789e-05
000140 01 6d 9a 34 16 be 22 35 84 49 d4 35 21 9b 44 36
       2.8764046e-07 6.0626314e-07 1.5816627e-06 2.9296573e-06
000150 bc 2f 1d 36 3d b1 3b 34 82 ab d7 34 3a a8 ca 34
       2.3422608e-06 1.7480211e-07 4.017166e-07 3.7747833e-07
000160 04 d6 48 36 6a 46 a6 33 bc 4c 5b 33 bf 03 0d 35
       2.9926896e-06 7.7427856e-08 5.10597e-08 5.2532044e-07
000170 b1 e9 b1 34 aa 60 99 34 fd 93 cd 35 6e 3f 85 35
       3.3138852e-07 2.8568803e-07 1.531676e-06 9.927733e-07
000180 ba 59 81 35 93 ca 10 36 fd 9c 8f 35 49 7a 63 35
       9.637363e-07 2.1575586e-06 1.070002e-06 8.474204e-07
000190 f6 55 cb 36 1d e3 87 36 fb 8a b7 35 e6 59 eb 37
       6.0598786e-06 4.049753e-06 1.3675011e-06 2.8056045e-05
0001a0 65 ec 09 36 31 82 9a 34 27 dd 1d 37 1f e3 29 35
       2.055219e-06 2.8779462e-07 9.40942e-06 6.328791e-07
0001b0 71 b8 5e 35 92 06 ba 38 83 19 45 36 0f 9f 66 33
       8.296984e-07 8.870395e-05 2.9370137e-06 5.369571e-08
0001c0 ed 75 d6 36 a7 0e e2 36 52 39 9d 36 41 79 43 36
       6.3914254e-06 6.7370306e-06 4.6856376e-06 2.9127843e-06
0001d0 4d 92 17 34 42 b6 20 35 af b0 8e 35 77 e3 48 35
       1.4116195e-07 5.9869865e-07 1.0631246e-06 7.483681e-07
0001e0 86 ae 83 37 18 1e a4 36 13 7c e3 34 49 0a a2 34
       1.5697686e-05 4.8910842e-06 4.237232e-07 3.0182335e-07
0001f0 f8 e4 07 37 c7 d8 97 32 00 bc 65 34 ea dc 00 36
       8.099938e-06 1.7677293e-08 2.1395681e-07 1.9202075e-06

exp_avg f4 [128, 128]
000000 96 1c af b6 88 69 1d 36 ec 93 23 37 b4 86 e5 b6
       -5.2187343e-06 2.345625e-06 9.749998e-06 -6.8404133e-06
000010 01 81 6c 36 9b 98 68 b6 1c b7 6f 35 32 a7 dc 36
       3.524183e-06 -3.4659522e-06 8.93009e-07 6.575975e-06
000020 fd c9 17 b7 12 fd d8 36 85 e1 31 37 74 08 f1 b6
       -9.04733e-06 6.466763e-06 1.060253e-05 -7.1833438e-06
000030 e6 15 26 b7 9f d2 91 36 b3 d7 74 b7 7d d7 58 b6
       -9.89947e-06 4.3458563e-06 -1.4593755e-05 -3.231194e-06
000040 c2 dd 94 b7 56 18 22 37 5c 10 7b b7 9e c6 99 37
       -1.7746239e-05 9.661619e-06 -1.4964575e-05 1.833151e-05
000050 b3 d3 98 36 f6 ae 45 37 59 00 ae b7 b8 50 1d b5
       4.554598e-06 1.1782851e-05 -2.0742578e-05 -5.860452e-07
000060 31 14 9d 36 a7 c3 a0 37 54 be 2a b7 3f 7f 8f 37
       4.681315e-06 1.9164594e-05 -1.0177104e-05 1.7106182e-05
000070 f6 65 44 37 50 7a 62 b6 93 b8 79 b7 9c 1e 53 35
       1.170625e-05 -3.374782e-06 -1.4884531e-05 7.864817e-07
000080 15 c7 0e b7 a3 00 d4 b5 c1 4b 0e b7 2a 86 61 36
       -8.510212e-06 -1.5795416e-06 -8.481497e-06 3.3605706e-06
000090 28 bc 10 37 f6 4d 75 b6 6b 74 76 b7 68 d1 00 35
       8.626877e-06 -3.6553224e-06 -1.4689848e-05 4.798844e-07
0000a0 1d a9 f1 36 b9 5b 07 36 2a 14 b8 35 26 60 44 36
       7.202047e-06 2.0169957e-06 1.3714937e-06 2.9262242e-06
0000b0 3b b0 d9 36 6d 35 95 b7 10 37 bf b6 d7 46 92 36
       6.48762e-06 -1.7787062e-05 -5.6986537e-06 4.359386e-06
0000c0 0d a2 51 b6 10 63 b9 b3 56 2a 01 b6 17 dd bf 36
       -3.1237753e-06 -8.632753e-08 -1.924714e-06 5.717982e-06
0000d0 69 c0 21 37 68 84 d5 b4 b9 07 92 36 c8 a4 ee 36
       9.641147e-06 -3.977068e-07 4.352038e-06 7.112136e-06
0000e0 78 e4 e9 b6 e4 dd 88 b4 00 c4 89 36 eb f7 98 36
       -6.9705384e-06 -2.549342e-07 4.1057356e-06 4.5588145e-06
0000f0 29 68 4d 37 b8 be 65 b6 1b d8 6b 37 68 1f 31 b7
       1.2243204e-05 -3.4234672e-06 1.40574075e-05 -1.05573345e-05
000100 f1 e8 a0 36 8c 53 85 35 c9 31 b1 b6 0f dd 23 b7
       4.7954895e-06 9.933588e-07 -5.280807e-06 -9.767026e-06
000110 50 da 93 b7 1e 58 1b b7 2b f8 d1 b6 66 41 32 b6
       -1.7625425e-05 -9.259236e-06 -6.257576e-06 -2.6562134e-06
000120 fa eb 5d 37 8f d0 f2 36 b3 e1 f5 37 bf 54 ed 35
       1.3227569e-05 7.2364414e-06 2.9311375e-05 1.768254e-06
000130 5e 01 84 37 b8 a2 e7 b4 4d eb c9 36 be d4 26 36
       1.5736263e-05 -4.3145496e-07 6.0176594e-06 2.485976e-06
000140 6c 03 ab 37 5f bc 62 37 36 d6 b9 36 b9 a0 78 37
       2.0386382e-05 1.3514508e-05 5.538367e-06 1.4819373e-05
000150 fe 56 14 35 61 02 37 b7 b1 b5 1f 36 07 06 48 b7
       5.5260887e-07 -1.0908204e-05 2.3798605e-06 -1.1922332e-05
000160 b0 00 2c 36 3f 5b ae b6 38 c8 ed 36 60 28 19 37
       2.5630397e-06 -5.1962265e-06 7.086459e-06 9.128911e-06
000170 9b 61 31 37 dc 86 85 b7 26 f5 81 36 a2 a0 3e b7
       1.0572748e-05 -1.5917634e-05 3.8730386e-06 -1.1362283e-05
000180 ea 73 09 35 4b e5 c9 36 1a ee 3b 37 f7 d3 a2 36
       5.1205154e-07 6.01696e-06 1.1201506e-05 4.852652e-06
000190 1c 7b c2 b6 b8 cb b9 36 37 9a da b6 1c d8 71 b6
       -5.7959824e-06 5.5371456e-06 -6.5148593e-06 -3.603759e-06
0001a0 05 b2 6d b7 8b 51 22 b7 49 8a 92 b6 4f 09 d7 b7
       -1.4167749e-05 -9.674938e-06 -4.3672376e-06 -2.5634332e-05
0001b0 dd ee 29 b7 58 9d 8d 36 00 70 0a 32 7e 6e 20 37
       -1.01288e-05 4.2204447e-06 8.058123e-09 9.562469e-06
0001c0 9a c2 93 b6 60 47 5b b5 9a 20 7c b6 cd 11 c0 b6
       -4.403596e-06 -8.168772e-07 -3.7569903e-06 -5.724118e-06
0001d0 3e ae 41 37 4a 4b a5 b6 64 d7 03 37 68 66 57 36
       1.1544265e-05 -4.926148e-06 7.858358e-06 3.2097105e-06
0001e0 48 14 43 36 fe fa 10 38 a9 f4 83 b7 b2 84 b9 b7
       2.906907e-06 3.456603e-05 -1.5730346e-05 -2.211551e-05
0001f0 15 22 db b5 d1 b4 4c 33 b8 59 65 b7 ac 97 05 36
       -1.6326691e-06 4.7661903e-08 -1.3670353e-05 1.990683e-06
000200 ba 04 53 b6 2f fc e1 36 d2 9b 10 38 b5 59 85 b7
       -3.1444201e-06 6.7348806e-06 3.4477394e-05 -1.5896609e-05
000210 64 01 89 35 2e 71 97 b6 34 53 dd b6 42 eb b2 37
       1.02077e-06 -4.5133265e-06 -6.5959994e-06 2.1328804e-05
000220 2b 30 2d b7 f2 62 a3 37 a5 41 71 37 a3 74 89 b7
       -1.03228185e-05 1.947719e-05 1.4380003e-05 -1.6385986e-05
000230 73 2a 3f b7 54 e9 b7 36 9b 00 b9 b7 d6 9f 69 b7
       -1.1394371e-05 5.480988e-06 -2.2054e-05 -1.3925097e-05
000240 44 35 8c b7 22 73 0c 38 4e 28 bf b7 ee e7 62 38
       -1.6714104e-05 3.3485827e-05 -2.2787743e-05 5.40986e-05
000250 00 b0 57 34 e9 97 c4 37 5d c4 b5 b7 f2 e4 95 36
       2.0087464e-07 2.343576e-05 -2.166832e-05 4.467199e-06
000260 b7 b5 8a 37 df 43 43 38 60 3a 52 b7 0f b6 77 38
       1.65355e-05 4.6554833e-05 -1.2530567e-05 5.9058944e-05
000270 75 e0 0b 38 c0 86 e0 35 f0 28 b5 b7 3a 32 ef 36
       3.3349224e-05 1.6728518e-06 -2.1595944e-05 7.128602e-06
000280 f5 52 19 b7 aa 76 f2 b6 51 c1 7d b7 e4 6e 82 37
       -9.138826e-06 -7.2259763e-06 -1.5124985e-05 1.5548845e-05
000290 cc 7f 02 38 20 1b 3b 35 b8 69 91 b7 a0 31 ea 36
       3.1113435e-05 6.97024e-07 -1.7334576e-05 6.9795205e-06
0002a0 0a 69 28 37 5d ff b3 b6 f5 b1 c4 36 30 23 13 37
       1.0038037e-05 -5.364344e-06 5.861972e-06 8.7700755e-06
0002b0 18 83 cb 37 f5 e5 d1 b7 3a 68 af b6 39 dd 6f 37
       2.4260531e-05 -2.5021824e-05 -5.22754e-06 1.42970175e-05
0002c0 ed ab 54 b7 f0 fe a4 36 71 ed 50 b7 90 b8 8a 37
       -1.2676214e-05 4.9172595e-06 -1.245305e-05 1.6536826e-05
0002d0 2d 49 d9 37 d6 0c af 36 80 21 19 b4 72 ce e1 37
       2.5902491e-05 5.2169007e-06 -1.4261423e-07 2.6918224e-05
0002e0 8e a2 fa b6 48 89 a3 36 f0 ea 2c b6 76 3f 92 37
       -7.4695045e-06 4.87376e-06 -2.576675e-06 1.7434108e-05
0002f0 9f dc 10 38 45 3e 23 b6 dd a8 3e 38 67 8d 58 b7
       3.4537745e-05 -2.4325138e-06 4.5456796e-05 -1.2907526e-05
000300 c0 5b 0e b5 9c fc 18 37 84 e8 8e b6 5e 3b 35 b7
       -5.3032636e-07 9.118721e-06 -4.258998e-06 -1.0802263e-05
000310 72 f6 9d b7 55 a8 2f b7 63 6c f5 b6 ac 2b 26 b6
       -1.8830619e-05 -1.0470006e-05 -7.314187e-06 -2.4761348e-06
000320 f9 f5 3d 38 66 c7 c6 37 27 51 b6 38 a9 f4 07 37
       4.529019e-05 2.3696291e-05 8.693552e-05 8.103591e-06
000330 58 b3 4b 38 d0 8e dc 36 5b 3e f5 36 4b 48 b1 b6
       4.8566e-05 6.5731365e-06 7.308828e-06 -5.283427e-06
000340 87 da 7f 38 9c b4 18 38 ba 3c ca 36 cb b2 eb 37
       6.1000257e-05 3.640783e-05 6.0271386e-06 2.809744e-05
000350 b5 0d d7 36 b5 0c a5 b7 22 ae c0 36 8d 5d 5b b7
       6.409095e-06 -1.967545e-05 5.7423176e-06 -1.3075199e-05
000360 8e fb 2b 37 7a 0f 45 b7 2c 17 8d 37 96 53 74 37
       1.0250964e-05 -1.1745718e-05 1.68193e-05 1.4562995e-05
000370 fc 80 fa 37 7f 34 c5 b7 4c c3 72 37 34 31 64 b7
       2.9862385e-05 -2.3508675e-05 1.4469795e-05 -1.3601315e-05
000380 7a c1 97 36 a2 3d 94 37 7a b1 10 38 36 cf 9d 37
       4.5226743e-06 1.7671675e-05 3.4497563e-05 1.8812349e-05
000390 31 27 a0 b6 1c 1d ad 37 60 54 08 b7 20 7c b1 35
       -4.772934e-06 2.0636762e-05 -8.125877e-06 1.3223653e-06
0003a0 e2 57 75 b7 58 7b 89 b7 e0 9e 74 b5 7c 9f d4 b7
       -1.46236e-05 -1.6389109e-05 -9.1128277e-07 -2.5346635e-05
0003b0 b5 47 65 b7 0c 4f 08 b6 6e 50 01 b7 59 8c d1 37
       -1.3666159e-05 -2.031159e-06 -7.707726e-06 2.4980096e-05
0003c0 d4 8e c6 b5 f8 7a 97 36 28 45 91 b5 27 46 8b b6
       -1.4793718e-06 4.514466e-06 -1.0823469e-06 -4.1506896e-06
0003d0 9d e6 1a 38 80 b5 44 b7 6a f3 d2 37 76 cc 76 36
       3.6931237e-05 -1.1724769e-05 2.51473e-05 3.6775868e-06
0003e0 9e e4 c6 b6 b6 6e cd 38 7c 04 a1 b7 9d ac c2 b7
       -5.9274744e-06 9.795783e-05 -1.9194784e-05 -2.3206981e-05
0003f0 2c fc d8 35 c7 cf 5b 33 5e 20 a5 b7 18 14 4a 37
       1.6166646e-06 5.1178883e-08 -1.9684605e-05 1.2044817e-05
