TWP_2/results/StaticDragDrop24/RobotArm.onnx (onnx, 76124 bytes, 7 tensors)

network_body._body_endoder.seq_layers.0.weight f4 [128, 7]
000000 22 17 c5 3e c6 81 0f be 28 cd e2 3e 61 43 04 be
       0.3849421 -0.14014348 0.44297147 -0.12916328
000010 16 06 20 bf 25 a0 01 3c af 64 f4 bd 28 9f 60 3f
       -0.62509286 0.007911717 -0.11933266 0.87742853
000020 3d 7c ce 3e 22 e4 89 be 53 08 31 3e db c2 36 3f
       0.4032916 -0.26931864 0.17288332 0.71391076
000030 eb c2 8c 3e 64 28 1a 3e 05 c4 13 3f 9a 4e e4 bd
       0.2749246 0.1505447 0.5772098 -0.111478046
000040 47 2e e0 3e 01 7f 30 3f 85 04 ba 3c a9 bc 8e be
       0.43785307 0.6894379 0.022707233 -0.2787831
000050 bb 2e 9a 3e 28 95 c3 be 16 ff 22 bf 65 4b b2 bd
       0.30113778 -0.38199735 -0.6367048 -0.087057866
000060 09 f0 44 bd 7c bd b4 3e d4 40 17 bf 37 7c 38 3e
       -0.048080478 0.35300815 -0.59083295 0.18016134
000070 d0 db 74 3f 2a 9e e1 bd 10 13 3e be 6c b0 cf 3d
       0.9564791 -0.110164955 -0.1856196 0.10141072
000080 a1 cd 3f bf 25 59 c0 3e 09 4f f4 bb 7d 11 15 bf
       -0.7492314 0.37568012 -0.007455711 -0.5822981
000090 97 5f 68 3d 3f 0d f3 3e dd 14 2c 3f 84 74 ef bd
       0.056731787 0.47471043 0.67219335 -0.116921455
0000a0 2f b0 1b 3e 1e 13 c2 3d dd aa 12 3c 43 01 a1 3e
       0.15203927 0.094763026 0.00895187 0.31446275
0000b0 94 3f e8 be 6c b4 0c 3f 3f 56 b8 3e 01 f7 c0 3d
       -0.45361006 0.549628 0.360033 0.09422112
0000c0 26 2d 3d bd 17 ae 68 be 2e 54 17 be ce 7f aa 3e
       -0.046185635 -0.2272266 -0.14778206 0.33300632
0000d0 36 e5 08 be 0f a1 0f be 04 10 65 3d a6 dc b4 3e
       -0.13368687 -0.14026283 0.055923477 0.3532459
0000e0 93 c5 06 3e 03 2f 68 be 16 9f 2f bf 07 8d f9 3d
       0.13161306 -0.22674184 -0.6860212 0.12185102
0000f0 80 d2 c7 be f2 8d 29 3d 00 f9 5b be 73 d3 f3 bd
       -0.39027786 0.041395135 -0.21481705 -0.11905565
000100 c4 a2 4a 3e d1 d6 89 3d 1f dd a9 3e 23 18 90 be
       0.19788653 0.06730426 0.33176515 -0.28143415
000110 f4 df 64 3e dd 07 ad 3e 8b 20 23 3f 16 8a 87 be
       0.22351056 0.33795062 0.6372153 -0.2647254
000120 76 80 76 bd b6 58 dc 3e f3 25 12 be 32 31 59 3e
       -0.060181104 0.4303643 -0.14272289 0.21210173
000130 60 36 51 3e 3a 8a 12 bf fa 9a e1 be 7b 80 27 3f
       0.20430899 -0.57242167 -0.4406355 0.6543042
000140 26 58 a2 be fe 58 a3 3e c2 e1 29 3f 78 24 8d 3e
       -0.31707877 0.31903833 0.66360104 0.27566886
000150 51 d9 5d be 20 c2 f4 be 72 41 20 3e d0 67 2b 3f
       -0.21664931 -0.47804356 0.15649965 0.6695528
000160 5b bd b2 bc 9d f1 1d be 6f de db 3e c7 c7 41 bf
       -0.021818807 -0.154242 0.4294314 -0.7569546
000170 3d d6 51 bd af f4 a6 be 89 ed 9c be 2b e8 a6 be
       -0.051229704 -0.32608554 -0.30649975 -0.32599005
000180 58 fe a3 3e 9c 62 22 3e f2 01 b2 3e cf a5 80 be
       0.32029986 0.15857929 0.3476711 -0.25126502
000190 d9 4a 22 be e1 0d 1f 3e d3 0f 36 3e 53 ee 82 be
       -0.15848865 0.15532638 0.17779474 -0.25572452
0001a0 75 ac 34 3e 96 b9 81 be 6f 87 2e 3e c4 cd 87 3e
       0.17643912 -0.25336903 0.17043851 0.26524174
0001b0 2d 6b 46 be a6 2e 53 3d 13 5b 7e 3e 6e 3b c7 be
       -0.19376822 0.05155816 0.2483943 -0.3891253
0001c0 38 5c 0b bf 99 0a 3a be bb 57 cd 3d c1 c6 8f 3e
       -0.5443759 -0.18168105 0.10026499 0.28081325
0001d0 9c 4f e6 be 5f e7 ea 3e af 7c f0 3d 54 43 97 be
       -0.44982612 0.45879647 0.117425315 -0.29543555
0001e0 a9 fd 65 be 93 ee c1 3d 6f 32 e6 bd d0 b1 fa 3e
       -0.22460045 0.094693325 -0.11240088 0.48963785
0001f0 25 77 0c bf b9 65 05 bf 6d 87 ae be e0 f7 8e 3e
       -0.548693 -0.5210834 -0.34087697 0.2792349
000200 57 36 0b 3e e5 8f 85 3e 09 4b 15 bf 94 15 b4 be
       0.13594948 0.26086345 -0.5831762 -0.35172713
000210 cb 36 76 bd ba 1f 2b be 2d 23 79 3e ff 85 a3 3e
       -0.06011085 -0.16711321 0.24329825 0.31938168
000220 5a 30 43 bf 3a 22 0b bf 1c d6 16 3f 9d 8f 74 3e
       -0.76245654 -0.543491 0.58920455 0.23882909
000230 53 98 1e 3f e4 8b c7 3c 60 d6 0d 3f 1b aa 70 bf
       0.6195118 0.024358697 0.55405235 -0.9400956
000240 09 2e 1a 3e 4e be 38 3f 54 f8 aa 3e 62 2d a5 be
       0.15056624 0.7216538 0.33392584 -0.32261187
000250 b0 06 39 3f 2d 53 b5 3d 5e 8e e7 be 26 5c d4 bd
       0.7227583 0.08853755 -0.45225805 -0.103691384
000260 4c 82 2c 3e 91 63 4d 3e 8a 63 d7 3e 22 d5 2b bf
       0.1684658 0.20057513 0.4206813 -0.6712209
000270 cb 82 57 3e 99 92 19 3f f2 81 1b be 5a 36 fd 3c
       0.21045987 0.59989315 -0.15186289 0.030909706
000280 b1 5d 03 3f d6 11 0a bf 38 ad 32 3f 07 b1 ca bd
       0.51314837 -0.53933465 0.6979556 -0.098970465
000290 f0 cd f3 3e e0 ef b8 3e 5a dc 7b be f7 7a b5 3e
       0.47618055 0.3612051 -0.24595776 0.35445377
0002a0 59 7a f2 be c2 d9 86 be e9 8b 34 bf 36 9e ee 3d
       -0.4735897 -0.2633801 -0.70525986 0.1165127
0002b0 a9 3d 9d 3d ac 50 b5 3e ef 68 a1 3e 94 2f 3d 3e
       0.07677776 0.3541311 0.3152537 0.18475181
0002c0 d1 77 44 3d 68 dd a5 bd 73 a0 97 be 98 87 f5 3d
       0.04796583 -0.080988705 -0.296146 0.11988753
0002d0 13 f2 71 3d 95 84 0b bf e2 2b 14 bb d3 ff 16 3f
       0.05906875 -0.5449918 -0.0022609164 0.58984107
0002e0 8d 7f 90 be 36 ef c9 3d 73 e0 08 bd 0c 04 5e be
       -0.28222314 0.09860079 -0.033417176 -0.21681231
0002f0 a2 49 f8 3d 1c e8 3a bf 94 87 dc be 42 92 dc 3e
       0.12123419 -0.7301042 -0.43072188 0.43080336
000300 dc 51 c0 3d b7 bf 1e 3b 5a f5 87 bd 2f 26 6c 3c
       0.093906134 0.0024223158 -0.06638594 0.014413401
000310 59 fe 1b 3e fc cf 0b be 3a 81 51 bc a8 f0 8a 38
       0.15233745 -0.13653558 -0.012787158 6.6251785e-05
000320 a1 3f 88 bd 9a 1b d1 3e bd 38 5b be 2d 15 85 be
       -0.06652761 0.4084137 -0.21408363 -0.25992718
000330 b3 31 6e 3d 66 dd f6 be d8 13 54 3e 60 4f 2f 3d
       0.058152866 -0.4821579 0.20710695 0.042800307
000340 71 cf 18 be 8a 3e cd be d8 85 c4 3e bd c0 99 be
       -0.14922883 -0.40086776 0.38383365 -0.3002986
000350 af 82 28 be 1f 35 13 bf 7f 25 1f 3f b1 a1 08 3f
       -0.16456102 -0.5750293 0.6216659 0.5337172
000360 4a ac 99 bb 53 a9 9e 3d ed b0 66 bd de 5f 51 bf
       -0.004689728 0.0774714 -0.056321073 -0.81786907
000370 04 7c f1 3e 38 ae 08 3e 6f 7a b3 bd c6 fc a4 3e
       0.4716493 0.13347709 -0.08763587 0.322241
000380 11 dc 50 3e 3b 9d b0 bd e6 84 24 3e 67 1e 22 3d
       0.20396449 -0.08623739 0.16066322 0.039579775
000390 93 64 0f 3e 4e 2f 49 3e 53 8c c7 3d 41 e2 4f 3b
       0.1400321 0.19646952 0.097435616 0.0031720551
0003a0 6d 77 cb be d5 f1 01 3f a4 9e 29 3f fe cf d5 3e
       -0.39739552 0.5075963 0.6625769 0.41760248
0003b0 c7 b5 8a be c8 7e 9d bd 39 fa 02 3e cb 76 c8 3e
       -0.2709181 -0.07690197 0.12790765 0.39153132
0003c0 a1 fd e5 be 14 d0 5b 3e b7 a9 54 3e 14 0b 09 bd
       -0.44920066 0.21466094 0.20767866 -0.03345783
0003d0 15 cf 0a be ec 42 cd be a9 c5 d0 be d6 9d 0e be
       -0.13555558 -0.4009012 -0.40775803 -0.13927397
0003e0 73 f0 95 3d 47 f0 e6 bd df 23 3a bc a9 40 bc 3e
       0.07321253 -0.11276298 -0.011361091 0.36768082
0003f0 9c 52 03 3f b5 b8 fc 3d 32 38 85 3d b6 be a7 3e
       0.51297927 0.123399176 0.06504859 0.32762688

network_body._body_endoder.seq_layers.0.bias f4 [128]
000000 39 f0 2c bb 1c 2b 95 bc 99 4a 84 bc 07 3e af bb
       -0.00263883 -0.018209033 -0.016148852 -0.0053479704
000010 26 77 9b bc 48 ab 8e 38 19 b6 4a bc df 7b d2 ba
       -0.018977713 6.802991e-05 -0.012372517 -0.0016058645
000020 14 eb 7d bc d2 a5 c5 3a 60 e7 0a bd 9a 18 3c bb
       -0.0154979415 0.0015079326 -0.033912063 -0.0028701187
000030 be 15 6e b9 5e e8 c2 bc 28 8e d1 ba 90 05 20 3c
       -0.00022705548 -0.023792442 -0.00159878 0.009766951
000040 23 9f 55 bc 6f 2d 91 3c fe 65 6d bb bc f0 29 bc
       -0.013038429 0.01772186 -0.0036224122 -0.010372337
000050 c9 52 41 bc 21 39 7c bc 92 ad a8 bc 7f ab 8c bb
       -0.011799523 -0.01539448 -0.020590577 -0.004292905
000060 47 11 b4 bc 86 c1 69 bc 37 9d 9c 3a e5 95 17 bc
       -0.021980895 -0.014267331 0.0011948709 -0.009252046
000070 43 de 28 bd da 7e 65 3b 85 0c 8d 3c 66 0a 9c bb
       -0.04122759 0.0035018236 0.017217884 -0.004761982
000080 d5 d8 79 b9 a1 e3 cb bb 77 ee ae bb 0c 5d a0 3c
       -0.00023827267 -0.006222204 -0.005338486 0.019575618
000090 c6 5e bb 3c 78 66 17 bd 42 dc 12 3d 55 1a 97 32
       0.02287234 -0.036962956 0.035854585 1.7590688e-08
0000a0 69 4e ce bb 1b ef 9a bb f0 1e ef 3b ed 36 8c 3b
       -0.0062959683 -0.0047282106 0.007297389 0.0042790086
0000b0 e4 b7 ae bb 31 e0 78 bc 7b 5f 0c bc a5 9b 3c bc
       -0.00533198 -0.01519017 -0.008567686 -0.011511718
0000c0 ed 52 55 3b a5 bf ee bc 18 9d 5f 3c 1d 8e 49 39
       0.0032550648 -0.029144118 0.013648294 0.00019221795
0000d0 25 03 7c 3a a9 76 d9 bc 6b 83 eb 3c da 87 2c 3c
       0.00096135057 -0.02654584 0.028749188 0.010530436
0000e0 42 4c 95 3c 06 ef 5a bb 84 63 36 3b c3 31 e1 bb
       0.01822484 -0.003340663 0.0027830312 -0.006872387
0000f0 08 68 b6 3a 37 c0 98 bc 86 9b 94 3b f1 f6 11 bb
       0.0013916502 -0.018646343 0.0045351414 -0.0022272433
000100 bb 29 0f bc e5 bc 34 bc 14 a7 13 bc a8 4f 9b 3c
       -0.008737977 -0.011031364 -0.0090120025 0.018958881
000110 9b 48 7a bc 5d f4 21 bc bd e6 69 3c 24 67 0f bc
       -0.0152761 -0.009884921 0.014276204 -0.008752618
000120 9e b2 02 3a be ad a1 bc 13 7d 4d 3c 7f 5d 87 bb
       0.00049857225 -0.019736167 0.012542027 -0.0041310186
000130 e7 ab 19 bc 14 0e 98 3a 07 17 2a bd 3a 17 0a 3c
       -0.009379364 0.0011600875 -0.041525867 0.008428389
000140 99 18 87 bc e7 96 c0 bb 94 8f 20 3c 8f 2d 30 bb
       -0.016491221 -0.005877364 0.009799857 -0.0026882624
000150 90 25 58 bb 94 5a 1e bd 50 8c c2 bc 2f 15 ef bb
       -0.0032981373 -0.0386606 -0.023748547 -0.0072962265
000160 cb 7f 89 3c b3 99 a9 3b 37 c9 17 bc 5d 68 2b bb
       0.01678457 0.005175793 -0.009264282 -0.0026154735
000170 f6 32 82 3a 15 50 cd bc e1 45 0d bc bb 8e e4 bb
       0.00099334 -0.0250626 -0.008622617 -0.0069750226
000180 a6 78 e6 bb bc e3 87 bc 15 e7 89 bb fe 48 18 3d
       -0.0070334254 -0.016588084 -0.0042084553 0.037178986
000190 34 33 b6 bc f4 8f e4 3c 4a 43 8a bd d5 6b 15 bc
       -0.022241212 0.027900673 -0.067511156 -0.009119947
0001a0 ac 1d b4 bc 3c 75 9d 3c 23 40 05 bc 53 57 1d 3c
       -0.021986805 0.01922094 -0.008132967 0.009603339
0001b0 84 1f 8f bc cd 3f 80 b6 c6 d1 74 3b be 7b 86 bb
       -0.017471083 -3.8221247e-06 0.003735648 -0.0041041067
0001c0 19 85 f0 bb c4 64 a9 ba cf d4 83 3c 57 6d 26 3c
       -0.007340085 -0.0012923707 0.016092686 0.010157905
0001d0 a4 92 f7 bc 06 1a cf 3a 92 de 80 3c f6 4c c0 bc
       -0.03022129 0.0015800602 0.01573113 -0.023474198
0001e0 02 16 73 3a 33 71 10 bc 6f 11 c2 bc a4 0f d5 3c
       0.0009272994 -0.008816051 -0.023689954 0.026008435
0001f0 b4 32 ae 3c 23 ef a7 3b a9 f0 61 36 78 fd c5 bc
       0.021264412 0.005124943 3.3667695e-06 -0.024168715

network_body._body_endoder.seq_layers.2.weight f4 [128, 128]
000000 7c 97 db bd c8 e8 7a bc 9d c5 be bd c7 64 5e ba
       -0.10722253 -0.015314288 -0.093150355 -0.0008483645
000010 0b 6d b8 bc 8a 0f 33 3c 68 26 60 3d f4 10 2d be
       -0.022512933 0.010928998 0.054724127 -0.16900998
000020 82 95 8a 3b 6f e3 26 3d e1 65 37 bc 4d dd 11 bc
       0.0042292485 0.04074424 -0.011193723 -0.00890286
000030 47 93 02 be 13 19 01 3e 4d 85 f3 bd 03 e8 86 bd
       -0.12751494 0.12607221 -0.118906595 -0.065872215
000040 74 7e 98 bd 39 1f 51 bc 15 bf 99 bd 9b f3 b5 3d
       -0.07445994 -0.012763792 -0.07507149 0.08884355
000050 bb 11 18 bd 3d 3f 52 3d f5 9b ff bc 5f 9a 27 3e
       -0.037126284 0.05132984 -0.031202296 0.16367482
000060 f8 a8 21 3e 17 9c 9f bd a0 5c 13 be 3c 32 80 bc
       0.15787113 -0.07793444 -0.14390802 -0.015648954
000070 5c c4 2f be 04 32 96 be 9e 3e c0 bc 81 24 91 3d
       -0.17164749 -0.29335034 -0.023467358 0.07087041
000080 ae de 74 bd e6 b1 2a bd ca 67 8f 3c cd 30 50 bc
       -0.059782676 -0.041673563 0.017505545 -0.0127069475
000090 5e f5 15 3d dc 63 2f bd 4e e3 5e bd dc 5d 3c bd
       0.036610954 -0.042819843 -0.054415993 -0.04598795
0000a0 8d bb f5 3c 98 d3 9a bd 18 90 f0 3d 41 9f f7 3c
       0.029996658 -0.075598896 0.11746234 0.030227305
0000b0 95 80 68 be 4e 08 20 3e 50 6c 48 3d cc 98 57 3d
       -0.227053 0.15628168 0.04893142 0.052635953
0000c0 50 1c 3d bd 96 a4 96 bd 1a 17 cf bd b1 eb e9 bc
       -0.04616958 -0.07355611 -0.10111828 -0.02855477
0000d0 33 5b 2b be 5a 76 fd bc 0d 80 de 3c ba 0b 9c bb
       -0.16734008 -0.030940223 0.027160669 -0.00476214
0000e0 79 d3 15 3d 11 82 4f 3d 97 47 3c 3d 81 d4 9b bd
       0.03657863 0.05066115 0.04596671 -0.07608891
0000f0 c0 22 38 3e 36 1a a3 bd 7b eb 45 3d 53 c9 c4 bd
       0.17982006 -0.07963984 0.048320275 -0.09608712
000100 fc 25 d6 3c 79 dd 19 3e 2e ca 81 be 36 83 ad bd
       0.02614116 0.15025891 -0.25349563 -0.08472292
000110 18 ff cc bd 18 ce aa bd 7c 6e c9 ba 18 4a aa bd
       -0.10009593 -0.083400905 -0.001536801 -0.083149135
000120 50 d6 79 bc 3e 12 9b bc fc 73 9c bd b6 b4 72 bd
       -0.01524885 -0.018929597 -0.0763931 -0.05925437
000130 5a ba 6d 3d d6 9a c5 bd b2 a3 cd bc e0 1a 24 be
       0.058039047 -0.09648673 -0.02510247 -0.16025877
000140 5c bd 5a 3d 16 9b 2b 3d fb 56 cb bd 21 ca 40 3c
       0.053403243 0.04189595 -0.099286996 0.011766941
000150 e5 71 d4 3d 4d 7c 88 3d af 50 9e bd ed 5d 64 3d
       0.10373286 0.066643335 -0.07730233 0.055753637
000160 e9 79 ce bc e8 88 83 3d b0 c1 f0 3d 3d a0 95 3d
       -0.025204616 0.06422597 0.11755693 0.07305954
000170 d1 f5 a9 3d 76 94 40 3d 40 a1 f9 bc fe 29 b1 bd
       0.08298839 0.047016583 -0.030472398 -0.086505875
000180 68 91 86 3d 21 27 7b bc 0c 9b 3a bb 9a d4 f9 bc
       0.06570703 -0.015329153 -0.0028473763 -0.030496884
000190 6f a5 c1 3d b5 12 f5 bb 21 5b 6a 3d f2 6c 6d 3d
       0.09455382 -0.0074790367 0.057215814 0.057965226
0001a0 bf 57 cd 3d c5 27 c7 bd 8b b9 98 bd fb cb 5f 3d
       0.10026502 -0.09724382 -0.074572645 0.05463789
0001b0 02 94 0d be 9a f8 a2 3d 86 fd 13 3d 2a 52 6d bd
       -0.13825992 0.07957573 0.03613045 -0.057939686
0001c0 fb 7f 8c 3c 6b 92 18 bd f5 60 2f be e2 ac 87 bd
       0.01715087 -0.03724901 -0.1712683 -0.06624772
0001d0 7e 25 f4 3d ce 49 45 3a 64 7d ae 3d 53 79 f1 bc
       0.119212136 0.00075259514 0.0852001 -0.029476797
0001e0 a7 c7 4a bd 63 a3 1a 3d a0 94 18 3c f6 70 a1 bc
       -0.04950681 0.037753474 0.009312779 -0.019707184
0001f0 44 da 31 bd 51 10 34 bb f7 50 c5 bd 7d a2 dd bd
       -0.043421045 -0.0027475546 -0.096345834 -0.10822008
000200 66 e0 25 3c 76 6e 05 bb c2 40 5d 3d 0e a6 19 be
       0.010124302 -0.002036003 0.054016836 -0.15004751
000210 69 5a 7e 3d 40 2d 19 3d a8 e5 71 bd d0 20 33 bd
       0.06209794 0.03739667 -0.059056908 -0.043732464
000220 38 8d b9 bd db da cf bd 32 f4 5d 3c c2 fd b2 bd
       -0.090601385 -0.10149165 0.01354699 -0.08739807
000230 80 1b bc bd cf 4b 87 bd 72 6a 13 3e 13 28 86 3d
       -0.09184933 -0.06606256 0.14396074 0.06550612
000240 59 90 96 bb 62 2a f2 bc a7 52 c0 3d c7 a9 1b 3e
       -0.0045948443 -0.029561225 0.09390765 0.15201484
000250 08 3b 63 be 86 96 1c 3e a2 15 91 bb 82 f3 f8 bc
       -0.22190487 0.15291795 -0.0044276277 -0.030389551
000260 d8 e6 ff bd 60 05 66 bd 5a 6a ce bd 4a 35 00 bd
       -0.12495202 -0.05615747 -0.10078879 -0.03130082
000270 40 a3 ca 3c d0 35 43 bc b8 c3 4a 3d 4c 3b 93 bd
       0.024736047 -0.011914685 0.04950306 -0.07189044
000280 ea db 22 3d bb f4 9c 3c 4f d9 9c bd c7 11 74 bd
       0.039760508 0.019159665 -0.07658636 -0.059587266
000290 b8 3d ff bd 62 27 55 3e c0 a7 9a 3d 89 29 8f 3d
       -0.12462944 0.20815805 0.07551527 0.06990344
0002a0 76 d1 44 be f1 f5 4c bc 99 e3 c3 3c 9a 70 2c be
       -0.19220528 -0.012509809 0.023912238 -0.16839829
0002b0 8d f9 1c bd 58 9b 22 be 06 cb d1 bd dc f1 1d 3d
       -0.038323928 -0.15879571 -0.10243802 0.038560733
0002c0 03 c8 ca bd 1c ff eb 3b 3e ef ec 3d 44 1d f4 3d
       -0.099014305 0.0072020423 0.11569069 0.119196445
0002d0 c6 6d c1 3d 6a 41 eb 3d 0f b4 d7 bc d4 ee 5b 3d
       0.09444766 0.11487086 -0.026330976 0.05369456
0002e0 74 67 20 be 79 16 87 3d df 9e a3 bc 23 a4 14 be
       -0.15664464 0.06596083 -0.019973217 -0.14515738
0002f0 3b 2b d9 bd 90 49 2c 3e dc 48 2c bd 60 9b 38 be
       -0.10603949 0.16824937 -0.04206167 -0.18028021
000300 58 aa 38 bd cb cb b9 bd 38 93 c7 bd 80 1b 81 bd
       -0.045084327 -0.090720735 -0.097448766 -0.06304073
000310 6c 28 25 be b5 86 78 bb fe cd 23 3e be 2c 49 3e
       -0.16128701 -0.0037922089 0.15996549 0.19645974
000320 0e 87 08 be c4 cc 17 bc 54 c1 16 3e fe 8b a7 bd
       -0.1333277 -0.0092651285 0.14722186 -0.08180998
000330 60 a1 80 bd 57 3c 0a be 5d fe 3a bd ae 11 7f 3d
       -0.0628078 -0.1349958 -0.045652736 0.06227272
000340 59 11 27 bc 15 a5 93 3d 57 79 9c 3b 1c 9f 86 bd
       -0.010197007 0.07209221 0.004775207 -0.065733165
000350 47 d1 c6 3d dc 22 cb 3c 19 43 0a bc 00 35 95 3d
       0.09707885 0.024796896 -0.008438849 0.072854996
000360 49 2b 4f 3e ae 9d b0 3c 9f 3f 02 be 97 4c 31 be
       0.20231356 0.021559563 -0.12719582 -0.17314373
000370 0f 69 5d bd 65 9b 1c 3e 2d 80 b8 bc dc df 93 3d
       -0.05405527 0.15293653 -0.022522056 0.07220432
000380 65 3a 1f 3e 1e b6 f3 bd e3 44 b7 bd 40 93 db 3d
       0.1554962 -0.118999705 -0.08948686 0.10721445
000390 5a 93 da bd 55 f5 b6 bc 9e ce c0 bd 6f 42 ea 3d
       -0.10672636 -0.02233378 -0.09414409 0.114384525
0003a0 ac 4a 89 3d cd 14 44 3d 08 55 ef 3c 32 f4 7f 3d
       0.06703696 0.0478714 0.02921535 0.062488742
0003b0 2c 89 ad 3d 1a 3b 15 be 80 44 07 3e bc d7 e8 bd
       0.08473429 -0.14573327 0.13209724 -0.11369273
0003c0 7e 3f e6 bd e3 6f c5 bd ce be 3e bc 74 df b5 bd
       -0.11242579 -0.09640481 -0.011642171 -0.08880511
0003d0 16 c0 7f bd 18 0b bd bb 0f 44 a3 bd fd 62 1b 3d
       -0.062439047 -0.0057691447 -0.079719655 0.0379362
0003e0 95 17 fe bd a1 c2 e0 bc da e1 57 3d 09 2a 48 3e
       -0.12406842 -0.027436556 0.052705623 0.19547285
0003f0 da 97 b3 bd 66 85 8b 3a d9 19 14 be ea 22 de 3c
       -0.08769198 0.0010644614 -0.14462985 0.027116258

network_body._body_endoder.seq_layers.2.bias f4 [128]
000000 c8 99 f8 bb a3 78 ae 3a f5 16 55 bc 42 7d 29 bc
       -0.0075866915 0.0013311099 -0.013005962 -0.010344805
000010 3b cc 3e bc a6 42 63 ba 34 75 77 bb a5 d3 1d bc
       -0.011645372 -0.0008669294 -0.0037759067 -0.0096329795
000020 78 7a b7 3b 1c 6e 19 bc 80 c7 a6 3b a7 b8 54 bb
       0.005599316 -0.009364631 0.0050897 -0.0032458694
000030 0d 1a 3f bc 23 30 9d bb c3 9b 46 3b 32 cc 96 bc
       -0.011663926 -0.004796998 0.0030305244 -0.018407915
000040 05 bc 94 bc 99 c3 0a 3b 65 67 9c bb c0 bf af bb
       -0.018156061 0.0021173714 -0.004773068 -0.0053634346
000050 1c 6f 7b bc dc 3a 3b bc f9 a1 4f bc b7 42 a0 38
       -0.015346315 -0.011427607 -0.012672895 7.641821e-05
000060 f6 2a b2 bb fa 75 62 bc 12 d6 a7 bb 96 46 20 bc
       -0.0054372502 -0.013822073 -0.0051219547 -0.009782454
000070 90 be 3e bc 6f d7 40 3c 5c d4 04 bc df 74 ca ba
       -0.011642113 0.011770113 -0.008107271 -0.0015446207
000080 be 00 90 bc c2 12 a6 3b 1b 07 90 bb a0 94 07 bb
       -0.017578479 0.005068154 -0.0043953783 -0.0020687953
000090 39 c6 80 bb c9 bf ff bb 31 3f f9 bb 17 32 3d bc
       -0.00392988 -0.007804845 -0.00760641 -0.011547587
0000a0 bb 61 44 bc 8a 45 93 3b 02 5c dd bb 3c 3d 47 bb
       -0.011986191 0.0044943737 -0.006755353 -0.0030401489
0000b0 01 c6 6f ba ab ae 4a bc ad 1b 0e bc e0 b6 a1 ba
       -0.00091466313 -0.012370746 -0.008673591 -0.0012337826
0000c0 65 8c 93 3a c2 67 11 bc 39 90 e1 3a 7b 63 29 bc
       0.0011257051 -0.008874835 0.0017209119 -0.010338659
0000d0 13 1c df 3b 14 3b 2a bb b0 a1 51 bc 50 95 de bb
       0.0068087666 -0.0025975155 -0.012794897 -0.006792702
0000e0 68 b1 27 bc c9 16 ec bb 3a 53 71 ba 26 3b a8 bb
       -0.010235168 -0.0072048646 -0.0009205822 -0.005134004
0000f0 c5 c4 0c bb eb 6c 39 39 be 61 03 bc 68 39 1e bc
       -0.0021479588 0.0001768355 -0.008018909 -0.009657241
000100 4d af 2b bc 0b 82 64 3b 4e f1 b7 bc 87 2e ed bb
       -0.010478807 0.003486755 -0.02245393 -0.0072382125
000110 ee df 8b 3b af 18 63 bc ea d6 da bc a3 34 83 bc
       0.004268638 -0.0138608655 -0.026713807 -0.01601631
000120 54 23 07 bb c2 38 3f bc ac b7 0f bc 48 81 cb bb
       -0.0020620422 -0.011671247 -0.008771818 -0.00621048
000130 0d 4a 6c bc 53 70 03 3b 86 f1 07 bc 90 06 35 bb
       -0.014421952 0.0020055964 -0.00829733 -0.002762232
000140 06 22 aa bb 57 fd f1 3b 7e 84 e8 bb ce b5 8c 3a
       -0.005192044 0.007384937 -0.0070958724 0.0010735334
000150 52 28 39 bb 7a f8 a5 bb 06 e5 f8 3b fa b2 c4 bb
       -0.0028252793 -0.005065021 0.007595661 -0.006002781
000160 18 95 4c bc 00 b3 ef 3a f6 2b 1d bc 18 3e 1c bc
       -0.012486719 0.0018287599 -0.009593001 -0.009536289
000170 29 cd 37 bc 59 89 57 bc 86 22 8a bb be 2b a3 bb
       -0.011218348 -0.013155305 -0.0042155413 -0.0049795797
000180 71 92 97 bc 12 26 4b bb 4e 06 c9 bb 39 00 38 bc
       -0.018502446 -0.0030998033 -0.006134785 -0.011230522
000190 d8 f8 44 bc e9 d4 a1 bb 86 2e de 3b 80 12 1d bc
       -0.01202222 -0.004938711 0.0067804484 -0.00958693
0001a0 36 74 9f 3a b2 5b f2 bb fd 0b 85 bc c4 61 5f bb
       0.0012165371 -0.007396185 -0.016241068 -0.0034085372
0001b0 1d 5d a4 3b 59 9e c7 bb 85 70 36 bc 01 ce b3 bb
       0.005015983 -0.0060918746 -0.011135225 -0.005487204
0001c0 a8 f8 96 bb 74 c3 ee bb 1e fc ec 3b c6 80 db bb
       -0.004607279 -0.0072864834 0.007232203 -0.0066987006
0001d0 70 e3 ed bb f3 c1 a7 ba 24 77 04 bc 54 47 2e bc
       -0.0072597787 -0.001279889 -0.008085046 -0.010637123
0001e0 d9 63 d8 3b 0b 9d 32 bc 56 7d 2f bb 98 d6 32 bc
       0.0066036996 -0.0109017 -0.0026777587 -0.010915421
0001f0 a1 b4 00 3c 4a 05 a0 b9 01 f0 8b 3c 4b 63 0f bc
       0.007855565 -0.0003052152 0.017082216 -0.008751701

action_model._continuous_distribution.log_sigma f4 [1, 3]
000000 e3 1c dc bd 65 7a 7e be 9d fe 37 bd
       -0.10747697 -0.24851377 -0.044920553

action_model._continuous_distribution.mu.weight f4 [3, 128]
000000 f5 ef 80 3c ca 42 22 3d 4d 40 b5 3b b5 c2 87 bc
       0.01573942 0.039614476 0.005531347 -0.016572336
000010 eb a4 fe 3c e1 67 a5 3c 22 e5 64 3c 39 60 f5 bc
       0.031084498 0.020191135 0.013970645 -0.02995311
000020 3e 01 c9 bc a3 10 08 bd be 02 33 bb ff e4 52 3c
       -0.024536725 -0.03321899 -0.0027314867 0.01287198
000030 91 4e de bb ce 4c 56 3c 28 17 dd 3b cd 1d eb b7
       -0.006784268 0.013079835 0.006747145 -2.802806e-05
000040 fa 3c a4 3c 62 dd ca 3c f9 cd 73 bc b1 9a ad 3c
       0.020048607 0.024763767 -0.014880651 0.021191927
000050 ba 49 34 bc 5b 6c 01 bd 39 5c c1 bc 52 e0 10 bb
       -0.011003906 -0.031597476 -0.023603546 -0.0022106362
000060 a4 fa 1a 3c ee d9 10 3c 52 2c c7 3a 57 83 c6 3c
       0.009459171 0.008841021 0.0015195704 0.02423255
000070 6d 49 40 bc a5 85 01 3d d7 52 22 3c f6 aa 8c 3b
       -0.011736256 0.031621594 0.009907446 0.004292841
000080 39 21 81 bc a6 2d a4 3c 2f b6 78 bb e9 4a 85 3b
       -0.015762912 0.020041298 -0.0037950387 0.004067768
000090 07 4b 22 3c ba 9f 8c 3a 14 ec 8a 3c 51 3f 71 3c
       0.009905583 0.0010728755 0.016958274 0.014724568
0000a0 db bb ec bc 12 b3 d5 bc 5c 39 48 ba 39 b0 6e 3b
       -0.02889817 -0.026086364 -0.0007637942 0.0036420955
0000b0 48 a8 15 3c 44 14 32 bd 6e 5f ca bc 30 eb d7 bc
       0.00913436 -0.043476358 -0.024703708 -0.026357263
0000c0 4c 6f 48 3c 48 77 23 3c c6 f7 a9 3c 15 cf 93 3b
       0.0122335665 0.009977169 0.02074803 0.00451077
0000d0 b2 1b 8a bd ec 95 dd 3b 96 f6 e8 3a f6 be c8 bc
       -0.06743564 0.006762257 0.0017773684 -0.02450512
0000e0 2c 99 0c 3d e3 66 9a bc d9 da 12 3c 15 bb 4a 38
       0.034325764 -0.018847888 0.00896331 4.8334787e-05
0000f0 11 4c 0b 3c 9b 51 b7 3b 24 2e fe 3c a2 8c a8 bc
       0.008502022 0.005594445 0.031027861 -0.020574871
000100 63 98 19 bd 7a b1 11 3c fe 47 13 3a c3 69 83 ba
       -0.037498843 0.008892411 0.00056183327 -0.0010026026
000110 6d b9 92 3d c2 ef b1 bb 5b ed 0d ba 28 3e 83 3c
       0.071642734 -0.0054301927 -0.0005414092 0.01602085
000120 35 32 86 bc 1a 9b e2 bc 52 d5 19 3b d0 e8 8d bc
       -0.016381362 -0.027661849 0.0023473096 -0.017322928
000130 7a a8 01 3b e8 79 8e bc 87 8a 0e bc b9 18 29 bc
       0.0019784258 -0.017392114 -0.00870002 -0.010320836
000140 84 3f 99 3c 79 cb 12 3d ed 2f f1 bc a4 02 81 bc
       0.018707044 0.035838578 -0.029441798 -0.01574833
000150 5a 18 18 bd 59 aa bf 3b 07 29 46 3d b9 0a 18 bc
       -0.0371326 0.0058491644 0.04837897 -0.0092799
000160 92 38 59 3b 36 6d 96 3c 0f ee e1 3a ea 91 ca bc
       0.003314529 0.018362623 0.0017237085 -0.02472778
000170 90 20 b7 3b 7d 95 f8 bc 8a 37 57 bc ac f3 06 3d
       0.0055885985 -0.030344719 -0.0131358 0.032947227
000180 93 97 c4 3b a4 c0 e4 bc b2 24 01 bd 55 06 7a bc
       0.0059995144 -0.02792389 -0.031529136 -0.015260299
000190 1e 66 87 3a 8e 4c 5a 3c 08 f7 fd 3c 2b a5 8b bc
       0.0010330116 0.013323916 0.031001583 -0.017046532
0001a0 30 58 d3 3b 80 b9 0e 3d 75 6e 03 bd 2a 11 02 3c
       0.0064497218 0.034844875 -0.032087762 0.007938663
0001b0 8d 1c ea ba ae 16 1c 3c 6e 58 dc b9 22 ec 1a 3b
       -0.0017861292 0.009526892 -0.00042027555 0.0023639281
0001c0 03 76 a6 bc 88 bb 70 bd c2 f0 5e 3c a6 e5 ff ba
       -0.020319944 -0.058772594 0.013607206 -0.0019523397
0001d0 df 8c ac bb 62 20 fa 3c 80 7a 05 bb 27 ab 34 3c
       -0.0052658166 0.03053302 -0.0020367205 0.011027134
0001e0 6c df 78 3c 25 5b 54 3c cf d7 99 3c 26 24 37 bb
       0.015189987 0.012961184 0.018779663 -0.002794513
0001f0 88 20 81 3c f0 41 85 3c a9 45 1f bd 9a 8a 32 3b
       0.015762582 0.016266793 -0.038884792 0.0027243258
000200 25 c1 1a 3c 50 98 1d bc ff f1 34 bc 1b 3f f1 3c
       0.009445463 -0.009618834 -0.0110440245 0.029449036
000210 5d c4 84 3c d8 e3 4b bc fd 40 59 bc ed 2b 23 3d
       0.016206915 -0.012444459 -0.013260123 0.039836813
000220 36 5e ad 3c a0 00 89 3c 3d fb 2a 3c c8 bd a3 bc
       0.021163087 0.01672393 0.010435876 -0.019987956
000230 19 f6 e1 3b aa d5 14 bc ac f2 e5 bc 4d 06 1a 3c
       0.006895792 -0.009084145 -0.028069817 0.009400916
000240 26 00 a0 bb 4a 72 32 bc 87 d8 3d 3c b5 a7 cc 3b
       -0.00488283 -0.010891506 0.011587269 0.006245578
000250 b7 59 9f bb ee d9 a5 3b 6f 63 b4 3b e7 83 55 3d
       -0.0048629898 0.0050613796 0.0055050175 0.052127745
000260 6a 1b f2 bb 65 12 c1 39 42 87 0a 3d 18 35 d3 3c
       -0.007388522 0.00036825534 0.0338204 0.025782153
000270 ae 8f 9f bb c7 5a 1c bd 7a 5b 27 bc 3b a9 fb 3c
       -0.004869423 -0.03817251 -0.010214681 0.030720344
000280 52 b8 3b 39 6f 7a 9d 3c a7 28 a8 3b a5 f1 9e 3c
       0.00017902374 0.01922342 0.0051317993 0.019402334
000290 e5 28 bb 3c 27 58 78 bc c9 65 40 bb 74 8b 69 3c
       0.022846648 -0.015157736 -0.0029357544 0.01425444
0002a0 2f 61 da bc 97 cb 67 bd fa fe 30 bc 12 d0 82 bc
       -0.026657669 -0.056590643 -0.010802979 -0.015968356
0002b0 87 64 3b 3c f2 c8 0e 3c b9 53 ea 3c ac a8 04 bc
       0.011437542 0.008714901 0.028604375 -0.008096855
0002c0 87 de fb bc 5a f1 2c 3c ec 2a 27 bc 9a 7b 83 ba
       -0.030745758 0.01055559 -0.0102031045 -0.0010031343
0002d0 35 37 79 3c d8 60 b1 bb e2 16 9b bb 54 f3 2c bc
       0.015210916 -0.005413156 -0.0047329525 -0.010556061
0002e0 fb db c9 bb f8 24 6e bb 58 85 10 bd 80 c7 88 3c
       -0.006160257 -0.0036337953 -0.035283417 0.016696692
0002f0 25 4e 7f bc 2e 5b b7 bc dc 76 ce ba 34 32 89 3c
       -0.015582596 -0.022382345 -0.0015751976 0.016747572
000300 68 94 fe bc b5 db 3e bc 6c 24 45 3a 79 89 78 bb
       -0.031076625 -0.011649062 0.0007520381 -0.0037923737
000310 12 5a 7d bc 3b d9 84 b9 e6 a2 f1 bb a4 c7 38 3b
       -0.015463369 -0.0002533885 -0.0073741553 0.0028195167
000320 00 7f 49 bc 96 f7 42 bc a9 46 77 3c 54 e2 b7 bb
       -0.012298346 -0.011899849 0.01509253 -0.005611697
000330 bb 1b 3c 3c b2 a0 b2 3b d0 63 09 3d 5e 88 c1 bc
       0.011481221 0.0054512853 0.033542454 -0.023624595
000340 49 5f 27 bd 68 fd 27 3c 05 e0 c8 3a 54 4f ad bc
       -0.040862355 0.010253288 0.0015325552 -0.02115599
000350 57 cc 1e bd 59 83 5d bc 2c 1b da 3c 4e e2 72 3c
       -0.038769092 -0.013520085 0.026624285 0.014824463
000360 78 ee 79 bb ce 6a 8e bc 9f 38 b8 bb 88 64 b1 3c
       -0.0038136523 -0.017384913 -0.005621984 0.021654382
000370 de 38 0f 3c 18 2d 10 3c 8c 82 92 3c 72 fd 13 3c
       0.008741586 0.008799814 0.017884515 0.009032594
000380 3b 62 a3 bb a9 71 d4 3a f9 1e b5 3b 09 ac a2 bc
       -0.004986075 0.001620819 0.005527374 -0.019857423
000390 fe 0d 35 bc 85 3b 87 bc 47 c5 a0 bc 06 b7 82 bb
       -0.011050699 -0.016507873 -0.01962532 -0.0039891033
0003a0 d2 9e f1 bb fa 2d 40 bc 74 2d 4a 3c f9 70 d6 bc
       -0.007373669 -0.011729712 0.012339938 -0.026176916
0003b0 f9 b8 59 bc c9 aa fa 3a e2 11 f3 3b a8 78 35 3b
       -0.01328873 0.0019124384 0.0074179033 0.0027690325
0003c0 e8 21 25 bd d2 7c 79 bc ef fc 8e bc bb 05 7d 3c
       -0.04031554 -0.015227513 -0.017454593 0.015443261
0003d0 6d cd 47 3c c9 a4 c6 3c 79 c8 80 3c 14 9c d9 bb
       0.012194973 0.024248498 0.015720593 -0.0066409204
0003e0 dd d0 c9 bc 30 80 fa bb 9c df 8a 3c 21 f9 52 3c
       -0.024635727 -0.0076446757 0.016952328 0.01287678
0003f0 b1 a9 74 39 66 79 81 39 ac c3 17 3d 72 1b 8a bc
       0.00023332868 0.00024695246 0.03705184 -0.01685879

action_model._continuous_distribution.mu.bias f4 [3]
000000 81 54 08 3c cb 60 38 bb 8f 00 7b 3a
       0.008320929 -0.0028133865 0.00095749734
