TWP_2/results/StaticDragDrop16/RobotArm/RobotArm-119520.onnx (onnx, 79708 bytes, 7 tensors)

network_body._body_endoder.seq_layers.0.weight f4 [128, 14]
0	0x3e983275	0.29725996
1	0xbcac60c7	-0.02104224
2	0x3c23bd1b	0.009993817
3	0x3e4911b4	0.1963566
4	0xbece566d	-0.40300313
5	0xbedd3f73	-0.4321247
6	0xbde8046e	-0.1132897
7	0x3eb13d99	0.34617308
8	0x3ec4dc89	0.38449505
9	0xbebba314	-0.36647856
10	0x3d74c22d	0.059755493
11	0x3eb5f6d9	0.35539892
12	0xbd85e0f2	-0.065370455
13	0xbea6f6cd	-0.3261017
14	0x3d26e50f	0.04074579
15	0x3e5a3a1b	0.21311228
16	0xbe1d1751	-0.15340926
17	0xbf457063	-0.77124614
18	0x3df8e16c	0.12152371
19	0x3e68a0e9	0.22717632
20	0x3b95ffcf	0.004577614
21	0x3e32d62f	0.17464517
22	0xbec20ccb	-0.37900385
23	0xbd1d1bdc	-0.038356647
24	0xbdfedd06	-0.124445006
25	0x3be50ba3	0.0069899126
26	0x3e4a9f8c	0.19787425
27	0xbd79f69a	-0.061026193
28	0xbdc57a68	-0.09642488
29	0xbdf91bab	-0.1216348
30	0xbe229bd0	-0.1587975
31	0xbe90e72f	-0.2830138
32	0x3eb04b8d	0.3443264
33	0x3dbb6b32	0.09151305
34	0xbec5217e	-0.38502115
35	0xbc62c619	-0.0138411755
36	0xbe865528	-0.26236844
37	0x3eb27f64	0.34862816
38	0xbdab99d4	-0.0837895
39	0xbeede3b9	-0.464628
40	0x3e4cc823	0.19998221
41	0xbe1ea6ff	-0.15493391
42	0x3ed2ef30	0.4119811
43	0xbe2e2acb	-0.17008512
44	0xbe768d73	-0.24077396
45	0xbefcf25c	-0.49403656
46	0x3e7a54e9	0.24446453
47	0x3e0d1a66	0.13779601
48	0xbddbc082	-0.10730077
49	0xbeb56f78	-0.35436606
50	0xbd80358e	-0.06260215
51	0xbea0e699	-0.31425932
52	0x3f0c836a	0.5488802
53	0x3d876908	0.0661183
54	0xbc3bb60c	-0.011456978
55	0xbe085ed9	-0.13317432
56	0xbe2b5546	-0.16731748
57	0x3d4b210e	0.04959207
58	0x3eb226ba	0.3479517
59	0x3c8be592	0.017077241
60	0x3db37ca7	0.0876401
61	0xbbb09402	-0.0053887377
62	0x3df720b8	0.120667875
63	0x3b84302d	0.0040340633
64	0x3e0c9608	0.13729107
65	0x3ed5d91c	0.41767204
66	0x3e9d65e2	0.30741793
67	0x3ea0d1e8	0.31410146
68	0x3c290ac8	0.010317512
69	0xbd8aa618	-0.06769961
70	0x3e1e37df	0.15451
71	0x3cf18ec6	0.029487025
72	0x3eaba610	0.33525133
73	0x3de43736	0.11143343
74	0x3df80fd5	0.12112395
75	0xbed6f45e	-0.41983312
76	0xbd178944	-0.03699614
77	0xbea02bc2	-0.31283385
78	0xbec7813a	-0.3896578
79	0x3eb1b7bf	0.347105
80	0x3e708f69	0.23492207
81	0x3ee60409	0.44924954
82	0xbde9a8bb	-0.11409136
83	0x3e9514ba	0.29117376
84	0x3dfe478b	0.124159895
85	0xbee0fba2	-0.4394198
86	0x3e90440f	0.28176925
87	0x3eb851bc	0.35999858
88	0x3e59cf34	0.21270448
89	0xbd1b543b	-0.037922125
90	0x3d5454d8	0.051838726
91	0x3ec4bb39	0.3842409
92	0x3d869539	0.06571431
93	0xbc0471e5	-0.008083795
94	0x3e2b2385	0.16712768
95	0x3ec8fcd0	0.3925538
96	0x3e8996a7	0.2687275
97	0xbeddb3cd	-0.4330124
98	0xbee06197	-0.43824455
99	0x3e11a9a2	0.14224866
100	0x3e4ecfa8	0.20196402
101	0x3ef2b686	0.4740488
102	0xbf098e3f	-0.53732675
103	0x3e5a2aad	0.21305342
104	0xbe2c6aaf	-0.16837572
105	0x3e761560	0.24031591
106	0x3e262b39	0.16227426
107	0xbd01186c	-0.03151743
108	0xbe8d5b90	-0.2760892
109	0xbea2b6dd	-0.3178014
110	0xbd98132f	-0.07425534
111	0xbce04687	-0.02737738
112	0xbed3ef26	-0.41393393
113	0x3e10635e	0.14100406
114	0x3ec899f8	0.3917997
115	0x3bd9b17b	0.006643472
116	0x3dd32332	0.10309447
117	0x3cda70dd	0.026665146
118	0xbed12926	-0.40851706
119	0xbdf9c318	-0.12195414
120	0xbe02da4a	-0.12778583
121	0xbe295ce7	-0.16539346
122	0xbf0e580f	-0.55603117
123	0xbd2cb10e	-0.04216104
124	0xbdf9f582	-0.1220503
125	0x3c3930cf	0.011303141
126	0xbd62d1d1	-0.055375878
127	0xbe8c32bd	-0.2738246
128	0xbe8262cb	-0.25465998
129	0xbe90e4e7	-0.2829964
130	0xbec25137	-0.37952587
131	0xbd044c68	-0.03229943
132	0x3edd7048	0.43249726
133	0xbe9ad086	-0.30237216
134	0xbd7d9036	-0.06190511
135	0x3f0f297c	0.55922675
136	0xbe18f58e	-0.14937422
137	0xbf0a0a03	-0.53921527
138	0x3d681162	0.056657203
139	0xbe814659	-0.25248984
140	0x3d9aa004	0.07550052
141	0xbe57c9f0	-0.21073127
142	0x3dec7233	0.11545219
143	0x3e810d19	0.25205305
144	0x3d287b0c	0.04113297
145	0x3f00cc25	0.503115
146	0x3df2d8d5	0.11857764
147	0xbe85f24e	-0.26161426
148	0xbe5cf5af	-0.21578096
149	0x3b5a93bb	0.0033352214
150	0xbe225800	-0.15853882
151	0xbf093221	-0.53592116
152	0x3f488019	0.7832046
153	0x3f0086de	0.5020579
154	0xbc9e7d25	-0.019346783
155	0x3e1a9b8b	0.15098397
156	0x3dd9626e	0.10614477
157	0xbdaf0d70	-0.08547485
158	0x3cfe646a	0.03105374
159	0x3e27e2e2	0.16395143
160	0xbe9658b0	-0.29364538
161	0xbeee5869	-0.46551827
162	0x3ef3f94e	0.47651142
163	0x3f04d19f	0.51882356
164	0xbe93db85	-0.28878418
165	0xbe33c8dd	-0.17557092
166	0x3e6bf15e	0.23041293
167	0x3e36495c	0.17801422
168	0x3e9aa76a	0.30205852
169	0xbe53dbe8	-0.20689356
170	0x3ea399ee	0.31953377
171	0xbeb4eb08	-0.35335565
172	0xbea06f85	-0.31335083
173	0x3f249431	0.6428862
174	0x3ec56519	0.38553694
175	0xbee45121	-0.44593146
176	0xbd69a470	-0.057041585
177	0x3d31ad48	0.043378145
178	0xbe5f8c09	-0.21830763
179	0xbe152494	-0.14564735
180	0xbdba4872	-0.09095849
181	0xbf02048b	-0.5078818
182	0xbe9cdf2d	-0.3063902
183	0xbddaf45e	-0.106911406
184	0xbe921464	-0.28531182
185	0xbc69ea8e	-0.014277114
186	0xbdbb228b	-0.09137448
187	0x3ed1504e	0.4088158
188	0x3e8e9a6a	0.27852184
189	0xbe41c2da	-0.18921986
190	0xbc9383b0	-0.01800713
191	0xbd95ae1d	-0.073086
192	0xbdb2ddac	-0.08733687
193	0xbe87e95b	-0.26545224
194	0xbdc91294	-0.098179966
195	0xbe778511	-0.24171855
196	0x3ea8f94a	0.33002692
197	0x3ebf336e	0.37343925
198	0x3d987d23	0.07445743
199	0xbc306336	-0.010765841
200	0x3f04775d	0.51744634
201	0xba62fd3c	-0.00086589507
202	0xbf12a311	-0.5728007
203	0x3d85402d	0.06506381
204	0x3d6fa08a	0.05850271
205	0x3e2ad0ad	0.16681166
206	0x3e56cdc6	0.20976934
207	0xbd569519	-0.052388284
208	0xbf237168	-0.6384492
209	0xbef5958c	-0.47965658
210	0xbdcf4a3d	-0.10121582
211	0x3cde46ed	0.02713343
212	0x3b961e64	0.0045812596
213	0xbe1aac8a	-0.15104881
214	0xbe96ee7e	-0.2947883
215	0x3ea26b13	0.31722316
216	0x3e92f753	0.28704318
217	0xbc967212	-0.01836494
218	0xbf014baa	-0.5050608
219	0x3db91d81	0.090388305
220	0x3d223a79	0.039606545
221	0x3e19a2d9	0.15003528
222	0x3e71cd29	0.23613419
223	0xbec739ef	-0.38911387
224	0xbe629ee6	-0.22130927
225	0xbe3b9d41	-0.18321706
226	0xbebef7b9	-0.37298372
227	0xbdede8df	-0.11616682
228	0x3d6481cf	0.055787858
229	0xbe1032a4	-0.14081818
230	0xbe550ffd	-0.2080688
231	0x3d28b47c	0.04118775
232	0xbf0ac307	-0.5420384
233	0x3c997fd2	0.018737707
234	0xbec416b7	-0.3829858
235	0x3d958a8a	0.07301815
236	0xbea9b873	-0.33148536
237	0xbe4e002b	-0.20117252
238	0xbe3d95c7	-0.18514167
239	0xbdaf3387	-0.0855475
240	0xbd3c28cc	-0.045937344
241	0x3eb4e159	0.35328177
242	0xbe4752a0	-0.19465113
243	0x3e088ee2	0.13335755
244	0x3e5d74ea	0.2162663
245	0x3e907159	0.28211477
246	0xbe946aab	-0.2898763
247	0x3d66b5f5	0.05632587
248	0xbebc2e0d	-0.36753884
249	0x3e0329f7	0.12808977
250	0xbd7c7c44	-0.061641946
251	0x3e83c411	0.25735524
252	0x3d5e50ae	0.05427616
253	0x3e2d0434	0.16896135
254	0xbc0f940d	-0.008763325
255	0x3ef7f9b9	0.4843271

network_body._body_endoder.seq_layers.0.bias f4 [128]
0	0x3bc75be3	0.006083952
1	0x2efdf55e	1.1548694e-10
2	0xaa25cf31	-1.4726828e-13
3	0x3926acc7	0.00015895358
4	0xba396204	-0.00070717954
5	0x380800a6	3.242553e-05
6	0x297533be	5.4445807e-14
7	0xb9562d0b	-0.0002042541
8	0xbaebc0a6	-0.0017986491
9	0x3a8802b5	0.0010376783
10	0x39016a65	0.00012342034
11	0xb9ead1ee	-0.00044788368
12	0x2aa39df2	2.9064213e-13
13	0xba6e3bd3	-0.0009087894
14	0x3a8bde11	0.0010671039
15	0x9df5f5f8	-6.5105286e-21
16	0xadf6c375	-2.8053762e-11
17	0xbab7e988	-0.001403139
18	0xb979dedc	-0.00023829512
19	0x3a91e8de	0.0011132022
20	0x3ab4ccb6	0.0013793919
21	0xba237ad2	-0.0006236258
22	0xba649aaf	-0.00087205594
23	0xbb19460d	-0.00233877
24	0xb8fa138e	-0.00011924571
25	0xba9d6306	-0.0012007661
26	0xbb33f30f	-0.0027458107
27	0xbba7a02c	-0.0051155295
28	0xb91796fb	-0.00014456727
29	0x33abfcc4	8.008786e-08
30	0xbb935c06	-0.004497054
31	0xba9a58c0	-0.0011775717
32	0x20047209	1.1218566e-19
33	0xb9b5a0e0	-0.00034642871
34	0xb891547d	-6.929876e-05
35	0xb992440f	-0.00027897998
36	0xb6745e06	-3.6413562e-06
37	0xba8a2be1	-0.0010541641
38	0xb90bc327	-0.00013328773
39	0xbb2b88db	-0.0026174102
40	0xba26f4ac	-0.00063688564
41	0xb99745ab	-0.0002885287
42	0x3a179bfe	0.00057834375
43	0x3998346f	0.00029030765
44	0xba59bd4a	-0.00083060993
45	0xbb29277e	-0.0025810893
46	0x37849580	1.5805243e-05
47	0xbaf9d961	-0.0019061976
48	0xbb0742f0	-0.0020639263
49	0xba880a49	-0.0010379042
50	0xbb871c4b	-0.004123246
51	0xbaf620b3	-0.0018778056
52	0xba252cc2	-0.000630092
53	0xba2489b0	-0.00062766206
54	0xba3a737a	-0.0007112544
55	0xb94308b9	-0.00018599899
56	0x39901279	0.00027479584
57	0xba453af4	-0.00075237383
58	0xb9bd5759	-0.00036113968
59	0xbac29d27	-0.001484786
60	0xba15ea0d	-0.0005718775
61	0xb952b0ed	-0.0002009307
62	0xbb01bfcc	-0.0019798158
63	0x38fba434	0.00011999198
64	0xba134b79	-0.0005618851
65	0xbade2194	-0.0016947263
66	0x375fbd18	1.3335863e-05
67	0xb405b19d	-1.2451206e-07
68	0xba9008b2	-0.001098892
69	0xba057a5f	-0.0005091782
70	0xbb6919bf	-0.0035568324
71	0xb9db6b11	-0.00041850706
72	0xbaf17fed	-0.0018424966
73	0xba1a3805	-0.00058829813
74	0xbb2de203	-0.0026532419
75	0xbb3c7c38	-0.0028760564
76	0x37399c98	1.1063319e-05
77	0x3a1d809b	0.00060082384
78	0xbb140066	-0.0022583245
79	0xba22e696	-0.00062141696
80	0xb9e1fd5c	-0.00043104112
81	0xb9fd34be	-0.00048295216
82	0xba1006a8	-0.0005494156
83	0xb97d8e33	-0.00024180934
84	0xbaa64b56	-0.0012687247
85	0xba18d6c1	-0.00058303407
86	0xbb0193c1	-0.0019771906
87	0xba3e218d	-0.0007252924
88	0x389486f6	7.0823284e-05
89	0xb9a78f77	-0.00031959612
90	0xba6fe7b2	-0.0009151652
91	0xabfe13fb	-1.8053331e-12
92	0xb3c62556	-9.226885e-08
93	0xba5acc80	-0.0008346513
94	0xb990045b	-0.00027469065
95	0xb9e8986f	-0.0004436406
96	0xb9663edb	-0.00021957925
97	0x38dad75b	0.00010435163
98	0xb99a0dc0	-0.00029383413
99	0x39801a05	0.0002443345
100	0x22160cd0	2.0335574e-18
101	0xba8163a2	-0.0009871612
102	0x3abcd860	0.0014407746
103	0xbae362ea	-0.0017348204
104	0xb936b07f	-0.00017422622
105	0xa675a07d	-8.521895e-16
106	0x3aa290b2	0.0012402742
107	0xb96015e3	-0.00021370458
108	0x2c809dc2	3.6554934e-12
109	0xbb0e8bd2	-0.002175082
110	0xb934dcae	-0.00017248347
111	0xbb5d487d	-0.003376513
112	0xb999b8ea	-0.00029320206
113	0xbab30ee9	-0.001366106
114	0x381b1267	3.697202e-05
115	0xb9865f50	-0.00025629485
116	0xba35fdef	-0.0006942441
117	0xb98c67ff	-0.00026780364
118	0x3aa7cc50	0.0012801979
119	0xba53c554	-0.00080784154
120	0xb90138b3	-0.00012323521
121	0x38389a8e	4.401296e-05
122	0x3ac7defd	0.0015248951
123	0x3aa6820d	0.0012703553
124	0xba96a708	-0.0011493871
125	0x3a8f6d22	0.0010942558
126	0xbac2ef13	-0.0014872275
127	0x39fd2af0	0.0004828791

network_body._body_endoder.seq_layers.2.weight f4 [128, 128]
0	0x3bf8e0d9	0.0075951633
1	0x3e049651	0.12947966
2	0xba9f403d	-0.0012149882
3	0x3db97292	0.09055056
4	0x3d5b997d	0.053613175
5	0x3e1cac5a	0.15300122
6	0xbc846517	-0.016161485
7	0x3d8d8932	0.069109336
8	0x3d7bdcec	0.061489984
9	0x3df3e66c	0.11909184
10	0xbd512bbd	-0.051067103
11	0xbe2a79c7	-0.16648017
12	0x3e164f65	0.14678724
13	0xbda18b18	-0.07887858
14	0x3d60d89b	0.05489407
15	0xbd2a3816	-0.041557394
16	0xbdbb656d	-0.09150205
17	0x3e7f152b	0.24910419
18	0x3b802cb8	0.003911581
19	0xbb40b4ed	-0.0029404715
20	0x3bfab7e8	0.007651318
21	0xbd499e73	-0.049223375
22	0xbdb312ee	-0.08743845
23	0x3d1c137e	0.038104527
24	0x3cc6ca33	0.024266338
25	0x3ca7ba15	0.020474473
26	0xbd01ad1f	-0.03165924
27	0xbe13413e	-0.14380357
28	0x3d1ff50d	0.039052058
29	0xbdc9ad0e	-0.09847461
30	0x3e19f0d3	0.15033273
31	0xbd0a7945	-0.033807058
32	0xbdb8ccbb	-0.09023424
33	0xbdbfba15	-0.09361664
34	0x3d5d8aab	0.054087322
35	0xbcaaf92a	-0.020870764
36	0x3d1b5193	0.037919592
37	0xbc8e8691	-0.01739815
38	0x3d1c3e46	0.038145326
39	0x3de10205	0.10986713
40	0x3d9b7392	0.07590403
41	0x3cbe7fc9	0.023254292
42	0x3cfbe2d3	0.030747807
43	0xbde5f814	-0.11228958
44	0xbde22a78	-0.110432565
45	0x3dc4c20c	0.09607324
46	0x3c772bfa	0.015086168
47	0xbe035c39	-0.12828149
48	0xbde55d43	-0.11199429
49	0xbe2ff80d	-0.17184468
50	0xbe1821ba	-0.14856616
51	0x3e18f230	0.14936137
52	0x3c44fae6	0.0120227095
53	0xbe13299c	-0.14371341
54	0x3cfcf856	0.030880135
55	0x3d90554c	0.07047519
56	0x3defc4fa	0.11707492
57	0xbcd84acb	-0.026402852
58	0xbc4651a6	-0.012104427
59	0xbdb1ec04	-0.086875945
60	0x3dacd465	0.084389485
61	0xbcb59269	-0.02216454
62	0x3e079f79	0.13244428
63	0x3dd563f8	0.10419458
64	0xbe2543c8	-0.16139138
65	0x3d4f03e0	0.050540805
66	0xbd910e33	-0.070827864
67	0xbdb57bd4	-0.08861509
68	0x3e1ac405	0.15113838
69	0x3d21b44c	0.039478585
70	0x3b1d5e00	0.0024012327
71	0x3d31ced5	0.04341014
72	0x3de1377d	0.10996912
73	0xbd8ff850	-0.07029784
74	0xbd3aeb60	-0.045634627
75	0x3d02de65	0.031950373
76	0xbdf415ad	-0.11918197
77	0x3d986209	0.07440574
78	0x3a746de0	0.0009324234
79	0xbe36df4c	-0.17858618
80	0x3e0dface	0.13865206
81	0x3e337846	0.1752635
82	0xbdd78e5a	-0.10525198
83	0x3dbe0488	0.09278208
84	0x3e1f256d	0.1554162
85	0x3e33e0ac	0.17566174
86	0x3da5b9a5	0.080920495
87	0xbcebd2fd	-0.02878713
88	0x3dfca8be	0.123368725
89	0x3da785d5	0.08179823
90	0x3dbd18d4	0.09233251
91	0xbcd6da0c	-0.02622702
92	0x3df4266b	0.1192139
93	0x3e31aadd	0.17350335
94	0x3c5b07c7	0.0133685535
95	0xbd71d73f	-0.059043165
96	0x3c9fe0c9	0.019516366
97	0xbde65944	-0.11247495
98	0xbce88bab	-0.028386911
99	0xbddf8a8c	-0.109150976
100	0x3da407e3	0.08009317
101	0xbb9883c1	-0.004654378
102	0x3ddcaf6b	0.10775646
103	0xbda33176	-0.07968418
104	0xbdca3031	-0.09872473
105	0x3dc80f91	0.09768594
106	0x3dbf8322	0.093511835
107	0xbd5b6921	-0.053567056
108	0x3d9352fe	0.07193564
109	0x3df4a4ce	0.119454965
110	0xbd2a0bc0	-0.041515112
111	0xbd6ff192	-0.05857999
112	0xbdb683e9	-0.089118786
113	0x3d9aa5a7	0.07551127
114	0x3d85a53d	0.06525657
115	0xbdbbcaae	-0.091695175
116	0x3d349cde	0.044094913
117	0x3e40b254	0.18818027
118	0xbd5ebc69	-0.0543789
119	0xbcd6f59a	-0.026240159
120	0x3cbf4523	0.023348397
121	0xbd6b2f3f	-0.057418104
122	0xbd35324a	-0.044237413
123	0x3c3edad5	0.011648853
124	0xbdb11732	-0.08647002
125	0x3cb132a1	0.021630587
126	0x3c494146	0.012283629
127	0xbc2b1d2d	-0.010443968
128	0x3dc329f3	0.095294856
129	0xbc36e4fe	-0.011162994
130	0x3b0332bb	0.0020019251
131	0x3e2e94fe	0.17049024
132	0xbd7509e7	-0.059823897
133	0xbbf2a368	-0.0074047334
134	0x3c7dafd3	0.015483814
135	0xbd54567d	-0.051840294
136	0x3d004679	0.031317208
137	0x3d51c367	0.05121174
138	0x3e093422	0.13398793
139	0xbd013ad8	-0.03155026
140	0xbdb395d3	-0.08768811
141	0xbc6fad07	-0.014628655
142	0xbda48580	-0.080332756
143	0xbdb6f17e	-0.0893278
144	0xbcd6e0a7	-0.02623017
145	0x3cf7ac48	0.030233517
146	0x3d083133	0.033250045
147	0xbda9fc8f	-0.08300125
148	0xbd043182	-0.032273777
149	0xbbb9f6da	-0.005675179
150	0x3cd1ce52	0.025611077
151	0x3d399f6d	0.045318056
152	0xbda7d429	-0.08194763
153	0x3d1994c6	0.037495397
154	0xbd415038	-0.047195643
155	0xbcb8ab11	-0.022542508
156	0x3c96f318	0.018426463
157	0x3c8a52e1	0.016885223
158	0x3cd205a2	0.025637452
159	0xbde37898	-0.11106986
160	0xbd8e58b8	-0.069505155
161	0x3cf186f1	0.02948329
162	0xbdbde854	-0.09272829
163	0x3d83c594	0.064341694
164	0xbd3f4fca	-0.046706952
165	0x3d402645	0.046911497
166	0xbd80c002	-0.062866226
167	0xbd9aee77	-0.07565015
168	0xbdccf1fd	-0.10007093
169	0x3dd73607	0.10508352
170	0xbbd10bf2	-0.006379598
171	0x3d4863a3	0.048923146
172	0xbd1d7685	-0.038443107
173	0xbdcfc06b	-0.10144123
174	0xbdfb343d	-0.12265823
175	0x3db76086	0.08953957
176	0xbd851674	-0.06498423
177	0xbd0d81d5	-0.034547646
178	0x3d9cc065	0.07653884
179	0x3d979cfe	0.07402991
180	0x3db19573	0.08671083
181	0x3d3ed587	0.046590354
182	0x3e4cb856	0.19992194
183	0x3c4502be	0.01202458
184	0xbdb1e42d	-0.08686099
185	0xbd6e1719	-0.058127496
186	0xbc7cb077	-0.015422932
187	0x3d2cbf0d	0.042174388
188	0x3c155946	0.009115523
189	0xbd671b8c	-0.056422755
190	0x3de0acff	0.109704964
191	0xbe21fdea	-0.15819517
192	0xbd697886	-0.056999706
193	0xbd12c02c	-0.0358278
194	0x3c34e7a3	0.011041555
195	0xbc426f72	-0.011867391
196	0xbc984eb6	-0.01859222
197	0x3d83e6d8	0.06440514
198	0x3e2051e5	0.1565624
199	0x3d9a31a6	0.07529001
200	0xbd8863af	-0.06659638
201	0x3c868a73	0.01642344
202	0xbd573beb	-0.052547377
203	0x3dd1a437	0.102363996
204	0x3dbc4305	0.091924705
205	0x3ba09f67	0.0049018147
206	0xbe1d6669	-0.15371098
207	0xbcd10923	-0.025517052
208	0x3cbcda75	0.023053387
209	0x3e309157	0.17242943
210	0xbddf4967	-0.10902672
211	0xbe3e5ce5	-0.18590124
212	0xbcd399c8	-0.025830165
213	0xbd85438e	-0.06507026
214	0xbda5dfbb	-0.08099314
215	0x3d42dfcc	0.04757671
216	0xbd78541f	-0.0606271
217	0x3c5e251e	0.013558654
218	0xbd6f8f4e	-0.058486275
219	0xbdfc04e6	-0.12305622
220	0x3e149f07	0.14513789
221	0xbd7831c4	-0.060594335
222	0xbd459c42	-0.048244722
223	0x3d3216ec	0.04347889
224	0x3c9eb1ec	0.01937195
225	0x3b903172	0.0044004256
226	0xbc13f46b	-0.009030442
227	0x3e014d16	0.12627062
228	0xbcbd5031	-0.023109527
229	0xbcd1b998	-0.025601193
230	0xbbab3c68	-0.005225707
231	0xbc9e1dec	-0.019301377
232	0x3c005865	0.007833575
233	0xbdc8983b	-0.09794661
234	0x3b4014b3	0.0029309213
235	0x3cc9dfa9	0.024642782
236	0xbdab3779	-0.0836019
237	0xbd8b21b8	-0.06793541
238	0x3bfe1af8	0.00775468
239	0x3d9a30c0	0.075288296
240	0x3d6263e3	0.05527104
241	0xbce103df	-0.027467666
242	0x3e0300a8	0.12793219
243	0x3d782dbd	0.060590494
244	0x3e067619	0.13130988
245	0x3c8ca2df	0.017167507
246	0x3cf6f3d5	0.030145565
247	0x3d04e002	0.032440193
248	0xbdb70de9	-0.089382
249	0xbd4e4771	-0.0503611
250	0xbce014cc	-0.027353667
251	0xbde4447e	-0.11145876
252	0xbd4206df	-0.047369834
253	0xbc2437a3	-0.01002303
254	0x3ca50f1f	0.020148812
255	0xbdc47a55	-0.095936455

network_body._body_endoder.seq_layers.2.bias f4 [128]
0	0xb91f26bc	-0.00015177851
1	0xb910486f	-0.00013759894
2	0xb9b3d795	-0.00034302162
3	0xba0ccf90	-0.00053715054
4	0x39cb7f91	0.00038814222
5	0xbb0606c1	-0.0020450803
6	0xb9e7bd76	-0.00044200913
7	0x9e08816d	-7.226545e-21
8	0xba8f6fe7	-0.0010943384
9	0xba55135f	-0.00081281917
10	0xbae084a1	-0.001712937
11	0xb9894c51	-0.00026187536
12	0xba85189e	-0.0010154431
13	0xb5943ae8	-1.1044003e-06
14	0xb8cf89b0	-9.8961755e-05
15	0xb9babbfa	-0.00035616738
16	0xb8551fd3	-5.0812796e-05
17	0xb8f65e33	-0.0001174774
18	0xba815455	-0.0009867052
19	0xbad5bc11	-0.0016306659
20	0x33485fc0	4.6653213e-08
21	0xb86d23d9	-5.653859e-05
22	0xba87be80	-0.0010356456
23	0xb881c8be	-6.1885905e-05
24	0xadf56247	-2.789692e-11
25	0xb6bbe3cb	-5.599553e-06
26	0xb49b80db	-2.8964755e-07
27	0xb9a4373c	-0.0003132167
28	0xb6002ea8	-1.9100644e-06
29	0xbabad45f	-0.0014253965
30	0xb9d14e1a	-0.00039921777
31	0xb9d91386	-0.0004140401
32	0xb9c92bdc	-0.00038370385
33	0xbb7a20d5	-0.0038166542
34	0xb9a9b7d1	-0.00032371146
35	0xb8f49c0a	-0.00011663891
36	0xb96f646a	-0.00022830223
37	0x3c00a58d	0.00785197
38	0xba80cced	-0.0009826698
39	0xb9174b6b	-0.00014428578
40	0xb9cbc457	-0.00038865462
41	0xba8dc02c	-0.0010814718
42	0xb815e218	-3.5734934e-05
43	0x31f104d9	7.0145743e-09
44	0xb9e9e24f	-0.00044609836
45	0x302813d3	6.1146216e-10
46	0xb962c73a	-0.00021627257
47	0x3a39b940	0.00070847943
48	0xba6cd3ba	-0.0009034235
49	0x38831a8f	6.251514e-05
50	0x3a091be1	0.00052302895
51	0xba2c6823	-0.0006576797
52	0xba73c0bf	-0.0009298436
53	0x2d2ad625	9.710931e-12
54	0xb8ab2ebd	-8.162621e-05
55	0xba19a1db	-0.0005860605
56	0xbaea3e5b	-0.0017871367
57	0xb77a870e	-1.4932606e-05
58	0xb3abf525	-8.0073995e-08
59	0xba483d5d	-0.00076385384
60	0xba82377f	-0.0009934752
61	0xb1724b27	-3.5258354e-09
62	0xb8d8f4c3	-0.00010345273
63	0xbab749fd	-0.0013983842
64	0x32d8ceb3	2.5239705e-08
65	0xb8ffd60b	-0.00012199216
66	0xb82d0d24	-4.1258652e-05
67	0xb9c6b436	-0.0003789977
68	0xbb126298	-0.0022336598
69	0xba35f235	-0.0006940694
70	0xba208325	-0.00061230577
71	0xba1f1c87	-0.00060696196
72	0xb90c45ca	-0.00013377439
73	0xb91ac73c	-0.00014760805
74	0xba2b1443	-0.00065261516
75	0xbaddc1c1	-0.0016918705
76	0xbb54658a	-0.0032409155
77	0x271f64c2	2.2120304e-15
78	0x342ebad5	1.6272982e-07
79	0xba01a47b	-0.0004945469
80	0xb986f531	-0.00025741154
81	0xba3a4e94	-0.0007107046
82	0x31836a70	3.8247023e-09
83	0xb9b2c47d	-0.000340972
84	0xb89f0519	-7.58266e-05
85	0xb958a563	-0.00020660977
86	0x350a13d5	5.1437866e-07
87	0xb8710956	-5.7467572e-05
88	0xb9ae6154	-0.0003326038
89	0xb8b37b3c	-8.558339e-05
90	0xb436593a	-1.6982531e-07
91	0xb9c58f6e	-0.00037681632
92	0xb8ab1dd2	-8.15947e-05
93	0xb9d9bc76	-0.0004152988
94	0xba1b0020	-0.00059127994
95	0xbb0380f6	-0.002006588
96	0xbadbc837	-0.0016768043
97	0xb9a83644	-0.00032083888
98	0xba15c8a2	-0.00057137955
99	0xba17c1ba	-0.00057890604
100	0xbadd537c	-0.0016885842
101	0xb98b5895	-0.00026578145
102	0xba6652ae	-0.0008786124
103	0xb9b31806	-0.0003415944
104	0xb9b19fa6	-0.00033879018
105	0xb8af761f	-8.366652e-05
106	0xad757770	-1.3953158e-11
107	0xb85811ba	-5.1514922e-05
108	0xb9b19165	-0.00033868398
109	0xbaba9c78	-0.0014237305
110	0xb87e9a76	-6.0702172e-05
111	0xb9626c64	-0.00021593418
112	0xa6ad2223	-1.2013539e-15
113	0xba91dcca	-0.0011128422
114	0xb15dfb3f	-3.230255e-09
115	0xb726f4a0	-9.951327e-06
116	0x33361f67	4.2403737e-08
117	0xb9c137f7	-0.00036853526
118	0xb9b606a3	-0.0003471869
119	0xba66d1e1	-0.0008805078
120	0xb93d1059	-0.00018030535
121	0xbad7bb44	-0.0016459008
122	0xbae09cd4	-0.0017136582
123	0xb8878036	-6.461183e-05
124	0x3a04a618	0.000506015
125	0xb9cf8c37	-0.00039586585
126	0xb9261030	-0.00015837024
127	0xba107ab6	-0.00055114494

action_model._continuous_distribution.log_sigma f4 [1, 3]
0	0xbca44466	-0.020052146
1	0xbbb23415	-0.0054383376
2	0xbcbb6d05	-0.022879133

action_model._continuous_distribution.mu.weight f4 [3, 128]
0	0xbc11324e	-0.008862091
1	0xbc9b59c2	-0.018963698
2	0xbc36fe76	-0.011169067
3	0xbc0358a9	-0.008016744
4	0x3c8757bd	0.016521329
5	0xbcfa09b0	-0.030522197
6	0xba8688ae	-0.0010264122
7	0x3b7e7a5d	0.0038830258
8	0xbc9994a5	-0.018747637
9	0x3afd3c2b	0.00193203
10	0x3c665873	0.014059174
11	0x3c50c7ed	0.0127429785
12	0xbc015344	-0.007893387
13	0x3bd86042	0.0066032717
14	0xbc7f9ef5	-0.015601863
15	0xbc4b08e1	-0.012392254
16	0xbc0a9dc7	-0.008460469
17	0xbc326795	-0.010888954
18	0xbc43eaf7	-0.011957875
19	0xbc39cdcb	-0.011340569
20	0xbbf82732	-0.007573032
21	0xb91c2750	-0.00014891964
22	0xbc35f2d8	-0.011105262
23	0x3c991732	0.018687818
24	0xbd144caf	-0.036205944
25	0xbd169eb0	-0.03677243
26	0x3d43a543	0.047765028
27	0xb83ca471	-4.497584e-05
28	0xbcbde6ca	-0.023181338
29	0xbbc7ed1d	-0.006101264
30	0x3ce8fbb5	0.028440336
31	0xbcfae778	-0.030627951
32	0x3baad0b7	0.005212869
33	0x3bdeb311	0.0067962487
34	0x3c0b8f2b	0.008518021
35	0xbc688ff9	-0.014194482
36	0xbc46db9c	-0.01213732
37	0xbbe2059f	-0.0068976427
38	0x3c7223af	0.014779015
39	0x3c307089	0.010769018
40	0x3c4a0330	0.0123298615
41	0xbca82993	-0.020527637
42	0xbcd57c47	-0.026060237
43	0x398ae477	0.0002649163
44	0x3c1b9a3e	0.009497223
45	0x3c1437d7	0.009046516
46	0xbcacc803	-0.021091467
47	0xbc76feac	-0.015075367
48	0xb9fe9933	-0.00048560798
49	0xbcc4a881	-0.02400613
50	0xbbdb4f01	-0.0066927676
51	0xbc36f259	-0.011166179
52	0xbc3517cd	-0.011053038
53	0xbcbf7b54	-0.023374237
54	0x3b8a6e9e	0.0042246124
55	0x3c267f20	0.010162145
56	0x3baea9d8	0.0053303055
57	0xbbb44e22	-0.005502478
58	0xbcc35b0b	-0.023847124
59	0xbc4926bb	-0.0122773005
60	0x3c436b48	0.011927433
61	0xbb3ec82b	-0.0029111009
62	0x3c6d4592	0.014481919
63	0xbcd4a9a4	-0.025959797
64	0x3b988adc	0.004655225
65	0x3c9a11d5	0.018807331
66	0xbca26f42	-0.019828442
67	0xbc0e9b73	-0.008704054
68	0x3b918b57	0.0044416594
69	0x3aec260f	0.0018016713
70	0xbc6b3a0a	-0.014357099
71	0x3bdbb053	0.006704369
72	0x3ab6a1c0	0.0013933703
73	0xbc9d13f6	-0.019174557
74	0xbc74e9d5	-0.014948328
75	0x3bd8bb0d	0.006614095
76	0x3c1f40fd	0.009720084
77	0x398ecf13	0.00027238633
78	0x3bf53420	0.0074830204
79	0x3c8b8d15	0.017035047
80	0x3cbb014c	0.022827767
81	0x3c136c61	0.0089980075
82	0xbcdf81f7	-0.027283652
83	0x3c6bfe63	0.014403912
84	0xbcf2fa39	-0.029660331
85	0x3b18aaa3	0.0023295067
86	0x3b14a02e	0.0022678482
87	0xbca739df	-0.020413337
88	0x3b5a6224	0.0033322657
89	0xbcd7812d	-0.026306713
90	0x3cb0de83	0.021590477
91	0xbc53c843	-0.012926164
92	0x3ce3bfb3	0.02780137
93	0xbc2dd9e2	-0.010611029
94	0x3c6e9d14	0.0145638175
95	0x3c9cfac9	0.019162552
96	0xbd039200	-0.03212166
97	0x3c6871cb	0.014187287
98	0xbc1a2819	-0.009408974
99	0xbadf13ba	-0.0017019429
100	0xbba30ec0	-0.0049761236
101	0x3c6a37a6	0.014295494
102	0x3bbfd070	0.005853705
103	0x3c224274	0.009903539
104	0x3c882369	0.016618447
105	0x3c3a4c80	0.011370778
106	0x3bb37ecd	0.0054777623
107	0xbb904363	-0.0044025644
108	0xbb0924a3	-0.0020926378
109	0x3c2495b3	0.010045457
110	0xbab16693	-0.0013534598
111	0x3d090ee1	0.033461455
112	0xbc53e7ca	-0.012933681
113	0x3beff887	0.007323328
114	0xbb754f13	-0.0037431165
115	0xbb953c76	-0.0045543266
116	0xbc857fb7	-0.01629625
117	0xbbbf63b3	-0.0058407425
118	0x3bb0490b	0.005379801
119	0xbc64cb08	-0.013964422
120	0xbbc9f03d	-0.006162672
121	0xbc74b50d	-0.014935744
122	0x3cbfd7ae	0.023418274
123	0x39e4f202	0.0004366786
124	0x3a8fa766	0.0010959923
125	0x3ceb94f4	0.02875755
126	0x3c4c20d9	0.012459003
127	0x3bfca30d	0.007709867
128	0x3cb309cc	0.021855257
129	0xbc3ace14	-0.011401672
130	0x3bc79198	0.006090354
131	0x3b299657	0.0025876963
132	0xbcf155ab	-0.029459795
133	0x3bf703e0	0.0075383037
134	0xbadd69c1	-0.0016892479
135	0xbc93d556	-0.018046062
136	0xbc3c7717	-0.011503003
137	0xbca5143b	-0.020151248
138	0x3cbac191	0.022797378
139	0xbc4d993c	-0.012548741
140	0x3bca9a90	0.006182976
141	0x3c96b980	0.018399
142	0x3c9c232e	0.019059744
143	0x3b942815	0.0045213797
144	0xbc24063b	-0.010011251
145	0xbcd7cb26	-0.026341986
146	0xbbaf6a47	-0.0053532454
147	0xbcb1c0cd	-0.02169838
148	0x3c320831	0.010866211
149	0x3baece13	0.0053346246
150	0xbc10a52a	-0.008828441
151	0x3c6e21b3	0.014534402
152	0x3bb42f7c	0.0054988246
153	0x3c4f803d	0.012664852
154	0xbc8350f5	-0.016029814
155	0x3c9b2e17	0.018942876
156	0x3c61a228	0.013771571
157	0xbcc5c0b8	-0.024139747
158	0xbba5732c	-0.00504913
159	0xbb7106cb	-0.003677773
160	0xbc24456a	-0.010026315
161	0x3d41e879	0.047340844
162	0x3c945a40	0.01810944
163	0xbcc8cb21	-0.024510922
164	0x3c68e690	0.014215127
165	0xbca2ec0c	-0.019887947
166	0xbca02bb2	-0.019552086
167	0xbd2a2a88	-0.041544467
168	0x3ad1f356	0.0016017954
169	0x38ba9c92	8.8983346e-05
170	0x3cda3dca	0.026640791
171	0x3b1abf98	0.0023612734
172	0xbc0a5749	-0.008443662
173	0x3c2d8947	0.0105918115
174	0x3b8a92a8	0.0042289086
175	0xbbc942bf	-0.00614199
176	0x3d0969ee	0.033548288
177	0x3cc9e270	0.024644107
178	0x3c914e47	0.01773752
179	0xbd06a4c2	-0.03287197
180	0xbc15cd86	-0.009143239
181	0x3d3379ac	0.043817207
182	0x3c60eb97	0.013728044
183	0x3becf0f0	0.0072308704
184	0xbc6b34b5	-0.014355828
185	0x3c57a75b	0.013162459
186	0x3c460ea8	0.012088455
187	0xbb2a4e3d	-0.0025986575
188	0x3c862ef8	0.016379818
189	0xbb4adbe3	-0.0030953817
190	0x3d113b59	0.03545699
191	0x3c0bf8c2	0.008543195
192	0x3871394a	5.7512232e-05
193	0x3c86e13e	0.016464826
194	0xbc6233d2	-0.0138063
195	0xbc94f9e5	-0.018185565
196	0x3c37ea6e	0.011225326
197	0xbb91074f	-0.00442592
198	0xbcf185a7	-0.029482676
199	0xbc1328c5	-0.008981888
200	0x3b19faaf	0.0023495366
201	0xbb1c5619	-0.002385503
202	0x3b1c780a	0.002387526
203	0xbc826752	-0.015918408
204	0x3cfef345	0.03112186
205	0x3cb8cf5c	0.022559814
206	0x3be83848	0.0070867874
207	0xbc32aecc	-0.010905933
208	0xbc7785c0	-0.015107572
209	0x3cd90a80	0.026494265
210	0x3c38e8a8	0.011285938
211	0x3cc5c4ee	0.024141755
212	0x3c8f4eee	0.017493691
213	0xbc93a205	-0.018021593
214	0x3c29ed33	0.010371494
215	0x3c5e449a	0.013566161
216	0x3bf687dc	0.00752352
217	0xbc7f0066	-0.01556406
218	0x3cccc4c2	0.024996165
219	0xbbe97293	-0.007124254
220	0x3ca7038b	0.020387432
221	0xbc79facc	-0.015257549
222	0xbc1811c9	-0.009281584
223	0xbc46f599	-0.012143516
224	0x3b0b9d52	0.0021303487
225	0xbc7f9107	-0.015598542
226	0x3ce8e41e	0.028429087
227	0x3c2936ab	0.010327975
228	0xbc9ce3be	-0.019151565
229	0xbcb1062b	-0.021609386
230	0xbbe7310f	-0.007055409
231	0xbb1167c3	-0.002218709
232	0x3cb7161e	0.022349413
233	0xbc780c2c	-0.015139621
234	0xb9832c7d	-0.00025019413
235	0xbc1213af	-0.008915826
236	0x3c86a1dc	0.016434602
237	0xbb71e9dd	-0.0036913075
238	0x3d2141de	0.039369456
239	0xbb024b06	-0.0019881143
240	0x3ca576db	0.020198276
241	0xbb460ff4	-0.003022191
242	0x3c0d30a1	0.008617551
243	0xbc917542	-0.017756108
244	0xbcafa2d8	-0.021439955
245	0xbc65a755	-0.014016946
246	0x3c296517	0.010339043
247	0xbc3cf6ea	-0.011533478
248	0x3cd75700	0.026286602
249	0xbc9d4624	-0.019198485
250	0xbb2cacad	-0.002634804
251	0xbd388634	-0.04504986
252	0x3b84f3da	0.0040573897
253	0xbb33c4d5	-0.0027430553
254	0x3c2e6853	0.01064499
255	0x3c519453	0.012791711

action_model._continuous_distribution.mu.bias f4 [3]
0	0xb9412a6a	-0.00018421715
1	0x3856015f	5.1022853e-05
2	0xb940ac40	-0.00018374715
