TWP_2/results/DynTouch14/RobotArm.onnx (onnx, 73926 bytes, 7 tensors)

network_body._body_endoder.seq_layers.0.weight f4 [128, 1]
00000000: cfc9 963e 1c5e 52bf 5dfd 5b3e c29a 2a3f
00000010: 221c ae3f 2e94 11bc e659 dbbf d6e2 8ebe
00000020: 8209 2ebe 951e debf c770 7bbe 2cbd 40bf
00000030: 7214 2a3f 3b57 b5be 2797 debe 1060 81bf
00000040: 9a4e 013f 6a4d cb3f 8dcf f5bc e070 ebbf
00000050: 6189 823f f9e2 be3d c13b db3c 51a6 403f
00000060: 3cc6 53bf 4200 fa3e c992 f8be 1ae2 50bf
00000070: f4b8 813f a886 af3f 4222 86be d2b9 dd3e
00000080: 3abc f3be 206b a83f 0b07 46bf d765 3f3f
00000090: 97eb 8d3f d797 a2be 0dbc 4d3f df3a 953e
000000a0: 814a 193f 965b cb3e 4cb4 db3b 1e3e a73e
000000b0: fff7 dd3e c8f1 66bf 15a4 1dbf a9ff 34c0
000000c0: 70c8 f9be 29a9 cf3e ff16 c43d 88b6 013f
000000d0: c519 c03f cc78 543f 93f6 28c0 57fb dcbf
000000e0: ca6b b73f 1ffc b53f 9130 1cc0 7137 44bf
000000f0: f522 38bd fd60 ebbe 1d03 7d3f b12a 023f
00000100: f598 8d3e 5feb a73e 999a ae3f 0412 ebbf
00000110: 7443 06c0 8485 153f 2833 01c0 7a85 1bbf
00000120: 0c0c 243e 5895 5d3f 20b7 593f 2ad9 31bf
00000130: 0644 cebe 2c18 eb3f c468 a0bd 4197 d4be
00000140: f132 9d3e 7f2e bdbf d9d6 64be 9866 e7bf
00000150: c667 d23f 652f 3dbf 760b e93e 636c da3c
00000160: da35 e3bf 47a5 6abf e365 3e3f b3db 4e3f
00000170: f160 a83e 3819 813f d1a0 b0bf efa3 9fbe
00000180: a17e cdbf 4f83 8cbe ef80 703f 3f80 603f
00000190: dc5d 4f3e ced7 a73e 5ae7 d1bf 99a4 143f
000001a0: 833b 9cbd 1792 2240 daf5 cf3f 10b8 42bf
000001b0: f1c7 0dbf d5b9 cdbe 15c1 c53f c723 c6bf
000001c0: 4f71 c0bf b909 dc3d be38 39c0 7362 a73e
000001d0: c4ef 163f eb7c 87be 04f6 ce3d 5843 2abe
000001e0: e8b5 ba3e 8eb2 5ebf dadc b0bf d4e2 15bf
000001f0: 0373 15c0 7c85 a2be 55ee 663f be19 dc3c
0.29450843 -0.8217485 0.21483369 0.6664239 1.3602335 -0.008885426 -1.713681 -0.27907437
-0.16995814 -1.7353083 -0.2455474 -0.75288653 0.6643745 -0.35418114 -0.43474695 -1.0107441
0.5051056 1.5883 -0.030006194 -1.8393822 1.0198175 0.09320635 0.026761891 0.7525378
-0.82724357 0.48828322 -0.48549488 -0.81595004 1.0134568 1.3712969 -0.26198012 0.43305832
-0.47604543 1.3157692 -0.77354497 0.7476477 1.1087521 -0.3175647 0.8036507 0.29146478
0.5987931 0.39718312 0.0067048427 0.3266458 0.43353269 -0.9021268 -0.61578494 -2.8281043
-0.48785734 0.40558746 0.09574699 0.50669146 1.5007864 0.8299682 -2.6400497 -1.7264203
1.432977 1.4217566 -2.4404643 -0.76647097 -0.044955213 -0.45972434 0.98832875 0.5084639
0.2765576 0.3279676 1.364093 -1.8364873 -2.097867 0.58406854 -2.0187473 -0.60750544
0.1602022 0.86556005 0.8504505 -0.6947199 -0.40286273 1.8366752 -0.078324825 -0.41521648
0.30702928 -1.4779814 -0.22347583 -1.8078184 1.6437919 -0.73900443 0.45516557 0.026663011
-1.7750809 -0.91658443 0.74374217 0.80803984 0.3288646 1.0085821 -1.3799077 -0.3117976
-1.6054269 -0.2744393 0.9394674 0.8769569 0.20250648 0.32781833 -1.6398728 0.58063656
-0.076285385 2.5401666 1.6246903 -0.7606211 -0.5538321 -0.4018084 1.5449549 -1.5479668
-1.5034579 0.10744042 -2.8940883 0.32692298 0.58959603 -0.26462492 0.101055175 -0.16627252
0.36466908 -0.869912 -1.3817399 -0.5854924 -2.3351448 -0.31742465 0.90207416 0.026867744

network_body._body_endoder.seq_layers.0.bias f4 [128]
00000000: 6cb8 383e 05e2 87bd be94 fa3d f36b 483c
00000010: d236 1c3e 26b9 3a3e 2074 9e3b e78d a63d
00000020: 1183 95bd ae7a 95bd 529e bebd 99a5 d43d
00000030: a5fe 953d 92b5 95bd 6d52 0ebd e05a 9f3c
00000040: d4fa d33d 97a9 0c3e d16b 45be f29d c13d
00000050: d625 e93d 7731 593e c733 48be 18e4 a23d
00000060: c2ac 0bbe 6d5a 143e cd82 ff3b 62bc 1abe
00000070: c495 203e a4fa 213e 2c43 033e ecb4 613e
00000080: 026e e83d 5b32 903d 8b96 20bd 0ed9 be3d
00000090: 0183 56bd ae09 80bc 5c9a 573e 88c0 2e3e
000000a0: cf8c a33d 3557 aabd 9b09 523e 6d5d 1dbe
000000b0: 4acc de3d 5612 a83d c8aa 303e 3102 dd3d
000000c0: 1940 f6bd e18f 683d 055f 07be 4c52 8f3d
000000d0: b14e 243e aea2 223e ebac 193e 50f3 2a3e
000000e0: d1b7 893c d298 463e 86ca 213e b45e 023d
000000f0: 3336 aabd 2b38 2f3d fba1 91bd 6f74 303e
00000100: 4305 e4bd ef0f 473e 8d72 0f3e dfa1 3d3e
00000110: c135 f73d e6b0 c43d 09ba 7ebd c83f 23be
00000120: 2d6b 1c3e b1f9 9a3d f957 5e3c dc4b e13d
00000130: 5db6 b1bd 3696 1c3e 880c 03be bb1e 893d
00000140: d93c 713d b7ae 063e 6fa4 54bb 56a0 a73d
00000150: 1522 2d3e 794d f73d 2dba f33c 6ffa 573e
00000160: 0089 243b 8ddf 27be 1989 c73d 1bb2 193e
00000170: b36f 92bd b917 073e 68ae 043e 2916 4abd
00000180: 8271 8d3d 5335 013e 0c11 bc3a 3f22 dc3c
00000190: 8bb6 2f3e e916 1d3e f3b0 be3d a146 de3d
000001a0: d3a4 363e dbb3 c73d fa80 c33d f078 b83d
000001b0: 6734 efbd 2812 fcbd f5ae 183e 6f2b ebbd
000001c0: 98f1 4d3d 4f81 583e 2e51 833d 6ffa 2c3e
000001d0: c523 db3d f3f7 a83d 8ab5 1d3e 456c 5bbe
000001e0: 7079 493e e25c 64bc 390a c23d 3fdf 813d
000001f0: d1a1 cc3d 800a f73d 353e 263e bcbe 0abe
0.18039101 -0.06634907 0.122354016 0.012232768 0.15255287 0.18234691 0.0048356205 0.081325345
-0.073003896 -0.0729879 -0.09307541 0.10383148 0.0732396 -0.073100224 -0.034746576 0.019452512
0.10350576 0.13736568 -0.1927941 0.09453954 0.1138417 0.21210276 -0.19551001 0.07953662
-0.1364012 0.1448762 0.007797575 -0.15110925 0.15682131 0.15818268 0.12818593 0.22041672
0.11349107 0.070408545 -0.03920607 0.09318744 -0.05237103 -0.015629616 0.21054977 0.17065632
0.079858415 -0.08317415 0.20511477 -0.1536767 0.10878809 0.08206622 0.17252648 0.107914336
-0.120239444 0.05677784 -0.13219841 0.06998119 0.16045643 0.1588237 0.15007369 0.16694379
0.016811283 0.19394234 0.15799913 0.031828597 -0.08311119 0.042778175 -0.071109734 0.17231916
-0.11133816 0.19439672 0.14008541 0.1851878 0.120707996 0.09604053 -0.062189136 -0.159423
0.1527526 0.07567156 0.013570779 0.11000797 -0.08677361 0.15291676 -0.12797749 0.066953145
0.05889592 0.13152586 -0.0032446643 0.081848785 0.16907533 0.120753236 0.029751861 0.21091627
0.0025106072 -0.16393872 0.09742946 0.15009348 -0.07150211 0.13192643 0.12957156 -0.04933754
0.069064155 0.12617998 0.0014348342 0.026871799 0.17159478 0.15340771 0.09311094 0.10853315
0.17836313 0.097511016 0.09546085 0.09007442 -0.11679917 -0.123081505 0.14910491 -0.11482894
0.05027923 0.21143077 0.06411968 0.16892408 0.10700182 0.082504176 0.15401283 -0.2142802
0.19675231 -0.013938161 0.09474606 0.06341409 0.099918015 0.120625496 0.16234668 -0.13549322

network_body._body_endoder.seq_layers.2.weight f4 [128, 128]
00000000: 4652 033e ebc6 6abe 5192 a4bd a880 70bd
00000010: eee3 86bd bd10 10bd 94f8 d0bd 01c4 80bd
00000020: 0a65 0dbe 92df 0ebe b222 d3bd ea80 c0bc
00000030: 6c3c f6bd 0e6d d9bd 84fd 34be 175d 953d
00000040: 7c9d 9cbd 87a1 a4bd 1c33 19be 3bac cebd
00000050: 3e4d f9bc a455 033d 41e4 30bd 3769 8fbd
00000060: 5618 47be ef6b 5d3c 5541 bcbc aa9e 89be
00000070: e2c2 1bbd 4cac 81bd 4dde 4abd bc9c d6bd
00000080: 32b9 dcbd d430 65bd d3ee a0bc ad75 11be
00000090: 08ec d6bd 6f1d 1f3d 5105 79bc 1703 edbb
000000a0: 06c1 a5bd 58e2 04be c1ce 9e3d 6333 b6bd
000000b0: dc6b c23c b495 cd3b 050e edbd 1019 753d
000000c0: 7e0a 5fbd dd84 e93c 2e82 dabd a23f 913d
000000d0: 9fac 52bd 0150 cebb 6305 87bd 2abf cbbd
000000e0: 462b 003d a2f1 a1bc df91 893d 898d 4b3c
000000f0: 574e 5dbc cb84 eebd cdfb 023d b0fa 40bd
00000100: fc9f 36be 6f57 c03c 1ba9 b9bd 08b3 29bd
00000110: 132d 973c 82a0 b8bd d486 6abd 80d3 09bd
00000120: 9afc b5bc 4d2a c83c 42f3 893d f2a3 0b3e
00000130: ebf5 9e3d 0847 35bd f98f 07be ec0b ddbb
00000140: 4f65 2bbc c16c 1abe a99d 633d d127 373e
00000150: 3bd3 223b ef04 9d3d 5b5a 383d 4013 d53d
00000160: 8325 253c 3e0f 71bd 0f17 e2bb 7838 bc3c
00000170: 2263 86bd 9703 90bb e01e 033e 5aec e3bb
00000180: 9b76 b73d bf75 893d ee15 a03d cb14 df3d
00000190: 7e3e b43d d46f 453e db28 113d 548e 223d
000001a0: 9dee 70bd 8120 1cbe 513e 0bbe c35e 323d
000001b0: 60a2 42be a1af 99bd 7700 c13d 2b64 b03d
000001c0: fadb e33d 1bc1 e33d c0ec e03c 58c0 5b3d
000001d0: cecb 06be a099 85bc 4d74 1a3d 01dd 1bbd
000001e0: 6642 e23d 056e a7bd bd4e b03c 1a59 e3bd
000001f0: 61bc 013d ebbd a9bd 3037 4d3c 015e 1abe
00000200: 7b92 a93c 5ee0 86bd 105f ff3d 531e 43bd
00000210: d4f1 c73c 3a05 ca3d d52d 36be 4d84 d6bd
00000220: d87a 2dbd 6127 d13d 08f0 b5bd 1e5e 56bd
00000230: e365 b6bc acf5 b83d 5fb3 a03d e1e2 1e3d
00000240: 2028 5dbb 1b9e 52bd 3d31 17be 90c2 c5bd
00000250: 19a8 11bd 8ac1 58bb 2f9b 9bbd 5512 31be
00000260: 5f94 94bd 8d93 d63d 7225 a83c eaaf 54bd
00000270: 0b58 80bd 942d bcbc 248e 193e b9c4 833d
00000280: 8cd4 dfbb 56ff d63d 4629 98bd 9e44 8c3d
00000290: 9e61 edbd f208 6d3c a885 7dbd 5bd7 b6bd
000002a0: 2719 803d 0faf f4bd 7dcf 8ebc 3c6e 983d
000002b0: b0b9 57bd de56 b93d 5690 433d dfba 593e
000002c0: 4fed d03d 579e 433c 3340 17be 7438 4f3d
000002d0: c45f 093c 3b9e 2ebe 4fcb 043e 1363 13be
000002e0: 6d6b 783d 9a3f b4bd 3fc2 c9bc 6fc6 f43d
000002f0: a18b d6bd 7d4b d7bb 2809 ef3d 41dc febd
00000300: dd2d 51be 17f9 5fbd cd64 dcbd 489b 793d
00000310: 1425 00be 7da7 28bd 6edb 07be b629 56be
00000320: d7c1 c7bd c762 d3bd 0120 24be 612a 303d
00000330: c922 eebc a38d f23c 82c3 a1bd 8ab3 053d
00000340: 609b 3a3d 2ec6 c8bd dfd8 17be 96c7 583c
00000350: bb91 13be 7f03 2fbd 1a04 a13c 9ff4 fd3d
00000360: a854 afbd 8012 223d 8476 d23d c48c edbc
00000370: 089e 283e 6919 ebbd fb7f 80bd 46e9 2cbd
00000380: 865b b43b e224 4f3d 0eec f8bd dce4 27be
00000390: c984 1fbc 6f34 3d3e e25f c1bd 5f17 e93c
000003a0: 2df8 f5bd 85ac 203e 13c1 e23c 7a01 f8bc
000003b0: 8e31 5fbd a56d 84bd fa54 1fbe 7fe6 5ebd
000003c0: bf66 26bd 1d63 88bd fe07 e43c 186e 40be
000003d0: dbac 523d 8d59 29be ab7f 733d 43fd 5dbb
000003e0: 5e41 913c aaa4 d538 2bb2 3dbe b35d 843e
000003f0: f36a 3e3d 09fb d23c abc3 9a3c a641 793c
0.12824354 -0.22927444 -0.0803572 -0.058716446 -0.06586443 -0.035172213 -0.102036625 -0.06287385
-0.13808075 -0.13952473 -0.10309352 -0.023498971 -0.12023243 -0.10616504 -0.17674834 0.07293146
-0.07647225 -0.080386214 -0.14960903 -0.10091444 -0.03043234 0.032064095 -0.04318643 -0.0700249
-0.19442877 0.013514503 -0.022980371 -0.26878864 -0.03802765 -0.06331691 -0.04952841 -0.104791135
-0.10777511 -0.05595477 -0.01964513 -0.14205046 -0.10494238 0.03884643 -0.015199021 -0.0072330344
-0.08093457 -0.12976968 0.07754279 -0.0889652 0.023733072 0.0062739495 -0.1157494 0.059838355
-0.054453366 0.028505737 -0.10669361 0.07092215 -0.051434156 -0.0062961583 -0.06592824 -0.09948571
0.03129127 -0.01976854 0.06717276 0.012423881 -0.013507447 -0.11646422 0.031978417 -0.047114074
-0.17834467 0.023479192 -0.090654574 -0.041430503 0.01845411 -0.090149894 -0.05725749 -0.033648968
-0.022215176 0.024434233 0.06735851 0.13636759 0.07761749 -0.044257194 -0.13238515 -0.006745806
-0.010461166 -0.15080549 0.05557028 0.17886283 0.0024845141 0.07666957 0.045008045 0.10404062
0.010079744 -0.058852427 -0.0068997215 0.022976145 -0.06561877 -0.004394959 0.12804747 -0.0069556655
0.08958169 0.067119114 0.07816683 0.10892638 0.08800982 0.1928094 0.035439353 0.039686516
-0.05882131 -0.15246774 -0.1359799 0.043547403 -0.19007254 -0.07504202 0.09423917 0.086128555
0.111259416 0.11120816 0.027456641 0.05365023 -0.13163683 -0.016308606 0.03770857 -0.038052563
0.11047821 -0.081752814 0.02152192 -0.11100979 0.031673793 -0.08288177 0.012525365 -0.15074922
0.02069973 -0.065857634 0.124693036 -0.04763634 0.024407305 0.09864278 -0.17790921 -0.10474453
-0.04235348 0.10212589 -0.08883673 -0.05233585 -0.02226538 0.09031233 0.07846712 0.038790587
-0.003374584 -0.051420312 -0.14764877 -0.096562505 -0.0355607 -0.0033074343 -0.07597958 -0.1729215
-0.07254862 0.10477362 0.020525668 -0.051925577 -0.06266793 -0.022970952 0.14995629 0.06434006
-0.0068307575 0.1049792 -0.07429747 0.06849025 -0.115908846 0.014467465 -0.061895043 -0.089277945
0.062547974 -0.11947452 -0.017432922 0.074429005 -0.05266732 0.09049772 0.04774507 0.21262692
0.10201513 0.011939607 -0.14770584 0.050590947 0.008384649 -0.17052548 0.12968181 -0.14393263
0.060649324 -0.088011935 -0.024628757 0.11951911 -0.10475851 -0.006570278 0.11671668 -0.12444354
-0.20427652 -0.05468091 -0.10761414 0.060939103 -0.12514144 -0.041175354 -0.132673 -0.20914349
-0.09753769 -0.10321575 -0.16027834 0.043009166 -0.029069321 0.029608553 -0.07898618 0.032641925
0.045558333 -0.09803425 -0.14828824 0.013231179 -0.1441106 -0.042727944 0.019655276 0.124001734
-0.08561069 0.039568424 0.10276511 -0.028997786 0.16466534 -0.11479456 -0.0627441 -0.042214654
0.0055040745 0.050572284 -0.12154399 -0.16395897 -0.009736248 0.18477033 -0.09442116 0.028453527
-0.120102264 0.15690811 0.027679956 -0.030274142 -0.05449062 -0.064662255 -0.1555976 -0.054419037
-0.04062533 -0.06659529 0.027835842 -0.18791997 0.05143438 -0.16538067 0.059447926 -0.003387288
0.017731365 0.000101873025 -0.18524997 0.25852737 0.046488713 0.025754469 0.01889213 0.015213406

network_body._body_endoder.seq_layers.2.bias f4 [128]
00000000: ec7b 793d 366b 143d ee6f 3ebb 2113 47be
00000010: 5701 243e f8cf 32be 9cdc c33d cf19 41be
00000020: 9a71 01be 9bd7 cd3d 09c8 de3d bee6 b93d
00000030: 85e4 293e 937f e4bd 349f 9b3d 3082 cd3d
00000040: 61ea 29be 3451 b43d 0e37 ff3d 9ca9 073e
00000050: ec70 30be efee 32be 7fe1 f63d 8c35 90bd
00000060: 3fd9 1cbe 0c83 a0bd aef9 87bc a9b0 ffbd
00000070: 66a7 f7bd 2ae4 0a3e d39c 3ebe 9e63 1f3d
00000080: 9a91 e8bd 4935 3cbe 086c 56be e606 efbd
00000090: 1c4e 26be 387f 4bbe 22b6 15be 58f6 c1bb
000000a0: f8cd 0fbe 8ca8 a4bd 1b08 fb3d d5d9 f6bc
000000b0: c7a7 16be 3d55 34be 5c21 3fbe 8c6b af3d
000000c0: 3280 e33d c3cd e1bd f880 f3bd b8d5 29be
000000d0: 8242 85bc 733f 1fbe 8f54 8e3d ecd1 e5bd
000000e0: c1ae 28be c50c 47be b456 043e 84d7 8f3d
000000f0: 27d0 bcbd 6c90 9c3d 8d59 f43d 5e8b 4dbe
00000100: 5be1 ff3d c506 bdbd 5144 d9bd 9541 f1bd
00000110: 6bfe bf3d 8b88 2dbc 4658 46be e9c0 b53d
00000120: 7792 80bd 7ce5 4dbe b66a 75bd 6234 d1bd
00000130: 7099 f53c c5f0 123e cd39 ddbd 74fe 433d
00000140: 6396 083e 1908 513d c1fa 21be 249f 9ebd
00000150: 8d92 cd3d 0502 09be 5510 90bd 41ed 22be
00000160: 52ac 38be 485f 60bd d7b7 14be 0c52 2bbe
00000170: 1ba5 f5bd 19c0 f53d e9f3 4a3d 0f52 12be
00000180: 5b64 96bd b0a0 0e3e 2dde d23d c8b9 0d3e
00000190: 6a37 bcbd d2cf de3d d85e 64bd 9075 af3d
000001a0: d330 21bc cb86 e63d d5a9 d0bd 6100 d73d
000001b0: f9cf 29be 96b3 51be d724 0d3e 65f6 cabd
000001c0: 1aa3 42be ffe1 ccbc 9819 d1bd cbb7 b2bd
000001d0: f2f0 c53d 1b99 0bbe dfda 47be f7a3 073e
000001e0: 487e a2bd b81b 3abe 7ec7 f5bd 55d4 a2bd
000001f0: eb6e 083d 37a1 f9bd 0237 53bd 2f06 00be
0.060909197 0.036235057 -0.0029058415 -0.19440891 0.16016136 -0.17462146 0.09563562 -0.18857501
-0.12640992 0.10050889 0.108779974 0.09077214 0.1659108 -0.11157145 0.07598725 0.10034597
-0.16593315 0.08804551 0.12461673 0.13248295 -0.17230576 -0.17473958 0.12054729 -0.07041463
-0.15317248 -0.07837495 -0.016598549 -0.12484867 -0.120924756 0.135636 -0.18614511 0.03891336
-0.11355896 -0.18379702 -0.20939648 -0.11671238 -0.16240734 -0.19872749 -0.1462026 -0.005919259
-0.14043415 -0.0803996 0.12257405 -0.030133167 -0.1471244 -0.17610641 -0.1866507 0.08565435
0.11108436 -0.11025574 -0.11889833 -0.16585433 -0.016267065 -0.15551548 0.06949722 -0.1122168
-0.16472913 -0.19438465 0.129237 0.07023528 -0.092193894 0.07644734 0.11931143 -0.20072696
0.12494155 -0.09229807 -0.106087334 -0.11780087 0.09374698 -0.010591636 -0.19369611 0.08874685
-0.06277936 -0.20107073 -0.05991622 -0.10215069 0.029980391 0.14349659 -0.1080204 0.047850087
0.13338618 0.051033113 -0.15818311 -0.077451974 0.10037718 -0.13379677 -0.07034365 -0.15910818
-0.18034485 -0.054778367 -0.14523254 -0.16730517 -0.11994382 0.1199953 0.049549017 -0.14289115
-0.0734336 0.13928485 0.10296283 0.13840401 -0.09190257 0.10879482 -0.055754513 0.08567345
-0.009838301 0.112561785 -0.10188643 0.10498119 -0.16583242 -0.20478663 0.13783585 -0.09910277
-0.19007531 -0.025010107 -0.1020996 -0.08726462 0.09665097 -0.13632624 -0.19517086 0.13246141
-0.079342425 -0.18174636 -0.12000941 -0.07950655 0.033308905 -0.121889524 -0.05156613 -0.12502359

action_model._continuous_distribution.log_sigma f4 [1, 3]
00000000: 914a 99be acaf 27be 7d49 c7bd
-0.29939702 -0.16375607 -0.09730814

action_model._continuous_distribution.mu.weight f4 [3, 128]
00000000: 5eb5 67bd fdc8 fabc 2b0e c4bd 848c fcbc
00000010: b3e1 10bd e9e1 de3c 9c57 47bd 86dc 6f3d
00000020: 7e6b 9f3a f4b5 58bc 736c e93b 938d bebc
00000030: 20d1 5d3c f949 c53d f7c5 3fbd 90e7 13bc
00000040: cfbc 21bd 3c0a 7bbc 7431 c5bb 6cdf b93c
00000050: 2f9f c0bc b00b bb3b 5400 b5bb 199b 5ebd
00000060: 1a60 90bd c51d 7ebd 67e4 cc3c 351e c8bc
00000070: a74f f9bb 0dfe e4bc 336c 263c 5ff6 93bc
00000080: 9a09 24bd b5fd 793c 8196 573d faad 28bb
00000090: 2fed 45bd 5132 eab9 ed78 edbc a3f9 60bd
000000a0: 7024 33bd 6801 9c3d 5116 bbba c366 143d
000000b0: 691b c3bc b667 0a3d 578c 33bd 8693 2f3c
000000c0: c0bc a5bb 2491 873c 0aea e73b d48c 203d
000000d0: 08c3 a13c 89ac 6c3d e194 00bd 3385 1ebd
000000e0: 1b08 0abc caf8 2e3d d5be 143d 1947 0b3d
000000f0: 6d7f d7bd 6774 64bc f508 28bc fded fabc
00000100: d53c 263c e5ab 8dbc 5d45 9c3d 8612 bbbc
00000110: d087 47bc 21bc ffbc f08c 7abb 59b4 e6bc
00000120: ee87 59bd d06a 013c e17a 97bd b28a 8bbc
00000130: 9dcc fcbb 693a 5b3d 5aeb 0abd f373 1d3d
00000140: 8ce9 72bd a15f 0e3d 2d23 9ebd 1a0f 71bd
00000150: c495 0e3d 43fc cabc 6ea7 2bbd f306 28bd
00000160: 4806 01bc f956 9fbd ae1f b6bb c4cf 3c3d
00000170: b694 7e3c af45 cdba 1927 94bc ba87 83bd
00000180: 0481 1abd ae9e aa3c a8bf 86bc b05b 84bb
00000190: bc1c 33bd 6fe0 c93c 02b3 cabc 6b68 173d
000001a0: 1d04 d93c 789c 0fbd 7989 a8bc 1151 a7bc
000001b0: 24ed 49bd 2b70 9d3c dfbb cf3b a2bd 12bd
000001c0: 7e4c 083d 3718 0ebe 0e8e 46bd c583 9b3c
000001d0: bd11 593a 86e9 49bd b924 aa3c e326 eabb
000001e0: 38d9 2fbd 8931 75bc a2e6 453c 90d4 14bd
000001f0: 0dca 44bd bcaa 24bd f105 5abd 6e71 2ebd
00000200: d63a 9dbc 3d5d c43c c85a 4f3d e5dc 2b3e
00000210: 6e47 0ebd 4cb7 f93d 40af c53b 36e6 313e
00000220: 9e9a 2f3d 4f1c 7cbd 4fe0 d3bc d9d5 cfbc
00000230: acc0 3bbd 68ac 503e 894a 25bc 2cd7 84bd
00000240: c7d5 003e ed8a 89bd 6137 e0bc 4444 3ebc
00000250: e459 003e dea6 e33d 2708 35bd c2b9 153d
00000260: 473d 113e c8f9 c33d 6fec 663c 0894 b13d
00000270: f94f f03d a58c e9bb 8d40 083e 8a55 b6bc
00000280: ed74 df3d fae7 fb3d 7d9f 293e c606 8c3d
00000290: 099d bb3d 0897 1c3e 90e6 f03d 00e1 803c
000002a0: d940 d93d 3104 d73d 3664 65bb 7232 af3c
000002b0: 9f58 9a3d 661b f43d 3651 bd3d 1422 43bc
000002c0: dc6a 9bbd b079 a13d 9406 0b3b f270 343e
000002d0: 9393 ae3c 08e6 423e 4a92 013c 9904 d73d
000002e0: 0751 ee3d c36d 393e 52a9 1fbc fd9b fabc
000002f0: 97f3 c93d a9ab d5bb 3a2f 84bb 6bf7 0f3e
00000300: 493b 77bd aff4 f73c 6e58 e83d f3d3 883d
00000310: c803 88bc e211 ba3c e1ff 113e d349 07bd
00000320: 1d91 9f3d c0b9 033e 7270 d83c ba53 093d
00000330: c556 4abc cc49 b6bd 0aac 803d 3f78 b3bc
00000340: 9911 e1bb a5d0 c1bc 77d9 263e b961 b73d
00000350: c0b7 4ebc 45d9 f93d 66b7 733c ca65 e73d
00000360: 4e83 ea3d d9a4 8c3d 2b0f d03d 242e 313e
00000370: 5b78 d03d e791 01bd 2314 f6bb ec29 113e
00000380: 7d6f 8f3d de0e 1bbd 3e38 98bd dfa0 aabc
00000390: bd6f ca3d 5954 143c 26a8 343d b7f4 45bc
000003a0: 23dc 113c 91e0 6a3b af23 813d e3aa 9fbd
000003b0: 6a6d ef3d f06e 2b3e a59a 75bd d97d a83d
000003c0: ac8b 0e3e b7d3 8c3d bffb f63d 20e7 563d
000003d0: ebb3 71bc c100 b13d 247f 393e a7b4 a7bc
000003e0: a3dd c23d 8247 013e 7b71 b23d 7e39 443d
000003f0: ff3f 503b 87af f83d 84f1 373d 8066 9a3d
-0.05656945 -0.030613417 -0.09573015 -0.030828722 -0.035371494 0.027207332 -0.048667535 0.058559917
0.0012162772 -0.013226975 0.007123524 -0.023260867 0.013538629 0.0963325 -0.046819653 -0.009027377
-0.039486703 -0.015322264 -0.006017858 0.022689544 -0.023513405 0.0057081804 -0.0055237208 -0.05434713
-0.0704958 -0.06204011 0.025011254 -0.024428466 -0.0076083723 -0.027953172 0.010157633 -0.018061815
-0.04004822 0.015258242 0.052633766 -0.0025738464 -0.0483219 -0.00044669447 -0.028988326 -0.054925572
-0.04373592 0.07617456 -0.0014273619 0.036230814 -0.023816781 0.033790313 -0.04383501 0.010716325
-0.005057901 0.0165487 0.00707746 0.039196804 0.019746318 0.05778173 -0.031391982 -0.038701247
-0.008424784 0.042717732 0.036314804 0.03400335 -0.105223514 -0.013943768 -0.010256042 -0.03063106
0.010146339 -0.01729388 0.076304175 -0.022835981 -0.012178376 -0.031217637 -0.0038230978 -0.028162168
-0.05310815 0.007899001 -0.07396484 -0.017033909 -0.0077148215 0.0535225 -0.033915855 0.038440656
-0.05930476 0.034759168 -0.07721553 -0.058852293 0.034810796 -0.02477849 -0.04190772 -0.041022252
-0.007875033 -0.077802606 -0.0055579757 0.04609658 0.015538385 -0.0015661026 -0.01808505 -0.06422372
-0.037720695 0.020827617 -0.01644881 -0.0040392503 -0.043728575 0.024643151 -0.02474356 0.036964815
0.02649122 -0.03506133 -0.020573365 -0.020424398 -0.04929842 0.019218525 0.0063395347 -0.03582538
0.033276074 -0.13876425 -0.048475318 0.018983731 0.0008280536 -0.04929497 0.020769464 -0.007145749
-0.042931765 -0.014965423 0.012078913 -0.036335528 -0.048044253 -0.040201887 -0.053228322 -0.042588644
-0.019193094 0.02397024 0.050623685 0.16783483 -0.03473609 0.12193164 0.0060328543 0.17372975
0.042872064 -0.061550435 -0.025863795 -0.025370525 -0.045838043 0.20378268 -0.010088571 -0.06486353
0.1258155 -0.06715951 -0.027370157 -0.0116129555 0.1253429 0.11115812 -0.044197228 0.036554106
0.14183532 0.09569126 0.014094456 0.08670813 0.117340036 -0.007127362 0.13305874 -0.022257585
0.10910974 0.123001054 0.16564746 0.068372294 0.091608115 0.15291989 0.11762726 0.015732288
0.10608072 0.10498846 -0.0035002357 0.021386359 0.075364344 0.11919288 0.092440054 -0.01190998
-0.07588741 0.07884538 0.0021213638 0.1762121 0.021310603 0.19033062 0.007908413 0.10498924
0.116365485 0.18108277 -0.009744959 -0.03059196 0.09860914 -0.0065207076 -0.00403395 0.14059226
-0.060359273 0.030268041 0.113449916 0.06681051 -0.016603366 0.022713605 0.14257766 -0.03302939
0.0779135 0.12863827 0.026420806 0.033527113 -0.012349789 -0.089007944 0.06282814 -0.021907924
-0.006868553 -0.02365906 0.16293894 0.08954186 -0.012617052 0.12199644 0.014875269 0.112987116
0.11450826 0.0686738 0.10159143 0.17302758 0.10179206 -0.031633284 -0.0075097247 0.14176148
0.070036866 -0.037855975 -0.07432602 -0.020828662 0.09884594 0.009053313 0.04410567 -0.01208227
0.008902582 0.0035839418 0.06305634 -0.07796266 0.11690791 0.16741538 -0.059961934 0.082271285
0.13920468 0.06876319 0.120597355 0.05246651 -0.014752368 0.08642722 0.18114907 -0.020471884
0.0951493 0.12624934 0.08713051 0.04790639 0.0031776426 0.12142854 0.04490806 0.075390816

action_model._continuous_distribution.mu.bias f4 [3]
00000000: f953 453d c9cb 41be 4c92 a1bb
0.048175786 -0.18925394 -0.00493077
