TWP_2/results/StaticDragDrop2/RobotArm.onnx (onnx, 73052 bytes, 7 tensors)

network_body._body_endoder.seq_layers.0.weight f4 [128, 1]
0	0x3e805a6a	0.2506898
1	0xbed76a59	-0.42073324
2	0x3f7fd8c1	0.99940115
3	0xbeb5d181	-0.355114
4	0x3de2b968	0.1107052
5	0xbfa40c47	-1.2816247
6	0xbf13f3c2	-0.5779382
7	0x3ea4d774	0.32195628
8	0x3e75b140	0.23993397
9	0xbf82da8b	-1.0222944
10	0xbfa69f17	-1.30173
11	0x3fedd59a	1.8580811
12	0xbe95f4f8	-0.2928846
13	0xc00e9b96	-2.2282462
14	0xbdb2c79b	-0.08729478
15	0x3f0724b5	0.52790385
16	0xbfbf784c	-1.4958587
17	0xbe470736	-0.19436345
18	0x3fd3ecd9	1.6556655
19	0x3e2e316c	0.1701104
20	0xbf82e7b4	-1.022696
21	0xbe3e5c6f	-0.18589948
22	0x3f95fd26	1.171788
23	0xbfd7db2e	-1.6863763
24	0xbf066fd0	-0.5251436
25	0xbfc3593c	-1.5261607
26	0x3f06dcdb	0.5268075
27	0xbf26d8d4	-0.65174603
28	0x3fef9545	1.8717428
29	0xbdecee69	-0.11568911
30	0xbf379562	-0.71712315
31	0x3f867a01	1.0505983
32	0xbd6c7b68	-0.057734877
33	0xbed399b7	-0.41328213
34	0x3f38a5b2	0.7212783
35	0xbf5bbfcb	-0.8583953
36	0xbfdefa6b	-1.7420171
37	0x3e96025b	0.29298672
38	0x3e486e6d	0.19573374
39	0x3f9157e7	1.1354951
40	0x3f859b5f	1.043804
41	0x3f0e8fae	0.5568799
42	0xbfacf782	-1.3513033
43	0xbf351f34	-0.7075074
44	0xbd49822e	-0.049196415
45	0x3fae09aa	1.3596699
46	0xbf5ec60b	-0.8702094
47	0x3e6f8c65	0.233934
48	0xbff1cccc	-1.8890624
49	0x3fe3763e	1.777046
50	0xbfa63287	-1.298417
51	0xbf88fb03	-1.0701603
52	0x3f89573b	1.0729746
53	0x3f62403a	0.8837925
54	0xbf0ea10d	-0.55714494
55	0xbf02e665	-0.51132804
56	0xbf1c7ab4	-0.6112473
57	0xbe36f10b	-0.17865388
58	0xbf28af49	-0.65892464
59	0xbb923b16	-0.00446261
60	0x3e76fed0	0.24120641
61	0x401ab404	2.4172373
62	0xbf9eeba1	-1.2415658
63	0x3e9a5060	0.30139446
64	0x3f8dace9	1.1068393
65	0xbf52358a	-0.82112944
66	0x3ff69df6	1.9266956
67	0x3f1a7cbf	0.603466
68	0xc0184015	-2.3789113
69	0x3e7f1689	0.2491094
70	0x3ed16f04	0.4090501
71	0xbf4d4d0c	-0.8019569
72	0xbf0277f4	-0.50964284
73	0x3fa99895	1.3249689
74	0x3fa008af	1.250265
75	0xbeec711e	-0.46180052
76	0x3ef925ea	0.4866174
77	0xbf5e4e1c	-0.86837935
78	0x3e062f4b	0.13103978
79	0x3eeedeca	0.4665435
80	0xbd05f116	-0.03270062
81	0xbc8f8e3d	-0.01752388
82	0x3ef2a61d	0.4739236
83	0x3efa50e2	0.48889834
84	0x3f30a719	0.6900497
85	0xbe0c4f64	-0.1370216
86	0xbe5a2fb8	-0.21307266
87	0x3f37c2e4	0.71781754
88	0xbe4acfff	-0.19805907
89	0xbed15009	-0.40881374
90	0x3f1bea93	0.60904807
91	0x3f1ac640	0.60458755
92	0xbf3aa998	-0.7291503
93	0xbf336952	-0.7008258
94	0x3fcbd60e	1.5924699
95	0x3f6b3060	0.9187069
96	0x3f9af33f	1.2105483
97	0x3ec908cb	0.3926452
98	0xbfcac4d4	-1.5841317
99	0x3f3c2633	0.7349579
100	0xbf13e5e3	-0.57772654
101	0x3fab2fb3	1.3373932
102	0x3e54c684	0.20778853
103	0x3f23c29c	0.63968825
104	0x3f37f8a9	0.718638
105	0x3faaca63	1.3343014
106	0x3ebb1649	0.3654044
107	0xbf484ef6	-0.78245485
108	0xbe8fa67e	-0.2805671
109	0xbe596f14	-0.21233779
110	0x3f8c0e9b	1.0941957
111	0x3f9997b9	1.1999427
112	0xbfcb8e1c	-1.5902743
113	0xbfd9c2b6	-1.7012546
114	0xbeab68b8	-0.33478332
115	0xbf8c47a6	-1.0959365
116	0xbf94055a	-1.1564133
117	0xbfd42093	-1.6572441
118	0x3f3c0b30	0.7345457
119	0xbf12a4f9	-0.5728298
120	0xbe715dc6	-0.23570928
121	0xbfb82260	-1.438549
122	0xbfc65eb8	-1.5497656
123	0xbe23037c	-0.15919298
124	0x3d495ed9	0.04916272
125	0x3efe7eab	0.49706015
126	0xbf4d7f6a	-0.80272543
127	0xbbc6c351	-0.006065764

network_body._body_endoder.seq_layers.0.bias f4 [128]
0	0x3d2438d4	0.040093258
1	0x3b2003cb	0.0024416323
2	0x3dffbe6f	0.12487494
3	0xbdc72ed3	-0.09725728
4	0xbdadc0a6	-0.084840104
5	0xbcf92560	-0.03041333
6	0xbdb905d2	-0.09034313
7	0xbd6330b4	-0.05546637
8	0xbdf67d37	-0.120356016
9	0xbcf47a83	-0.029843574
10	0xbcc8cf22	-0.024512831
11	0x3d9283db	0.07154056
12	0xbdafb4e2	-0.085794225
13	0xbc70b17e	-0.014690755
14	0xbe1f31ef	-0.15546392
15	0x3d200577	0.03906771
16	0x3da3592a	0.07975991
17	0xbd9b46ac	-0.07581839
18	0x3d93c7f8	0.072158754
19	0x3d864505	0.06556133
20	0x3d3a44fe	0.045475952
21	0xbe057b1e	-0.13035247
22	0x3d9aa437	0.07550853
23	0xbdb84c45	-0.08998922
24	0x3ce9fb00	0.028562069
25	0xbc2fdf0c	-0.010734331
26	0xbcb9d94a	-0.02268662
27	0xbdb6d5c9	-0.08927495
28	0x3cda7a2c	0.026669584
29	0xbe011410	-0.1260531
30	0xbd46b390	-0.048511088
31	0x3dd9e884	0.10640052
32	0xbe23b18f	-0.15985702
33	0xbd773d43	-0.060361158
34	0x3dad14de	0.08451246
35	0xbdad8dae	-0.08474289
36	0xbcffe2e7	-0.031236125
37	0xbdf0ef15	-0.11764351
38	0xbe0f187c	-0.13974184
39	0x3d4c135e	0.049823157
40	0xbbb8135e	-0.005617543
41	0x3d4329c6	0.04764726
42	0xbd0eee8d	-0.03489547
43	0x3bdf1e62	0.006809042
44	0xbddfaedf	-0.10922026
45	0x3dfb18f6	0.1226062
46	0xbdc9875d	-0.098402716
47	0xbd4f72a4	-0.05064644
48	0xbbe90f7c	-0.0071124416
49	0x3d541943	0.051781904
50	0xbd619671	-0.055075113
51	0xbc9148f2	-0.017734978
52	0xbd092b38	-0.033488482
53	0x3e101a0b	0.14072435
54	0xbd9bc645	-0.07606176
55	0x3c866d10	0.016409427
56	0xbdd3732d	-0.103247024
57	0x3c87595e	0.016522106
58	0xbd21cb12	-0.039500304
59	0x3e5d1e82	0.21593669
60	0xbd657279	-0.056017373
61	0x3d67f7f4	0.05663295
62	0x3cceee2f	0.02526006
63	0x3ca43663	0.020045465
64	0xbd6b4044	-0.057434335
65	0x3c6782aa	0.014130274
66	0x3e1355a1	0.14388134
67	0xbc855553	-0.016276037
68	0x3dadf140	0.084932804
69	0xbd750316	-0.059817396
70	0xbb969fc4	-0.0045966823
71	0x3d8fbdb4	0.07018605
72	0xbd50c820	-0.050972104
73	0x3e2161f8	0.15760028
74	0x3dfca2a1	0.123357065
75	0xbdeb3700	-0.114851
76	0x3dc5027d	0.09619615
77	0x3bd99c8f	0.0066409777
78	0xbe1ea13f	-0.15491198
79	0x3a81119f	0.000984717
80	0xbe1353b4	-0.14387399
81	0xbe3d497c	-0.18485063
82	0x3dfd6dab	0.12374433
83	0xbc5e0538	-0.013551049
84	0x3d63b5b1	0.055593196
85	0xbd892006	-0.06695561
86	0xbe0379e1	-0.12839462
87	0x3dd6c823	0.10487392
88	0xbdc0e711	-0.094190724
89	0xbd39ccc5	-0.0453613
90	0x3ddff6c4	0.10935739
91	0xbd2ce572	-0.042211004
92	0xbdba31d7	-0.090915374
93	0x3cb51a97	0.022107406
94	0x3dfba47e	0.12287234
95	0x3e056ed2	0.13030556
96	0x3db9b4e7	0.090677075
97	0x3d8a23ec	0.06745133
98	0xbb97ed3d	-0.0046364353
99	0xbd1aab28	-0.037760884
100	0xbdbb36b0	-0.0914129
101	0x3df33b52	0.11876549
102	0xbc24fac8	-0.0100695565
103	0xbb807af7	-0.0039209086
104	0x3e0af615	0.13570435
105	0x3d9751d2	0.07388653
106	0xbdfec110	-0.124391675
107	0xbd2867fe	-0.0411148
108	0xbd7449ab	-0.059640568
109	0xbdd1ea1f	-0.10249733
110	0x3e39643a	0.1810464
111	0x3d269d7a	0.040677525
112	0x3d51c635	0.051214416
113	0xbd84e929	-0.06489784
114	0xbd8d5a8c	-0.06902036
115	0x3d792263	0.06082381
116	0xbd7fcf3f	-0.062453505
117	0x3d844e6a	0.06460269
118	0x3e06361d	0.1310658
119	0x3d0ab712	0.033865996
120	0xbda0959d	-0.078410365
121	0x3d8188c6	0.063249156
122	0x3d4ea509	0.05045036
123	0xbdf8708c	-0.121308416
124	0x3bcd61cc	0.006267762
125	0x3d400c87	0.046886947
126	0xbd1dc077	-0.038513627
127	0xbdfa1d45	-0.12212614

network_body._body_endoder.seq_layers.2.weight f4 [128, 128]
0	0x3baffd07	0.0053707394
1	0xbe467c65	-0.1938339
2	0x3ddfe440	0.10932207
3	0xbd17ebbf	-0.03709006
4	0x3dbc0cb5	0.09182111
5	0xbc17ccf6	-0.009265175
6	0x3d7247b1	0.0591504
7	0x3d5f1f9a	0.054473497
8	0xbdf1aabb	-0.118001424
9	0xbd234418	-0.03985986
10	0xbe0720f4	-0.13196164
11	0x3dbc7f3c	0.092039555
12	0x3dbeb72a	0.093122795
13	0x3ba02f73	0.004888469
14	0x3df848f9	0.121232934
15	0xbe458753	-0.19289903
16	0x3d609e44	0.054838434
17	0x3d98fece	0.07470475
18	0x3b1dc3d9	0.0024073033
19	0xbdb05fc4	-0.08612016
20	0xbddacc67	-0.10683518
21	0xbde007cd	-0.10938988
22	0xbe14da1a	-0.14536324
23	0x3d4a7616	0.04942902
24	0x3b982dbc	0.004644124
25	0xbc4a4e51	-0.012347774
26	0xbe0bbbea	-0.13645902
27	0x3e2275f7	0.15865313
28	0xbd4a9ed1	-0.049467865
29	0x3d8382f9	0.064214654
30	0x3dd36eb0	0.10323846
31	0xbd7d770c	-0.06188111
32	0x3e421a48	0.18955338
33	0xbd95bbbb	-0.07311197
34	0xbc77f1b5	-0.015133311
35	0xbd5868b9	-0.052834246
36	0x3da0cc85	0.07851509
37	0xbca1d4bd	-0.019754762
38	0xbbc13f45	-0.005897435
39	0x3c283a62	0.010267826
40	0xbdd876c3	-0.10569527
41	0x3d533d1c	0.05157195
42	0x3bafe5bd	0.005367963
43	0xbe16a035	-0.14709552
44	0x3ddb00ce	0.10693513
45	0xbd94bf64	-0.07263067
46	0x3b844fe2	0.004037843
47	0xbddc197d	-0.10747049
48	0xbdeda61b	-0.11603948
49	0x3dd17543	0.10227444
50	0x3db754f8	0.089517534
51	0xbe03f7af	-0.12887453
52	0x3d27dbb7	0.04098102
53	0xbd99b90e	-0.075059995
54	0xbe1f6947	-0.15567504
55	0x3debc64b	0.11512431
56	0x3dd28285	0.10278801
57	0x3d5586c4	0.052130476
58	0xbe1ab7ca	-0.15109172
59	0xbe6af0c4	-0.22943407
60	0x3d6aa8fe	0.05729007
61	0x3d2327be	0.039832823
62	0x3db69c8b	0.08916577
63	0xbd6b1000	-0.057388306
64	0x3c3cf09f	0.011531978
65	0xbd649789	-0.055808578
66	0xbb181343	-0.002320484
67	0xbc9072f7	-0.017632945
68	0xbd9e90e1	-0.07742477
69	0x3e021e59	0.12706889
70	0xbd7c0d69	-0.061536226
71	0xbca4d0b9	-0.020119058
72	0xbcc8d3d1	-0.024515064
73	0xbe2dcd1b	-0.16972773
74	0x3d08306f	0.033249315
75	0x3dde4cf2	0.1085452
76	0xbdf5c202	-0.11999895
77	0xbd020f4d	-0.031752873
78	0x3d595985	0.053063888
79	0xbdc72159	-0.097231574
80	0x3dbab90c	0.09117326
81	0x3d66c5d0	0.056340992
82	0xbd3d29fe	-0.046182625
83	0x3980cd55	0.00024567047
84	0xbd92bbfe	-0.07164763
85	0xbd4ce85e	-0.05002629
86	0xbd814b37	-0.06313174
87	0xbd00dc6f	-0.03146022
88	0x3d9f7e40	0.07787752
89	0x3d875076	0.066071436
90	0xbe1fa847	-0.15591536
91	0x3caeaffb	0.021324148
92	0x3d196ecb	0.037459176
93	0xbe5359cf	-0.20639728
94	0x3bebc488	0.007195059
95	0x3d48b7ad	0.049003292
96	0xbc53b785	-0.012922172
97	0xbd1ad761	-0.037803058
98	0x3d751802	0.05983735
99	0xbde303c7	-0.11084705
100	0x3df0c18e	0.117556676
101	0xbdc4c6f2	-0.09608258
102	0xbd009fd8	-0.03140244
103	0xbd17574b	-0.036948483
104	0xbe2f8687	-0.17141162
105	0x3d8c3a8f	0.06847107
106	0xbe0628a6	-0.13101444
107	0xbdb02ed3	-0.08602681
108	0x3cbfc17e	0.023407694
109	0x3d68c063	0.0568241
110	0x3c7dd9cc	0.015493821
111	0x3be7735e	0.0070633134
112	0x3d0ab87d	0.033867348
113	0xbd4d098a	-0.050057925
114	0x3e25056b	0.16115348
115	0x3d19df1d	0.037566293
116	0x3d928952	0.07155098
117	0xbd422614	-0.047399595
118	0xbe46d825	-0.1941839
119	0xbdb15a06	-0.08659749
120	0xbc7c1bfe	-0.015387533
121	0xbcb23f3b	-0.021758666
122	0xbe3903cd	-0.18067856
123	0xbd3e0f39	-0.046401236
124	0x3dc8066d	0.097668506
125	0xbde4239f	-0.11139607
126	0x3c91a68b	0.01777961
127	0x3e6a9543	0.22908501
128	0x3d970119	0.07373256
129	0xbceb3041	-0.028709533
130	0xbd8a61ef	-0.067569606
131	0x3c62e76f	0.013849123
132	0x3e0594b4	0.13045007
133	0xbb8650e3	-0.004098998
134	0xbd2b900e	-0.041885428
135	0x3d0e4146	0.03473022
136	0x3d7f1fd7	0.062286224
137	0x3e842739	0.25811175
138	0x3d302eea	0.04301349
139	0xbe5bfad9	-0.2148241
140	0xbcc1658d	-0.023607993
141	0x3d998bc0	0.07497358
142	0x3dfd04ce	0.12354432
143	0x3e037594	0.12837821
144	0x3db78f9c	0.08962938
145	0xbd6a7c52	-0.057247467
146	0xbe2b7edf	-0.16747616
147	0x3d0bd701	0.03414059
148	0xbd04b580	-0.032399654
149	0x3e13756a	0.14400259
150	0xbd76e158	-0.0602735
151	0x3e0b34a5	0.13594301
152	0x3de8aa45	0.11360601
153	0xbbcedb14	-0.0063127372
154	0x3db18cba	0.086694196
155	0x3e949ba4	0.29024994
156	0x3def5d70	0.11687744
157	0x3dab2282	0.08356191
158	0x3d4058a8	0.04695955
159	0x3dc21b8d	0.09477911
160	0xbd2c5ff5	-0.0420837
161	0xbd66f252	-0.05638344
162	0x3e164de6	0.14678153
163	0xbd4572f6	-0.04820534
164	0x3e28e5d1	0.16493918
165	0x3e694c49	0.22783007
166	0x3d39b617	0.04533967
167	0xbcf6160b	-0.030039808
168	0x3e1aa91c	0.15103573
169	0xbdb3ac45	-0.08773092
170	0x3d0c32b6	0.03422805
171	0xbe003f32	-0.12524107
172	0x3e64b913	0.22336225
173	0xbdc427d6	-0.095779106
174	0xbb23261f	-0.0024894548
175	0x3d4ed4a8	0.050495774
176	0x3de128c0	0.109941006
177	0xbd9bb783	-0.076033615
178	0xbc064b7e	-0.00819671
179	0xbd9af1df	-0.075656645
180	0x3d8e82f4	0.06958571
181	0x3e2a7a6a	0.1664826
182	0xbdc9e4a1	-0.09858061
183	0xbe437259	-0.19086589
184	0xbd8575a9	-0.065165825
185	0x3bfda938	0.0077411197
186	0xbd91e745	-0.07124189
187	0xbdebb99e	-0.11510013
188	0xbd83db51	-0.06438316
189	0xbd971ad4	-0.07378164
190	0xbd937536	-0.072000906
191	0x3927b6e9	0.000159945
192	0x3c7f5d9a	0.015586281
193	0x3d9f9bdd	0.077934004
194	0xbd5b4494	-0.053532198
195	0x3de371ae	0.11105667
196	0x3d7c6752	0.06162197
197	0xbdce7e05	-0.1008263
198	0x3e827548	0.25480103
199	0xbcd86b58	-0.026418373
200	0xbdc3bff8	-0.095580995
201	0xbcd9a8fe	-0.02656984
202	0xbb5ed50f	-0.0034001505
203	0xba42e4cc	-0.0007434606
204	0x3e28120b	0.16413133
205	0x3d193055	0.03739961
206	0x3dded203	0.108799
207	0xbdc214d1	-0.09476627
208	0x3e124b1e	0.14286467
209	0x3e687ea9	0.22704567
210	0xbbbef881	-0.005827964
211	0xbc86cdff	-0.016455648
212	0x3e30faf1	0.17283227
213	0x3db6199e	0.08891605
214	0x3e1737ca	0.14767376
215	0x3dda5804	0.10661319
216	0x3da4f645	0.08054785
217	0xbd32bdc3	-0.043638002
218	0x3e01f9dc	0.1269297
219	0x3e2bbbec	0.16770905
220	0x3e162611	0.14662959
221	0x3d37f952	0.044915505
222	0x3e1c001b	0.15234415
223	0x3de27dc0	0.11059141
224	0xbd630b6b	-0.05543081
225	0xbda5d2b5	-0.0809683
226	0xbd65ceab	-0.056105297
227	0x3dd497d4	0.103805214
228	0x3d2332fc	0.039843544
229	0x3d07ed1b	0.033185106
230	0x3de84410	0.11341107
231	0x3e99af58	0.3001659
232	0x3d3c707a	0.046005704
233	0x3d0cdb2e	0.034388714
234	0xbc696246	-0.014244622
235	0xbd7ec067	-0.062195208
236	0xbcd38283	-0.025819069
237	0xbd51746a	-0.05113641
238	0x3e28c4d6	0.16481337
239	0x3d9c3344	0.07626966
240	0xbdaadd9d	-0.08343051
241	0x3df917cc	0.12162742
242	0x3e2d92d3	0.1695054
243	0x3dd07aa7	0.10179644
244	0xbde72fcc	-0.112884134
245	0xbca3fbe7	-0.020017577
246	0x3d32d1e1	0.043657187
247	0x3bac99cd	0.005267358
248	0x3dab780d	0.08372507
249	0x3c48a6d0	0.012246802
250	0xbd10ab15	-0.035319407
251	0xbe0cd729	-0.13753952
252	0x3e6b43de	0.22975108
253	0x3dbcdb7a	0.09221549
254	0xbe63f774	-0.22262365
255	0x3e2e90d4	0.17047435

network_body._body_endoder.seq_layers.2.bias f4 [128]
0	0xbdf26d4c	-0.11837253
1	0xbdf76bec	-0.12081131
2	0xbd8dd354	-0.06925073
3	0xbda00fc2	-0.078155056
4	0x3a4637c6	0.00075614115
5	0x3cab1347	0.020883216
6	0xbda25092	-0.07925524
7	0xbe0c051e	-0.13673827
8	0xbd35d8af	-0.0443961
9	0x3dae75a4	0.08518532
10	0x3dd25737	0.10270541
11	0xbd6b42f0	-0.057436883
12	0xbd21fdbe	-0.039548628
13	0xbda86778	-0.0822286
14	0xbd4c4bb5	-0.049876887
15	0x3d862fc1	0.06552077
16	0x3e1425bd	0.14467521
17	0xbe112289	-0.1417333
18	0xbdacef12	-0.084440365
19	0x3d7749d7	0.060373154
20	0x3de1a342	0.11017467
21	0xbe0cc168	-0.13745654
22	0x3d9c9f35	0.07647554
23	0x3d392ca7	0.0452086
24	0x3d9a7bbf	0.07543134
25	0xbe0187c0	-0.12649441
26	0x3db649ac	0.089007705
27	0xbca93f9a	-0.02066021
28	0xbda7ed35	-0.081995405
29	0xbc7f2435	-0.015572597
30	0x3d62add7	0.055341568
31	0xbde53251	-0.11191238
32	0xbdfb9686	-0.122845694
33	0xbc22711a	-0.009914661
34	0xbbf61c71	-0.0075107147
35	0xbcfe82b1	-0.031068178
36	0xbdd34923	-0.10316684
37	0x3d270e38	0.040785044
38	0xbdba85ee	-0.09107576
39	0xbcdf795a	-0.027279545
40	0xbdd52758	-0.10407895
41	0xbd3f752e	-0.04674261
42	0xbe0c5c45	-0.13707073
43	0x3dbf83ae	0.09351288
44	0x3d67c5e1	0.056585196
45	0x3d8d7cd9	0.069085784
46	0xbd6aa665	-0.057287592
47	0xbdc1b1e9	-0.09457762
48	0x3b6f2117	0.003648823
49	0x3da128a4	0.0786908
50	0xbd3ab8b3	-0.0455863
51	0x3dac574b	0.08415087
52	0xbdc8fdb1	-0.09814013
53	0xbc7279f4	-0.014799584
54	0xbd9cd99a	-0.07658692
55	0x3d23c1cc	0.03997974
56	0xbd4a64e8	-0.049412638
57	0x3d8f8011	0.070068486
58	0xbd3ced8c	-0.04612498
59	0xbdd5782c	-0.104233116
60	0x3d2c4e92	0.042067118
61	0xbd07830f	-0.03308397
62	0xbdddfc4c	-0.108391374
63	0xbd7c9f99	-0.06167564
64	0xbd09a80e	-0.033607535
65	0xbd948a85	-0.07252983
66	0xbdd171d0	-0.10226786
67	0x3dd301f8	0.1030311
68	0x3d550ef8	0.05201623
69	0xbd0cd61c	-0.034383878
70	0x3d0989a0	0.033578515
71	0x3daf1ede	0.08550809
72	0x3d699b2d	0.057032753
73	0xbdb2bb1d	-0.08727095
74	0x3d4965d5	0.04916938
75	0xbde23a28	-0.11046249
76	0x3ba5d460	0.0050607175
77	0x3d67e459	0.056614254
78	0xbdb327a1	-0.08747793
79	0x3db3debf	0.0878272
80	0x3b69efba	0.0035695867
81	0x3d01e955	0.031716663
82	0x3cd6a6c9	0.026202576
83	0xbdc0768e	-0.093976125
84	0x3e17be16	0.14818606
85	0xbe1587ce	-0.14602587
86	0xbbb3c9f4	-0.005486721
87	0xbe00a795	-0.12563927
88	0xbd988506	-0.07447247
89	0xbdec9103	-0.11551096
90	0xbe08dfc2	-0.13366607
91	0xbd02bb71	-0.03191704
92	0x3d47de13	0.04879577
93	0xbd87ada5	-0.06624917
94	0xbd9de09f	-0.07708859
95	0xbd9a4b9e	-0.07533954
96	0xbe019cbe	-0.12657449
97	0xbe0fc256	-0.14038977
98	0x3dabac84	0.08382514
99	0x3cb4c0b2	0.02206454
100	0xbda87a61	-0.08226467
101	0x3d9bf18d	0.076144315
102	0xbad6d671	-0.0016390813
103	0xbdac1c62	-0.08403851
104	0x3dbdf56a	0.09275325
105	0xbdb1c585	-0.08680252
106	0xbdc2cb0e	-0.09511386
107	0x3d9d6805	0.07685856
108	0x3db1833f	0.08667611
109	0xbdde4b22	-0.10854174
110	0xbc084df6	-0.008319369
111	0xbd920450	-0.07129729
112	0xbdb4cdfd	-0.08828352
113	0x3d73ccb8	0.059521407
114	0x3da9b9a5	0.08287362
115	0xbd7c2e78	-0.061567754
116	0x3d7718dd	0.060326446
117	0xbda5dfb1	-0.080993064
118	0xbd40d38e	-0.047076754
119	0xbdda4a10	-0.106586576
120	0xbe03867d	-0.12844272
121	0xbd7cdb41	-0.061732534
122	0xbdff6d59	-0.12472028
123	0xbddf1f89	-0.10894687
124	0xbdd159f4	-0.10222235
125	0xbde3f4d0	-0.11130679
126	0xbdbe8f17	-0.09304636
127	0xbd6dbcbe	-0.058041327

action_model._continuous_distribution.log_sigma f4 [1, 3]
0	0xbd4fdc1b	-0.05074702
1	0xbd04f77a	-0.032462575
2	0x3d04a986	0.032388233

action_model._continuous_distribution.mu.weight f4 [3, 128]
0	0x3e29f657	0.16597877
1	0x3d2b47dc	0.041816577
2	0x3d5201b4	0.051271155
3	0x3c9c916c	0.019112311
4	0x3b75e9e4	0.0037523443
5	0x3a802366	0.0009776175
6	0x3c9eddbe	0.019392844
7	0x3e435278	0.19074428
8	0x3c900b7b	0.0175836
9	0xbd5a4c3b	-0.053295355
10	0xbbbb9148	-0.005724106
11	0x3d079957	0.03310522
12	0x3c203d86	0.009780293
13	0x3e02bc0f	0.12767051
14	0x3cdacd4b	0.02670922
15	0xbccd151e	-0.025034484
16	0xbdc91863	-0.098191045
17	0x3e1ae45e	0.15126178
18	0x3d002864	0.03128852
19	0xbc358886	-0.011079913
20	0xbbf9c82f	-0.0076227407
21	0x3e69f437	0.22847067
22	0xbca05ddb	-0.019576004
23	0xbc835f6e	-0.016036715
24	0xbc876c63	-0.016531175
25	0x3e310696	0.17287669
26	0xbd27108c	-0.040787265
27	0x3b114778	0.0022167843
28	0x3ceb3173	0.028710103
29	0x3bdd6c83	0.0067573204
30	0xbc8e9aab	-0.017407736
31	0x3e3c5e2f	0.18395303
32	0x3e36abd9	0.17838992
33	0x3a4f0fea	0.0007898795
34	0x3c351e2d	0.011054558
35	0x3cc1d144	0.023659356
36	0x3e3b6492	0.18300083
37	0xbc0ab476	-0.008465877
38	0x3ce0bc2a	0.027433474
39	0x3c2a57cb	0.010396908
40	0x3e0ed2af	0.13947557
41	0x3aaecf1e	0.0013336872
42	0x3e45f41a	0.19331399
43	0xbca35f83	-0.019943004
44	0xbc735999	-0.014852905
45	0xbcc1a11d	-0.023636395
46	0x3c9d4389	0.019197242
47	0x3d4a9fb5	0.049468715
48	0x3c7c701e	0.01540759
49	0xbd0c7fa0	-0.0343014
50	0x3e0ff09e	0.14056632
51	0xbc9f0c46	-0.019415032
52	0x3e078dfc	0.13237756
53	0xb9bf92b8	-0.00036539673
54	0x3cdd6ed5	0.027030388
55	0xbc8742c1	-0.016511323
56	0x3e090784	0.13381773
57	0xbca8a4ed	-0.020586455
58	0x3d7fcb7f	0.06244993
59	0x3e28d4a2	0.16487363
60	0xbccf5588	-0.02530934
61	0x3bd55b6e	0.0065111434
62	0x3e16976a	0.14706197
63	0x3b940822	0.004517571
64	0x3c05008f	0.008117809
65	0x3d6cd3e0	0.057819247
66	0x3e479bb0	0.19492984
67	0xbcbad260	-0.022805393
68	0xbc44daab	-0.012015025
69	0x3c032dae	0.008006496
70	0xbc0a51cf	-0.008442356
71	0xbd33ddc6	-0.04391267
72	0xbd0fe91f	-0.03513443
73	0x3c412d33	0.0117905615
74	0xbcac4dbe	-0.021033164
75	0x3d0604ed	0.03271954
76	0x3b057776	0.0020365394
77	0x3bcaaf9c	0.006185485
78	0x3d028139	0.031861518
79	0xbd0522cd	-0.03250389
80	0x3c64a4d4	0.013955314
81	0xbc36663a	-0.011132771
82	0xbc2a3314	-0.010388155
83	0x3c4b9b55	0.012427171
84	0xbdfacb52	-0.122458115
85	0x3e334608	0.17507184
86	0xbae63a8e	-0.0017565058
87	0x3e4d65d2	0.20058373
88	0x3cde1d1f	0.027113495
89	0x3e448c1d	0.19194074
90	0x3e0a1d62	0.13487771
91	0x3b86ec85	0.004117551
92	0xbc63df0d	-0.01390816
93	0x3c9e2205	0.019303331
94	0x3d0c284e	0.034218125
95	0x3ceb5cbb	0.02873074
96	0x3e50fd3f	0.20409106
97	0x3e33a684	0.1754399
98	0xbda110b7	-0.07864516
99	0xbb77a725	-0.0037788835
100	0x3e120eba	0.1426343
101	0xbca30f6e	-0.019904818
102	0x3bd1e0d6	0.0064049764
103	0x3d19fec6	0.037596487
104	0xbd2202f5	-0.0395536
105	0x3d438f61	0.04774416
106	0x3e192ce8	0.14958537
107	0xbc5b1ebe	-0.013374029
108	0xbd55b308	-0.05217269
109	0x3de01e53	0.10943284
110	0x3c36d068	0.011158086
111	0x3c930e48	0.017951146
112	0x3d0d3d7d	0.034482468
113	0xbc5973fa	-0.01327228
114	0xbce502d0	-0.027955443
115	0x3c631943	0.013861003
116	0xbd203b11	-0.03911883
117	0x3dc5ac5a	0.09652014
118	0x3c04e635	0.008111526
119	0x3e2799b9	0.16367234
120	0x3e4792c8	0.19489586
121	0x3b887d8b	0.0041653565
122	0x3e3dd0a4	0.18536621
123	0x3e363eea	0.17797437
124	0x3e34eb94	0.17667991
125	0x3cf355c9	0.029703991
126	0x3cf4e498	0.029894158
127	0x3bad6dd1	0.005292632
128	0x3caebe47	0.021330966
129	0x3aaa0e7c	0.0012974287
130	0xbca14379	-0.019685494
131	0xbaf18d16	-0.0018428888
132	0xbc3ed434	-0.011647273
133	0x3cb44271	0.022004338
134	0xbb135e74	-0.0022486718
135	0x3d0eb58d	0.03484111
136	0xbb3b3a92	-0.0028568846
137	0x3cddd36b	0.027078351
138	0xbbc7ce74	-0.006097609
139	0xbc3d2b6c	-0.011545997
140	0xbbdf95c6	-0.0068232743
141	0x3cd28549	0.025698321
142	0xbcf43bb6	-0.029813629
143	0xbcd14c42	-0.025549058
144	0x3ce594a7	0.028024985
145	0x3ce02b48	0.027364388
146	0x3c3c1b6d	0.011481148
147	0xbd34ecca	-0.044171132
148	0xbb6aec56	-0.0035846434
149	0x3c8c5219	0.017128991
150	0xbcdef247	-0.027215136
151	0x3c7461a8	0.014915861
152	0xbb8af0b1	-0.0042401184
153	0x3ce6bc47	0.02816595
154	0xbc8d235e	-0.017228778
155	0xbba5058e	-0.0050360626
156	0x3c31ed9f	0.010859876
157	0xbc33d77c	-0.010976668
158	0x3b0b6631	0.0021270628
159	0xbb1f7163	-0.0024329058
160	0x3c18483d	0.009294567
161	0xbc8dce5e	-0.017310318
162	0xbbbf47b0	-0.0058374032
163	0xbc3e294e	-0.0116065275
164	0x3b699381	0.0035640898
165	0x3c23a926	0.009989059
166	0xbc5a434e	-0.013321711
167	0x3cae4dd7	0.021277351
168	0x3cd94048	0.02651991
169	0xbbe0a535	-0.0068556317
170	0x3d3f50ad	0.046707798
171	0xbc7b79ea	-0.015348891
172	0xba829ee2	-0.0009965564
173	0xbd2b5a30	-0.041834056
174	0x3bdf9f92	0.006824442
175	0x3b67def3	0.003538069
176	0xbc541774	-0.012945045
177	0x3c1de153	0.009636241
178	0x3d82bdfd	0.06383894
179	0x3c931bd4	0.017957605
180	0xbab03e4d	-0.0013446301
181	0x3b5b220a	0.0033437037
182	0xbce84be7	-0.028356506
183	0xbcf3ddee	-0.02976891
184	0x3cfb420c	0.030671142
185	0x3c3af2d4	0.011410434
186	0xbcc7682d	-0.024341667
187	0x3d058abc	0.03260301
188	0xbc014c74	-0.007891763
189	0x3aaef649	0.0013348545
190	0xbcba3d64	-0.022734351
191	0xba1311bd	-0.0005610248
192	0x3b0afd3e	0.0021208073
193	0xbc42ead1	-0.011896805
194	0xbce6ba98	-0.028165147
195	0x3c0c8a5a	0.008577907
196	0x3cd4bcb4	0.025968887
197	0xbbbc65c6	-0.005749437
198	0x3c0cebc9	0.008601137
199	0x3c5f1c7e	0.013617633
200	0xbc5fa7c7	-0.013650841
201	0x3a66ab25	0.0008799306
202	0xbc00b6e9	-0.007856109
203	0xb83260c5	-4.252863e-05
204	0xbb6f11e5	-0.0036479172
205	0x3d920948	0.071306765
206	0x3ced85eb	0.028994521
207	0xbb0b54f1	-0.0021260346
208	0xbcb0034e	-0.02148595
209	0xbd530248	-0.051515847
210	0x3c3dc0d1	0.011581616
211	0x3a7c7d37	0.00096316956
212	0x3d5960ea	0.05307094
213	0x3c9103ca	0.017702002
214	0xb92450c9	-0.00015670354
215	0x3cf9d766	0.030498218
216	0xbc57a23b	-0.013161237
217	0x3a0573f1	0.0005090824
218	0x3c0b63da	0.008507693
219	0x3c90d6e5	0.017680595
220	0xbc11a7c1	-0.008890093
221	0xbc15fbfb	-0.009154315
222	0xbb37ae13	-0.002802734
223	0xbcc96dfe	-0.024588581
224	0xb9c61b05	-0.00037785634
225	0x3c5420f2	0.012947308
226	0x3c140898	0.009035252
227	0xbb64d2a8	-0.00349156
228	0xbc8d7577	-0.017267926
229	0xbb10fcfc	-0.0022123447
230	0xbcf29f88	-0.029617086
231	0xbc7550dd	-0.014972893
232	0xbc5dcdb0	-0.013537809
233	0x3ce471ee	0.027886357
234	0xbc54323a	-0.012951428
235	0x3ad236d9	0.0016038074
236	0x3c40e394	0.011773009
237	0xbca15f96	-0.0196989
238	0xbc353b76	-0.01106154
239	0x3bb9df87	0.0056723985
240	0xbbfdaf20	-0.007741824
241	0x3c396a9d	0.0113169225
242	0xbd283951	-0.041070286
243	0xbaa442f3	-0.001253216
244	0xbc9f91f1	-0.01947877
245	0xbc88cf6c	-0.016700469
246	0x3ce8d446	0.028421532
247	0x3d0f44f8	0.034977883
248	0x3d5e8fe2	0.054336436
249	0x3aca776f	0.0015446971
250	0xbc2703ab	-0.010193746
251	0x3ce5e2bb	0.028062215
252	0x3d4020ea	0.04690639
253	0xbbe5a49b	-0.007008148
254	0x3c12d312	0.008961456
255	0x39f54d87	0.00046787804

action_model._continuous_distribution.mu.bias f4 [3]
0	0xbde549ec	-0.1119574
1	0xbca5b7f0	-0.02022931
2	0x3ce5e185	0.028061638
