TWP_2/results/DynPnp02/RobotArm/checkpoint.pt (torch, 461282 bytes, 44 tensors)

network_body.observation_encoder.processors.0.normalizer.running_mean f4 [11]
0	0xc01dacdb	-2.4636753
1	0x42107324	36.112442
2	0xbf61f7c7	-0.88268703
3	0xbfa7e14c	-1.311563
4	0x403d52aa	2.9581704
5	0xbf75613f	-0.9585151
6	0xbc801196	-0.015633386
7	0x3e999946	0.2999975
8	0x3fbba2da	1.4659073
9	0x42471c75	49.77779
10	0x42283dd7	42.06039

network_body.observation_encoder.processors.0.normalizer.running_variance f4 [11]
0	0x4c140ff6	3.8813656e+07
1	0x4c6cf7c6	6.2119704e+07
2	0x4bc51839	2.5833586e+07
3	0x4cc6ddca	1.0426325e+08
4	0x46a596a0	21195.312
5	0x4ca80177	8.8083384e+07
6	0x4cb1d6db	9.3239e+07
7	0x3f8b8504	1.0899968
8	0x4cc07a8b	1.00914264e+08
9	0x4c341ee8	4.721757e+07
10	0x4c863379	7.036001e+07

network_body.processors.0.normalizer.running_mean f4 [11]
0	0xc01dacdb	-2.4636753
1	0x42107324	36.112442
2	0xbf61f7c7	-0.88268703
3	0xbfa7e14c	-1.311563
4	0x403d52aa	2.9581704
5	0xbf75613f	-0.9585151
6	0xbc801196	-0.015633386
7	0x3e999946	0.2999975
8	0x3fbba2da	1.4659073
9	0x42471c75	49.77779
10	0x42283dd7	42.06039

network_body.processors.0.normalizer.running_variance f4 [11]
0	0x4c140ff6	3.8813656e+07
1	0x4c6cf7c6	6.2119704e+07
2	0x4bc51839	2.5833586e+07
3	0x4cc6ddca	1.0426325e+08
4	0x46a596a0	21195.312
5	0x4ca80177	8.8083384e+07
6	0x4cb1d6db	9.3239e+07
7	0x3f8b8504	1.0899968
8	0x4cc07a8b	1.00914264e+08
9	0x4c341ee8	4.721757e+07
10	0x4c863379	7.036001e+07

network_body._body_endoder.seq_layers.0.weight f4 [128, 11]
0	0xbe7c4fce	-0.24639818
1	0xbb91a46b	-0.004444649
2	0xbe860dc2	-0.2618237
3	0x3e1a8884	0.15091139
4	0x3e9728e5	0.29523388
5	0x3f109bfc	0.56488013
6	0xbe397891	-0.18112399
7	0x3e65ea39	0.2245263
8	0x3d815b5c	0.063162535
9	0x3dd026b0	0.10163629
10	0x3ddcde60	0.10784602
11	0x3e8d2ac0	0.27571678
12	0x3d58e26d	0.05295031
13	0xbe3d1509	-0.18465056
14	0x3e9c3ea9	0.30516556
15	0xbe8096c7	-0.25115034
16	0xbeb6dd71	-0.3571582
17	0x3e58ff20	0.21191072
18	0x3e035c04	0.1282807
19	0xbed1ffcc	-0.4101547
20	0x3eb311a7	0.34974405
21	0x3e8db4c4	0.27676976
22	0x3e8645fc	0.2622527
23	0xbe990d33	-0.29892883
24	0xbe14f9cc	-0.14548415
25	0xbe898116	-0.26856297
26	0x3edd1c06	0.43185443
27	0xbe375ea7	-0.17907201
28	0x3cdcc9b6	0.026951652
29	0x3d2b103a	0.04176352
30	0xbebdf6b7	-0.3710229
31	0x3f25e3a9	0.64800507
32	0xbe09e3b9	-0.13465776
33	0x3e4454a7	0.19172917
34	0xbf1b6dbe	-0.6071433
35	0x3d8dfc2a	0.06932862
36	0xbcf92ef5	-0.030417899
37	0x3ea2db40	0.318079
38	0x3d7d4ecc	0.061842725
39	0xbedcc0e8	-0.43115926
40	0xbe858461	-0.2607756
41	0x3e18e8cd	0.14932556
42	0xbf27fd73	-0.6562111
43	0xbe80069c	-0.25005043
44	0x3d52566a	0.051351942
45	0x3e9cb9cc	0.30610502
46	0xbf0b13ed	-0.5432728
47	0xbf19e2c6	-0.60111654
48	0x3dba79e6	0.091052815
49	0xbd87d93d	-0.06633232
50	0x3e8f3970	0.2797351
51	0x3e40f393	0.18842916
52	0xbf024269	-0.50882584
53	0xbce10464	-0.027467914
54	0x3df9e0a1	0.12201048
55	0xbe66aefe	-0.22527692
56	0x3d2139f8	0.039361924
57	0x3f0eb32b	0.5574214
58	0xbdda7058	-0.10665959
59	0xbea30603	-0.31840524
60	0x3e931f49	0.28734806
61	0xbea370c4	-0.3192197
62	0x3e8f498c	0.279858
63	0x3debcafb	0.11513325
64	0x3ec0ffcd	0.3769516
65	0xbde36f54	-0.111052185
66	0x3e818934	0.2529999
67	0xbee4fbe5	-0.4472343
68	0x3e3cf922	0.18454412
69	0xbdc6025c	-0.09668419
70	0x3e5d9512	0.21638897
71	0xbf052480	-0.5200882
72	0xbea5f3b5	-0.32412496
73	0x3ee25205	0.442032
74	0x3ddd7e17	0.10815065
75	0xbec6acac	-0.38803613
76	0x3e83eee6	0.25768203
77	0x3ca74755	0.020419756
78	0x3c851973	0.016247487
79	0xbdebff95	-0.11523358
80	0x3dc26542	0.0949197
81	0x3e78bb3a	0.24290171
82	0xbf1bcdd9	-0.60860974
83	0xbd00a2c2	-0.031405218
84	0x3ca7b6b9	0.020472871
85	0xbeba002f	-0.36328265
86	0xbeb064a1	-0.34451774
87	0x3e9df520	0.30851078
88	0xbefd9202	-0.49525458
89	0x3e7d6265	0.24744566
90	0xbebe0f41	-0.37121013
91	0xbedff63d	-0.43742552
92	0xbeebd783	-0.4606286
93	0x3e19d11c	0.15021175
94	0x3d674863	0.056465518
95	0x3cedaca4	0.029012986
96	0xbf13f764	-0.57799363
97	0x3f0ad9f6	0.5423883
98	0x3e80df82	0.25170523
99	0xbeb4d4a0	-0.3531847
100	0x3e8ab273	0.2708927
101	0xbba1e916	-0.004941116
102	0x3e79f5bd	0.24410148
103	0xbea847f5	-0.328674
104	0xbdedeeeb	-0.116178356
105	0x3e1cd2f8	0.15314853
106	0xbe079480	-0.13240242
107	0x3da537a0	0.0806725
108	0x3e26851e	0.16261718
109	0x3ee0eef5	0.4393231
110	0x3d926bf2	0.07149495
111	0x3e7c21eb	0.24622314
112	0x3ef6505b	0.4810818
113	0xbec64cd8	-0.38730502
114	0xbe1366a4	-0.14394623
115	0x3dedd047	0.116119914
116	0xbe11981d	-0.14218183
117	0xbed4707a	-0.41492063
118	0x3e78f3f5	0.24311812
119	0xbf0ef7c8	-0.55846834
120	0xbeef6f9d	-0.46764842
121	0x3e626d24	0.22111946
122	0xbef7c36b	-0.4839128
123	0xbe80b9b0	-0.25141668
124	0xbe7095dd	-0.23494668
125	0x3ead6fc1	0.33874324
126	0xbe8c0d6d	-0.27353993
127	0xbc8b3c43	-0.016996508
128	0x3ee41efd	0.44554892
129	0x3dd64811	0.10462964
130	0x3e04fea9	0.1298777
131	0xbe5e8c3c	-0.21733183
132	0xbea5fd65	-0.32419887
133	0x3e0dcabc	0.13846868
134	0x3da2fe7c	0.07958695
135	0xbee8092a	-0.45319492
136	0x3f117530	0.5681944
137	0x3f09ea2a	0.5387293
138	0xbe27f9f8	-0.1640395
139	0xbeb10c05	-0.34579483
140	0x3d1f2950	0.038857758
141	0xbd03e347	-0.03219917
142	0x3e94c28a	0.29054672
143	0xbee75ba0	-0.45187092
144	0x3e5eb195	0.2174743
145	0x3eacce55	0.3375117
146	0x3f3574f7	0.708816
147	0xbecf0894	-0.40436232
148	0xbf132fc6	-0.5749477
149	0x3e468ac0	0.19388866
150	0x3e5f3538	0.21797645
151	0xbd791f73	-0.060821008
152	0xbee3df05	-0.44506088
153	0xbd775bf4	-0.060390428
154	0xbe4f1962	-0.20224527
155	0x3d21c004	0.03948976
156	0x3d9591b7	0.073031835
157	0xbec770d8	-0.3895328
158	0xbedcafa8	-0.43102765
159	0x3e64c068	0.22339022
160	0x3ece7216	0.40321416
161	0xbe83d980	-0.25751877
162	0xbe04f376	-0.12983498
163	0xbe247693	-0.16060857
164	0x3ebf0bad	0.37313595
165	0xbf477681	-0.779152
166	0x3d5de3dd	0.054172385
167	0xbe2519bf	-0.16123103
168	0xbd30518e	-0.043046527
169	0x3ef875c1	0.4852734
170	0xbe2e1839	-0.17001428
171	0xbec05729	-0.37566498
172	0xbe8f36a1	-0.27971366
173	0x3eb47a98	0.35249782
174	0x3ea725ae	0.32645935
175	0x3f08ca78	0.5343394
176	0x3e973b74	0.29537547
177	0x3e3095fd	0.17244716
178	0xbc531bf4	-0.0128850825
179	0xbe6013fc	-0.21882623
180	0xbdd5abd7	-0.104331665
181	0x3e9037b2	0.28167492
182	0x3e3b833b	0.18311779
183	0x3d2add3a	0.041714884
184	0x3d9f2739	0.07771153
185	0xbe5dc23c	-0.21656126
186	0x3dbb5738	0.09147495
187	0xbe3283e5	-0.17433126
188	0xb9f923f4	-0.00047519768
189	0xbe2e9cb0	-0.17051959
190	0xbeac5f42	-0.33666426
191	0xbe88835a	-0.26662713
192	0xbe86c2da	-0.26320535
193	0xbe06629e	-0.13123557
194	0xbdea33c1	-0.114356525
195	0xbe2ff177	-0.17181955
196	0x3e2202ec	0.15821427
197	0x3ee68dfc	0.450302
198	0x3dba48bf	0.090959065
199	0x3e0c661e	0.1371083
200	0xbe039774	-0.12850744
201	0x3e8b3d81	0.2719536
202	0xbd44b4ea	-0.048024096
203	0xbf11896c	-0.56850314
204	0xbe21564f	-0.1575558
205	0x3dd77b42	0.105215564
206	0x3ebe355d	0.37150088
207	0xbe8c7455	-0.27432504
208	0xbd3565fc	-0.044286713
209	0xbcbecdc2	-0.023291472
210	0xbe613db9	-0.21996202
211	0x3e22d782	0.15902522
212	0x3f039f9a	0.5141541
213	0xbd4427e3	-0.0478896
214	0xbebecf3e	-0.37267488
215	0xbec9f940	-0.39447975
216	0x3f214d57	0.63008636
217	0x3e3c40c0	0.18384075
218	0xbd8a1e70	-0.06744087
219	0x3ef918d4	0.48651755
220	0xbeb7a316	-0.35866612
221	0x3e59d84e	0.2127392
222	0xbe834657	-0.25639603
223	0xbd4e0445	-0.05029704
224	0xbd03e4f9	-0.032200787
225	0xbf0608df	-0.52357286
226	0xbef7a8eb	-0.48371062
227	0x3e0a934e	0.13532755
228	0x3e5d9dc1	0.2164221
229	0xbd9b9e53	-0.07598557
230	0x3ededfb3	0.43530044
231	0xbecbdb1e	-0.3981561
232	0xbcd2f584	-0.025751837
233	0x3de6706c	0.112519115
234	0xbe766b22	-0.24064305
235	0x3e458dfe	0.19292447
236	0xbebe2963	-0.3714095
237	0xbe568ac5	-0.20951374
238	0x3b9d4a7f	0.0048001404
239	0xbe1ae324	-0.1512571
240	0x3eae9bb1	0.34103158
241	0x3ee1b9c6	0.44087046
242	0x3d8b6ab9	0.06807465
243	0x3dc959dc	0.098315924
244	0xbd8199b2	-0.06328143
245	0xbd4df5a4	-0.05028309
246	0xbea3290a	-0.31867248
247	0x3ee1808b	0.44043383
248	0x3e8c46cf	0.27397773
249	0xbec9f8b1	-0.3944755
250	0x3e5dad9c	0.21648258
251	0xbece626e	-0.4030947
252	0x3ebfb6dd	0.374442
253	0x3eb7cbfc	0.35897815
254	0xbe96abf2	-0.2942806
255	0x3bf42b91	0.0074514826

network_body._body_endoder.seq_layers.0.bias f4 [128]
0	0x3d4f2f45	0.05058219
1	0xbc8a9f60	-0.016921699
2	0xbc9d8fb3	-0.01923356
3	0x3d2f2ec9	0.042769227
4	0x3d6fc1ee	0.058534555
5	0x3cd9a2ec	0.026566945
6	0x3d0446bd	0.032294024
7	0x3d022d94	0.031781748
8	0x3d0d2a5b	0.03446422
9	0x3d4a423b	0.04937957
10	0x3d0bb8c7	0.034111764
11	0xbc94e6f6	-0.018176537
12	0x3d7f6c8d	0.06235938
13	0x3d451dc3	0.048124086
14	0x3d6bfaf7	0.057612386
15	0xbccbcda7	-0.024878336
16	0x3cb6e6c2	0.02232683
17	0x3c856dcb	0.016287705
18	0x3d50c92b	0.0509731
19	0x3d0703c5	0.03296258
20	0x3d061bab	0.03274123
21	0xbd1f9fa5	-0.03897061
22	0x3c6df1bf	0.014522969
23	0xbcbceb00	-0.023061275
24	0x3d13f06e	0.036117963
25	0x3d0170ce	0.03160172
26	0x3d117411	0.03551108
27	0x3d3ad6a8	0.04561487
28	0x3d6753e8	0.056476504
29	0x3bb7603c	0.005596189
30	0x3cfcb39c	0.030847363
31	0x3bd9f8e8	0.0066519864
32	0xbc1ab2c5	-0.009442036
33	0x3d402781	0.046912674
34	0x3bec3dc4	0.0072095115
35	0x3cb2c1dc	0.021820955
36	0x3d635138	0.055497378
37	0xbc05b2f5	-0.008160342
38	0x3d193c93	0.037411284
39	0x3d48310e	0.048874907
40	0x3d34ce03	0.04414178
41	0xbc533e9e	-0.012893347
42	0x3cd296b9	0.025706636
43	0x3cfeae28	0.031088904
44	0x3c307f50	0.010772541
45	0x3cd71e6f	0.026259629
46	0x3c6b0c8b	0.014346252
47	0xb9842d6e	-0.0002521085
48	0xbce7475b	-0.028232267
49	0x3b45d693	0.003018771
50	0x3ca25549	0.019816058
51	0xbca2bb72	-0.019864772
52	0xbc9645d3	-0.018343842
53	0xbbfebe0a	-0.0077741193
54	0x3ca4379a	0.020046044
55	0xb6b60560	-5.4246484e-06
56	0xbc8fbe01	-0.017546656
57	0x3d5cddfa	0.05392263
58	0x3d3465c0	0.04404235
59	0x3ca5266f	0.020159928
60	0x3d3a7a33	0.045526695
61	0x3d240025	0.0400392
62	0x3d4af5ea	0.04955093
63	0x3d190f6b	0.03736822
64	0x3d3c917e	0.04603719
65	0x3d37b9c0	0.04485488
66	0x3d3f1676	0.04665228
67	0x3cc3410f	0.023834733
68	0xbb8ff985	-0.0043937587
69	0x3b1279c7	0.0022350417
70	0xbb0f2614	-0.0021842765
71	0x3d847ad0	0.06468737
72	0x3d8c216f	0.068423145
73	0xbc0ccee7	-0.008594251
74	0x3d023846	0.031791948
75	0xbc5f11a5	-0.013615047
76	0xbce48e7b	-0.027899971
77	0x3c66e581	0.014092804
78	0xbc82be1f	-0.015959797
79	0x3d6e4100	0.058167458
80	0xbc6cda17	-0.014456294
81	0x3c38a0af	0.011268779
82	0xbd209683	-0.03920604
83	0xbc9c046d	-0.01904508
84	0x3cc894b6	0.024484973
85	0x3d6d7e5d	0.057981838
86	0x3cf586e4	0.029971547
87	0xbcf8d932	-0.030377004
88	0xbbd6bacc	-0.0065530296
89	0x3d70733b	0.058703642
90	0xbd019bec	-0.03164284
91	0x3c83ad7c	0.016073935
92	0x3ce7949c	0.028269105
93	0xbd207b98	-0.03918037
94	0x3d4e275b	0.0503305
95	0x3c0c7dcc	0.008574914
96	0x3c578efc	0.013156649
97	0x3c661f37	0.014045528
98	0x3d31d669	0.043417368
99	0xbc8036d5	-0.015651146
100	0x3d340bf2	0.043956704
101	0x3d0dcece	0.034621052
102	0x3b063f1c	0.0020484393
103	0x3d2f8bf5	0.042858083
104	0x3da31bbb	0.079642735
105	0x3c138b63	0.0090054
106	0x3d561e9b	0.05227528
107	0x3cbd370a	0.023097534
108	0x3c95600e	0.018234279
109	0x3d2df7aa	0.04247252
110	0x3d7e10a9	0.062027607
111	0x3d2acc91	0.041698996
112	0xbba01f94	-0.004886577
113	0x3d254bc6	0.040355466
114	0xbbe3a029	-0.006946583
115	0x3d622118	0.055207342
116	0x3cb683ae	0.022279587
117	0x3d2b4dd6	0.041822277
118	0x3d1f2aa1	0.038859013
119	0xbced2ccc	-0.028952025
120	0xbbaa6ef5	-0.0052012154
121	0xbc9833c9	-0.01857938
122	0x3b465fa5	0.003026941
123	0xbcd2c74d	-0.0257298
124	0xbd211b63	-0.03933276
125	0xbad92dcd	-0.0016569436
126	0x3cdd255e	0.026995357
127	0xbd029973	-0.03188462

network_body._body_endoder.seq_layers.2.weight f4 [128, 128]
0	0xbd82f308	-0.06394011
1	0x3c3da753	0.011575538
2	0xbe0f1949	-0.1397449
3	0x3c0de19c	0.0086597465
4	0xbdcfd291	-0.10147584
5	0xbd1e4ac3	-0.038645517
6	0x3d53fb08	0.051753074
7	0xbd5d9b08	-0.054102927
8	0x3da1b3d6	0.07895629
9	0xbd846048	-0.06463677
10	0xbc80bb2f	-0.015714256
11	0xbd139d5b	-0.036038738
12	0xbdce0c21	-0.10060907
13	0x3dbe4046	0.09289603
14	0x3de8f8eb	0.11375602
15	0x3d5261b2	0.0513627
16	0xbdf48666	-0.11939697
17	0xbd5a3e4a	-0.05328206
18	0x3db03257	0.086033516
19	0xbd30fc09	-0.04320911
20	0xbd3f8429	-0.046756897
21	0xbc05662c	-0.008142035
22	0x3d2690d2	0.040665455
23	0x3c1b41dc	0.009476151
24	0x3e0a853c	0.13527387
25	0x3d34bade	0.044123523
26	0x3d3e1835	0.046409804
27	0x3dba62e5	0.09100894
28	0x3ca2dfd2	0.019882116
29	0xbcaac574	-0.020846106
30	0xbdb75cfa	-0.08953281
31	0x3cda2a99	0.02663164
32	0x3ddcaf0e	0.107755765
33	0x3cffd567	0.031229688
34	0xbdf982ef	-0.12183177
35	0x3d7406b5	0.05957671
36	0xbcab8aea	-0.020940263
37	0x3c279e05	0.010230546
38	0xbe223073	-0.15838794
39	0xbe32b070	-0.17450118
40	0x3d7f1836	0.06227895
41	0xbdaf78b6	-0.08567946
42	0x3cea4566	0.028597545
43	0xbdcff39c	-0.10153887
44	0x3e0004f9	0.12501897
45	0x3cb326a4	0.021869011
46	0x3d27d792	0.04097707
47	0xbdadfa60	-0.08495021
48	0xbc94aa7b	-0.018147698
49	0x3d7f3c39	0.062313292
50	0x3dcd984c	0.10038814
51	0xbda8b09a	-0.08236809
52	0x3d5819ff	0.052759167
53	0x3db0ad98	0.086268604
54	0x3cec0766	0.028812122
55	0xbd392ff3	-0.045211744
56	0xbdd949c3	-0.10609772
57	0x3d4c7e9a	0.049925424
58	0xbd2ad63c	-0.041708216
59	0xbd6125ff	-0.054967877
60	0xbe5bb252	-0.21454743
61	0x3de50a05	0.11183552
62	0xbd445e15	-0.047941286
63	0xbd931cdf	-0.07183241
64	0xbc233152	-0.009960489
65	0x3dc04f70	0.093901515
66	0x3db51413	0.088417195
67	0x3e2609f0	0.16214728
68	0xbc751200	-0.014957905
69	0xbd9292b5	-0.071568884
70	0x3d04d15b	0.03242622
71	0xbc8b867b	-0.017031899
72	0x3daae851	0.08345092
73	0x3d17118c	0.03688197
74	0x3d2a8c47	0.041637685
75	0xbd95370b	-0.07285889
76	0xbe3546d9	-0.17702807
77	0xbe18d135	-0.14923556
78	0xbe1e112d	-0.1543624
79	0xbdb9227e	-0.09039782
80	0xba2ef128	-0.00066735083
81	0x3d8a9f21	0.06768633
82	0xbc060651	-0.008180217
83	0x3d26e2f4	0.040743783
84	0xbd5bb680	-0.053640842
85	0x3d61bcef	0.05511182
86	0x3a428b4c	0.00074212695
87	0xbd07c684	-0.033148304
88	0x3d686d68	0.056744963
89	0xbd1ed68a	-0.03877882
90	0x3d6ea2a9	0.058260594
91	0x3dad3418	0.08457202
92	0x3de9257f	0.11384105
93	0x3c226421	0.009911568
94	0x3d9a12c0	0.075231075
95	0x3d1779ca	0.03698138
96	0x3ce0c165	0.027435968
97	0xbd3370ca	-0.043808736
98	0x3d3059be	0.043054335
99	0xbcb78f4a	-0.022407193
100	0xbdc7b2af	-0.09750878
101	0xbdc36cf3	-0.09542265
102	0xbd0378e4	-0.032097712
103	0x3e424cb2	0.1897457
104	0x3e660528	0.22462904
105	0x3e11a769	0.14224018
106	0x3d330b95	0.043712217
107	0x3d6bdc08	0.057582885
108	0xbba062a3	-0.004894571
109	0xbe57dbec	-0.21079987
110	0xbd992861	-0.07478405
111	0xbc88c2c8	-0.016694441
112	0x3d8d2501	0.068918236
113	0xbc7cf1b6	-0.015438488
114	0xbb22b75b	-0.0024828527
115	0xbcfc6514	-0.030809917
116	0xbe235c26	-0.1595312
117	0xbdaddfaa	-0.08489926
118	0x3d72069a	0.059088327
119	0x3de83c3a	0.11339612
120	0x3ce3e509	0.027819173
121	0xbe32f9bc	-0.17478079
122	0xbe060e2e	-0.13091347
123	0xbe5beb82	-0.21476558
124	0x3d651a84	0.05593349
125	0xbda25750	-0.0792681
126	0xbd643694	-0.055716112
127	0xbe42a84d	-0.19009514
128	0x3ddb896b	0.1071957
129	0x3d9297c5	0.07157854
130	0x3cf381a8	0.02972491
131	0xbdc75f1d	-0.09734938
132	0xbdfb3b9c	-0.12267229
133	0x3c8c6962	0.017140094
134	0xbd87d88d	-0.06633101
135	0x3cdf38c2	0.027248744
136	0x3d8f9afa	0.07011981
137	0x3c72f22c	0.014828246
138	0xbc39ae44	-0.011333052
139	0x3bc8562f	0.0061137895
140	0x3c5ec796	0.01359739
141	0xbddd9657	-0.10819691
142	0x3c2c80df	0.010528772
143	0xbdb15ea3	-0.08660629
144	0x3ddd49fb	0.10805126
145	0x3df074a9	0.11741001
146	0x3d9e5850	0.07731688
147	0x3d746284	0.059664264
148	0x3d74f182	0.059800632
149	0x3c2abb03	0.010420564
150	0xbd2072af	-0.03917187
151	0x3cc882c0	0.024476409
152	0xbd2bf5b7	-0.04198238
153	0x3d9e48c5	0.077287234
154	0x3d39f247	0.04539707
155	0xbd738f90	-0.059463084
156	0x3c0e9cee	0.008704407
157	0x3d7c1085	0.06153919
158	0xbd457e5f	-0.04821622
159	0x3c55f0ad	0.01305787
160	0x3e28abdd	0.1647181
161	0x3dc233a6	0.094825074
162	0xbd8edcec	-0.06975731
163	0x3d7ae761	0.061255816
164	0x3d872741	0.06599284
165	0xbdf73c9e	-0.12072109
166	0x3d5f6f8c	0.05454974
167	0x3cce3e54	0.025176205
168	0xbcf53232	-0.029931162
169	0x3b95fe41	0.0045774286
170	0x3db88f49	0.090117045
171	0xbd4821c6	-0.048860334
172	0x3e230a36	0.15921864
173	0x3cd86bf6	0.026418667
174	0xbb599f76	-0.0033206618
175	0x3d0c053a	0.034184672
176	0xbaba6b13	-0.0014222584
177	0x3bd50630	0.0065009817
178	0xbd1b4ecc	-0.037916943
179	0xbc6d45ed	-0.014482004
180	0x3d99517f	0.07486247
181	0x3ca5b543	0.020228034
182	0x3c82034d	0.015870715
183	0xbdfd4298	-0.123662174
184	0x3d8b469b	0.06800576
185	0x3b2b0e3d	0.0026101016
186	0x3d9873c1	0.07443953
187	0x3d929bcd	0.07158623
188	0x3e200384	0.15626341
189	0xbdec3bc7	-0.11534839
190	0xbd9f3cbf	-0.07775258
191	0xbe1211d9	-0.14264621
192	0x3daf1c15	0.08550278
193	0x3de1ae68	0.110195935
194	0x3d60de05	0.054899234
195	0x3da0e29a	0.07855721
196	0xbe065070	-0.13116622
197	0x3e4430c9	0.19159235
198	0xbd80ef48	-0.06295639
199	0xbdaa81fd	-0.083255745
200	0x3d96b292	0.07358278
201	0x3d8f29b4	0.06990376
202	0xbc93c01c	-0.01803594
203	0xbe3c0ee7	-0.1836506
204	0xbd02652d	-0.03183477
205	0xbd09c124	-0.03363146
206	0xbd7bbd9e	-0.06146013
207	0x3dea03a6	0.11426477
208	0x3dd24581	0.10267163
209	0xbc1497ec	-0.009069424
210	0xbd9f4b55	-0.0777804
211	0xbe018cba	-0.12651339
212	0xbc5b12e6	-0.013371205
213	0x3c0cdd16	0.008597633
214	0x3d832afb	0.06404682
215	0xbdc90f37	-0.09817355
216	0x3dc18cf2	0.09450711
217	0x3ceec31b	0.029145768
218	0x3bb17d57	0.005416553
219	0x3ca8df08	0.020614162
220	0x3e21f627	0.15816556
221	0x3d16a1d9	0.036775444
222	0x3d3cd786	0.046103977
223	0x3c5312fb	0.012882943
224	0xbba8705e	-0.0051403483
225	0x3b541133	0.0032358884
226	0x3d2f5818	0.042808622
227	0xbe24a327	-0.16077863
228	0xbc4ef33c	-0.012631234
229	0x3c4afe10	0.012389675
230	0xbce73ff9	-0.028228747
231	0x3e097f1d	0.13427396
232	0xbd9d1cab	-0.076714836
233	0x3e6788c0	0.2261076
234	0x3c9dd462	0.019266311
235	0x3cfd3bd2	0.030912314
236	0xbd28bbae	-0.04119461
237	0x3c55c95d	0.013048497
238	0x3d628f68	0.055312544
239	0xbd09f838	-0.033683985
240	0xbc0954fc	-0.008382078
241	0x3d2b4865	0.041817088
242	0x3d032c76	0.032024823
243	0x3dbcea59	0.09224386
244	0xbdca22b2	-0.09869899
245	0xbd09a2cf	-0.033602532
246	0x3c5e6ae7	0.013575292
247	0xbcf8f38b	-0.030389568
248	0xbdb0e08c	-0.08636579
249	0xbc601759	-0.0136774415
250	0xbdbc20bc	-0.09185931
251	0xbddf4098	-0.10900992
252	0x3d1b4b3a	0.03791354
253	0xbe00351a	-0.12520257
254	0xbc15838c	-0.0091256015
255	0x3da32046	0.0796514

network_body._body_endoder.seq_layers.2.bias f4 [128]
0	0xbbb3a4a8	-0.005482275
1	0x3d3e05db	0.046392303
2	0x3be1b981	0.006888569
3	0x3d18d1c4	0.037309423
4	0x3d21bd5a	0.03948722
5	0x3cab0fcb	0.020881554
6	0x3d18f2eb	0.03734104
7	0x3cbc53ed	0.022989238
8	0x3b6fba56	0.003657957
9	0xbd2953d1	-0.0413397
10	0xbd6325a7	-0.05545583
11	0xbd494524	-0.049138203
12	0xbd414885	-0.0471883
13	0x3d4eaae7	0.050455954
14	0x3d30a739	0.043128226
15	0xbd35a7e2	-0.04434956
16	0x3c7904b6	0.015198877
17	0x3d218626	0.039434575
18	0xba9bb2af	-0.0011878813
19	0x3ce210c6	0.027595889
20	0x3d0c9c2e	0.034328632
21	0x3ce8d2c8	0.02842082
22	0x3cfb0b43	0.030645018
23	0xbd1533e3	-0.036426436
24	0xbd354899	-0.044258688
25	0xbd815d86	-0.06316666
26	0x3cdc394a	0.026882786
27	0xbc6148e1	-0.013750286
28	0x3c4bcd22	0.012439044
29	0x3cdb4468	0.026766017
30	0xbc53de28	-0.012931384
31	0x3ca0b26f	0.019616334
32	0x3b30a72a	0.0026955106
33	0x3aa0a2cb	0.0012255547
34	0x3d48d8c3	0.049034845
35	0x3d6c81a5	0.057740826
36	0x3c315239	0.010822826
37	0x3d2f0f2a	0.04273907
38	0xbd05bb69	-0.03264943
39	0xbd050775	-0.032477815
40	0xbd51d565	-0.0512289
41	0xbc158791	-0.00912656
42	0x3d1dd35d	0.03853165
43	0x3ceaa5bb	0.02864348
44	0x3cb93ff1	0.022613497
45	0x3ca7ce4a	0.020484108
46	0xbd5a0746	-0.053229593
47	0xbd085a36	-0.033289157
48	0xbd4e65d7	-0.05039009
49	0x3d41ab48	0.047282487
50	0xbd1ad812	-0.037803717
51	0x3d0a2372	0.03372521
52	0x3d57d224	0.05269064
53	0x3d22e6d4	0.039770916
54	0x3d4efbaa	0.050532974
55	0xbd1efc80	-0.03881502
56	0xbd5c9379	-0.05385158
57	0xbd48bd82	-0.049008854
58	0xbd0cd1e0	-0.03437984
59	0xbc42d41a	-0.011891389
60	0x3d238db7	0.03993007
61	0xbd1e0ef2	-0.03858847
62	0xbcd91a47	-0.026501788
63	0xbd0c659d	-0.034276593
64	0xbd202bc9	-0.039104257
65	0x3d1f4e55	0.038893063
66	0x3c304c82	0.010760428
67	0xbd1a2f37	-0.037642684
68	0xbd014736	-0.031562053
69	0x3d58670e	0.052832656
70	0xbd09406c	-0.033508703
71	0x3d46d246	0.048540376
72	0x3ac68ebe	0.0015148742
73	0x3d4172b6	0.047228537
74	0x3ce0e788	0.027454153
75	0x3ca03417	0.019556088
76	0x3c1fa926	0.009744918
77	0x3cebbde8	0.028777078
78	0x3c8eb303	0.017419344
79	0xbd5e0410	-0.054203093
80	0xbc9d201a	-0.019180346
81	0x3d4c2a64	0.049845114
82	0x3caa6058	0.020797893
83	0x3ccb903b	0.024849048
84	0xbd6e7afa	-0.05822275
85	0xbca1158d	-0.019663597
86	0xbd4bd1a7	-0.049760487
87	0xbd69c2bd	-0.057070483
88	0x3d27ad26	0.04093661
89	0x3d55c685	0.052191276
90	0xbd3c7a23	-0.046014916
91	0x3d2bfbf5	0.04198833
92	0xbd7731d7	-0.060350265
93	0x3cdda893	0.027057922
94	0x3d2e2b1c	0.04252158
95	0x3d548240	0.05188203
96	0x3d64ecd6	0.055889927
97	0xbc61a445	-0.013772075
98	0x3d20840e	0.039188437
99	0xb97c2246	-0.0002404536
100	0x3ccadf75	0.024764756
101	0x3ce1c515	0.027559796
102	0xbd131a7b	-0.035913926
103	0x3d43da0d	0.04781537
104	0xbc4b1226	-0.012394464
105	0x3d0d66e9	0.03452197
106	0xbd01e3e0	-0.03171146
107	0xbc3c316b	-0.011486392
108	0x3d0d7390	0.034534037
109	0xbab83e0a	-0.0014056575
110	0x3d4217ef	0.047386106
111	0x3d1fd819	0.039024446
112	0x3d390214	0.045167997
113	0xbbe0e003	-0.006862642
114	0x3c4a70d6	0.012356004
115	0x3d58ac29	0.05289856
116	0xbcd21e0f	-0.025649099
117	0xbc1e449b	-0.0096599115
118	0x3cb68972	0.022282336
119	0xbd03524b	-0.032060903
120	0x3b943de1	0.004523978
121	0x3cf4a0ef	0.029861895
122	0x3d15ffec	0.03662102
123	0x3b2c5802	0.0026297574
124	0x3ce06012	0.02738956
125	0xbd190c48	-0.037365228
126	0xbd2f92f4	-0.042864755
127	0xbc28c818	-0.010301612

action_model._continuous_distribution.log_sigma f4 [1, 3]
0	0xbd22c2d2	-0.039736576
1	0x3cbe07ed	0.023197139
2	0xbcb8a171	-0.022537919

action_model._continuous_distribution.mu.weight f4 [3, 128]
0	0x3ca90c6a	0.020635802
1	0x3a05a5e9	0.000509827
2	0x3c7ee461	0.015557379
3	0xbccefd3a	-0.025267232
4	0xbd180da6	-0.03712239
5	0xbc050569	-0.008118966
6	0x3bf97004	0.0076122303
7	0x3c332be7	0.01093576
8	0x3cbadc8a	0.02281024
9	0x3c52a823	0.01285747
10	0x3c8c7d51	0.0171496
11	0xbc4ecc6f	-0.012621983
12	0x3cb50545	0.02209724
13	0xbd0ba95f	-0.03409707
14	0xbcc1b20f	-0.023644475
15	0x3b93fa79	0.0045159427
16	0xbca0e2d0	-0.019639403
17	0x3a0f4c48	0.0005466384
18	0x3aeffc62	0.0018309469
19	0xbc6cfc4b	-0.014464448
20	0xbc5f46b5	-0.013627698
21	0x3d6cdb6a	0.057826437
22	0xbc96d8a4	-0.01841385
23	0x3cc75c0f	0.02433589
24	0xbcd15b80	-0.025556326
25	0x3d1989cd	0.037484933
26	0x3cd38b41	0.025823237
27	0x3cd31a26	0.025769304
28	0x3cfee10c	0.03111317
29	0x3b8a86b5	0.004227484
30	0x3c5bc255	0.013413032
31	0x3d08428d	0.033266593
32	0xbcbbee50	-0.022940785
33	0xbd096815	-0.033546526
34	0xbcdea93f	-0.027180312
35	0xbc061d90	-0.008185759
36	0x3cc630dc	0.02419322
37	0xbcc4afc1	-0.024009587
38	0xbcc803bc	-0.024415843
39	0xbbd816c9	-0.006594513
40	0xbcbd4eb9	-0.023108827
41	0xbce84990	-0.02835539
42	0xbcd0734e	-0.025445607
43	0xbb10ab45	-0.002207474
44	0xbcf5dd34	-0.030012704
45	0x3c6eb36a	0.014569143
46	0x3b9ee51a	0.0048490884
47	0xbc3b1279	-0.011417978
48	0xbc0177fa	-0.00790214
49	0xbc4ec04a	-0.0126190875
50	0xbc30ed75	-0.010798802
51	0xbce69ab0	-0.028149933
52	0xbd11180c	-0.035423324
53	0x3c09780a	0.008390436
54	0xbc03fc8b	-0.008055816
55	0xbc2b6fbc	-0.010463651
56	0xbc552066	-0.013008213
57	0xbc3ab5fc	-0.0113959275
58	0xbb0e0dcd	-0.0021675706
59	0x3cee5269	0.02909203
60	0x3c147333	0.009060669
61	0xbc9bd8a6	-0.019024204
62	0xbc1179a3	-0.008879098
63	0xbc9a64f1	-0.01884696
64	0x3d2e3465	0.042530436
65	0x3c8f5c80	0.017500162
66	0xbd4e65bc	-0.05038999
67	0xbb76e4d9	-0.0037673025
68	0xbbb58b38	-0.005540278
69	0x3b2ab7ea	0.0026049563
70	0xbcec57cd	-0.02885046
71	0xbc5e0ac9	-0.013552376
72	0xbd64b9a2	-0.055841096
73	0xbc73b61c	-0.014874961
74	0x3bd24a85	0.006417575
75	0x3d2b97c8	0.041892797
76	0xbbd35ffc	-0.006450651
77	0x3c9a7044	0.01885236
78	0x3bcdfc6d	0.006286195
79	0x3d12779b	0.035758596
80	0xbc7c1af3	-0.015387285
81	0xbc46e4e4	-0.012139533
82	0xbbee81c9	-0.007278655
83	0xbc32b1d4	-0.010906655
84	0x3cfcb620	0.030848563
85	0x3c8c0919	0.017094182
86	0xbccbc264	-0.024872966
87	0x39d336aa	0.00040285784
88	0x3c178e17	0.009250185
89	0x3c8d5870	0.017254084
90	0x3d027157	0.03184637
91	0x3bb75c1a	0.005595696
92	0x3bc05e12	0.005870589
93	0x3c6d4702	0.014482262
94	0xbc8e51a2	-0.01737291
95	0xbd410457	-0.04712328
96	0xbba1cfb2	-0.0049380893
97	0xbc08f4c3	-0.008359137
98	0xbcc51958	-0.024059936
99	0x3c895ead	0.016768778
100	0xbd090c77	-0.033459153
101	0x3d39921a	0.04530535
102	0xbc45a036	-0.012062123
103	0xbbe97132	-0.0071240896
104	0x3c1aa8d0	0.009439662
105	0x3be2d760	0.0069226474
106	0x3cc8c08f	0.024505882
107	0x3c4ef429	0.0126314545
108	0x3c268b1e	0.010165004
109	0xbd1ff19c	-0.039048776
110	0xbcd438ca	-0.025905985
111	0x3d14ba17	0.03631028
112	0xbbcc80bb	-0.006240932
113	0xbce20a9d	-0.027592951
114	0xbce3be10	-0.02780059
115	0xbcaf74fe	-0.02141809
116	0x3cb60cd8	0.022222921
117	0x3c496e7e	0.01229441
118	0xbc563282	-0.013073565
119	0xbd0a1aa3	-0.03371681
120	0x3d30201b	0.04299937
121	0x3d04dd67	0.03243771
122	0x3cbd0525	0.023073742
123	0x3d212f42	0.03935171
124	0xbbcdaad7	-0.006276469
125	0x3b8afc7e	0.004241525
126	0x3c99d697	0.018779082
127	0xbd1ee6be	-0.03879427
128	0xbbc4a85a	-0.0060015144
129	0xbd1b79e5	-0.037958045
130	0xbc867c92	-0.016416822
131	0xbcc82043	-0.024429446
132	0xbd5b43be	-0.0535314
133	0xbc3b2adf	-0.0114237955
134	0xbd05fc9c	-0.03271161
135	0xbc926931	-0.017872425
136	0xbc5b812b	-0.013397495
137	0x3c189571	0.009312973
138	0x3d71d014	0.05903633
139	0x3d87cd50	0.06630957
140	0x3cdb331c	0.02675777
141	0xbdb43e8b	-0.088009916
142	0xbd1b5d02	-0.037930496
143	0x3d375ace	0.044764332
144	0xbc839368	-0.0160615
145	0xbd4ca68b	-0.049963515
146	0x3bd5c53e	0.0065237572
147	0xbc8cf211	-0.01720527
148	0xbc514ab1	-0.0127741555
149	0xbce48fc7	-0.02790059
150	0xbca580b3	-0.02020297
151	0x3bb4d968	0.005519081
152	0x3d6e74ba	0.058216788
153	0x3d947b95	0.07250134
154	0xbd1f882a	-0.038948216
155	0xbc2cbccb	-0.010543059
156	0xbc089aad	-0.008337659
157	0xbca48b12	-0.020085845
158	0xbabf6a31	-0.0014603791
159	0xbc7ebf00	-0.015548468
160	0xbb7721de	-0.0037709395
161	0xbc0c22a4	-0.008553181
162	0xbd606473	-0.054783296
163	0xbcda9f06	-0.026687156
164	0xbcd2ed9b	-0.025748065
165	0xbcbe8e5d	-0.023261243
166	0x3c933d96	0.017973702
167	0x3cf302ca	0.029664416
168	0x3dc220e7	0.09478932
169	0x3c52008f	0.012817516
170	0xbce43068	-0.027855113
171	0xbca502a6	-0.020142864
172	0xbc4e782a	-0.0126018915
173	0xbc8096c6	-0.015696894
174	0x3d4cb38b	0.049975913
175	0x3bbae1cc	0.0057031866
176	0x3d956655	0.07294909
177	0xbd777fbc	-0.06042455
178	0x3ca072c0	0.019585967
179	0xbcfeaa98	-0.031087205
180	0xbd28c4b8	-0.04120323
181	0xbd05030d	-0.032473613
182	0xbd65cfc3	-0.05610634
183	0x3c88404d	0.016632224
184	0x3d270dd2	0.040784664
185	0x3d15f376	0.036609136
186	0x3c00e5c0	0.007867277
187	0xba1e9b9d	-0.000605041
188	0xbd331748	-0.043723375
189	0x3d1f818d	0.03894191
190	0x3c70881a	0.014680887
191	0x3ccff3e1	0.025384845
192	0x3d4ebdb0	0.05047387
193	0xbd49ace6	-0.049237154
194	0x3b908088	0.0044098534
195	0x3ca11ba7	0.019666506
196	0x3b8af633	0.004240775
197	0xbc928b7b	-0.017888775
198	0x3cbc2364	0.022966094
199	0xbc10d9ee	-0.008841021
200	0x3b98be2f	0.0046613435
201	0xbd6de96e	-0.058083944
202	0xbc990513	-0.018679177
203	0xbc839068	-0.01606007
204	0x3aceab93	0.0015767686
205	0xbcc174ad	-0.023615206
206	0xbcad0390	-0.021119863
207	0x3d460ca1	0.048351888
208	0x3ba1a39f	0.004932835
209	0xbd121e11	-0.035673205
210	0x3b192ffe	0.0023374553
211	0xbcad5819	-0.021160172
212	0x3d42aa34	0.0475256
213	0x3d1692a1	0.03676093
214	0x3d805f52	0.06268181
215	0x3d7ff1fc	0.062486634
216	0xbcf298ed	-0.029613936
217	0xbd27082e	-0.040779285
218	0x3d468dae	0.04847496
219	0xbd45b323	-0.04826654
220	0x3d77d087	0.0605016
221	0xbcd77272	-0.026299689
222	0xbce5e33b	-0.028062453
223	0xbd8234b0	-0.063577056
224	0xbd021d03	-0.03176595
225	0x3a19d12e	0.0005867657
226	0xbd0d0b8c	-0.03443484
227	0x3c82dfda	0.015975881
228	0xbc5e6211	-0.013573186
229	0xbcd8ee56	-0.026480835
230	0x3c9273b4	0.017877437
231	0xbcaddd12	-0.021223579
232	0x3c1ff804	0.009763721
233	0xbd2a8971	-0.04163498
234	0x3c00199c	0.007818606
235	0x3c39ada8	0.011332907
236	0xbccc6393	-0.024949824
237	0x39623a2b	0.00021574709
238	0xbd3180ae	-0.04333561
239	0xbd494062	-0.049133666
240	0xbcc275c2	-0.023737792
241	0xbc1181c3	-0.008881035
242	0xbbe98beb	-0.007127275
243	0xbd7ca7a1	-0.0616833
244	0x39e61a7f	0.0004388876
245	0x3b8e4d5c	0.004342718
246	0xbb8e6a2e	-0.0043461537
247	0x3d3f7a0d	0.046747256
248	0xbc040c33	-0.008059549
249	0xbd31b9ed	-0.043390203
250	0xbcee316c	-0.0290763
251	0xbc7fee06	-0.015620714
252	0xbbaca5c9	-0.0052687866
253	0x3d0fed69	0.03513852
254	0x3d4c50e6	0.04988184
255	0x3c82090c	0.015873455

action_model._continuous_distribution.mu.bias f4 [3]
0	0xbc0a8a77	-0.008455864
1	0xbd52d505	-0.051472683
2	0xbb586a3f	-0.0033022312

exp_avg f4 [128, 11]
0	0xb8019252	-3.0892268e-05
1	0x389242dc	6.974276e-05
2	0x3893ff78	7.057091e-05
3	0xb74764e8	-1.1884818e-05
4	0x389c2658	7.445802e-05
5	0x38dcef6f	0.000105350155
6	0xb7972b5e	-1.8020797e-05
7	0x336d9a64	5.532128e-08
8	0x384d7c93	4.8991827e-05
9	0x38ba35f5	8.8792214e-05
10	0x383c6da7	4.4924815e-05
11	0x38097b90	3.2778422e-05
12	0xb83123b6	-4.2233347e-05
13	0xb70631cd	-7.998618e-06
14	0x36acd82a	5.1511643e-06
15	0xb8edb458	-0.00011334632
16	0x3693fed8	4.410609e-06
17	0x3830c87c	4.2148386e-05
18	0x331a0fbe	3.5870237e-08
19	0xb854a581	-5.0698876e-05
20	0xb88124c7	-6.15805e-05
21	0xb8273668	-3.9866572e-05
22	0x34591720	2.0218113e-07
23	0xb701e2cd	-7.741805e-06
24	0xb7812257	-1.5393989e-05
25	0x37cf2d4b	2.4697414e-05
26	0xb65810b8	-3.219624e-06
27	0xb8336467	-4.2770433e-05
28	0x37d79718	2.5700356e-05
29	0x3258a1aa	1.2609613e-08
30	0xb69d2351	-4.683076e-06
31	0xb7eeb3bf	-2.8455512e-05
32	0xb7540cb3	-1.26391415e-05
33	0xb90a1926	-0.00013170074
34	0x376927f0	1.3897181e-05
35	0x39474bbf	0.00019006337
36	0xb92192e0	-0.00015408872
37	0xb9e6bd1f	-0.00044009925
38	0x38bd6a6f	9.032047e-05
39	0xb853e995	-5.052386e-05
40	0x331e47b6	3.6852462e-08
41	0x382cd41e	4.1205545e-05
42	0x381f5534	3.7987906e-05
43	0x34f81a00	4.6212517e-07
44	0xb932d027	-0.00017052946
45	0x390fd840	0.00013718102
46	0x389007a6	6.86788e-05
47	0xb9125f15	-0.00013959066
48	0xb94b0f4f	-0.00019365292
49	0x38d4345c	0.000101187004
50	0x37f02b6b	2.8630448e-05
51	0x33861829	6.244256e-08
52	0xb6da999c	-6.5147888e-06
53	0x38d52282	0.00010163059
54	0x3905191a	0.0001269322
55	0x382ad430	4.0728773e-05
56	0xb8a0f3af	-7.674784e-05
57	0x37c6767b	2.3658611e-05
58	0x37932245	1.7539724e-05
59	0xb94c54b4	-0.0001948651
60	0x38274456	3.9879546e-05
61	0x381bd9b2	3.7157624e-05
62	0x338c4327	6.531473e-08
63	0xb881793a	-6.1737795e-05
64	0xb8ae195a	-8.301689e-05
65	0xb7f46557	-2.9134257e-05
66	0xb94640e7	-0.0001890693
67	0x38760eec	5.8664868e-05
68	0x38f64ec7	0.000117448675
69	0xb8bcf140	-9.009475e-05
70	0xb90d7787	-0.00013491335
71	0x38509624	4.9730894e-05
72	0xb873b5f3	-5.8105168e-05
73	0x32d1089f	2.4334723e-08
74	0x38827bbb	6.22193e-05
75	0x38539eb9	5.0454142e-05
76	0x387f5154	6.087248e-05
77	0x38b4529d	8.598457e-05
78	0xb69fa880	-4.7581852e-06
79	0x366b966c	3.5105286e-06
80	0x379223a8	1.742116e-05
81	0xb8e84be4	-0.00011076758
82	0x3830aea2	4.212431e-05
83	0xb8384da0	-4.3941312e-05
84	0xb19f9250	-4.644143e-09
85	0xb81af2c5	-3.6942558e-05
86	0x3835715c	4.3259337e-05
87	0xb51de2a0	-5.881684e-07
88	0xb7ef7ed4	-2.855008e-05
89	0x38659adc	5.474208e-05
90	0x378427f7	1.5754236e-05
91	0xb7fc8650	-3.0103285e-05
92	0x387c84f5	6.0205308e-05
93	0xb6be7bc1	-5.676848e-06
94	0xb80bfce9	-3.3375723e-05
95	0x3281e45a	1.5121419e-08
96	0xb4db3020	-4.0826944e-07
97	0xb702b1ab	-7.78997e-06
98	0x37c121a4	2.3023058e-05
99	0x3910fa8a	0.00013826243
100	0xb9357806	-0.00017306217
101	0x361603b9	2.2353909e-06
102	0xb78dba68	-1.6895312e-05
103	0xb9d8f684	-0.000413824
104	0x38f30dd7	0.00011589721
105	0x37ae5236	2.0780699e-05
106	0x33b687a3	8.4997076e-08
107	0xb8980bef	-7.2501476e-05
108	0xb931d1a8	-0.00016958138
109	0x3641c4d0	2.88738e-06
110	0xb8bfe46e	-9.150138e-05
111	0xb9717c74	-0.00023029913
112	0x398eadfe	0.00027213985
113	0xb8ffa004	-0.00012189153
114	0xba8f7674	-0.0010945336
115	0x389c5a76	7.455509e-05
116	0x38852e00	6.3505024e-05
117	0x348b1736	2.5907656e-07
118	0xb9265c55	-0.0001586539
119	0xb9da045e	-0.00041583454
120	0xb90d2bb7	-0.00013463093
121	0x37f2c19a	2.89388e-05
122	0x3701ffd5	7.748565e-06
123	0xb7438ce5	-1.165571e-05
124	0xb751c8f7	-1.25041615e-05
125	0x36ee620b	7.1043664e-06
126	0x370467a8	7.8919475e-06
127	0xb554c996	-7.92695e-07
128	0xb2e258f5	-2.6350316e-08
129	0x367826ed	3.6977538e-06
130	0x379d9e56	1.878959e-05
131	0xb6b04517	-5.253252e-06
132	0xb832c95d	-4.262604e-05
133	0x38b2bc8c	8.522821e-05
134	0x38f0613b	0.000114622024
135	0xb81cf90d	-3.7425245e-05
136	0x389d2408	7.493055e-05
137	0x3919f23a	0.00014681453
138	0x37f10863	2.8733344e-05
139	0x3450b16b	1.9436054e-07
140	0xb7842649	-1.5753454e-05
141	0x35f92d00	1.8565042e-06
142	0x390fd081	0.00013715216
143	0x39644f4f	0.00021773319
144	0xb9988a7c	-0.00029094878
145	0x37aa141f	2.0274949e-05
146	0xb719e7e5	-9.173503e-06
147	0xba5f98a6	-0.00085295213
148	0x3912953d	0.0001397924
149	0x37c0f59c	2.3002554e-05
150	0x33aeee36	8.145837e-08
151	0xb925431f	-0.00015760631
152	0xb93f1d8e	-0.0001822619
153	0xb8fb8e0c	-0.00011995071
154	0xb5860480	-9.985088e-07
155	0xb9c2030f	-0.00037004842
156	0x395a0e60	0.00020795455
157	0xb8d983e9	-0.000103719365
158	0xbaad0d84	-0.001320288
159	0x39617db7	0.00021504505
160	0x396bbf7a	0.00022482677
161	0x34e44d98	4.2524766e-07
162	0xb990146e	-0.00027481042
163	0xba307378	-0.00067310734
164	0xb7a15aae	-1.9234922e-05
165	0xb7914a1e	-1.731986e-05
166	0xb8b475c1	-8.605002e-05
167	0x36790a48	3.7109876e-06
168	0x36a430a3	4.893243e-06
169	0xb7a19943	-1.9264064e-05
170	0xb77ec32e	-1.5185024e-05
171	0xb73ee1b4	-1.1377433e-05
172	0xb3e40bac	-1.06192005e-07
173	0x36e8c0e6	6.936595e-06
174	0xb761dc55	-1.3462345e-05
175	0xb8df56e7	-0.000106496555
176	0xb95b7a8b	-0.00020931118
177	0x38f27b74	0.00011562454
178	0x385efe3f	5.316571e-05
179	0xb5aca7c8	-1.2863829e-06
180	0x39818525	0.00024703998
181	0xb7b173ba	-2.1153934e-05
182	0x37a5392a	1.9696152e-05
183	0x3224b3d0	9.586941e-09
184	0x37dc9820	2.6296882e-05
185	0x37cdd2d0	2.4536072e-05
186	0x38807ea4	6.127104e-05
187	0x35f16819	1.7986196e-06
188	0xb7a52074	-1.9684645e-05
189	0xb5c72643	-1.4837791e-06
190	0xb7f39a03	-2.9039575e-05
191	0xb8ea56fb	-0.00011174191
192	0x36514142	3.1181412e-06
193	0x37b9d698	2.2153647e-05
194	0x3350d063	4.86183e-08
195	0xb7c105e8	-2.3010143e-05
196	0xb864f924	-5.4591466e-05
197	0x375f624a	1.33147205e-05
198	0x37cecd48	2.4652705e-05
199	0x37c9fa2c	2.4077563e-05
200	0x3816ba5f	3.593636e-05
201	0xb82d6926	-4.134434e-05
202	0xb9514a7b	-0.0001995954
203	0x386f2d8d	5.7024463e-05
204	0xb8b1b083	-8.4728956e-05
205	0x3318cb06	3.5574907e-08
206	0xb63bd010	-2.798628e-06
207	0x3880364f	6.1136314e-05
208	0x37e12e62	2.6843689e-05
209	0xb8ca750c	-9.653912e-05
210	0x382b3340	4.0817307e-05
211	0x391a09e1	0.00014690265
212	0xb8a664fe	-7.934308e-05
213	0xb9b2a917	-0.00034076787
214	0x38d7b2a5	0.00010285274
215	0xb8958cb5	-7.1310824e-05
216	0x332595c4	3.8553267e-08
217	0x37c41fc4	2.3379813e-05
218	0x38a9d526	8.09825e-05
219	0x389ddcf8	7.527502e-05
220	0x3863beef	5.429884e-05
221	0xb4f7c1a0	-4.6148216e-07
222	0x377dac0f	1.5120036e-05
223	0xb5edf8b0	-1.7730254e-06
224	0x3632c72c	2.664e-06
225	0x374b2f68	1.21107805e-05
226	0xb80b0816	-3.3147713e-05
227	0xb28942be	-1.597925e-08
228	0x37599235	1.2968249e-05
229	0x376a8fbe	1.39809545e-05
230	0xb5e94198	-1.7378943e-06
231	0xb5470780	-7.414419e-07
232	0xb7a9f649	-2.0261055e-05
233	0xb79aa0e7	-1.8433157e-05
234	0x37cf7128	2.4729015e-05
235	0xb809db19	-3.2867396e-05
236	0xb7c9a9a4	-2.4040062e-05
237	0x375ef472	1.32891455e-05
238	0xb2712780	-1.40370275e-08
239	0xb634ef64	-2.6961434e-06
240	0xb79f1adc	-1.8966784e-05
241	0xb7ebd1c8	-2.811187e-05
242	0xb81345d1	-3.5112553e-05
243	0xb7cedbb2	-2.4659417e-05
244	0x3844b1ea	4.6895737e-05
245	0xb79858c4	-1.8161147e-05
246	0xb93f1521	-0.0001822305
247	0x37d8f999	2.5865435e-05
248	0xb79c979a	-1.8667244e-05
249	0x3321de4f	3.7687922e-08
250	0xb75ca7ca	-1.3152088e-05
251	0xb88eddcc	-6.8124005e-05
252	0x3824bd01	3.927667e-05
253	0xb7fb4a6e	-2.995619e-05
254	0x3737c0dc	1.0952554e-05
255	0xb6f87341	-7.4043933e-06

exp_avg_sq f4 [128, 11]
0	0x3418da40	1.4235502e-07
1	0x334b688a	4.73597e-08
2	0x336a1b27	5.4507066e-08
3	0x333e71f1	4.434145e-08
4	0x329549ae	1.7379389e-08
5	0x3351c40e	4.8839915e-08
6	0x33371696	4.262855e-08
7	0x2991f7d7	6.482287e-14
8	0x335b0294	5.0992256e-08
9	0x3366fa43	5.377866e-08
10	0x3354466b	4.942414e-08
11	0x3283b3d9	1.5332192e-08
12	0x32ab15df	1.9916966e-08
13	0x32b6f844	2.1300487e-08
14	0x31f5df77	7.1558435e-09
15	0x33c23797	9.043941e-08
16	0x31f3940f	7.089063e-09
17	0x31f780b4	7.203278e-09
18	0x2841d107	1.0758978e-14
19	0x3233eeae	1.0473441e-08
20	0x32f97725	2.9041596e-08
21	0x3214fa8c	8.671702e-09
22	0x3281241d	1.5033999e-08
23	0x32186aa3	8.871811e-09
24	0x321e4e25	9.214578e-09
25	0x32220ab5	9.432076e-09
26	0x31bcf948	5.49986e-09
27	0x31c0fc22	5.6165996e-09
28	0x31d54f70	6.208147e-09
29	0x280c1d35	7.7778944e-15
30	0x31d57b6b	6.213147e-09
31	0x327f6362	1.4865551e-08
32	0x31b2d579	5.204751e-09
33	0x342c22a4	1.603135e-07
34	0x348016ee	2.3858541e-07
35	0x344bd883	1.8984615e-07
36	0x33a7651b	7.7949345e-08
37	0x35879ce8	1.010395e-06
38	0x334348ea	4.546829e-08
39	0x339ba789	7.2482244e-08
40	0x29f00219	1.0658505e-13
41	0x33c45071	9.1415934e-08
42	0x34e7a123	4.3144345e-07
43	0x3396e4e5	7.026555e-08
44	0x341aab4e	1.4404688e-07
45	0x34122c59	1.3613443e-07
46	0x33f8a720	1.15788e-07
47	0x3392cbb1	6.835706e-08
48	0x34aa096a	3.1671817e-07
49	0x339ada41	7.210884e-08
50	0x33b9d072	8.65265e-08
51	0x2a06648f	1.1936479e-13
52	0x33ebaa9b	1.0974073e-07
53	0x342add07	1.5912893e-07
54	0x33a32b68	7.5981745e-08
55	0x32cc1f61	2.3762995e-08
56	0x32b19281	2.0672134e-08
57	0x32ea2bae	2.7261049e-08
58	0x31ae5946	5.0742157e-09
59	0x3400a994	1.1982621e-07
60	0x31ef2a86	6.96065e-09
61	0x3221a034	9.407859e-09
62	0x2872fc2e	1.3488381e-14
63	0x3233f70f	1.0475346e-08
64	0x32ee1f0c	2.7720965e-08
65	0x3239c7a4	1.081381e-08
66	0x33eca445	1.1019487e-07
67	0x341cfad9	1.461989e-07
68	0x3405b149	1.2451086e-07
69	0x3380088a	5.962018e-08
70	0x350ae0f6	5.173637e-07
71	0x3323acde	3.8108617e-08
72	0x335d7d4b	5.1569526e-08
73	0x299972b0	6.81446e-14
74	0x33804598	5.9731235e-08
75	0x3488e4f5	2.5498562e-07
76	0x335291c4	4.902701e-08
77	0x344e2793	1.9199642e-07
78	0x34648c16	2.1285118e-07
79	0x3445fc8c	1.8438931e-07
80	0x34141e46	1.3794588e-07
81	0x3404c60b	1.2365506e-07
82	0x33e98be3	1.0875353e-07
83	0x33c05548	8.956209e-08
84	0x2a1de94e	1.4025345e-13
85	0x34123d3c	1.3619587e-07
86	0x34cecc99	3.8519354e-07
87	0x33c38529	9.104617e-08
88	0x33479dcb	4.647681e-08
89	0x33889b2f	6.361221e-08
90	0x32c07d46	2.240871e-08
91	0x32cd1527	2.387476e-08
92	0x3442eb6d	1.8153305e-07
93	0x32fb8ee1	2.928522e-08
94	0x334c62fb	4.7587474e-08
95	0x298ff820	6.3935185e-14
96	0x3380dcd6	6.000634e-08
97	0x33542647	4.939491e-08
98	0x331602ad	3.492703e-08
99	0x349275a7	2.7280223e-07
100	0x34892886	2.5547723e-07
101	0x34764890	2.2936933e-07
102	0x34013411	1.2033003e-07
103	0x35a33248	1.215908e-06
104	0x33d885fe	1.0082657e-07
105	0x34216aa4	1.5033089e-07
106	0x2a664a74	2.0453935e-13
107	0x342fccae	1.6372607e-07
108	0x34ae933f	3.251716e-07
109	0x3400cf93	1.1996444e-07
110	0x34aea830	3.2532398e-07
111	0x35173d55	5.6341133e-07
112	0x34bc60be	3.5088118e-07
113	0x338d8c65	6.591362e-08
114	0x3687cfc4	4.0475006e-06
115	0x33626a59	5.2716448e-08
116	0x34296edd	1.5779683e-07
117	0x2a851ed0	2.3646926e-13
118	0x34464879	1.8466552e-07
119	0x3562c720	8.4481326e-07
120	0x343ab732	1.7389246e-07
121	0x330bf1c6	3.258335e-08
122	0x33124dd4	3.406406e-08
123	0x333e5e61	4.432366e-08
124	0x32a5d453	1.9305082e-08
125	0x3227ca63	9.766697e-09
126	0x329e7aa4	1.8449391e-08
127	0x32a9645b	1.9719826e-08
128	0x28ea998e	2.6045813e-14
129	0x32c93518	2.3423624e-08
130	0x3373e033	5.6781754e-08
131	0x32c0f531	2.2463242e-08
132	0x349f73ce	2.9700317e-07
133	0x342345d7	1.5205966e-07
134	0x3478222c	2.3109232e-07
135	0x33c2334b	9.043159e-08
136	0x327e3f6e	1.4799168e-08
137	0x341120a4	1.3516052e-07
138	0x3418210c	1.4168126e-07
139	0x2a41cb75	1.7212432e-13
140	0x341b6995	1.447391e-07
141	0x33f6bc40	1.148951e-07
142	0x3411f30b	1.3592596e-07
143	0x34f1f5c9	4.506858e-07
144	0x3519fb81	5.736293e-07
145	0x34af9b54	3.2709306e-07
146	0x343cb9e9	1.7576498e-07
147	0x365d32cd	3.2961136e-06
148	0x33f1cbd9	1.1259517e-07
149	0x345eed98	2.0761797e-07
150	0x2a9fb48e	2.836936e-13
151	0x3470b631	2.2418023e-07
152	0x356c41fe	8.801288e-07
153	0x3435ff71	1.6949868e-07
154	0x357b4a00	9.361247e-07
155	0x35afcfe6	1.3099022e-06
156	0x355d6c66	8.2486656e-07
157	0x34449dee	1.8311377e-07
158	0x371b9a0c	9.274587e-06
159	0x3439b23a	1.7294306e-07
160	0x34f227ca	4.5104963e-07
161	0x2b3c3221	6.6860585e-13
162	0x350df7f9	5.288744e-07
163	0x35eb2d55	1.7522058e-06
164	0x34c9e255	3.7603846e-07
165	0x343809c7	1.7139892e-07
166	0x338b1b6d	6.4776806e-08
167	0x337afacd	5.8435763e-08
168	0x336d5b7c	5.5264067e-08
169	0x30c21419	1.412107e-09
170	0x3382943f	6.0805625e-08
171	0x33890bed	6.381729e-08
172	0x29a86493	7.4781456e-14
173	0x338373bf	6.121217e-08
174	0x33920f9c	6.801494e-08
175	0x3372fc25	5.657434e-08
176	0x34188ab7	1.4206567e-07
177	0x34598e2a	2.0261419e-07
178	0x33eae2d5	1.09377346e-07
179	0x333acd63	4.3493298e-08
180	0x359e502e	1.1795253e-06
181	0x330beeab	3.2580527e-08
182	0x33952804	6.945632e-08
183	0x29bd97d6	8.4196254e-14
184	0x33aca971	8.040195e-08
185	0x349c7d6a	2.9148515e-07
186	0x33755e1a	5.7129093e-08
187	0x32d5b1f2	2.4877384e-08
188	0x32f294eb	2.8240228e-08
189	0x32d05663	2.4253671e-08
190	0x320b8bf7	8.122689e-09
191	0x34182bcc	1.4172036e-07
192	0x3207e9db	7.911207e-09
193	0x326ab7b1	1.3662359e-08
194	0x28b8c203	2.0512243e-14
195	0x32a00314	1.8627851e-08
196	0x33209099	3.7384414e-08
197	0x324ed471	1.2039082e-08
198	0x33d4915e	9.8984614e-08
199	0x3415d1fa	1.3953095e-07
200	0x3404fc7d	1.2385313e-07
201	0x3389453a	6.392152e-08
202	0x34fde7ea	4.7293662e-07
203	0x33652de3	5.335995e-08
204	0x337e41c5	5.91988e-08
205	0x29c671b8	8.8126934e-14
206	0x339f106f	7.407004e-08
207	0x34670dbd	2.151855e-07
208	0x336936fc	5.4299548e-08
209	0x34021806	1.2115933e-07
210	0x3449fd40	1.8811716e-07
211	0x34217ddf	1.5040085e-07
212	0x33bb5410	8.723157e-08
213	0x3543d708	7.295607e-07
214	0x334abd20	4.7203798e-08
215	0x3390484b	6.7186726e-08
216	0x29dce9d3	9.8105247e-14
217	0x33b09bdc	8.223989e-08
218	0x34a64203	3.096794e-07
219	0x337ec894	5.932141e-08
220	0x336c737a	5.5053057e-08
221	0x333a505b	4.3379583e-08
222	0x3377d9bf	5.7707208e-08
223	0x32e8b053	2.7088538e-08
224	0x339fc7f4	7.440386e-08
225	0x3303f7b4	3.07261e-08
226	0x32f30e5b	2.8295451e-08
227	0x290f13d6	3.1769583e-14
228	0x33101e9f	3.3555462e-08
229	0x338d4331	6.578046e-08
230	0x32ea3079	2.7263228e-08
231	0x32f78973	2.881709e-08
232	0x32764f8a	1.433717e-08
233	0x328d168c	1.6424814e-08
234	0x32435c09	1.137142e-08
235	0x31dd3155	6.437555e-09
236	0x32333460	1.043108e-08
237	0x3271ea2b	1.408129e-08
238	0x28a4933d	1.8271512e-14
239	0x32a05c92	1.8668548e-08
240	0x327a1ac2	1.4557999e-08
241	0x3233fa65	1.0476104e-08
242	0x3424c330	1.5344699e-07
243	0x346b08f4	2.1889338e-07
244	0x342014d5	1.490874e-07
245	0x332399ed	3.809139e-08
246	0x35b6c233	1.3616576e-06
247	0x330c5af3	3.2679008e-08
248	0x338bbe3c	6.507295e-08
249	0x29cff578	9.235229e-14
250	0x33b4b191	8.414202e-08
251	0x34a3e4c8	3.0527576e-07
252	0x33827c2f	6.0761856e-08
253	0x3316ec90	3.513975e-08
254	0x331fe4fb	3.722833e-08
255	0x3346c2d1	4.6277652e-08

exp_avg f4 [128]
0	0x386dc9d6	5.6693178e-05
1	0x381a2e7e	3.675976e-05
2	0x3758cce9	1.2922313e-05
3	0x381e674c	3.776634e-05
4	0x388632ec	6.399103e-05
5	0x388c5f28	6.6934444e-05
6	0x37d1325d	2.4938194e-05
7	0xb69fb20c	-4.7592966e-06
8	0x3781fe4e	1.5496418e-05
9	0x38b6ac1b	8.7104934e-05
10	0x398b32fe	0.00026550138
11	0xb7e28625	-2.7003765e-05
12	0x3950db17	0.00019918043
13	0x38af112a	8.347847e-05
14	0x39e47b30	0.0004357933
15	0xb8e43936	-0.000108825436
16	0x3724d4b0	9.824682e-06
17	0x3850fa14	4.9823968e-05
18	0x3818e990	3.6457146e-05
19	0x3825b6d3	3.9509334e-05
20	0xb7895e24	-1.637551e-05
21	0xb77157aa	-1.438513e-05
22	0x3821fea7	3.8622555e-05
23	0xb60d6564	-2.1069654e-06
24	0x389620ab	7.158642e-05
25	0x382185e2	3.851008e-05
26	0xb8b2f03c	-8.5324486e-05
27	0x38b4e431	8.625573e-05
28	0xb7448176	-1.1712653e-05
29	0xb73820bc	-1.0974876e-05
30	0xb7be7ae6	-2.2706994e-05
31	0xb83de985	-4.5278593e-05
32	0x3879e450	5.957886e-05
33	0x39807178	0.00024498603
34	0x3806cccc	3.213882e-05
35	0x3791836b	1.7346543e-05
36	0x390b38bf	0.00013277213
37	0xb8ae94af	-8.324661e-05
38	0x38df404e	0.00010645446
39	0x38e07c13	0.00010704263
40	0x38cf5f28	9.8882534e-05
41	0x3896d9d4	7.193131e-05
42	0xb73765f6	-1.093139e-05
43	0x38941c2a	7.062436e-05
44	0xb5e067a0	-1.6719459e-06
45	0xb81e2cad	-3.7711743e-05
46	0x36d78618	6.42311e-06
47	0x383222a1	4.2470758e-05
48	0xb891b585	-6.9479494e-05
49	0x37ffe148	3.0503274e-05
50	0xb7ed0cb0	-2.825851e-05
51	0xb8671042	-5.5089833e-05
52	0x37efa5fe	2.8568316e-05
53	0x35100e40	5.3664917e-07
54	0x34ffe750	4.7665753e-07
55	0xb8815dc6	-6.168666e-05
56	0x37835c95	1.5659529e-05
57	0x384d47ae	4.8942566e-05
58	0xb7ad6090	-2.0668173e-05
59	0x37d9d60f	2.5968095e-05
60	0xb7846a2a	-1.5785063e-05
61	0xb8188132	-3.6359947e-05
62	0xb7cc4014	-2.4348534e-05
63	0x360a25c8	2.0585594e-06
64	0x3808097b	3.2433756e-05
65	0x3894623a	7.075486e-05
66	0x38e9de41	0.00011151704
67	0x3897257c	7.207223e-05
68	0x37ee8f04	2.8438408e-05
69	0x38590150	5.1738054e-05
70	0x369370d1	4.394075e-06
71	0x37f6c7f7	2.9418601e-05
72	0x380b3612	3.319054e-05
73	0xb7f76d3e	-2.9495564e-05
74	0x383b174c	4.460597e-05
75	0xb83c79c8	-4.493611e-05
76	0xb846426c	-4.726874e-05
77	0x38cbc963	9.7173055e-05
78	0xb7468056	-1.18316e-05
79	0x386cec0e	5.6486628e-05
80	0xb7933cfe	-1.7552167e-05
81	0x38835682	6.26268e-05
82	0xb7a13d52	-1.922125e-05
83	0x37832598	1.5633923e-05
84	0x38c26185	9.268805e-05
85	0x393d198a	0.00018033959
86	0x38b75665	8.742212e-05
87	0xb815448f	-3.558822e-05
88	0x3650adc9	3.1095572e-06
89	0x38a53b51	7.878862e-05
90	0xb879f8a9	-5.959781e-05
91	0x395b9ad4	0.00020943146
92	0x37d4b978	2.5358735e-05
93	0x36588ac4	3.226728e-06
94	0x390d240f	0.00013460241
95	0x38959edc	7.1344635e-05
96	0x38aafb45	8.153034e-05
97	0xb7af7c99	-2.0919646e-05
98	0xb7a75758	-1.9948624e-05
99	0xb787a734	-1.6171114e-05
100	0x38395bd7	4.419297e-05
101	0x392f16ff	0.00016697867
102	0x37e6a36f	2.7494241e-05
103	0x37396ed6	1.1052665e-05
104	0x38d0805c	9.942122e-05
105	0xb6e7fa44	-6.913471e-06
106	0x391a9e7e	0.00014745627
107	0x374b41d9	1.2115074e-05
108	0xb772db4e	-1.4475385e-05
109	0x377dbab4	1.5123445e-05
110	0x392037ad	0.0001527953
111	0x3923e42e	0.00015629895
112	0x37d7ed92	2.5740625e-05
113	0x37811bd2	1.5390953e-05
114	0x37aaa951	2.0344423e-05
115	0xb77ae538	-1.495453e-05
116	0x390a7c20	0.00013206946
117	0x3961d89c	0.00021538365
118	0xb80b5274	-3.3216973e-05
119	0xb6d5f2c0	-6.3761545e-06
120	0x37696734	1.3911911e-05
121	0xb8024398	-3.1057367e-05
122	0xb7ac39d9	-2.0530935e-05
123	0xb7dbe84f	-2.6215012e-05
124	0xb83ce65f	-4.5037243e-05
125	0xb75ade8b	-1.3045627e-05
126	0xb89925ec	-7.302672e-05
127	0xb8ac7f58	-8.225319e-05
