TWP_2/results/DynPnp31/RobotArm/checkpoint.pt (torch, 465186 bytes, 44 tensors)

network_body.observation_encoder.processors.0.normalizer.running_mean f4 [12]
0	0xbd437070	-0.04771465
1	0x41e5941d	28.69732
2	0xbf005680	-0.5013199
3	0x3ee8d9ce	0.45478672
4	0x404031f1	3.0030482
5	0xbf0cee60	-0.5505123
6	0xbe33794b	-0.17526738
7	0x403fffb1	2.9999812
8	0xbefa55cb	-0.4889358
9	0x41fa8736	31.316021
10	0x422d8102	43.375984
11	0x3bd6dea2	0.0065573016

network_body.observation_encoder.processors.0.normalizer.running_variance f4 [12]
0	0x4d890f67	2.87436e+08
1	0x4d8fc14f	3.0147632e+08
2	0x4d83487a	2.7532064e+08
3	0x4dd968a4	4.559392e+08
4	0x490cbdb0	576475.0
5	0x4dd7c6bb	4.5251568e+08
6	0x4dd73c51	4.513818e+08
7	0x411fff30	9.999802
8	0x4ddcd23b	4.6309565e+08
9	0x4d984476	3.1932794e+08
10	0x4d942360	3.106683e+08
11	0x45a833d4	5382.4785

network_body.processors.0.normalizer.running_mean f4 [12]
0	0xbd437070	-0.04771465
1	0x41e5941d	28.69732
2	0xbf005680	-0.5013199
3	0x3ee8d9ce	0.45478672
4	0x404031f1	3.0030482
5	0xbf0cee60	-0.5505123
6	0xbe33794b	-0.17526738
7	0x403fffb1	2.9999812
8	0xbefa55cb	-0.4889358
9	0x41fa8736	31.316021
10	0x422d8102	43.375984
11	0x3bd6dea2	0.0065573016

network_body.processors.0.normalizer.running_variance f4 [12]
0	0x4d890f67	2.87436e+08
1	0x4d8fc14f	3.0147632e+08
2	0x4d83487a	2.7532064e+08
3	0x4dd968a4	4.559392e+08
4	0x490cbdb0	576475.0
5	0x4dd7c6bb	4.5251568e+08
6	0x4dd73c51	4.513818e+08
7	0x411fff30	9.999802
8	0x4ddcd23b	4.6309565e+08
9	0x4d984476	3.1932794e+08
10	0x4d942360	3.106683e+08
11	0x45a833d4	5382.4785

network_body._body_endoder.seq_layers.0.weight f4 [128, 12]
0	0xbea70265	-0.32619014
1	0x3ea71621	0.3263407
2	0xbe514e62	-0.20440057
3	0x3eda28b4	0.4260918
4	0xbf0dad34	-0.5534241
5	0xbeb55797	-0.35418388
6	0x3ed95b64	0.42452538
7	0x3e81827e	0.2529487
8	0x3ed62825	0.41827503
9	0xbe303a6b	-0.17209785
10	0x3e81d45f	0.2535734
11	0xbe8fd0a3	-0.28088865
12	0xbec9313b	-0.39295372
13	0x3da4ab4b	0.08040484
14	0x3e779e30	0.24181437
15	0x3f1bc1af	0.6084241
16	0xbe57b4ce	-0.21065065
17	0x3cf8bbe9	0.03036304
18	0xbefa920c	-0.4893955
19	0x3f239860	0.6390438
20	0x3e09d336	0.13459477
21	0x3e50f9b1	0.2040775
22	0xbe3acb00	-0.18241501
23	0x3d9999d0	0.075000405
24	0x3eb1c1a5	0.34718052
25	0x3ead6a47	0.33870146
26	0xbe0efdbf	-0.13963984
27	0x3d9049e1	0.07045341
28	0xbe38e816	-0.18057284
29	0x3e4bbb75	0.19895728
30	0xbdc3fab2	-0.09569301
31	0xbef63cd9	-0.48093298
32	0xbe0c71b3	-0.13715248
33	0x3e05d3d9	0.13069095
34	0xbe32b197	-0.17450558
35	0x3d809391	0.06278146
36	0x3e55c807	0.20877086
37	0xbd4e9724	-0.050437108
38	0x3d7f5aca	0.062342443
39	0xbeba49c2	-0.36384398
40	0x3e0b4a38	0.13602531
41	0x3e1ee266	0.15516052
42	0x3d85c9b3	0.06532612
43	0x3e9db061	0.3079863
44	0xbdcb11d3	-0.09915509
45	0xbeb2f3be	-0.34951586
46	0xbf0c5fca	-0.5483366
47	0x3ef3bc23	0.47604474
48	0xbe9f09d7	-0.31062195
49	0xbe67acf9	-0.22624578
50	0xbe338f26	-0.17535076
51	0xbe30fd22	-0.17284063
52	0xbe419ad6	-0.18906721
53	0xbe15eec2	-0.1464186
54	0xbee5a60c	-0.44853246
55	0xbec4d69a	-0.38444978
56	0x3ecd9293	0.4015089
57	0xbf1a407b	-0.6025464
58	0xbe79d8e9	-0.24399151
59	0x3e80eaca	0.2517913
60	0x3d319a9a	0.04336033
61	0xbd4fe616	-0.050756536
62	0xbe6ccc89	-0.23124899
63	0xbc93ce28	-0.018042639
64	0x3d75d3c7	0.06001642
65	0xbf271c36	-0.6527742
66	0xbc5ea2cc	-0.0135886185
67	0x3eebb808	0.46038842
68	0x3f5fc4d6	0.8740972
69	0xbd9b0176	-0.07568638
70	0x3dfecf03	0.12441828
71	0x3e855e1c	0.26048362
72	0xbe4bfb58	-0.19920099
73	0x3db68458	0.08911961
74	0xbce04b43	-0.027379638
75	0xbd55315a	-0.05204902
76	0xbea440ea	-0.32080775
77	0xbf0c7b80	-0.54875946
78	0x3db480f4	0.08813658
79	0xbd736a20	-0.05942738
80	0xbe966ca7	-0.2937977
81	0x3d38cba6	0.04511609
82	0x3e881130	0.26575613
83	0xbe01d8d3	-0.12680368
84	0xbd4d964d	-0.050192166
85	0xbe6bacfc	-0.23015207
86	0xbe82a77e	-0.2551841
87	0xbed5cc27	-0.41757318
88	0x3d491c99	0.04909954
89	0x3deec1ba	0.11658044
90	0x3e3f55e1	0.18685104
91	0x3e830848	0.25592256
92	0xbed406da	-0.41411477
93	0x3eecad98	0.46226192
94	0x3ec8b6ba	0.3920191
95	0x3d1fd6b0	0.0390231
96	0x3e0c1935	0.1368149
97	0xbe4b3c73	-0.19847278
98	0xbd40ee48	-0.047102243
99	0x3e8e994e	0.27851337
100	0xbf0c1f90	-0.5473566
101	0x3e9373c1	0.2879925
102	0x3ef1d670	0.47233915
103	0xbe571224	-0.21003014
104	0xbf3714cd	-0.71516114
105	0x3ead8360	0.33889294
106	0xbddc4d62	-0.10756947
107	0x3e5aa7ca	0.21353069
108	0xbd9df84a	-0.07713373
109	0xbf48acbd	-0.7838858
110	0xbe1dcb77	-0.15409647
111	0xbe9ec98f	-0.31013152
112	0x3e68367d	0.22677036
113	0x3d1204c8	0.03564909
114	0x3e0b510b	0.13605134
115	0xbedde79c	-0.43340766
116	0xbf1da2e9	-0.61576706
117	0xbe4ebf10	-0.20190072
118	0xbe3308b0	-0.17483783
119	0xbe1fb4ea	-0.15596357
120	0xbea60d30	-0.32431936
121	0xbe4922e4	-0.19642216
122	0x3eb8752b	0.36026892
123	0x3e1246d3	0.1428483
124	0x3dc840ad	0.09777961
125	0x3dc217a0	0.09477162
126	0xbe88f6c7	-0.26750776
127	0xbd861cdd	-0.06548474
128	0x3e95d6a6	0.29265326
129	0x3dca1aed	0.09868417
130	0xbe8f06f2	-0.27934986
131	0xbeaabf2c	-0.33348978
132	0x3ec526e5	0.38506237
133	0xbe736060	-0.23767233
134	0xbd6afc24	-0.057369366
135	0x3ec5028e	0.38478512
136	0x3dba3c63	0.09093549
137	0xbde4ae0b	-0.111660086
138	0xbe3cc370	-0.18433928
139	0xbeffd26e	-0.49965233
140	0xbebc50a3	-0.3678027
141	0xbdcfc257	-0.10144489
142	0xbebdccec	-0.37070405
143	0x3cb77ffc	0.022399895
144	0x3e985d64	0.2975875
145	0xbcd33293	-0.025780952
146	0x3e4ea33c	0.20179456
147	0xbdd07ae8	-0.101796925
148	0x3e7497b0	0.23885989
149	0xbe041964	-0.12900311
150	0x3f12342b	0.5711085
151	0xbe43aacd	-0.19108124
152	0xbdba587e	-0.0909891
153	0x3dadae6a	0.084805325
154	0xbe781563	-0.24226908
155	0xbd24dcc2	-0.040249594
156	0xbe2d1dae	-0.16905853
157	0xbebc3c96	-0.36764973
158	0x3d13e992	0.036111422
159	0xbe72d478	-0.23713863
160	0x3e46be5a	0.19408551
161	0xbea76ceb	-0.32700285
162	0x3de83c63	0.11339643
163	0x3dfb9c0c	0.12285623
164	0x3f377681	0.716652
165	0x3e96d8f7	0.29462406
166	0xbe44ef4d	-0.19231911
167	0xbd5b482f	-0.053535637
168	0xbe8aac7e	-0.27084726
169	0x3e53abb0	0.20670962
170	0x3eafb5a5	0.3431827
171	0xbe145feb	-0.14489715
172	0x3d81b1c0	0.06332731
173	0xbe7361c4	-0.23767763
174	0x3dd6e0c9	0.10492093
175	0xbe845a63	-0.2585021
176	0x3e9a3983	0.30122003
177	0xbdbdb610	-0.09263241
178	0x3e92dc90	0.286839
179	0xbcc5ef93	-0.02416209
180	0xbdbd0e03	-0.09231188
181	0x3d891cb5	0.066949286
182	0xbef47b3c	-0.4775027
183	0x3e7aba22	0.24485067
184	0xbed7546c	-0.42056596
185	0x3edfa1b6	0.43678063
186	0xbd4695d4	-0.04848273
187	0x3df902d3	0.12158742
188	0x3e09bb39	0.13450326
189	0xbc904cbb	-0.017614713
190	0x3ddbdb91	0.10735238
191	0x3dddd709	0.1083203
192	0x3e8114b1	0.252111
193	0xbe9cd8a9	-0.3063405
194	0x3e8514b0	0.25992346
195	0xbe4ae828	-0.19815123
196	0xbd4e149a	-0.050312616
197	0xbeaeb15e	-0.34119695
198	0xbe774ec5	-0.24151142
199	0xbdbc220a	-0.0918618
200	0xbdda99d3	-0.10673871
201	0xbeefdb12	-0.46846825
202	0xbea16d7e	-0.31528848
203	0x3e0c555e	0.1370444
204	0x3c921703	0.017833238
205	0xbd4d4117	-0.050110903
206	0xbdb3f4fa	-0.0878696
207	0x3eccd2b6	0.4000451
208	0x3f51f157	0.8200888
209	0xbd86e42b	-0.06586488
210	0x3eb02b1d	0.34407893
211	0x3e857619	0.26066664
212	0xbe46ed26	-0.19426402
213	0x3e44e883	0.19229321
214	0xbe8cdbef	-0.27511546
215	0xbe316065	-0.17321928
216	0xbd2a48d5	-0.041573364
217	0xbe555185	-0.20831878
218	0xbefaef05	-0.49010482
219	0xbda12aae	-0.07869469
220	0xbe58ed26	-0.21184215
221	0x3edba466	0.42898864
222	0x3e8d020a	0.27540618
223	0xbd7831d0	-0.06059438
224	0x3e08979d	0.13339086
225	0x3e260974	0.16214544
226	0x3ed81d7e	0.4221
227	0x3e6e7c31	0.23289563
228	0xbda1ac9b	-0.0789425
229	0xbc19ffa4	-0.009399328
230	0xbefbbc40	-0.4916706
231	0xbe0239e0	-0.1271739
232	0x3e8c1d26	0.27365988
233	0xbd4549b2	-0.048165984
234	0xbedfe236	-0.43727273
235	0xbe722758	-0.23647821
236	0x3e98880b	0.29791293
237	0x3f01eb66	0.50749815
238	0x3f0a3208	0.5398259
239	0xbd896a7f	-0.06709766
240	0x3e016714	0.12636977
241	0x3f10dfef	0.56591696
242	0x3ea737f0	0.32659864
243	0xbdc5b463	-0.09653547
244	0xbf2cce82	-0.67502606
245	0xbe60d2e9	-0.21955456
246	0x3ee28d23	0.44248304
247	0x3e98f07c	0.29870975
248	0xbf2236f7	-0.6336512
249	0x3e6d557e	0.23177144
250	0x3ec55da0	0.38547993
251	0xbcc0a9ec	-0.023518525
252	0x3cf44e38	0.029822454
253	0x3f090825	0.5352805
254	0x3ed42f3c	0.41442287
255	0x3eb5398c	0.35395467

network_body._body_endoder.seq_layers.0.bias f4 [128]
0	0x3e4b6a38	0.19864738
1	0x3e3dfc8e	0.18553373
2	0xbe1eddaf	-0.15514253
3	0xbc7781ff	-0.015106677
4	0x3d80133a	0.06253667
5	0x3e54a2ac	0.2076518
6	0x3e1771de	0.1478953
7	0xbddbc63c	-0.107311696
8	0xbd6493d4	-0.055805042
9	0x3d7782a2	0.060427316
10	0x3d2bd5ff	0.04195213
11	0x3e11f3f4	0.14253217
12	0x3db0c142	0.08630611
13	0x3dee33d3	0.116309784
14	0x3d9fb0fa	0.077974275
15	0x3db75d2b	0.08953317
16	0x3d16a086	0.03677418
17	0x3dd4762c	0.10374102
18	0xbd3ce8a1	-0.04612029
19	0xbd9abaa6	-0.075551316
20	0xbbbb4ac1	-0.0057156985
21	0x3e31da99	0.17368545
22	0x3df2506a	0.11831744
23	0x3e2359a5	0.15952165
24	0xbcd67144	-0.026177056
25	0x3d59911f	0.053116914
26	0x3d686e87	0.056746032
27	0xbdfa1d38	-0.12212604
28	0x3d31e6e1	0.043433074
29	0x3d41324e	0.047167115
30	0x3d3ecadc	0.04658018
31	0xbd3cc2ac	-0.04608409
32	0xbcad8230	-0.021180242
33	0x3dfe33eb	0.12412246
34	0xbd1cb86c	-0.038261816
35	0x3c4fe360	0.012688488
36	0xbd6c15e1	-0.057638053
37	0x3e1e1efb	0.15441506
38	0x3da5c67f	0.08094501
39	0xbe285e80	-0.16442299
40	0xbcc04eb5	-0.02347503
41	0x3e1a589b	0.15072863
42	0x3e513955	0.20432027
43	0x3d2a40f5	0.041565854
44	0x3cc299c3	0.02375496
45	0x3d9d3a87	0.07677179
46	0xbe34cc6b	-0.17656104
47	0x3d5263dc	0.051364765
48	0x3de1560c	0.1100274
49	0xbce2c2cd	-0.027680779
50	0x3c1d3032	0.00959401
51	0xbccaa6aa	-0.024737675
52	0x3e202b22	0.15641454
53	0x3d8766fc	0.066114396
54	0x3c337018	0.010952018
55	0xbe06f619	-0.13179816
56	0x3e4a81a7	0.19776021
57	0xbd904802	-0.070449844
58	0x3dfe1903	0.12407114
59	0x3e1efc07	0.15525828
60	0x3df4434b	0.119268976
61	0x3cce1be4	0.025159784
62	0x3e31ddcd	0.17369767
63	0x3e32c0ba	0.17456332
64	0x3b0ce358	0.0021497812
65	0x3df591c8	0.11990696
66	0x3dc428e3	0.09578111
67	0x3bc5c608	0.00603557
68	0xbdfa27a2	-0.122145906
69	0x3e043758	0.12911737
70	0xbd27ce5d	-0.040968288
71	0xbdc5ff11	-0.09667791
72	0xbdb2d9d4	-0.08732954
73	0x3ddeac08	0.10872656
74	0xbdc7e288	-0.09760004
75	0x3dba2db1	0.09090746
76	0x3e122283	0.14270978
77	0x3e4c1445	0.19929607
78	0x3dd660c0	0.10467672
79	0x3e1da515	0.15395005
80	0x3e1ef363	0.15522532
81	0x3da0d101	0.07852364
82	0x3e614c9f	0.22001885
83	0x3cdcd9fd	0.026959414
84	0x3e02303e	0.12713715
85	0xbdc67c22	-0.09691645
86	0x3d95c50a	0.07312973
87	0xbde0666a	-0.10957034
88	0x3ddaf8e6	0.10692005
89	0x3dbf0668	0.09327394
90	0x3e0463d0	0.129287
91	0x3e134326	0.14381084
92	0xbbd1c184	-0.0064012427
93	0x3c7993e9	0.015233018
94	0x3dd75d99	0.10515899
95	0xbcf37672	-0.029719565
96	0x3d316e65	0.04331817
97	0x3d5c9d8d	0.05386119
98	0x3d9a1fc8	0.07525593
99	0x3daea8b7	0.085282736
100	0x3e4bc2b0	0.19898486
101	0x3e28410a	0.1643106
102	0xbda97e83	-0.08276083
103	0x3df9bb78	0.1219396
104	0x3e270f32	0.1631439
105	0x3e2ab90b	0.16672151
106	0xbe1d8354	-0.15382129
107	0x3e81124c	0.25209272
108	0x3da3be24	0.07995251
109	0x3df80b10	0.12111485
110	0x3ceb56bb	0.02872788
111	0x3d9f74d8	0.07785958
112	0x3cf63d96	0.030058663
113	0x3d893b43	0.067007564
114	0x3d0685cd	0.032842446
115	0x3bdb41f8	0.0066912137
116	0x3e2563f1	0.16151406
117	0x3d614e28	0.055006176
118	0xbe2ddbe9	-0.1697842
119	0x3dd5e514	0.10444084
120	0x3d87678c	0.06611547
121	0x3df33cce	0.11876832
122	0x3c037b95	0.00802507
123	0x3ce3b366	0.027795505
124	0xbda33eba	-0.079709485
125	0x3e250317	0.1611446
126	0x3e13fd30	0.14452052
127	0xbe6b0fcf	-0.22955249

network_body._body_endoder.seq_layers.2.weight f4 [128, 128]
0	0x3d949f83	0.07256987
1	0xbe1a79e2	-0.15085557
2	0xbd7c477d	-0.061591614
3	0xbd1b875e	-0.037970893
4	0xbe3cec29	-0.18449463
5	0x3db0b628	0.086284935
6	0xbd278e4a	-0.04090718
7	0xbd3a2291	-0.04544312
8	0xbc78f226	-0.015194451
9	0xbdc3d094	-0.095612675
10	0x3cfb2079	0.030655133
11	0x3d8e2e73	0.06942453
12	0x3e39df94	0.18151695
13	0xbd2bf683	-0.04198314
14	0x3e03b1fa	0.12860861
15	0xbd2c31a3	-0.042039525
16	0xbd098777	-0.033576455
17	0xbd07437c	-0.033023342
18	0x3e07b4d0	0.13252568
19	0xbd6b9cc9	-0.05752257
20	0x3cff816d	0.031189645
21	0xbdc7aaa0	-0.09749341
22	0x3cb9a338	0.022660837
23	0x3de87888	0.113511145
24	0x3c44c54e	0.012009932
25	0x3e2ac503	0.16676717
26	0x3e0f7b8f	0.14011978
27	0xbe030f0e	-0.12798712
28	0x3e183bad	0.14866515
29	0x3d3fb847	0.0468066
30	0xbdaf7fd2	-0.08569302
31	0xbe32f67f	-0.17476843
32	0x3e1ae1a5	0.15125139
33	0x3d8b41b4	0.06799641
34	0x3d4a2898	0.04935512
35	0x3d361f89	0.044463668
36	0x3dc7a5cd	0.09748421
37	0xbc9a828a	-0.018861074
38	0xbd51cbc8	-0.05121973
39	0xbd64fa5c	-0.055902824
40	0x3e44f84a	0.1923534
41	0xbda6e854	-0.08149782
42	0xbe83bfc0	-0.2573223
43	0x3dfeca37	0.12440913
44	0xbd7742e4	-0.060366526
45	0xbd949e4e	-0.07256757
46	0x3c4fa7b6	0.012674263
47	0x3daf2fae	0.08554016
48	0x3cd80726	0.026370596
49	0xbe603133	-0.21893768
50	0xbc93d7c1	-0.018047215
51	0xbe1ad2df	-0.15119503
52	0x3d6b1179	0.05738971
53	0xbceaee1d	-0.028677994
54	0xbe046477	-0.1292895
55	0xbdb75b13	-0.08952918
56	0x3e7e08be	0.24808022
57	0x3d85c057	0.065308265
58	0xbd059eed	-0.032622267
59	0x3e5d3fba	0.21606341
60	0xbc23bc9d	-0.009993699
61	0x3db32459	0.08747167
62	0xbd2097a9	-0.039207134
63	0xbad2d2a3	-0.0016084503
64	0xba5b7f19	-0.0008373126
65	0x3e242f56	0.16033682
66	0xbe90a87a	-0.28253537
67	0xbd9e6ae6	-0.07735233
68	0x3e4daa97	0.20084606
69	0x3da601f9	0.08105845
70	0xbe1607b0	-0.1465137
71	0x3dd6d02f	0.104889266
72	0x3da2d424	0.07950619
73	0xbcfc834d	-0.030824328
74	0xbdb17aee	-0.08666025
75	0xbd8c8f0b	-0.06863221
76	0x3dacc3cb	0.08435782
77	0xbc00659c	-0.007836726
78	0x3abcecf7	0.0014413883
79	0x3d9d6c37	0.07686656
80	0x3e10f268	0.1415497
81	0x3d4cf209	0.05003551
82	0x3dd25354	0.102698
83	0x397acc3e	0.00023917944
84	0xbcc7ad5c	-0.024374656
85	0x3df7b7fd	0.1209564
86	0x3e0dc6cc	0.13845366
87	0x3e3c9ae4	0.18418461
88	0xbe12533c	-0.14289564
89	0x3d376176	0.04477068
90	0xbdc6525f	-0.0968368
91	0xbe1165ec	-0.14199036
92	0xbe44c12b	-0.19214313
93	0x3d6fb6cf	0.05852395
94	0xbd8978af	-0.06712472
95	0x3d6643c3	0.056216966
96	0x3cf2bc77	0.029630883
97	0xbc520550	-0.012818649
98	0xbdd81cfd	-0.10552404
99	0x3de2557d	0.11051462
100	0xbdf5afcc	-0.11996421
101	0xbd0a545a	-0.03377185
102	0xbc0dcff2	-0.008655535
103	0x3c8f41a3	0.017487353
104	0x3d92f69e	0.07175945
105	0x3e43f346	0.1913577
106	0xbd40d0b2	-0.047074027
107	0x3d91fb63	0.07128026
108	0x3dd2a6df	0.102857344
109	0xbda6f32a	-0.081518486
110	0xbbc49010	-0.005998619
111	0xbd1165f7	-0.035497632
112	0xbdfb0242	-0.1225629
113	0xbd03c69e	-0.032171838
114	0xbcda3330	-0.026635736
115	0x3bf93340	0.0076049864
116	0x3d8f66c7	0.07002025
117	0xbd32bfc4	-0.043639913
118	0x3e169dd2	0.14708641
119	0x3e6ab19b	0.22919314
120	0xbbcfef97	-0.0063457
121	0xba784168	-0.00094701955
122	0x3e5cd03b	0.21563809
123	0xbd99fcec	-0.07518944
124	0xbcf2a1b1	-0.029618116
125	0x3c361f23	0.011115822
126	0x3e353a60	0.1769805
127	0xbe29ab46	-0.16569242
128	0xbe20682f	-0.15664743
129	0xbe09d1bb	-0.13458912
130	0x3d821814	0.06352249
131	0xbdadbfe6	-0.08483867
132	0xbe110bd7	-0.14164673
133	0xbe39d895	-0.18149026
134	0xbd65b661	-0.056082133
135	0x3db71202	0.089389816
136	0xbd98b7eb	-0.074569546
137	0x3ce59d62	0.028029148
138	0xbd2e6d1c	-0.042584524
139	0xbe0c1985	-0.1368161
140	0x3d3527bb	0.044227343
141	0x3cdf642e	0.02726945
142	0xbe08d6f8	-0.13363254
143	0xbd2a29cc	-0.041543767
144	0x3d0e7333	0.03477783
145	0xbc862ade	-0.016377863
146	0x3da6677e	0.08125208
147	0xbb00d4c0	-0.001965806
148	0xbe26dc56	-0.16294989
149	0xbe07939d	-0.13239904
150	0xbca491f6	-0.02008913
151	0xbc176db5	-0.009242465
152	0x3d8a9041	0.067657955
153	0x3e51bfc6	0.20483312
154	0x3ddb1224	0.106968194
155	0x3d1f90cd	0.038956452
156	0xbdc28ef5	-0.09499923
157	0xbd8550d7	-0.065095596
158	0x3dca78c9	0.09886319
159	0xbdbe0673	-0.09278574
160	0xbdc15935	-0.09440843
161	0xbe04543e	-0.12922761
162	0x3b690b0a	0.0035559558
163	0x3c3e931f	0.011631756
164	0x3cf80ca6	0.030279469
165	0xbe31d787	-0.17367373
166	0x3d5c0d72	0.05372376
167	0x3e5ea9b0	0.21744418
168	0xbd15d38a	-0.036578692
169	0xbe4642ad	-0.19361372
170	0xbe03fbbd	-0.12889
171	0x3e2adcdc	0.16685814
172	0x3ddaa2ad	0.10675559
173	0xbdf6a497	-0.12043112
174	0xbc61893d	-0.01376563
175	0xbdbb8244	-0.091557056
176	0xbcd78757	-0.026309652
177	0x3d66a61b	0.056310754
178	0x3b8b6731	0.0042542447
179	0x3c78cea6	0.015185988
180	0xbe0a4148	-0.13501465
181	0xbd8ce0a4	-0.06878784
182	0x3d49ec79	0.049297784
183	0xbcdfd1d3	-0.027321732
184	0xbe5d6006	-0.21618661
185	0x3e4e624c	0.20154685
186	0x3b9acdfa	0.0047242614
187	0xbe289a26	-0.16465053
188	0xbcba2a81	-0.022725346
189	0x3d0af931	0.033929054
190	0xbda5cb8c	-0.08095464
191	0xbd7221c1	-0.05911422
192	0xbc99c128	-0.018768862
193	0x3c37ad06	0.011210686
194	0x3d01fea2	0.031736977
195	0xbdd82fa1	-0.105559595
196	0xbd84142d	-0.06449161
197	0xbde5153c	-0.11185691
198	0xbd51320f	-0.05107313
199	0x3d6a0d08	0.057141334
200	0x3d7fb562	0.06242884
201	0xbae268a8	-0.0017273622
202	0x3c969d03	0.018385416
203	0xbc268db3	-0.01016562
204	0x3d96e425	0.07367734
205	0xbdb03d54	-0.086054474
206	0xbdaa9fcb	-0.08331259
207	0xbdb2b1f8	-0.08725351
208	0xbdf3b09b	-0.11898919
209	0xbe44e334	-0.19227296
210	0xbdd53ebf	-0.104123585
211	0x3bd456f8	0.006480094
212	0x3d8a8966	0.06764488
213	0x3d1906de	0.037360065
214	0x3dddedfa	0.10836406
215	0x3c97278c	0.018451475
216	0xbd760ff6	-0.060073815
217	0xbd060451	-0.03271896
218	0x3d26bc67	0.04070702
219	0xbc3e3e39	-0.011611515
220	0x3caea54c	0.021319054
221	0x3d8a268f	0.06745636
222	0x3c67c0a6	0.014145052
223	0x3d829480	0.063759804
224	0xbdaa786d	-0.08323751
225	0x3e165dc3	0.14684205
226	0xbd6a63c1	-0.05722404
227	0xbbdfda0f	-0.0068314145
228	0x3d0038a9	0.031304035
229	0x3cb63fb4	0.022247173
230	0x3d061381	0.032733444
231	0x3d917328	0.071020424
232	0xbe769f9e	-0.24084327
233	0xbd9ebe5c	-0.07751152
234	0xbc6ecbd8	-0.014574967
235	0x3c30dc4c	0.01079471
236	0x3df8e1a8	0.121524155
237	0xbe523b63	-0.20530467
238	0xbcaa682b	-0.020801624
239	0xbbb06b03	-0.0053838505
240	0xb9eadfc8	-0.00044798688
241	0xbd917d75	-0.07104007
242	0x3aaab8ad	0.0013025008
243	0x3dbe12b3	0.0928091
244	0x3a16203f	0.0005726851
245	0xbcb5bf42	-0.022185925
246	0xbc75bb24	-0.014998231
247	0xbe0169cd	-0.12638016
248	0xbdc78df4	-0.09743872
249	0xbe2f7c52	-0.17137268
250	0xbe2a84d4	-0.16652232
251	0xbd769aff	-0.06020641
252	0x3dc1d7b9	0.09464974
253	0xbd6febc2	-0.058574446
254	0xbd2d59f3	-0.04232211
255	0xbd2abee9	-0.041685972

network_body._body_endoder.seq_layers.2.bias f4 [128]
0	0x3d82fbbf	0.06395673
1	0xbe1338a7	-0.1437708
2	0xbdd4fad1	-0.10399402
3	0xbe4c5a09	-0.1995622
4	0xbd9babe7	-0.07601147
5	0xbe30f3b5	-0.17280467
6	0x3ce1f942	0.027584676
7	0x3e22193e	0.15829942
8	0x3ddcabb5	0.10774938
9	0x3d3c3391	0.045947615
10	0x3df945bc	0.12171504
11	0x3e1173d7	0.14204346
12	0xbdcdd96a	-0.10051234
13	0x3d7edddd	0.062223304
14	0x3d839f3f	0.06426858
15	0x3c48a22b	0.012245695
16	0x3e1c978b	0.15292184
17	0x3da3fdc1	0.08007384
18	0xbcb5592a	-0.022137243
19	0x3c9398ac	0.018017136
20	0x3de2f8dd	0.11082623
21	0xbd01ff48	-0.031737596
22	0xbcc4ad7f	-0.02400851
23	0x3cc7532b	0.02433165
24	0x3dd7081c	0.104995936
25	0x3dd7647c	0.10517213
26	0xbe357af8	-0.1772269
27	0x3e0ef8ce	0.13962099
28	0xbdfc7498	-0.12326926
29	0xbd0696ef	-0.032858785
30	0x3c992a9a	0.018697072
31	0x3df349c4	0.11879304
32	0x3e18712c	0.14886922
33	0x3dbb14d8	0.09134835
34	0xbd81baac	-0.06334433
35	0x3d864eda	0.065580085
36	0xbc415131	-0.011799143
37	0x3e0e95e0	0.1392436
38	0x3da71690	0.081586
39	0x3cda6bee	0.026662793
40	0xbe102295	-0.14075692
41	0x3e1bc4d0	0.15211797
42	0x3d69ab2a	0.057048
43	0x3a7fda99	0.00097600516
44	0xbde07864	-0.10960463
45	0xbccbe125	-0.02488763
46	0x3e017529	0.1264235
47	0x3e2af75b	0.16695921
48	0xbe30186c	-0.17196816
49	0x3e34a197	0.17639767
50	0x3e22cd73	0.15898685
51	0x3e0c4940	0.13699818
52	0xbe41f1d8	-0.18939912
53	0x3d89ddd2	0.06731762
54	0xbced55fd	-0.028971666
55	0xbdcb07d3	-0.09913602
56	0x3d3663c4	0.044528738
57	0x3dbc737d	0.09201715
58	0xbc4c6819	-0.012475991
59	0x3de26f22	0.11056353
60	0xbe0e15fa	-0.13875571
61	0x3dacebf7	0.08443444
62	0x3d7a0493	0.06103952
63	0xbbbaa06f	-0.0056953947
64	0x3de0070e	0.109388456
65	0x3e227aaa	0.15867105
66	0x3d870ae5	0.06593875
67	0xbe00fc64	-0.1259628
68	0x3e0978fc	0.13425058
69	0xbdb29caf	-0.08721291
70	0xbe4e4caa	-0.20146433
71	0x3dff3cb4	0.1246275
72	0x3df3c021	0.1190188
73	0xbe034d25	-0.12822397
74	0x3e0d40ff	0.13794325
75	0xbe52330d	-0.20527287
76	0x3e23b0f2	0.15985468
77	0x3ceff71a	0.029292632
78	0x3e02e1e8	0.12781489
79	0xbe3b498b	-0.18289773
80	0xbdc295a4	-0.09501198
81	0xbe1f6dd4	-0.1556924
82	0xbc83a79d	-0.016071135
83	0x3e08e81c	0.13369793
84	0x3e22b02c	0.15887517
85	0xbc800ffd	-0.015632624
86	0x3d67f6ac	0.05663173
87	0xbd127ff6	-0.035766564
88	0x3ce58a38	0.02802001
89	0x3ba20316	0.0049442155
90	0xbe59d9ff	-0.21274565
91	0xbd5f5a60	-0.054529548
92	0xbc2244a4	-0.0099040605
93	0x3e092ba7	0.13395558
94	0xbd8fa11e	-0.070131525
95	0xbdc908da	-0.098161414
96	0xbd2dcbfd	-0.042430867
97	0x3d5db230	0.05412501
98	0x3cfc435b	0.030793836
99	0x3dd65bbe	0.10466717
100	0xbd69c645	-0.05707385
101	0xbe46d0b1	-0.19415547
102	0xbd513f56	-0.051085792
103	0x3c5afd79	0.013366097
104	0xbe44afb3	-0.19207649
105	0x3d8285e8	0.06373197
106	0xbe0cb5ff	-0.13741301
107	0xbe5e41e7	-0.21704827
108	0xbe0db845	-0.13839824
109	0x3e0a6310	0.13514352
110	0xbbd38752	-0.0064553404
111	0x3dd4d82f	0.10392796
112	0x3d7b5c9b	0.061367612
113	0x3b16df76	0.0023021377
114	0xbe0687c4	-0.13137728
115	0x3e0bbfbf	0.13647364
116	0xbd13b711	-0.036063258
117	0x3e05c56c	0.13063592
118	0xbe51afa5	-0.2047716
119	0xbde79bb8	-0.11308998
120	0xbe2744cd	-0.16334839
121	0x3d1c26db	0.038122993
122	0xbdb662c2	-0.08905555
123	0x3daef15b	0.08542129
124	0xbe1bc9bf	-0.15213679
125	0x3dfbf486	0.123024985
126	0x3c85238e	0.016252305
127	0x3e0f9a92	0.14023808

action_model._continuous_distribution.log_sigma f4 [1, 3]
0	0xbd8daf89	-0.06918246
1	0xbf008604	-0.5020449
2	0xbdc2891a	-0.09498806

action_model._continuous_distribution.mu.weight f4 [3, 128]
0	0xbd8d2831	-0.068924315
1	0x3cf098f0	0.029369801
2	0x3c3215e5	0.010869478
3	0x3d8dd52d	0.06925426
4	0xbd4338c4	-0.047661558
5	0x3d242108	0.040070564
6	0xbb5093f6	-0.0031826473
7	0x3e1167e6	0.1419979
8	0xbc2e570b	-0.01064087
9	0x3cf49149	0.029854434
10	0x3d797a88	0.06090787
11	0x3d04ca0c	0.03241925
12	0xbdca53bb	-0.098792516
13	0x3d1e1d9f	0.038602468
14	0x3b9697d1	0.0045957346
15	0x3c80e360	0.01573342
16	0xbe21ea91	-0.15812136
17	0xbde354a4	-0.11100128
18	0x3ddd4a90	0.10805237
19	0xbd879e1f	-0.06621956
20	0x3cd09ce3	0.025465434
21	0xbd891488	-0.06693369
22	0xbb18b083	-0.0023298569
23	0xbdcb1088	-0.099152625
24	0xbdfe36cb	-0.12412795
25	0xbd85dffb	-0.065368615
26	0x3d422963	0.04740275
27	0x3e1dacaf	0.15397905
28	0xbcc1de0e	-0.023665454
29	0x3dabdda3	0.08391883
30	0xbd9305d2	-0.071788445
31	0x3dbd645f	0.0924766
32	0x3cabfadd	0.020993644
33	0xbda88a5f	-0.08229517
34	0x3ce02b50	0.027364403
35	0xbd597b9e	-0.053096406
36	0xbd8f9f28	-0.070127785
37	0x3d90be66	0.070675656
38	0x3c9d5254	0.019204296
39	0x3d546b44	0.05186011
40	0x3d7f9f97	0.062408056
41	0xbde7d1da	-0.11319323
42	0x3d84416b	0.0645779
43	0x3d2cac9b	0.042156797
44	0x3d8c7bee	0.06859575
45	0x3d08a77b	0.033362847
46	0x3cc0d055	0.02353684
47	0x3c1bbb52	0.00950511
48	0x3c93e71b	0.018054536
49	0xbc85df74	-0.016341902
50	0x3d846ba2	0.06465842
51	0xbd864899	-0.06556816
52	0x3d5efda5	0.054441113
53	0x3d940299	0.07227058
54	0x3ccfc458	0.025362179
55	0x3d33191e	0.043725125
56	0x3d937735	0.07200471
57	0x3c9e7315	0.019341985
58	0xbe09f75f	-0.13473271
59	0xbd1b6209	-0.03793529
60	0x3b08f8bb	0.0020900208
61	0x3cac0bd6	0.021001738
62	0x3e1798e7	0.14804421
63	0x3d4eef5f	0.05052125
64	0x3c003588	0.007825263
65	0x3c872fc0	0.016502261
66	0x3d25bac1	0.040461306
67	0xbcd03c2e	-0.02541932
68	0x3ded05f8	0.11573404
69	0x3d69de77	0.057096925
70	0x3d05b3b9	0.0326421
71	0x3d60337c	0.0547366
72	0xbd813c9c	-0.063103884
73	0xbc245dcd	-0.0100321295
74	0x3a427174	0.00074174185
75	0x3c84480e	0.01614764
76	0x3da6247b	0.08112427
77	0xbdda5c68	-0.10662156
78	0x3dbac449	0.0911947
79	0x3d2e1748	0.04250267
80	0x3c36f9a8	0.011167921
81	0x3cc40aef	0.023930995
82	0x3d590659	0.05298457
83	0xbdf60157	-0.12011974
84	0xbda21172	-0.07913484
85	0x3d0ff849	0.035148893
86	0xbe003d9c	-0.12523502
87	0x3d03d54a	0.03218583
88	0x3d84be26	0.064815804
89	0x3d2bd123	0.041947495
90	0x3d2df81b	0.04247294
91	0xbd4dfdeb	-0.050290983
92	0x3d326399	0.043552015
93	0xbd687fcb	-0.056762498
94	0x3d5f7b85	0.054561157
95	0xbd4beba9	-0.04978529
96	0x3d0f347d	0.034962166
97	0x3d33c78d	0.04389148
98	0xbc98e506	-0.018663894
99	0xbdc1292d	-0.09431682
100	0x3aa3c0ca	0.0012493369
101	0x3d1f828a	0.03894285
102	0x3d63098c	0.055429026
103	0x3d559e50	0.05215293
104	0x3c6edf11	0.01457955
105	0xbdb7dff2	-0.08978261
106	0x3cb90fab	0.022590479
107	0x3cd7f8a5	0.02636368
108	0x3bf5c0eb	0.0074998043
109	0xbd6c0cfa	-0.057629563
110	0x3d673cac	0.056454346
111	0x3d24bfa1	0.040221814
112	0x3dcc1c31	0.099663146
113	0x3d84c78f	0.06483375
114	0x3bb510b3	0.0055256723
115	0xbd536852	-0.05161316
116	0xbca951fd	-0.020668978
117	0xbd62181a	-0.055198766
118	0x3ca59825	0.02021415
119	0x3d0c403e	0.034240954
120	0x3d069e33	0.032865714
121	0xbca698c0	-0.020336509
122	0x3d31920c	0.04335217
123	0xbd2264c5	-0.039646883
124	0x3ce3383d	0.027736777
125	0xbdc8952b	-0.097940765
126	0x3d58b71b	0.052908998
127	0x3d97e53a	0.07416768
128	0xbc81a7fc	-0.015827172
129	0x3d856956	0.06514232
130	0x3c9d1c7a	0.019178618
131	0x3e0a60a7	0.13513432
132	0x3cf2c5ce	0.029635336
133	0x3df0bf04	0.11755183
134	0x3bc5ec0e	0.006040103
135	0xbd1738a7	-0.036919262
136	0xbd128d3c	-0.035779223
137	0xbc280240	-0.010254443
138	0xbd49b90f	-0.04924875
139	0xbd2a3807	-0.041557338
140	0x3ddcc81c	0.10780355
141	0xbd006db9	-0.03135464
142	0xbc5a93e7	-0.013340927
143	0x3c4ee6e4	0.012628291
144	0xbcec51f7	-0.028847678
145	0xbc8b0d37	-0.016974075
146	0x3c3a62bf	0.011376082
147	0x3d033e83	0.032042038
148	0xbd81811a	-0.06323452
149	0x3d8a0e7a	0.067410424
150	0x3b72c710	0.003704492
151	0xbc80e2ef	-0.01573321
152	0xbd46587a	-0.04842422
153	0xbce0660a	-0.027392406
154	0x3de5c28e	0.11218749
155	0xbd492c56	-0.049114548
156	0x3d372fef	0.044723447
157	0x3bd91b82	0.0066255936
158	0xbc413721	-0.011792929
159	0xbcebcdcd	-0.028784657
160	0xbd8746be	-0.0660529
161	0xbc6e419d	-0.014542011
162	0x3bfac537	0.0076529044
163	0x3c018975	0.0079063075
164	0x3c5e19fb	0.013555999
165	0xbd973ce6	-0.07384662
166	0xbc7e647b	-0.015526886
167	0xbc9094a8	-0.01764901
168	0x3db0056b	0.085947834
169	0xbd002394	-0.03128393
170	0xbc19091e	-0.009340553
171	0x3ab50a40	0.0013812259
172	0x3d803526	0.06260137
173	0x3a8f5b76	0.0010937292
174	0xbd724380	-0.059146404
175	0xbd8e97e3	-0.06962564
176	0x3e121b83	0.14268307
177	0xbdb98afa	-0.09059711
178	0xbd9552f4	-0.07291213
179	0xbd5e91ea	-0.054338373
180	0x3dba1e06	0.09087758
181	0xbc439fb1	-0.011939929
182	0x3b87bfe4	0.004142748
183	0x3d00d554	0.031453446
184	0xbbd1fa8e	-0.0064080423
185	0xbcbe70b6	-0.023247104
186	0x3d478c9c	0.04871808
187	0xbb6d8e95	-0.0036248316
188	0x3dd12a5f	0.1021316
189	0xbcbcb081	-0.023033382
190	0xbd12c029	-0.03582779
191	0x3c21fc63	0.009886834
192	0xbccca41f	-0.024980603
193	0xbd8378be	-0.06419514
194	0xbd0c7fc7	-0.034301545
195	0x3da4cb16	0.08046548
196	0xbcf74c70	-0.030187815
197	0x3d13808b	0.03601126
198	0x3e1c92a3	0.15290312
199	0xbd6bb816	-0.057548605
200	0xbcf11e22	-0.029433314
201	0x3d519f2e	0.051177196
202	0xbd8f2e4d	-0.06991253
203	0x3e0d2bf6	0.13786301
204	0xbd806455	-0.06269137
205	0x3cb7efb6	0.02245317
206	0xbd44ee04	-0.048078552
207	0x3d86ada5	0.06576089
208	0x3d1d49be	0.038400404
209	0x3df7b2ad	0.120946266
210	0x3c1eb628	0.009686984
211	0xbd4102ba	-0.04712174
212	0xbd5e8dfe	-0.054334633
213	0x3bf07f12	0.0073393667
214	0x3c470bcd	0.01214881
215	0x3bc97aa8	0.006148655
216	0xbc2996cf	-0.010350897
217	0x3b36e2c1	0.0027906152
218	0x3e25e446	0.1620036
219	0x3ce188f5	0.027531127
220	0x3c5a3aee	0.013319714
221	0xbd6606ca	-0.05615882
222	0x3bfdda81	0.007746995
223	0x3d78d80d	0.060752917
224	0x3c9f21e5	0.019425342
225	0xbc8d2187	-0.017227901
226	0x3ac4a0f4	0.0015001581
227	0xbc929bdf	-0.01789659
228	0x3d13c600	0.0360775
229	0x3da4273f	0.08015298
230	0x3cffc3e5	0.03122134
231	0x3b219159	0.0024653284
232	0x3e1eefbc	0.15521139
233	0x3a0906fb	0.00052271754
234	0x3d9a3e36	0.07531397
235	0x3ddb20a2	0.106995836
236	0x3da99c37	0.08281749
237	0xbd1a78d5	-0.03771289
238	0x3d39b7de	0.045341365
239	0xbdb4fb89	-0.08837039
240	0xbcb21fd3	-0.02174369
241	0x3c262fbe	0.010143219
242	0x3da1e659	0.079052635
243	0xbd0567b8	-0.032569617
244	0x3cba9945	0.022778163
245	0xbca9b228	-0.020714834
246	0x3e2ddc91	0.1697867
247	0x3d3295a5	0.043599743
248	0x3da896b3	0.082318686
249	0xbbdfb15d	-0.0068265633
250	0x3d164ea6	0.0366961
251	0xbc7dd9d6	-0.015493831
252	0x3d69e9ec	0.05710785
253	0xbce032dd	-0.027368004
254	0x3b281a54	0.0025650458
255	0xbd3dfb30	-0.04638213

action_model._continuous_distribution.mu.bias f4 [3]
0	0xbcf8032d	-0.030274952
1	0xbe1a16d1	-0.15047766
2	0xbc141924	-0.009039197

exp_avg f4 [128, 12]
0	0x395251cd	0.00020057634
1	0xb76650b1	-1.3727856e-05
2	0xba427553	-0.00074179954
3	0x38e4ac0d	0.00010903934
4	0x3a1295cd	0.000559178
5	0xba5bf7df	-0.00083911227
6	0x393cf900	0.00018021837
7	0x36290b04	2.5189374e-06
8	0x393963a4	0.00017680094
9	0xb9149bd8	-0.00014172436
10	0x369fdf9a	4.7646e-06
11	0xba835846	-0.0010020814
12	0x39808fa3	0.0002452108
13	0x3aa1927b	0.001232698
14	0xba8c5f87	-0.0010709622
15	0x38bce510	9.007205e-05
16	0x3b1e5c4b	0.0024163898
17	0xba8f56a1	-0.0010935852
18	0x38bd242c	9.01896e-05
19	0xb47b3e4e	-2.3398863e-07
20	0xba412feb	-0.0007369506
21	0x3aabeba1	0.0013116488
22	0x3905edbc	0.00012772431
23	0xbad6c6c9	-0.0016386147
24	0xb80d1d27	-3.364417e-05
25	0x37885c72	1.6255512e-05
26	0x38322182	4.2469714e-05
27	0x3604056f	1.9672696e-06
28	0xb8ae0abe	-8.2989674e-05
29	0x38afb3b6	8.378124e-05
30	0xb7a982f0	-2.0207342e-05
31	0x335fac78	5.2078093e-08
32	0x383d22d7	4.509356e-05
33	0x384c22d9	4.8669845e-05
34	0x382bc9cd	4.095752e-05
35	0x3928d2d6	0.00016100271
36	0xb9a2ada1	-0.00031028411
37	0xb9966eae	-0.00028692692
38	0x399bd5db	0.0002972324
39	0xb999c442	-0.00029328658
40	0xba954e05	-0.001139105
41	0x395ce0a7	0.00021064524
42	0xb9611766	-0.00021466389
43	0xb3a129c0	-7.504741e-08
44	0x399eb0e9	0.00030267917
45	0xb946e803	-0.00018969183
46	0xb8c228a5	-9.2582115e-05
47	0x39a2d537	0.00031057905
48	0xb9e048e7	-0.00042778926
49	0x38354748	4.322015e-05
50	0xb88e903f	-6.7979556e-05
51	0xb970f0de	-0.00022977914
52	0x3a983a88	0.0011614123
53	0xb88f5d89	-6.836194e-05
54	0x39b1fd94	0.00033949
55	0x35718939	8.997918e-07
56	0xb979196a	-0.00023755958
57	0x3825b907	3.9511386e-05
58	0xb7fd5678	-3.0200215e-05
59	0x3a3d56ec	0.000722273
60	0x39c8f119	0.00038326604
61	0xb88e22d8	-6.777578e-05
62	0xb9e76c82	-0.00044140598
63	0x38f94fae	0.00011888087
64	0xba38b55b	-0.0007046067
65	0xba0bf4a6	-0.00053388847
66	0xb930e377	-0.00016869405
67	0xb400a587	-1.1981147e-07
68	0xb8db2e97	-0.00010451412
69	0xb8df91b7	-0.0001066061
70	0xb8948203	-7.0814065e-05
71	0xba47c047	-0.0007619899
72	0x39770d6f	0.0002356076
73	0x38e064dd	0.000106999396
74	0xb89e4a9f	-7.547926e-05
75	0x394a4160	0.00019288575
76	0x3942eeb7	0.0001859021
77	0xb93f3308	-0.0001823419
78	0xb95aaa03	-0.00020853434
79	0x35d7338c	1.603375e-06
80	0xb97703e4	-0.00023557205
81	0x38a72562	7.9701436e-05
82	0xb760fd19	-1.3410369e-05
83	0x388554d2	6.357733e-05
84	0xba25403b	-0.00063038216
85	0xb9b98f73	-0.00035392828
86	0x3a0ee0a5	0.0005450345
87	0xb90a7885	-0.00013205603
88	0x3a72dcf5	0.00092644925
89	0x3a37cacf	0.0007011117
90	0x388c4949	6.689371e-05
91	0x350a0d2f	5.142819e-07
92	0xb8ff2b12	-0.0001216737
93	0xb992658a	-0.00027922943
94	0x3a1929e3	0.00058427284
95	0x3acdb8d5	0.0015695343
96	0x391e4228	0.000150927
97	0x38cf458c	9.883483e-05
98	0x3709c7af	8.212329e-06
99	0x394e77d2	0.00019690327
100	0x39690927	0.00022224021
101	0x38becb01	9.0977184e-05
102	0x38a43c6b	7.831383e-05
103	0x3479b288	2.3254881e-07
104	0x38101fed	3.436201e-05
105	0x38c2b985	9.2851966e-05
106	0x37b9c1fc	2.214405e-05
107	0xb95b23dd	-0.00020898828
108	0x38842ff3	6.303182e-05
109	0x37d071bc	2.4848494e-05
110	0x3894acf9	7.0894086e-05
111	0x393ab7c4	0.000178068
112	0x3a0f4194	0.0005464789
113	0x38e9ee69	0.00011154713
114	0x3906aed9	0.00012844372
115	0x3502af9f	4.8684336e-07
116	0xb852a5ee	-5.0222436e-05
117	0xb8224b49	-3.8693925e-05
118	0x399f770a	0.00030415534
119	0x3a4edfdf	0.0007891636
120	0x3a270120	0.0006370712
121	0x3a27a2e5	0.00063948176
122	0xba0d39de	-0.0005387346
123	0x3a065138	0.0005123797
124	0xb7823482	-1.5521658e-05
125	0xb9ee8809	-0.00045496252
126	0x390f429d	0.00013662358
127	0xb4b8b526	-3.4404474e-07
128	0xb9495d7a	-0.00019203676
129	0x3a3dadb8	0.0007235664
130	0x39a4d73e	0.00031440886
131	0xb8f6bc45	-0.00011765262
132	0x39619f0c	0.00021516922
133	0xb797a45e	-1.8077142e-05
134	0xb96054d8	-0.00021393911
135	0x390e7924	0.00013587304
136	0xb87094d8	-5.735908e-05
137	0xb95725b3	-0.00020518042
138	0x397b90e8	0.00023991207
139	0x35734c73	9.06358e-07
140	0xb8528b40	-5.019759e-05
141	0xb8b00587	-8.3933635e-05
142	0x36fb39b2	7.4870995e-06
143	0xb943130f	-0.00018603749
144	0x392cac8b	0.00016467476
145	0x39dde925	0.0004232611
146	0xb9c9b028	-0.00038468954
147	0xb861bf1f	-5.3822176e-05
148	0xb9e6efac	-0.00044047588
149	0xba0d819d	-0.0005398037
150	0xb8bdcb52	-9.050094e-05
151	0xb5952369	-1.1111671e-06
152	0xb8974b57	-7.214274e-05
153	0x39f484f1	0.00046638356
154	0xb9209124	-0.00015312858
155	0xba7c6f4d	-0.0009629622
156	0x38f0586e	0.00011460563
157	0x3883002a	6.246597e-05
158	0xb9277175	-0.00015968627
159	0xb7598cb0	-1.2966964e-05
160	0xb7ea5e49	-2.7938879e-05
161	0xb9808e3d	-0.00024520038
162	0xb89887ca	-7.2732175e-05
163	0xb4f0ebde	-4.48751e-07
164	0xb90021aa	-0.00012219572
165	0x38ab8c93	8.1800994e-05
166	0x3881ac97	6.183347e-05
167	0xb9a1f3b0	-0.00030889874
168	0x3a253acd	0.00063030125
169	0x399079cb	0.00027556563
170	0xb9fbb2fa	-0.000480078
171	0x396529ac	0.00021854666
172	0xba90972e	-0.0011031383
173	0xba066e24	-0.00051281066
174	0xb92450d5	-0.00015670371
175	0xb5da85b4	-1.6281178e-06
176	0x397444b1	0.00023295243
177	0x39a61cdc	0.0003168349
178	0xb9b64f38	-0.00034772768
179	0xbabd9972	-0.0014465286
180	0xba3f5c20	-0.00072997995
181	0xb8e774b7	-0.00011036678
182	0x3814431f	3.534846e-05
183	0xba5ac22a	-0.0008344973
184	0x3adeb947	0.0016992473
185	0xb85ff4da	-5.339538e-05
186	0x3ac3721e	0.0014911329
187	0x345d7b8f	2.0627179e-07
188	0x39cf0481	0.00039485472
189	0xb9bf7c31	-0.0003652289
190	0xba3f8fd5	-0.00073075044
191	0x3889762d	6.554681e-05
192	0x3a23be45	0.0006246309
193	0x39a496e0	0.00031392928
194	0xba33619f	-0.0006842855
195	0x39e38721	0.00043397493
196	0xba1d7bb6	-0.0006007509
197	0xba107b43	-0.00055115315
198	0xb9eb8ead	-0.00044928995
199	0xb5c3563c	-1.455373e-06
200	0x389350be	7.0245456e-05
201	0x399bf812	0.0002974873
202	0x3a22612e	0.00061942905
203	0xba31acd7	-0.00067777693
204	0x38b49884	8.611477e-05
205	0xb6d9276f	-6.4716946e-06
206	0x3971ba2d	0.00023052907
207	0x39d1201a	0.00039887504
208	0x3ae655b6	0.0017573151
209	0x3976dc22	0.00023542394
210	0x39dfecd4	0.00042710325
211	0x36964da0	4.479385e-06
212	0xb960f0d7	-0.00021452025
213	0xb9cdeb30	-0.00039275875
214	0x3a063ced	0.0005120773
215	0x3b038170	0.0020066164
216	0xba9c04e0	-0.0011903308
217	0xb9e32a79	-0.0004332846
218	0x3a9538fe	0.0011384783
219	0xba16aee0	-0.00057481043
220	0x3b11e09b	0.002225912
221	0x3a97b78d	0.0011575088
222	0x3a417eb5	0.00073812465
223	0x360b82f3	2.0788837e-06
224	0xb9df3efe	-0.00042580807
225	0xba17cf42	-0.00057910767
226	0x39fc6e91	0.00048147564
227	0x3b2617dc	0.002534381
228	0x3868fc00	5.5547804e-05
229	0x389af63b	7.389156e-05
230	0x399aaf75	0.00029503895
231	0x39083d81	0.00012992883
232	0x399c57f3	0.00029820166
233	0x39c3bf9b	0.00037336056
234	0x38b0bfc4	8.428053e-05
235	0xb3dbcaeb	-1.0234893e-07
236	0xb8bb3a49	-8.927711e-05
237	0x38ba0370	8.8698114e-05
238	0x392c2aac	0.00016419095
239	0x39b530ce	0.00034559373
240	0x38e5cdc6	0.00010957899
241	0x38bb2d94	8.9253444e-05
242	0xb70a1bd3	-8.231919e-06
243	0x387120f2	5.748956e-05
244	0xb95d1f2f	-0.00021087819
245	0xb91fe406	-0.00015248367
246	0xb8eb6db0	-0.00011226104
247	0x350e2f8c	5.296831e-07
248	0xb91a321f	-0.00014705256
249	0x38d5d6ca	0.00010196639
250	0xb7c8dcff	-2.3944767e-05
251	0x3931ed1b	0.00016968364
252	0x3a9d2c67	0.0011991382
253	0x3a6723a2	0.00088172604
254	0xba9c2dae	-0.0011915469
255	0x3a0d2e47	0.0005385619

exp_avg_sq f4 [128, 12]
0	0x36bb2ebf	5.5784762e-06
1	0x3695650d	4.45231e-06
2	0x36d4a980	6.3378247e-06
3	0x3692630d	4.36267e-06
4	0x355ea591	8.2942375e-07
5	0x369df20a	4.7071417e-06
6	0x36967656	4.4841245e-06
7	0x2ef82fa9	1.12862004e-10
8	0x3677879b	3.68848e-06
9	0x36b77fa1	5.468683e-06
10	0x3659bc25	3.2445034e-06
11	0x35bcee79	1.4076496e-06
12	0x3773f1e8	1.4540252e-05
13	0x3740f316	1.150069e-05
14	0x37969416	1.7950351e-05
15	0x3743ee81	1.1678437e-05
16	0x37387d44	1.099642e-05
17	0x376b16e9	1.4012426e-05
18	0x373bd400	1.1195429e-05
19	0x2fa7f772	3.0552944e-10
20	0x37254760	9.851385e-06
21	0x3768b726	1.387092e-05
22	0x375353d1	1.2596095e-05
23	0x37c79f5f	2.3796862e-05
24	0x33730bd9	5.6588622e-08
25	0x338df767	6.6108264e-08
26	0x3344672c	4.572864e-08
27	0x33bab798	8.6946955e-08
28	0x332dea03	4.0492534e-08
29	0x338f2715	6.6660654e-08
30	0x3388d4c0	6.3716925e-08
31	0x2be3ec0d	1.6194837e-12
32	0x33811476	6.0107524e-08
33	0x33a82b5b	7.830996e-08
34	0x33913238	6.7612234e-08
35	0x33f73d70	1.1513009e-07
36	0x36827687	3.8881003e-06
37	0x364573b7	2.9422642e-06
38	0x369a606a	4.6007817e-06
39	0x36300ce3	2.6233545e-06
40	0x36e51ba2	6.8279487e-06
41	0x366036f2	3.3410583e-06
42	0x36218f97	2.407445e-06
43	0x2e9f007f	7.230571e-11
44	0x36138bf2	2.1986166e-06
45	0x36680487	3.457333e-06
46	0x365db8a9	3.3039053e-06
47	0x372aca08	1.0179829e-05
48	0x36c0da4f	5.7474604e-06
49	0x36900888	4.2925276e-06
50	0x36d95a8a	6.477644e-06
51	0x367d4a4b	3.7743182e-06
52	0x3575c358	9.1553875e-07
53	0x3693e7ba	4.407918e-06
54	0x366c16c2	3.5179987e-06
55	0x2eda6fff	9.933387e-11
56	0x3654b636	3.1696522e-06
57	0x36b1f717	5.303776e-06
58	0x365c191f	3.2797177e-06
59	0x366183a2	3.3604233e-06
60	0x36acab72	5.1459583e-06
61	0x367cb28c	3.7654854e-06
62	0x36897924	4.097021e-06
63	0x36895019	4.0922428e-06
64	0x3676a5f5	3.6753456e-06
65	0x365aceab	3.2604828e-06
66	0x365e3828	3.3113265e-06
67	0x2ed46770	9.659018e-11
68	0x367050cc	3.5809817e-06
69	0x369819d5	4.5329602e-06
70	0x366f0b96	3.562052e-06
71	0x371543c4	8.89687e-06
72	0x366d0c60	3.5322955e-06
73	0x362fac69	2.6177388e-06
74	0x367d3f4c	3.7736781e-06
75	0x362c6f75	2.5694874e-06
76	0x351323e0	5.481397e-07
77	0x364108aa	2.8764284e-06
78	0x361b604c	2.3152852e-06
79	0x2e8ff8b5	6.5470664e-11
80	0x36120995	2.1761273e-06
81	0x3659b4cc	3.2440757e-06
82	0x360ccd32	2.0981065e-06
83	0x358f2f38	1.0668073e-06
84	0x366b450b	3.5057917e-06
85	0x35ec0162	1.7583773e-06
86	0x3653c7c8	3.1557738e-06
87	0x3621d447	2.4114431e-06
88	0x372647ea	9.911115e-06
89	0x362bf906	2.5625936e-06
90	0x35f1da0c	1.8019359e-06
91	0x2e6de14c	5.4087665e-11
92	0x360ccb80	2.0980078e-06
93	0x360c6f81	2.092653e-06
94	0x3653e7c5	3.1576358e-06
95	0x374213c0	1.15678995e-05
96	0x34a3dc87	3.052157e-07
97	0x34b73897	3.412758e-07
98	0x350b0ba6	5.1798486e-07
99	0x3499eb2d	2.8669584e-07
100	0x344fd1f0	1.9354752e-07
101	0x34dc2818	4.1007365e-07
102	0x34975475	2.8187392e-07
103	0x2cfe1f80	7.2226114e-12
104	0x34998d4a	2.8601272e-07
105	0x34ce1753	3.838746e-07
106	0x349a4803	2.873713e-07
107	0x3573885c	9.0722983e-07
108	0x35d54417	1.5889553e-06
109	0x35963c77	1.1193468e-06
110	0x35c2d1a5	1.4515141e-06
111	0x35836973	9.79095e-07
112	0x35c54fb5	1.4700842e-06
113	0x3588a3eb	1.0180496e-06
114	0x3584714c	9.86774e-07
115	0x2dd0535e	2.3683885e-11
116	0x355ebdeb	8.297781e-07
117	0x35a8ca54	1.2575861e-06
118	0x358b8f8c	1.0398085e-06
119	0x35e959f6	1.7386035e-06
120	0x36c673e0	5.9143495e-06
121	0x36b29802	5.3225094e-06
122	0x370a8b02	8.257806e-06
123	0x3685f7a5	3.9925385e-06
124	0x345e8a3b	2.0725649e-07
125	0x36c5c0e0	5.893511e-06
126	0x3680c2ea	3.8373882e-06
127	0x2f01d294	1.1807294e-10
128	0x367a83a6	3.7329532e-06
129	0x36cf9324	6.18621e-06
130	0x36970dca	4.501756e-06
131	0x34c9df3f	3.76016e-07
132	0x359e0d3a	1.1775767e-06
133	0x35a2bcff	1.2124946e-06
134	0x35d71119	1.6023724e-06
135	0x3588d102	1.0193619e-06
136	0x34dbe6f1	4.095996e-07
137	0x35a127e3	1.2007043e-06
138	0x359035c3	1.0744483e-06
139	0x2df37264	2.7676701e-11
140	0x356aa2f4	8.740892e-07
141	0x35ba3d44	1.387591e-06
142	0x358999f8	1.0252106e-06
143	0x3571fa05	9.014332e-07
144	0x35c79392	1.4869604e-06
145	0x35c35609	1.4553672e-06
146	0x3615c07a	2.2314766e-06
147	0x35a35a98	1.2170813e-06
148	0x363364b2	2.673169e-06
149	0x35e9c7af	1.7417968e-06
150	0x35c397c2	1.45728e-06
151	0x2e23f512	3.7279575e-11
152	0x3588ff02	1.0207007e-06
153	0x35e61aa3	1.7144088e-06
154	0x35dafe34	1.6316249e-06
155	0x366416e5	3.3987974e-06
156	0x3608dde2	2.0394732e-06
157	0x35bdd1a5	1.4142612e-06
158	0x3607f4b3	2.0259001e-06
159	0x35cff6d5	1.5494539e-06
160	0x354156ad	7.202423e-07
161	0x35c4ce25	1.4663134e-06
162	0x3594b288	1.1078819e-06
163	0x2e1cd8a9	3.5662726e-11
164	0x35ae79dc	1.2999476e-06
165	0x35e71910	1.7218135e-06
166	0x35bcdeff	1.4071992e-06
167	0x3594128b	1.1032256e-06
168	0x3601a721	1.931978e-06
169	0x35a68656	1.2407061e-06
170	0x360d1e9f	2.102846e-06
171	0x35c0a906	1.4354307e-06
172	0x362cccc5	2.5749189e-06
173	0x35c9fb09	1.5048728e-06
174	0x35a00dad	1.1924909e-06
175	0x2e144b92	3.3718424e-11
176	0x35957d5c	1.113785e-06
177	0x35c86956	1.4931818e-06
178	0x35c68ece	1.4793711e-06
179	0x364cafac	3.0500623e-06
180	0x37a14a1a	1.9227202e-05
181	0x378cd2b3	1.6787415e-05
182	0x37bc2f42	2.2433353e-05
183	0x376c2e16	1.4077426e-05
184	0x373002e8	1.0491094e-05
185	0x378a373e	1.6476606e-05
186	0x3774158d	1.4548551e-05
187	0x2fdf7439	4.0646045e-10
188	0x37582f34	1.2885594e-05
189	0x37b0584a	2.1021948e-05
190	0x374654d4	1.182147e-05
191	0x3819f3f9	3.670526e-05
192	0x37296517	1.0096722e-05
193	0x3714f881	8.879347e-06
194	0x37438b2d	1.165531e-05
195	0x36e722c5	6.888384e-06
196	0x369f07d3	4.73948e-06
197	0x37086459	8.129596e-06
198	0x36e901bd	6.9441435e-06
199	0x2f5c956b	2.0061967e-10
200	0x36d80e77	6.4389856e-06
201	0x3736518c	1.0867032e-05
202	0x36d78df1	6.4240235e-06
203	0x37829807	1.5568e-05
204	0x36615089	3.357449e-06
205	0x363a5e39	2.7771005e-06
206	0x368feeb3	4.2895203e-06
207	0x363980bf	2.7642088e-06
208	0x372b1ec5	1.0199558e-05
209	0x3672f810	3.6205201e-06
210	0x3643208c	2.907621e-06
211	0x2eadc240	7.901635e-11
212	0x362434df	2.446868e-06
213	0x365a1644	3.2497492e-06
214	0x3665b2db	3.4227767e-06
215	0x372d0b1a	1.0314188e-05
216	0x370ca737	8.383583e-06
217	0x36e2968b	6.7528504e-06
218	0x372acad6	1.0180016e-05
219	0x36dcfc02	6.5858485e-06
220	0x3778b4bd	1.4824033e-05
221	0x36fcc7b4	7.5334337e-06
222	0x36e1e6af	6.7323776e-06
223	0x2f3e16dd	1.7288522e-10
224	0x36a5b52b	4.938474e-06
225	0x37075a07	8.067588e-06
226	0x36e444f1	6.8029553e-06
227	0x3802195c	3.1018033e-05
228	0x351192e9	5.423049e-07
229	0x34bd0d5c	3.5213714e-07
230	0x3539019b	6.8920207e-07
231	0x34cdaadb	3.830854e-07
232	0x354916f5	7.491174e-07
233	0x35010ee2	4.80779e-07
234	0x34e8ea28	4.3383739e-07
235	0x2d1f1aa8	9.0440225e-12
236	0x34bacc76	3.4793965e-07
237	0x34de77af	4.1437804e-07
238	0x34e2ed84	4.2268596e-07
239	0x3550f97a	7.7849074e-07
240	0x344370a6	1.8201771e-07
241	0x348a796d	2.5792852e-07
242	0x349e77ce	2.9516963e-07
243	0x3451e9f7	1.9549758e-07
244	0x34948b4c	2.76685e-07
245	0x3499fe80	2.8683644e-07
246	0x3474a2cc	2.2783496e-07
247	0x2cddba75	6.3018987e-12
248	0x34876a6f	2.522315e-07
249	0x34a1a08b	3.0105397e-07
250	0x34812210	2.4052906e-07
251	0x3522e009	6.0675717e-07
252	0x36ed2c90	7.068338e-06
253	0x36bf0c12	5.6936487e-06
254	0x372ac1d1	1.0177916e-05
255	0x36b6f849	5.452927e-06

exp_avg f4 [128]
0	0x39f3fb20	0.00046535674
1	0xb8354fa2	-4.3227927e-05
2	0x37216a44	9.62109e-06
3	0xb7689b16	-1.3864386e-05
4	0x392e4e29	0.0001662305
5	0xb7b9ad53	-2.2134429e-05
6	0x399b4d06	0.0002962129
7	0x38c74036	9.50102e-05
8	0x383431ee	4.2961845e-05
9	0x38bc9eab	8.994093e-05
10	0xb8854b7f	-6.3559964e-05
11	0x392f93c8	0.00016744353
12	0xb957409f	-0.00020528071
13	0xb8addca1	-8.290378e-05
14	0xb99db287	-0.00030078387
15	0x381fd550	3.8107217e-05
16	0xb98cf730	-0.0002688705
17	0x3a58ef0b	0.0008275366
18	0x39c95bb3	0.0003840603
19	0xb79e9d6e	-1.8908377e-05
20	0x38cd37b4	9.785537e-05
21	0xb9bb361b	-0.0003570773
22	0x369768cd	4.512351e-06
23	0xb9cad8a4	-0.00038689852
24	0xb9b892c5	-0.00035204567
25	0xb70c49b3	-8.36181e-06
26	0xba8debdc	-0.0010827738
27	0xb99843b9	-0.00029042157
28	0x379d2117	1.8731267e-05
29	0xba91cfce	-0.0011124553
30	0x39c8374f	0.0003818818
31	0xb886064c	-6.390791e-05
32	0x39a97f07	0.00032328835
33	0x38ba3d98	8.880644e-05
34	0xb97de27a	-0.0002421233
35	0xba97f1ea	-0.0011592482
36	0x378c0539	1.6691733e-05
37	0xb9f13c28	-0.00046011922
38	0xb9c918ae	-0.00038356095
39	0xb901558e	-0.0001233427
40	0x3696f997	4.4994044e-06
41	0x3970726b	0.00022930808
42	0x38d24839	0.00010027033
43	0xb9920888	-0.00027853646
44	0x39ba3d2a	0.00035522255
45	0x38a9db46	8.099391e-05
46	0x3907e6c0	0.00012960564
47	0xb8c9a0bc	-9.614366e-05
48	0xb926b7b8	-0.00015899434
49	0xb902765b	-0.00012441857
50	0x3940a69b	0.00018372612
51	0xb8a32ebf	-7.781153e-05
52	0xb91f954c	-0.00015219039
53	0x39368e16	0.00017409804
54	0x39fbfb85	0.00048061847
55	0xb9439c29	-0.00018654823
56	0x39d45cfc	0.0004050507
57	0xba03bf71	-0.00050257804
58	0xba97869a	-0.00115605
59	0xb9a62e57	-0.00031696513
60	0x388fc679	6.85574e-05
61	0x3970cc4b	0.00022964289
62	0xb88aee56	-6.624746e-05
63	0x38832413	6.253286e-05
64	0xb79474e6	-1.769741e-05
65	0xb7cd11ee	-2.4446254e-05
66	0x3a83daf6	0.0010059762
67	0x3992a0a8	0.00027966988
68	0xb88bec98	-6.6721055e-05
69	0x38424808	4.632029e-05
70	0xb71bdefa	-9.290636e-06
71	0xb8abecf3	-8.198051e-05
72	0xb8bffba2	-9.15446e-05
73	0xb936a6ff	-0.00017419083
74	0xb94deb60	-0.00019638008
75	0x3a87e305	0.001036734
76	0x37d7d4a0	2.5729008e-05
77	0xb97d493a	-0.00024155239
78	0x394446db	0.00018718412
79	0x39b390dc	0.0003424947
80	0xb9b3a28f	-0.00034262656
81	0xb97004e5	-0.00022890007
82	0x3a3db276	0.00072363706
83	0x39a6245c	0.00031689077
84	0xb86b4e46	-5.6101264e-05
85	0xb9dd5d55	-0.00042221943
86	0xb9597795	-0.0002073928
87	0xb84286c4	-4.6378715e-05
88	0x3a556514	0.0008140367
89	0x37fbed09	3.003191e-05
90	0x3949bb1f	0.00019238562
91	0xb9c8f91c	-0.00038332574
92	0xb906cb98	-0.0001285508
93	0x37e5e396	2.7404905e-05
94	0xb99a9d94	-0.00029490574
95	0xb9367dea	-0.00017403779
96	0xb83dc52f	-4.5244753e-05
97	0xb9de8208	-0.0004244002
98	0xba2bed5a	-0.00065585005
99	0x38d1f930	0.000100123114
100	0x3867051b	5.5079447e-05
101	0x39c31992	0.0003721235
102	0xb8014b28	-3.082599e-05
103	0xb931b4b5	-0.00016947354
104	0x3a07aedc	0.00051758974
105	0x3a5083e4	0.00079542235
106	0x3a0c64c9	0.00053555943
107	0x3a9c3b14	0.0011919462
108	0xb8acbc65	-8.23669e-05
109	0xb9494e09	-0.00019197924
110	0xb9399c4d	-0.00017701201
111	0xba6567f1	-0.0008751145
112	0xb964fd37	-0.00021838104
113	0x398a617c	0.00026394043
114	0xb78ad06c	-1.6547936e-05
115	0xb90c560f	-0.000133835
116	0x381c379d	3.7245092e-05
117	0xb8f4e757	-0.00011677917
118	0x3992ab21	0.0002797479
119	0xb98023bb	-0.00024440684
120	0xb91f6d54	-0.0001520415
121	0x38722d2c	5.7739366e-05
122	0xba08cec5	-0.00052187993
123	0xb83b16e9	-4.460561e-05
124	0xb80659ed	-3.203184e-05
125	0x3a971560	0.0011526756
126	0x392ebedc	0.00016665034
127	0x380a84bc	3.3025382e-05

exp_avg_sq f4 [128]
0	0x36954e31	4.4496487e-06
1	0x3742a866	1.1602509e-05
2	0x33939241	6.871824e-08
3	0x363946a6	2.760827e-06
4	0x36814219	3.8521944e-06
5	0x368063ad	3.826301e-06
6	0x362ddc8a	2.590738e-06
7	0x360a585f	2.0615041e-06
8	0x3497094d	2.813271e-07
9	0x3582d37a	9.747303e-07
10	0x36986856	4.5420993e-06
11	0x3593554a	1.0977176e-06
12	0x35bc91ba	1.4049504e-06
13	0x35b8257a	1.3719975e-06
14	0x35ac398d	1.2831748e-06
15	0x377e5c99	1.5161139e-05
16	0x36ff43c7	7.6074825e-06
17	0x36494ad6	2.9994894e-06
18	0x36d79102	6.4243804e-06
19	0x34cb33f4	3.7849497e-07
20	0x34821571	2.4229988e-07
21	0x36cd7374	6.1229166e-06
22	0x358ef0b7	1.0649882e-06
23	0x371e0109	9.417775e-06
24	0x3615ecd4	2.2340582e-06
25	0x3629b87e	2.529035e-06
26	0x376bd260	1.4056073e-05
27	0x358194d0	9.654559e-07
28	0x35d648e6	1.5965459e-06
29	0x37039b09	7.844305e-06
30	0x3635ed4e	2.7109231e-06
31	0x359b654b	1.157788e-06
32	0x35d2d8e6	1.5709345e-06
33	0x3607feac	2.0264806e-06
34	0x368aa3db	4.131796e-06
35	0x378f3c5b	1.7075034e-05
36	0x35c42f3c	1.4616885e-06
37	0x359e0ad8	1.1775073e-06
38	0x36862fd1	3.9990778e-06
39	0x34a1f3d4	3.0165995e-07
40	0x34d8315a	4.0269043e-07
41	0x36b1b8a2	5.296505e-06
42	0x35d71b69	1.6026726e-06
43	0x36850795	3.9645915e-06
44	0x36cce677	6.1065034e-06
45	0x35342b84	6.711855e-07
46	0x34555f5a	1.987186e-07
47	0x364d30fe	3.0575898e-06
48	0x377ef013	1.5195476e-05
49	0x3659fbc3	3.2482064e-06
50	0x3697845b	4.515559e-06
51	0x343e84e4	1.7743474e-07
52	0x35c11071	1.4384406e-06
53	0x36f1920d	7.1993622e-06
54	0x3730c83c	1.0537038e-05
55	0x34acfc20	3.2220942e-07
56	0x36053fcd	1.9855681e-06
57	0x35b418a3	1.3418215e-06
58	0x37458ace	1.1774433e-05
59	0x3678213b	3.6974222e-06
60	0x363cd71e	2.8139398e-06
61	0x3527599e	6.234276e-07
62	0x35972f01	1.1264057e-06
63	0x36bf4fa2	5.701514e-06
64	0x35d2e6df	1.5713412e-06
65	0x36eec311	7.1156614e-06
66	0x37989cf1	1.8192894e-05
67	0x36abe081	5.122333e-06
68	0x358712e2	1.0063779e-06
69	0x36e7d591	6.909199e-06
70	0x3688f494	4.0815885e-06
71	0x34c2df10	3.6297615e-07
72	0x34be724a	3.5473414e-07
73	0x36b2db87	5.3303697e-06
74	0x36848ac3	3.9500605e-06
75	0x37a2e13b	1.9416786e-05
76	0x352d3ef4	6.453913e-07
77	0x35b1d223	1.3248685e-06
78	0x37855967	1.5896467e-05
79	0x3688c461	4.0759774e-06
80	0x368c3288	4.1782077e-06
81	0x354d4c99	7.6479915e-07
82	0x37e28136	2.7001468e-05
83	0x36893e32	4.0901587e-06
84	0x35060b40	4.993526e-07
85	0x35f01e97	1.7890296e-06
86	0x3521c441	6.026276e-07
87	0x35e4aaf1	1.7037074e-06
88	0x36fdf811	7.5688663e-06
89	0x36104a78	2.1501019e-06
90	0x3603a89c	1.9618665e-06
91	0x363aad3a	2.781699e-06
92	0x373c157c	1.1210675e-05
93	0x35961730	1.1182619e-06
94	0x352c201b	6.412171e-07
95	0x35a5e314	1.2359546e-06
96	0x34edcc46	4.4293319e-07
97	0x376109e3	1.3413347e-05
98	0x37177191	9.026743e-06
99	0x3588d53b	1.0194848e-06
100	0x36f2d05f	7.2364196e-06
101	0x36ac352f	5.132191e-06
102	0x35f1f05e	1.8025855e-06
103	0x38187318	3.6346813e-05
104	0x36b5a51a	5.4134407e-06
105	0x37caba4c	2.4167028e-05
106	0x34fec099	4.745132e-07
107	0x38083ff3	3.2484484e-05
108	0x369116a5	4.323973e-06
109	0x3735e43f	1.0841583e-05
110	0x36874650	4.031499e-06
111	0x379ca288	1.8672334e-05
112	0x36ae5d83	5.1964903e-06
113	0x364c95c1	3.0485537e-06
114	0x34594be5	2.023731e-07
115	0x35eda5a0	1.7706079e-06
116	0x355a7d63	8.139379e-07
117	0x353372bf	6.6849674e-07
118	0x34ed1cf8	4.4165768e-07
119	0x354b0cc2	7.564196e-07
120	0x366d17e8	3.5329667e-06
121	0x359bf535	1.1619765e-06
122	0x3688e0fb	4.079307e-06
123	0x34dc4ce3	4.1034136e-07
124	0x33fc812b	1.175816e-07
125	0x3793e66d	1.7631066e-05
126	0x35e4af94	1.7038424e-06
127	0x34594a03	2.0236625e-07
