TWP_2/results/DynPnp31/RobotArm/RobotArm-41343.onnx (onnx, 79646 bytes, 9 tensors)

network_body.observation_encoder.processors.0.normalizer.running_mean f4 [12]
-0.04771465 28.69732 -0.5013199 0.45478672 3.0030482 -0.5505123 -0.17526738 2.9999812
-0.4889358 31.316021 43.375984 0.0065573016
00000000: 7070 43bd 1d94 e541 8056 00bf ced9 e83e
00000010: f131 4040 60ee 0cbf 4b79 33be b1ff 3f40
00000020: cb55 fabe 3687 fa41 0281 2d42 a2de d63b

network_body._body_endoder.seq_layers.0.weight f4 [128, 12]
-0.32619014 0.3263407 -0.20440057 0.4260918 -0.5534241 -0.35418388 0.42452538 0.2529487
0.41827503 -0.17209785 0.2535734 -0.28088865 -0.39295372 0.08040484 0.24181437 0.6084241
-0.21065065 0.03036304 -0.4893955 0.6390438 0.13459477 0.2040775 -0.18241501 0.075000405
0.34718052 0.33870146 -0.13963984 0.07045341 -0.18057284 0.19895728 -0.09569301 -0.48093298
-0.13715248 0.13069095 -0.17450558 0.06278146 0.20877086 -0.050437108 0.062342443 -0.36384398
0.13602531 0.15516052 0.06532612 0.3079863 -0.09915509 -0.34951586 -0.5483366 0.47604474
-0.31062195 -0.22624578 -0.17535076 -0.17284063 -0.18906721 -0.1464186 -0.44853246 -0.38444978
0.4015089 -0.6025464 -0.24399151 0.2517913 0.04336033 -0.050756536 -0.23124899 -0.018042639
0.06001642 -0.6527742 -0.0135886185 0.46038842 0.8740972 -0.07568638 0.12441828 0.26048362
-0.19920099 0.08911961 -0.027379638 -0.05204902 -0.32080775 -0.54875946 0.08813658 -0.05942738
-0.2937977 0.04511609 0.26575613 -0.12680368 -0.050192166 -0.23015207 -0.2551841 -0.41757318
0.04909954 0.11658044 0.18685104 0.25592256 -0.41411477 0.46226192 0.3920191 0.0390231
0.1368149 -0.19847278 -0.047102243 0.27851337 -0.5473566 0.2879925 0.47233915 -0.21003014
-0.71516114 0.33889294 -0.10756947 0.21353069 -0.07713373 -0.7838858 -0.15409647 -0.31013152
0.22677036 0.03564909 0.13605134 -0.43340766 -0.61576706 -0.20190072 -0.17483783 -0.15596357
-0.32431936 -0.19642216 0.36026892 0.1428483 0.09777961 0.09477162 -0.26750776 -0.06548474
0.29265326 0.09868417 -0.27934986 -0.33348978 0.38506237 -0.23767233 -0.057369366 0.38478512
0.09093549 -0.111660086 -0.18433928 -0.49965233 -0.3678027 -0.10144489 -0.37070405 0.022399895
0.2975875 -0.025780952 0.20179456 -0.101796925 0.23885989 -0.12900311 0.5711085 -0.19108124
-0.0909891 0.084805325 -0.24226908 -0.040249594 -0.16905853 -0.36764973 0.036111422 -0.23713863
0.19408551 -0.32700285 0.11339643 0.12285623 0.716652 0.29462406 -0.19231911 -0.053535637
-0.27084726 0.20670962 0.3431827 -0.14489715 0.06332731 -0.23767763 0.10492093 -0.2585021
0.30122003 -0.09263241 0.286839 -0.02416209 -0.09231188 0.066949286 -0.4775027 0.24485067
-0.42056596 0.43678063 -0.04848273 0.12158742 0.13450326 -0.017614713 0.10735238 0.1083203
0.252111 -0.3063405 0.25992346 -0.19815123 -0.050312616 -0.34119695 -0.24151142 -0.0918618
-0.10673871 -0.46846825 -0.31528848 0.1370444 0.017833238 -0.050110903 -0.0878696 0.4000451
0.8200888 -0.06586488 0.34407893 0.26066664 -0.19426402 0.19229321 -0.27511546 -0.17321928
-0.041573364 -0.20831878 -0.49010482 -0.07869469 -0.21184215 0.42898864 0.27540618 -0.06059438
0.13339086 0.16214544 0.4221 0.23289563 -0.0789425 -0.009399328 -0.4916706 -0.1271739
0.27365988 -0.048165984 -0.43727273 -0.23647821 0.29791293 0.50749815 0.5398259 -0.06709766
0.12636977 0.56591696 0.32659864 -0.09653547 -0.67502606 -0.21955456 0.44248304 0.29870975
-0.6336512 0.23177144 0.38547993 -0.023518525 0.029822454 0.5352805 0.41442287 0.35395467
00000000: 6502 a7be 2116 a73e 624e 51be b428 da3e
00000010: 34ad 0dbf 9757 b5be 645b d93e 7e82 813e
00000020: 2528 d63e 6b3a 30be 5fd4 813e a3d0 8fbe
00000030: 3b31 c9be 4bab a43d 309e 773e afc1 1b3f
00000040: ceb4 57be e9bb f83c 0c92 fabe 6098 233f
00000050: 36d3 093e b1f9 503e 00cb 3abe d099 993d
00000060: a5c1 b13e 476a ad3e bffd 0ebe e149 903d
00000070: 16e8 38be 75bb 4b3e b2fa c3bd d93c f6be
00000080: b371 0cbe d9d3 053e 97b1 32be 9193 803d
00000090: 07c8 553e 2497 4ebd ca5a 7f3d c249 babe
000000a0: 384a 0b3e 66e2 1e3e b3c9 853d 61b0 9d3e
000000b0: d311 cbbd bef3 b2be ca5f 0cbf 23bc f33e
000000c0: d709 9fbe f9ac 67be 268f 33be 22fd 30be
000000d0: d69a 41be c2ee 15be 0ca6 e5be 9ad6 c4be
000000e0: 9392 cd3e 7b40 1abf e9d8 79be caea 803e
000000f0: 9a9a 313d 16e6 4fbd 89cc 6cbe 28ce 93bc
00000100: c7d3 753d 361c 27bf cca2 5ebc 08b8 eb3e
00000110: d6c4 5f3f 7601 9bbd 03cf fe3d 1c5e 853e
00000120: 58fb 4bbe 5884 b63d 434b e0bc 5a31 55bd
00000130: ea40 a4be 807b 0cbf f480 b43d 206a 73bd
00000140: a76c 96be a6cb 383d 3011 883e d3d8 01be
00000150: 4d96 4dbd fcac 6bbe 7ea7 82be 27cc d5be
00000160: 991c 493d bac1 ee3d e155 3f3e 4808 833e
00000170: da06 d4be 98ad ec3e bab6 c83e b0d6 1f3d
00000180: 3519 0c3e 733c 4bbe 48ee 40bd 4e99 8e3e
00000190: 901f 0cbf c173 933e 70d6 f13e 2412 57be
000001a0: cd14 37bf 6083 ad3e 624d dcbd caa7 5a3e
000001b0: 4af8 9dbd bdac 48bf 77cb 1dbe 8fc9 9ebe
000001c0: 7d36 683e c804 123d 0b51 0b3e 9ce7 ddbe
000001d0: e9a2 1dbf 10bf 4ebe b008 33be eab4 1fbe
000001e0: 300d a6be e422 49be 2b75 b83e d346 123e
000001f0: ad40 c83d a017 c23d c7f6 88be dd1c 86bd
00000200: a6d6 953e ed1a ca3d f206 8fbe 2cbf aabe
00000210: e526 c53e 6060 73be 24fc 6abd 8e02 c53e
00000220: 633c ba3d 0bae e4bd 70c3 3cbe 6ed2 ffbe
00000230: a350 bcbe 57c2 cfbd eccc bdbe fc7f b73c
00000240: 645d 983e 9332 d3bc 3ca3 4e3e e87a d0bd
00000250: b097 743e 6419 04be 2b34 123f cdaa 43be
00000260: 7e58 babd 6aae ad3d 6315 78be c2dc 24bd
00000270: ae1d 2dbe 963c bcbe 92e9 133d 78d4 72be
00000280: 5abe 463e eb6c a7be 633c e83d 0c9c fb3d
00000290: 8176 373f f7d8 963e 4def 44be 2f48 5bbd
000002a0: 7eac 8abe b0ab 533e a5b5 af3e eb5f 14be
000002b0: c0b1 813d c461 73be c9e0 d63d 635a 84be
000002c0: 8339 9a3e 10b6 bdbd 90dc 923e 93ef c5bc
000002d0: 030e bdbd b51c 893d 3c7b f4be 22ba 7a3e
000002e0: 6c54 d7be b6a1 df3e d495 46bd d302 f93d
000002f0: 39bb 093e bb4c 90bc 91db db3d 09d7 dd3d
00000300: b114 813e a9d8 9cbe b014 853e 28e8 4abe
00000310: 9a14 4ebd 5eb1 aebe c54e 77be 0a22 bcbd
00000320: d399 dabd 12db efbe 7e6d a1be 5e55 0c3e
00000330: 0317 923c 1741 4dbd faf4 b3bd b6d2 cc3e
00000340: 57f1 513f 2be4 86bd 1d2b b03e 1976 853e
00000350: 26ed 46be 83e8 443e efdb 8cbe 6560 31be
00000360: d548 2abd 8551 55be 05ef fabe ae2a a1bd
00000370: 26ed 58be 66a4 db3e 0a02 8d3e d031 78bd
00000380: 9d97 083e 7409 263e 7e1d d83e 317c 6e3e
00000390: 9bac a1bd a4ff 19bc 40bc fbbe e039 02be
000003a0: 261d 8c3e b249 45bd 36e2 dfbe 5827 72be
000003b0: 0b88 983e 66eb 013f 0832 0a3f 7f6a 89bd
000003c0: 1467 013e efdf 103f f037 a73e 63b4 c5bd
000003d0: 82ce 2cbf e9d2 60be 238d e23e 7cf0 983e
000003e0: f736 22bf 7e55 6d3e a05d c53e eca9 c0bc
000003f0: 384e f43c 2508 093f 3c2f d43e 8c39 b53e

network_body._body_endoder.seq_layers.0.bias f4 [128]
0.19864738 0.18553373 -0.15514253 -0.015106677 0.06253667 0.2076518 0.1478953 -0.107311696
-0.055805042 0.060427316 0.04195213 0.14253217 0.08630611 0.116309784 0.077974275 0.08953317
0.03677418 0.10374102 -0.04612029 -0.075551316 -0.0057156985 0.17368545 0.11831744 0.15952165
-0.026177056 0.053116914 0.056746032 -0.12212604 0.043433074 0.047167115 0.04658018 -0.04608409
-0.021180242 0.12412246 -0.038261816 0.012688488 -0.057638053 0.15441506 0.08094501 -0.16442299
-0.02347503 0.15072863 0.20432027 0.041565854 0.02375496 0.07677179 -0.17656104 0.051364765
0.1100274 -0.027680779 0.00959401 -0.024737675 0.15641454 0.066114396 0.010952018 -0.13179816
0.19776021 -0.070449844 0.12407114 0.15525828 0.119268976 0.025159784 0.17369767 0.17456332
0.0021497812 0.11990696 0.09578111 0.00603557 -0.122145906 0.12911737 -0.040968288 -0.09667791
-0.08732954 0.10872656 -0.09760004 0.09090746 0.14270978 0.19929607 0.10467672 0.15395005
0.15522532 0.07852364 0.22001885 0.026959414 0.12713715 -0.09691645 0.07312973 -0.10957034
0.10692005 0.09327394 0.129287 0.14381084 -0.0064012427 0.015233018 0.10515899 -0.029719565
0.04331817 0.05386119 0.07525593 0.085282736 0.19898486 0.1643106 -0.08276083 0.1219396
0.1631439 0.16672151 -0.15382129 0.25209272 0.07995251 0.12111485 0.02872788 0.07785958
0.030058663 0.067007564 0.032842446 0.0066912137 0.16151406 0.055006176 -0.1697842 0.10444084
0.06611547 0.11876832 0.00802507 0.027795505 -0.079709485 0.1611446 0.14452052 -0.22955249
00000000: 386a 4b3e 8efc 3d3e afdd 1ebe ff81 77bc
00000010: 3a13 803d aca2 543e de71 173e 3cc6 dbbd
00000020: d493 64bd a282 773d ffd5 2b3d f4f3 113e
00000030: 42c1 b03d d333 ee3d fab0 9f3d 2b5d b73d
00000040: 86a0 163d 2c76 d43d a1e8 3cbd a6ba 9abd
00000050: c14a bbbb 99da 313e 6a50 f23d a559 233e
00000060: 4471 d6bc 1f91 593d 876e 683d 381d fabd
00000070: e1e6 313d 4e32 413d dcca 3e3d acc2 3cbd
00000080: 3082 adbc eb33 fe3d 6cb8 1cbd 60e3 4f3c
00000090: e115 6cbd fb1e 1e3e 7fc6 a53d 805e 28be
000000a0: b54e c0bc 9b58 1a3e 5539 513e f540 2a3d
000000b0: c399 c23c 873a 9d3d 6bcc 34be dc63 523d
000000c0: 0c56 e13d cdc2 e2bc 3230 1d3c aaa6 cabc
000000d0: 222b 203e fc66 873d 1870 333c 19f6 06be
000000e0: a781 4a3e 0248 90bd 0319 fe3d 07fc 1e3e
000000f0: 4b43 f43d e41b ce3c cddd 313e bac0 323e
00000100: 58e3 0c3b c891 f53d e328 c43d 08c6 c53b
00000110: a227 fabd 5837 043e 5dce 27bd 11ff c5bd
00000120: d4d9 b2bd 08ac de3d 88e2 c7bd b12d ba3d
00000130: 8322 123e 4514 4c3e c060 d63d 15a5 1d3e
00000140: 63f3 1e3e 01d1 a03d 9f4c 613e fdd9 dc3c
00000150: 3e30 023e 227c c6bd 0ac5 953d 6a66 e0bd
00000160: e6f8 da3d 6806 bf3d d063 043e 2643 133e
00000170: 84c1 d1bb e993 793c 995d d73d 7276 f3bc
00000180: 656e 313d 8d9d 5c3d c81f 9a3d b7a8 ae3d
00000190: b0c2 4b3e 0a41 283e 837e a9bd 78bb f93d
000001a0: 320f 273e 0bb9 2a3e 5483 1dbe 4c12 813e
000001b0: 24be a33d 100b f83d bb56 eb3c d874 9f3d
000001c0: 963d f63c 433b 893d cd85 063d f841 db3b
000001d0: f163 253e 284e 613d e9db 2dbe 14e5 d53d
000001e0: 8c67 873d ce3c f33d 957b 033c 66b3 e33c
000001f0: ba3e a3bd 1703 253e 30fd 133e cf0f 6bbe

network_body._body_endoder.seq_layers.2.weight f4 [128, 128]
0.07256987 -0.15085557 -0.061591614 -0.037970893 -0.18449463 0.086284935 -0.04090718 -0.04544312
-0.015194451 -0.095612675 0.030655133 0.06942453 0.18151695 -0.04198314 0.12860861 -0.042039525
-0.033576455 -0.033023342 0.13252568 -0.05752257 0.031189645 -0.09749341 0.022660837 0.113511145
0.012009932 0.16676717 0.14011978 -0.12798712 0.14866515 0.0468066 -0.08569302 -0.17476843
0.15125139 0.06799641 0.04935512 0.044463668 0.09748421 -0.018861074 -0.05121973 -0.055902824
0.1923534 -0.08149782 -0.2573223 0.12440913 -0.060366526 -0.07256757 0.012674263 0.08554016
0.026370596 -0.21893768 -0.018047215 -0.15119503 0.05738971 -0.028677994 -0.1292895 -0.08952918
0.24808022 0.065308265 -0.032622267 0.21606341 -0.009993699 0.08747167 -0.039207134 -0.0016084503
-0.0008373126 0.16033682 -0.28253537 -0.07735233 0.20084606 0.08105845 -0.1465137 0.104889266
0.07950619 -0.030824328 -0.08666025 -0.06863221 0.08435782 -0.007836726 0.0014413883 0.07686656
0.1415497 0.05003551 0.102698 0.00023917944 -0.024374656 0.1209564 0.13845366 0.18418461
-0.14289564 0.04477068 -0.0968368 -0.14199036 -0.19214313 0.05852395 -0.06712472 0.056216966
0.029630883 -0.012818649 -0.10552404 0.11051462 -0.11996421 -0.03377185 -0.008655535 0.017487353
0.07175945 0.1913577 -0.047074027 0.07128026 0.102857344 -0.081518486 -0.005998619 -0.035497632
-0.1225629 -0.032171838 -0.026635736 0.0076049864 0.07002025 -0.043639913 0.14708641 0.22919314
-0.0063457 -0.00094701955 0.21563809 -0.07518944 -0.029618116 0.011115822 0.1769805 -0.16569242
-0.15664743 -0.13458912 0.06352249 -0.08483867 -0.14164673 -0.18149026 -0.056082133 0.089389816
-0.074569546 0.028029148 -0.042584524 -0.1368161 0.044227343 0.02726945 -0.13363254 -0.041543767
0.03477783 -0.016377863 0.08125208 -0.001965806 -0.16294989 -0.13239904 -0.02008913 -0.009242465
0.067657955 0.20483312 0.106968194 0.038956452 -0.09499923 -0.065095596 0.09886319 -0.09278574
-0.09440843 -0.12922761 0.0035559558 0.011631756 0.030279469 -0.17367373 0.05372376 0.21744418
-0.036578692 -0.19361372 -0.12889 0.16685814 0.10675559 -0.12043112 -0.01376563 -0.091557056
-0.026309652 0.056310754 0.0042542447 0.015185988 -0.13501465 -0.06878784 0.049297784 -0.027321732
-0.21618661 0.20154685 0.0047242614 -0.16465053 -0.022725346 0.033929054 -0.08095464 -0.05911422
-0.018768862 0.011210686 0.031736977 -0.105559595 -0.06449161 -0.11185691 -0.05107313 0.057141334
0.06242884 -0.0017273622 0.018385416 -0.01016562 0.07367734 -0.086054474 -0.08331259 -0.08725351
-0.11898919 -0.19227296 -0.104123585 0.006480094 0.06764488 0.037360065 0.10836406 0.018451475
-0.060073815 -0.03271896 0.04070702 -0.011611515 0.021319054 0.06745636 0.014145052 0.063759804
-0.08323751 0.14684205 -0.05722404 -0.0068314145 0.031304035 0.022247173 0.032733444 0.071020424
-0.24084327 -0.07751152 -0.014574967 0.01079471 0.121524155 -0.20530467 -0.020801624 -0.0053838505
-0.00044798688 -0.07104007 0.0013025008 0.0928091 0.0005726851 -0.022185925 -0.014998231 -0.12638016
-0.09743872 -0.17137268 -0.16652232 -0.06020641 0.09464974 -0.058574446 -0.04232211 -0.041685972
00000000: 839f 943d e279 1abe 7d47 7cbd 5e87 1bbd
00000010: 29ec 3cbe 28b6 b03d 4a8e 27bd 9122 3abd
00000020: 26f2 78bc 94d0 c3bd 7920 fb3c 732e 8e3d
00000030: 94df 393e 83f6 2bbd fab1 033e a331 2cbd
00000040: 7787 09bd 7c43 07bd d0b4 073e c99c 6bbd
00000050: 6d81 ff3c a0aa c7bd 38a3 b93c 8878 e83d
00000060: 4ec5 443c 03c5 2a3e 8f7b 0f3e 0e0f 03be
00000070: ad3b 183e 47b8 3f3d d27f afbd 7ff6 32be
00000080: a5e1 1a3e b441 8b3d 9828 4a3d 891f 363d
00000090: cda5 c73d 8a82 9abc c8cb 51bd 5cfa 64bd
000000a0: 4af8 443e 54e8 a6bd c0bf 83be 37ca fe3d
000000b0: e442 77bd 4e9e 94bd b6a7 4f3c ae2f af3d
000000c0: 2607 d83c 3331 60be c1d7 93bc dfd2 1abe
000000d0: 7911 6b3d 1dee eabc 7764 04be 135b b7bd
000000e0: be08 7e3e 57c0 853d ed9e 05bd ba3f 5d3e
000000f0: 9dbc 23bc 5924 b33d a997 20bd a3d2 d2ba
00000100: 197f 5bba 562f 243e 7aa8 90be e66a 9ebd
00000110: 97aa 4d3e f901 a63d b007 16be 2fd0 d63d
00000120: 24d4 a23d 4d83 fcbc ee7a b1bd 0b8f 8cbd
00000130: cbc3 ac3d 9c65 00bc f7ec bc3a 376c 9d3d
00000140: 68f2 103e 09f2 4c3d 5453 d23d 3ecc 7a39
00000150: 5cad c7bc fdb7 f73d ccc6 0d3e e49a 3c3e
00000160: 3c53 12be 7661 373d 5f52 c6bd ec65 11be
00000170: 2bc1 44be cfb6 6f3d af78 89bd c343 663d
00000180: 77bc f23c 5005 52bc fd1c d8bd 7d55 e23d
00000190: ccaf f5bd 5a54 0abd f2cf 0dbc a341 8f3c
000001a0: 9ef6 923d 46f3 433e b2d0 40bd 63fb 913d
000001b0: dfa6 d23d 2af3 a6bd 1090 c4bb f765 11bd
000001c0: 4202 fbbd 9ec6 03bd 3033 dabc 4033 f93b
000001d0: c766 8f3d c4bf 32bd d29d 163e 9bb1 6a3e
000001e0: 97ef cfbb 6841 78ba 3bd0 5c3e ecfc 99bd
000001f0: b1a1 f2bc 231f 363c 603a 353e 46ab 29be
00000200: 2f68 20be bbd1 09be 1418 823d e6bf adbd
00000210: d70b 11be 95d8 39be 61b6 65bd 0212 b73d
00000220: ebb7 98bd 629d e53c 1c6d 2ebd 8519 0cbe
00000230: bb27 353d 2e64 df3c f8d6 08be cc29 2abd
00000240: 3373 0e3d de2a 86bc 7e67 a63d c0d4 00bb
00000250: 56dc 26be 9d93 07be f691 a4bc b56d 17bc
00000260: 4190 8a3d c6bf 513e 2412 db3d cd90 1f3d
00000270: f58e c2bd d750 85bd c978 ca3d 7306 bebd
00000280: 3559 c1bd 3e54 04be 0a0b 693b 1f93 3e3c
00000290: a60c f83c 87d7 31be 720d 5c3d b0a9 5e3e
000002a0: 8ad3 15bd ad42 46be bdfb 03be dcdc 2a3e
000002b0: ada2 da3d 97a4 f6bd 3d89 61bc 4482 bbbd
000002c0: 5787 d7bc 1ba6 663d 3167 8b3b a6ce 783c
000002d0: 4841 0abe a4e0 8cbd 79ec 493d d3d1 dfbc
000002e0: 0660 5dbe 4c62 4e3e facd 9a3b 269a 28be
000002f0: 812a babc 31f9 0a3d 8ccb a5bd c121 72bd
00000300: 28c1 99bc 06ad 373c a2fe 013d a12f d8bd
00000310: 2d14 84bd 3c15 e5bd 0f32 51bd 080d 6a3d
00000320: 62b5 7f3d a868 e2ba 039d 963c b38d 26bc
00000330: 25e4 963d 543d b0bd cb9f aabd f8b1 b2bd
00000340: 9bb0 f3bd 34e3 44be bf3e d5bd f856 d43b
00000350: 6689 8a3d de06 193d faed dd3d 8c27 973c
00000360: f60f 76bd 5104 06bd 67bc 263d 393e 3ebc
00000370: 4ca5 ae3c 8f26 8a3d a6c0 673c 8094 823d
00000380: 6d78 aabd c35d 163e c163 6abd 0fda dfbb
00000390: a938 003d b43f b63c 8113 063d 2873 913d
000003a0: 9e9f 76be 5cbe 9ebd d8cb 6ebc 4cdc 303c
000003b0: a8e1 f83d 633b 52be 2b68 aabc 036b b0bb
000003c0: c8df eab9 757d 91bd adb8 aa3a b312 be3d
000003d0: 3f20 163a 42bf b5bc 24bb 75bc cd69 01be
000003e0: f48d c7bd 527c 2fbe d484 2abe ff9a 76bd
000003f0: b9d7 c13d c2eb 6fbd f359 2dbd e9be 2abd

network_body._body_endoder.seq_layers.2.bias f4 [128]
0.06395673 -0.1437708 -0.10399402 -0.1995622 -0.07601147 -0.17280467 0.027584676 0.15829942
0.10774938 0.045947615 0.12171504 0.14204346 -0.10051234 0.062223304 0.06426858 0.012245695
0.15292184 0.08007384 -0.022137243 0.018017136 0.11082623 -0.031737596 -0.02400851 0.02433165
0.104995936 0.10517213 -0.1772269 0.13962099 -0.12326926 -0.032858785 0.018697072 0.11879304
0.14886922 0.09134835 -0.06334433 0.065580085 -0.011799143 0.1392436 0.081586 0.026662793
-0.14075692 0.15211797 0.057048 0.00097600516 -0.10960463 -0.02488763 0.1264235 0.16695921
-0.17196816 0.17639767 0.15898685 0.13699818 -0.18939912 0.06731762 -0.028971666 -0.09913602
0.044528738 0.09201715 -0.012475991 0.11056353 -0.13875571 0.08443444 0.06103952 -0.0056953947
0.109388456 0.15867105 0.06593875 -0.1259628 0.13425058 -0.08721291 -0.20146433 0.1246275
0.1190188 -0.12822397 0.13794325 -0.20527287 0.15985468 0.029292632 0.12781489 -0.18289773
-0.09501198 -0.1556924 -0.016071135 0.13369793 0.15887517 -0.015632624 0.05663173 -0.035766564
0.02802001 0.0049442155 -0.21274565 -0.054529548 -0.0099040605 0.13395558 -0.070131525 -0.098161414
-0.042430867 0.05412501 0.030793836 0.10466717 -0.05707385 -0.19415547 -0.051085792 0.013366097
-0.19207649 0.06373197 -0.13741301 -0.21704827 -0.13839824 0.13514352 -0.0064553404 0.10392796
0.061367612 0.0023021377 -0.13137728 0.13647364 -0.036063258 0.13063592 -0.2047716 -0.11308998
-0.16334839 0.038122993 -0.08905555 0.08542129 -0.15213679 0.123024985 0.016252305 0.14023808
00000000: bffb 823d a738 13be d1fa d4bd 095a 4cbe
00000010: e7ab 9bbd b5f3 30be 42f9 e13c 3e19 223e
00000020: b5ab dc3d 9133 3c3d bc45 f93d d773 113e
00000030: 6ad9 cdbd dddd 7e3d 3f9f 833d 2ba2 483c
00000040: 8b97 1c3e c1fd a33d 2a59 b5bc ac98 933c
00000050: ddf8 e23d 48ff 01bd 7fad c4bc 2b53 c73c
00000060: 1c08 d73d 7c64 d73d f87a 35be cef8 0e3e
00000070: 9874 fcbd ef96 06bd 9a2a 993c c449 f33d
00000080: 2c71 183e d814 bb3d acba 81bd da4e 863d
00000090: 3151 41bc e095 0e3e 9016 a73d ee6b da3c
000000a0: 9522 10be d0c4 1b3e 2aab 693d 99da 7f3a
000000b0: 6478 e0bd 25e1 cbbc 2975 013e 5bf7 2a3e
000000c0: 6c18 30be 97a1 343e 73cd 223e 4049 0c3e
000000d0: d8f1 41be d2dd 893d fd55 edbc d307 cbbd
000000e0: c463 363d 7d73 bc3d 1968 4cbc 226f e23d
000000f0: fa15 0ebe f7eb ac3d 9304 7a3d 6fa0 babb
00000100: 0e07 e03d aa7a 223e e50a 873d 64fc 00be
00000110: fc78 093e af9c b2bd aa4c 4ebe b43c ff3d
00000120: 21c0 f33d 254d 03be ff40 0d3e 0d33 52be
00000130: f2b0 233e 1af7 ef3c e8e1 023e 8b49 3bbe
00000140: a495 c2bd d46d 1fbe 9da7 83bc 1ce8 083e
00000150: 2cb0 223e fd0f 80bc acf6 673d f67f 12bd
00000160: 388a e53c 1603 a23b ffd9 59be 605a 5fbd
00000170: a444 22bc a72b 093e 1ea1 8fbd da08 c9bd
00000180: fdcb 2dbd 30b2 5d3d 5b43 fc3c be5b d63d
00000190: 45c6 69bd b1d0 46be 563f 51bd 79fd 5a3c
000001a0: b3af 44be e885 823d ffb5 0cbe e741 5ebe
000001b0: 45b8 0dbe 1063 0a3e 5287 d3bb 2fd8 d43d
000001c0: 9b5c 7b3d 76df 163b c487 06be bfbf 0b3e
000001d0: 11b7 13bd 6cc5 053e a5af 51be b89b e7bd
000001e0: cd44 27be db26 1c3d c262 b6bd 5bf1 ae3d
000001f0: bfc9 1bbe 86f4 fb3d 8e23 853c 929a 0f3e

action_model._continuous_distribution.log_sigma f4 [1, 3]
-0.06918246 -0.5020449 -0.09498806
00000000: 89af 8dbd 0486 00bf 1a89 c2bd

action_model._continuous_distribution.mu.weight f4 [3, 128]
-0.068924315 0.029369801 0.010869478 0.06925426 -0.047661558 0.040070564 -0.0031826473 0.1419979
-0.01064087 0.029854434 0.06090787 0.03241925 -0.098792516 0.038602468 0.0045957346 0.01573342
-0.15812136 -0.11100128 0.10805237 -0.06621956 0.025465434 -0.06693369 -0.0023298569 -0.099152625
-0.12412795 -0.065368615 0.04740275 0.15397905 -0.023665454 0.08391883 -0.071788445 0.0924766
0.020993644 -0.08229517 0.027364403 -0.053096406 -0.070127785 0.070675656 0.019204296 0.05186011
0.062408056 -0.11319323 0.0645779 0.042156797 0.06859575 0.033362847 0.02353684 0.00950511
0.018054536 -0.016341902 0.06465842 -0.06556816 0.054441113 0.07227058 0.025362179 0.043725125
0.07200471 0.019341985 -0.13473271 -0.03793529 0.0020900208 0.021001738 0.14804421 0.05052125
0.007825263 0.016502261 0.040461306 -0.02541932 0.11573404 0.057096925 0.0326421 0.0547366
-0.063103884 -0.0100321295 0.00074174185 0.01614764 0.08112427 -0.10662156 0.0911947 0.04250267
0.011167921 0.023930995 0.05298457 -0.12011974 -0.07913484 0.035148893 -0.12523502 0.03218583
0.064815804 0.041947495 0.04247294 -0.050290983 0.043552015 -0.056762498 0.054561157 -0.04978529
0.034962166 0.04389148 -0.018663894 -0.09431682 0.0012493369 0.03894285 0.055429026 0.05215293
0.01457955 -0.08978261 0.022590479 0.02636368 0.0074998043 -0.057629563 0.056454346 0.040221814
0.099663146 0.06483375 0.0055256723 -0.05161316 -0.020668978 -0.055198766 0.02021415 0.034240954
0.032865714 -0.020336509 0.04335217 -0.039646883 0.027736777 -0.097940765 0.052908998 0.07416768
-0.015827172 0.06514232 0.019178618 0.13513432 0.029635336 0.11755183 0.006040103 -0.036919262
-0.035779223 -0.010254443 -0.04924875 -0.041557338 0.10780355 -0.03135464 -0.013340927 0.012628291
-0.028847678 -0.016974075 0.011376082 0.032042038 -0.06323452 0.067410424 0.003704492 -0.01573321
-0.04842422 -0.027392406 0.11218749 -0.049114548 0.044723447 0.0066255936 -0.011792929 -0.028784657
-0.0660529 -0.014542011 0.0076529044 0.0079063075 0.013555999 -0.07384662 -0.015526886 -0.01764901
0.085947834 -0.03128393 -0.009340553 0.0013812259 0.06260137 0.0010937292 -0.059146404 -0.06962564
0.14268307 -0.09059711 -0.07291213 -0.054338373 0.09087758 -0.011939929 0.004142748 0.031453446
-0.0064080423 -0.023247104 0.04871808 -0.0036248316 0.1021316 -0.023033382 -0.03582779 0.009886834
-0.024980603 -0.06419514 -0.034301545 0.08046548 -0.030187815 0.03601126 0.15290312 -0.057548605
-0.029433314 0.051177196 -0.06991253 0.13786301 -0.06269137 0.02245317 -0.048078552 0.06576089
0.038400404 0.120946266 0.009686984 -0.04712174 -0.054334633 0.0073393667 0.01214881 0.006148655
-0.010350897 0.0027906152 0.1620036 0.027531127 0.013319714 -0.05615882 0.007746995 0.060752917
0.019425342 -0.017227901 0.0015001581 -0.01789659 0.0360775 0.08015298 0.03122134 0.0024653284
0.15521139 0.00052271754 0.07531397 0.106995836 0.08281749 -0.03771289 0.045341365 -0.08837039
-0.02174369 0.010143219 0.079052635 -0.032569617 0.022778163 -0.020714834 0.1697867 0.043599743
0.082318686 -0.0068265633 0.0366961 -0.015493831 0.05710785 -0.027368004 0.0025650458 -0.04638213
00000000: 3128 8dbd f098 f03c e515 323c 2dd5 8d3d
00000010: c438 43bd 0821 243d f693 50bb e667 113e
00000020: 0b57 2ebc 4991 f43c 887a 793d 0cca 043d
00000030: bb53 cabd 9f1d 1e3d d197 963b 60e3 803c
00000040: 91ea 21be a454 e3bd 904a dd3d 1f9e 87bd
00000050: e39c d03c 8814 89bd 83b0 18bb 8810 cbbd
00000060: cb36 febd fbdf 85bd 6329 423d afac 1d3e
00000070: 0ede c1bc a3dd ab3d d205 93bd 5f64 bd3d
00000080: ddfa ab3c 5f8a a8bd 502b e03c 9e7b 59bd
00000090: 289f 8fbd 66be 903d 5452 9d3c 446b 543d
000000a0: 979f 7f3d dad1 e7bd 6b41 843d 9bac 2c3d
000000b0: ee7b 8c3d 7ba7 083d 55d0 c03c 52bb 1b3c
000000c0: 1be7 933c 74df 85bc a26b 843d 9948 86bd
000000d0: a5fd 5e3d 9902 943d 58c4 cf3c 1e19 333d
000000e0: 3577 933d 1573 9e3c 5ff7 09be 0962 1bbd
000000f0: bbf8 083b d60b ac3c e798 173e 5fef 4e3d
00000100: 8835 003c c02f 873c c1ba 253d 2e3c d0bc
00000110: f805 ed3d 77de 693d b9b3 053d 7c33 603d
00000120: 9c3c 81bd cd5d 24bc 7471 423a 0e48 843c
00000130: 7b24 a63d 685c dabd 49c4 ba3d 4817 2e3d
00000140: a8f9 363c ef0a c43c 5906 593d 5701 f6bd
00000150: 7211 a2bd 49f8 0f3d 9c3d 00be 4ad5 033d
00000160: 26be 843d 23d1 2b3d 1bf8 2d3d ebfd 4dbd
00000170: 9963 323d cb7f 68bd 857b 5f3d a9eb 4bbd
00000180: 7d34 0f3d 8dc7 333d 06e5 98bc 2d29 c1bd
00000190: cac0 a33a 8a82 1f3d 8c09 633d 509e 553d
000001a0: 11df 6e3c f2df b7bd ab0f b93c a5f8 d73c
000001b0: ebc0 f53b fa0c 6cbd ac3c 673d a1bf 243d
000001c0: 311c cc3d 8fc7 843d b310 b53b 5268 53bd
000001d0: fd51 a9bc 1a18 62bd 2598 a53c 3e40 0c3d
000001e0: 339e 063d c098 a6bc 0c92 313d c564 22bd
000001f0: 3d38 e33c 2b95 c8bd 1bb7 583d 3ae5 973d
00000200: fca7 81bc 5669 853d 7a1c 9d3c a760 0a3e
00000210: cec5 f23c 04bf f03d 0eec c53b a738 17bd
00000220: 3c8d 12bd 4002 28bc 0fb9 49bd 0738 2abd
00000230: 1cc8 dc3d b96d 00bd e793 5abc e4e6 4e3c
00000240: f751 ecbc 370d 8bbc bf62 3a3c 833e 033d
00000250: 1a81 81bd 7a0e 8a3d 10c7 723b efe2 80bc
00000260: 7a58 46bd 0a66 e0bc 8ec2 e53d 562c 49bd
00000270: ef2f 373d 821b d93b 2137 41bc cdcd ebbc
00000280: be46 87bd 9d41 6ebc 37c5 fa3b 7589 013c
00000290: fb19 5e3c e63c 97bd 7b64 7ebc a894 90bc
000002a0: 6b05 b03d 9423 00bd 1e09 19bc 400a b53a
000002b0: 2635 803d 765b 8f3a 8043 72bd e397 8ebd
000002c0: 831b 123e fa8a b9bd f452 95bd ea91 5ebd
000002d0: 061e ba3d b19f 43bc e4bf 873b 54d5 003d
000002e0: 8efa d1bb b670 bebc 9c8c 473d 958e 6dbb
000002f0: 5f2a d13d 81b0 bcbc 29c0 12bd 63fc 213c
00000300: 1fa4 ccbc be78 83bd c77f 0cbd 16cb a43d
00000310: 704c f7bc 8b80 133d a392 1c3e 16b8 6bbd
00000320: 221e f1bc 2e9f 513d 4d2e 8fbd f62b 0d3e
00000330: 5564 80bd b6ef b73c 04ee 44bd a5ad 863d
00000340: be49 1d3d adb2 f73d 28b6 1e3c ba02 41bd
00000350: fe8d 5ebd 127f f03b cd0b 473c a87a c93b
00000360: cf96 29bc c1e2 363b 46e4 253e f588 e13c
00000370: ee3a 5a3c ca06 66bd 81da fd3b 0dd8 783d
00000380: e521 9f3c 8721 8dbc f4a0 c43a df9b 92bc
00000390: 00c6 133d 3f27 a43d e5c3 ff3c 5991 213b
000003a0: bcef 1e3e fb06 093a 363e 9a3d a220 db3d
000003b0: 379c a93d d578 1abd deb7 393d 89fb b4bd
000003c0: d31f b2bc be2f 263c 59e6 a13d b867 05bd
000003d0: 4599 ba3c 28b2 a9bc 91dc 2d3e a595 323d
000003e0: b396 a83d 5db1 dfbb a64e 163d d6d9 7dbc
000003f0: ece9 693d dd32 e0bc 541a 283b 30fb 3dbd

action_model._continuous_distribution.mu.bias f4 [3]
-0.030274952 -0.15047766 -0.009039197
00000000: 2d03 f8bc d116 1abe 2419 14bc

onnx::Div_51 f4 [12]
18.653217 19.103361 18.25587 23.492899 0.83535945 23.404533 23.375193 0.0034791958
23.676556 19.66082 19.392403 0.080718726
00000000: ca39 9541 afd3 9841 060c 9241 75f1 bb41
00000010: 1eda 553f 7c3c bb41 6500 bb41 3803 643b
00000020: 9669 bd41 5c49 9d41 a423 9b41 dc4f a53d
