TWP_2/results/StaticDragDrop/RobotArm/RobotArm-499973.pt (torch, 428701 bytes, 36 tensors)

network_body._body_endoder.seq_layers.0.weight f4 [128, 1]
000000 6d 58 a1 3f 33 6a 1b bf 98 1e 41 be 8a 23 a3 bf
       1.260511 -0.6070892 -0.18859327 -1.2745221
000010 7e 80 97 3f 26 41 9b 3e f8 aa c2 3f 58 c7 ac be
       1.1836088 0.30323142 1.5208426 -0.33745837
000020 4e 9f 7e bf a7 c2 1a 3f b3 a5 5b bf 62 53 e4 bf
       -0.9946183 0.60453266 -0.8579971 -1.7837946
000030 e5 a0 27 be c5 95 7c 3f 8b 63 08 3f a3 af ce bf
       -0.1636997 0.9866603 0.5327689 -1.614735
000040 38 9e ad bd c4 83 4b bf a7 67 94 bf 96 9f 77 3d
       -0.084774435 -0.79497933 -1.1594132 0.060454927
000050 c8 cc 1c c0 67 f4 46 bf df 18 63 3f 92 2c 2d 3d
       -2.4499989 -0.7771668 0.88709825 0.042278834
000060 bb dd 6e 3e 84 42 e6 3f 7f 47 84 bf fd ee a0 3c
       0.23326771 1.7989049 -1.0334319 0.019645208
000070 2d f0 d6 be e7 db f7 be 33 83 41 3f f1 b3 6a bf
       -0.41980115 -0.4840996 0.7559082 -0.9168082
000080 26 e5 8b bf da 06 0f bf 06 e0 38 bf a8 d0 c7 bf
       -1.0929306 -0.5586983 -0.7221683 -1.5610552
000090 21 67 23 3e f8 ba 2b c0 88 41 3e be ee 40 0a be
       0.1595731 -2.6832867 -0.18579686 -0.13501331
0000a0 4a 10 00 bf 54 8b 9d be 8a 88 50 bf 72 8b 7e bd
       -0.50024855 -0.3077036 -0.8145834 -0.062144704
0000b0 46 0a 0a be 15 14 83 3f e5 2c 01 bf ce 54 c4 3f
       -0.13480482 1.0240504 -0.5045913 1.533838
0000c0 96 03 78 3f c5 e6 57 be 99 de 75 bd 61 29 4e 3f
       0.9688047 -0.21084125 -0.06002674 0.8053189
0000d0 1a 59 4a 3f 5b 50 73 3f 5d a6 0e 3f e9 2f 09 3f
       0.7904221 0.9504449 0.557226 0.5358873
0000e0 e5 a7 cf bf 83 24 39 3e b8 97 6e bf 21 80 46 bf
       -1.6223112 0.18080334 -0.93200254 -0.7753926
0000f0 54 b7 d7 bf 4f a9 06 c0 94 15 a1 3f 14 5f a2 be
       -1.6852822 -2.1040838 1.258471 -0.31713164
000100 06 e8 45 3f 40 a9 60 3f 03 c0 cd bf 2d 06 b0 bf
       0.77307165 0.87758255 -1.6074222 -1.3751885
000110 b3 1f 53 3e b5 13 38 bf 69 34 11 bf 0d 47 a4 bf
       0.20617561 -0.7190507 -0.56720597 -1.2834183
000120 20 1b 93 be b8 e4 98 3f a3 ab d1 3e d4 a7 b9 be
       -0.28731632 1.19448 0.4095126 -0.36260855
000130 28 f8 7a 3d 4e 3e 5c bf 57 8c 15 c0 ba 90 30 3f
       0.061271816 -0.8603257 -2.3366907 0.68970835
000140 8c e2 ac be f6 bb f1 3e d8 42 75 bf 56 96 89 3f
       -0.33766592 0.47213715 -0.9580512 1.0749004
000150 48 9f 56 be d0 8b f8 be 21 be e9 bf 89 e5 2d 3f
       -0.20959198 -0.48544168 -1.8261148 0.6792837
000160 77 1b 0c bf 46 47 37 bf 1b bd 09 3f ca 8d e1 be
       -0.5472941 -0.7159313 0.5380418 -0.4405349
000170 5d 84 bd 3e 9f 72 25 be 41 56 b6 3f be 5b f3 be
       0.37015048 -0.16157006 1.4245073 -0.4753093
000180 13 79 c8 3e ff 36 35 3f 12 62 98 3d 58 18 09 bf
       0.39154872 0.7078704 0.074405804 -0.5355277
000190 fc 75 be 3f 34 70 4e bf 79 ea 71 3e f9 22 a7 bf
       1.4879756 -0.8063996 0.236246 -1.3057548
0001a0 3b 7e 81 3e dd d9 0c c0 9c c6 0d 40 b3 30 1d bf
       0.2529162 -2.2007973 2.2152472 -0.61402434
0001b0 71 10 9b 3e 63 ba 21 c0 6f ce bd 3f fd d4 00 3f
       0.3028598 -2.5270011 1.4828624 0.50324994
0001c0 b3 0e 08 3f 10 a1 3f 3f a3 65 0a c0 a1 79 cd 3e
       0.5314743 0.74855137 -2.1624534 0.40131858
0001d0 e3 6b 48 bf ff 8c a9 be 99 8d fd 3d cb c3 ec bf
       -0.7828962 -0.33115384 0.12380523 -1.8497251
0001e0 a7 2f de 3e 9f ad 9c 3f 1f 30 bf bf ab 88 1b 3f
       0.4339573 1.2240485 -1.493656 0.60755414
0001f0 27 0b 1f 3c 4f 03 ae be cc 26 70 3f 81 6d 85 3f
       0.009707249 -0.339869 0.938092 1.0424043

network_body._body_endoder.seq_layers.0.bias f4 [128]
000000 43 d8 33 bc 4c fc de 3c 10 19 7d bc 7b c4 d7 bc
       -0.010976854 0.027219914 -0.01544787 -0.026338806
000010 59 cc 01 3d 39 c7 c4 3c f1 69 7a bc c7 0a 94 bd
       0.03168902 0.024020778 -0.015284047 -0.07228618
000020 80 fd 65 bd 6d a0 ec 3c 92 ef f4 3b 93 f7 aa 3a
       -0.05614996 0.02888509 0.007474848 0.0013043754
000030 93 85 49 bd 8b cf 95 3c 07 d0 ea bc 2b d4 25 bd
       -0.049199652 0.01828744 -0.028663648 -0.040485542
000040 05 76 fe 3c ec a4 f1 bc 81 23 ab 3c 9a 38 11 bc
       0.031062135 -0.029497586 0.020890953 -0.0088635925
000050 93 f6 72 3c 8f c9 5a bc eb e9 28 3c ff 45 22 bc
       0.014829296 -0.013353719 0.010309677 -0.009904384
000060 39 e2 7d bc 61 87 69 3b 81 ac 2a bd 3c 8d 71 3d
       -0.01549583 0.003563367 -0.04166842 0.058972582
000070 0c 7e 4e bd 04 28 e5 bc 9f b9 ad 3c ee 12 a8 bc
       -0.050413176 -0.027973182 0.021206675 -0.020516839
000080 c3 27 d4 3c 38 61 35 bd 2d c4 22 bd f4 4b f2 38
       0.025897866 -0.04428217 -0.03973787 0.000115536066
000090 a3 c1 e1 bb b7 ea b6 bb 7a 6f 4c bd 1e c7 09 bc
       -0.0068895384 -0.0055821794 -0.049911 -0.00840929
0000a0 0e 57 d3 3c c9 8d fe bc 6b 03 ff bb 4f 08 2f bd
       0.025798347 -0.031073468 -0.00778239 -0.042732533
0000b0 11 f2 25 bd d0 ea d2 bb d3 ec 5a bd dd 20 16 bc
       -0.040514056 -0.0064366832 -0.05344851 -0.009163109
0000c0 69 95 0b 3d 5c f5 44 bd 1c f5 06 bd 62 0b 44 bc
       0.034078036 -0.048085555 -0.0329486 -0.0119656045
0000d0 55 e4 43 3c e7 d9 47 3c ac d2 25 bd 3b bf ff bc
       0.011956294 0.012197948 -0.040484115 -0.031219115
0000e0 c0 88 0e b8 83 a9 a0 3c 19 65 0c 3d 5a 9f 1a bd
       -3.3982797e-05 0.01961208 0.0342761 -0.037749626
0000f0 91 de e6 bc f6 3d 90 3c ea a4 f8 bc ba 53 56 3c
       -0.0281823 0.01760767 -0.030352075 0.013081485
000100 42 d9 61 bb 44 f8 81 3c 56 b7 c6 3c f9 7e 85 bc
       -0.003446177 0.015865453 0.024257343 -0.016295897
000110 57 0f 5f 3c d5 32 bf bc b1 45 5d bc 43 6e cd 3c
       0.013614497 -0.023339668 -0.013505385 0.025076991
000120 07 ec f7 bc e8 4b 30 3d a4 1e 2c bd d4 3e bd bc
       -0.030263914 0.04304114 -0.04202141 -0.023101248
000130 3a 83 dc bc 84 cb 1d bd 34 cb 2a 3d d1 68 39 3d
       -0.026918042 -0.038524166 0.041697696 0.045265976
000140 96 8c 56 3c 72 65 01 3d f3 fe ed bb f4 a2 e4 3c
       0.013095042 0.031590886 -0.0072630583 0.027909733
000150 2f 8d bb 3c 19 48 90 bd 2a 2e 42 bd ea d6 01 3d
       0.02289447 -0.070450015 -0.047407307 0.0316991
000160 98 1d e4 bc db bb b3 39 de f4 41 3d 8f 6c 05 bd
       -0.027846143 0.00034281504 0.047352664 -0.032574233
000170 7f d7 8f bb a6 29 2f bc d6 ed aa 3b ed 8c 12 3d
       -0.004389703 -0.010691082 0.0052163405 0.03577893
000180 78 74 90 bb 85 c9 09 3d e8 9b 7d 3d 5c c3 28 bd
       -0.0044084154 0.03363945 0.061916262 -0.041201934
000190 b2 d8 63 3c 74 90 c2 3b d9 6e 34 3c da 0a f3 3c
       0.013906645 0.0059376303 0.011012756 0.02966826
0001a0 d7 64 12 bd 39 6f 90 3c 63 56 4c 3d bd 9c 88 3c
       -0.0357407 0.01763116 0.049887072 0.016676301
0001b0 8a da 77 3b ac 58 8a 3c d9 e8 92 3c 9f 0c 39 3d
       0.0037819468 0.016887985 0.017933296 0.045178052
0001c0 3c 2e 15 bd af 67 84 bb f4 9f b3 bc 14 a5 bd bb
       -0.036421046 -0.0040406804 -0.021926858 -0.005787501
0001d0 6e 1f 06 bc 20 30 3b bd 4e 83 83 bd 37 a0 df bc
       -0.008186204 -0.045700192 -0.06421529 -0.027298076
0001e0 ce 03 49 3a 6e 0c a8 bc 43 7b 6e bc f3 79 5d 3c
       0.00076681084 -0.02051374 -0.014555755 0.0135178445
0001f0 cd 21 1a 3d 0e cd 19 bb 47 36 37 bd 2e 6a 2c bd
       0.03762989 -0.002346817 -0.044729497 -0.04209345

network_body._body_endoder.seq_layers.2.weight f4 [128, 128]
000000 51 b5 0b bd 8d 6b 35 3d 1b 70 4c 3e 74 d6 f4 bd
       -0.034108464 0.04429202 0.1996464 -0.11954966
000010 6e 3a 8d 3d 7d 86 69 bc 5d a4 83 3d 5f cc 9b 3d
       0.0689591 -0.014253256 0.06427834 0.0760734
000020 57 c0 a5 bd 87 73 d2 3c 26 4c d3 3d 8a 5f 4f 3c
       -0.080933265 0.025689853 0.103172585 0.012657056
000030 16 da 4c 3e 1a 50 99 b9 d5 8d 7f 3c 2d 89 6b 3c
       0.20005068 -0.00029242114 0.01559778 0.014375967
000040 d7 0f 10 be 8c 7c e6 bd 03 64 c3 3d 46 fa 0c bd
       -0.14068542 -0.11254224 0.0954056 -0.034418367
000050 e2 b4 35 3e d2 4b d9 3a 01 66 bf 3d f8 99 66 3d
       0.17744783 0.0016578382 0.093456276 0.05629918
000060 ea 78 cf bd 18 c8 d1 3c 72 1c 4f 3c ed d5 55 bc
       -0.101304844 0.025608107 0.012641059 -0.013051492
000070 5b 22 c0 3d 23 b8 af 3a ef 84 ea bc d0 d7 9d bd
       0.09381553 0.0013406317 -0.02862784 -0.077071786
000080 73 31 77 3c 2c 6b fa 3d a8 77 08 bd e7 45 31 be
       0.015087473 0.12227473 -0.033317238 -0.17311822
000090 12 03 06 be f1 3b 16 be 1c c1 12 3e bc ef 52 3e
       -0.13087109 -0.14671303 0.14331478 0.20599264
0000a0 fe cf 9f bc 6d 56 fe 3d b3 b5 25 3d e5 cd cc 3d
       -0.019508358 0.12418828 0.040456485 0.10000209
0000b0 30 d0 93 3d 6b b3 55 3d 78 f4 fa 3d 87 62 26 3e
       0.07217443 0.05217306 0.1225366 0.16248523
0000c0 46 88 f4 3d 78 96 01 3e d2 18 99 3c c6 3f 0f 3e
       0.119400546 0.12655056 0.018688593 0.13989171
0000d0 9c 53 c4 3c 61 b0 ab bd 7e 06 b9 3c 28 1a 5e 3d
       0.02396565 -0.08383251 0.022586104 0.054224163
0000e0 b2 07 b3 39 e5 a0 f7 3c 08 7b 0a 3d 24 51 c0 bb
       0.00034147274 0.030228088 0.033808738 -0.0058690477
0000f0 1b 3a ed 3c 1c ad 6e bd 18 c7 cf bd 53 d8 1d 3d
       0.02895837 -0.05827056 -0.10145396 0.03853638
000100 2c 4f 76 3d c7 4d e1 3b 49 83 15 3d e5 b7 4f be
       0.060134098 0.006875727 0.036502156 -0.20284994
000110 40 8e 1e be 5c 9b f5 bc c2 11 90 bd 5e 73 49 bb
       -0.15483952 -0.029981308 -0.07034637 -0.003073893
000120 d8 1f 62 3e 37 c0 2b bd 2f 2c 8e 3d 38 87 c4 bd
       0.2208246 -0.041931357 0.06942021 -0.095961034
000130 1a a0 27 be d2 93 42 bd 5f 1a c8 bc 6f 5d ac bc
       -0.16369668 -0.047504254 -0.024426637 -0.021040646
000140 14 af 0a 3e d6 1b cf 3d 52 99 f1 bd 39 3f c6 bd
       0.1354335 0.10112731 -0.11796822 -0.096800275
000150 a4 9e b8 3d f3 0f 1d be 8c db 74 be 40 3c 99 bc
       0.09014633 -0.15338115 -0.23911875 -0.018705487
000160 e6 be 3e 3e b8 69 e4 bb f9 f5 bb 3c f7 6a 08 3d
       0.1862751 -0.0069706105 0.022944437 0.033305135
000170 4c 10 f1 bd 40 d2 ca bd 8c 61 97 3c 29 26 a8 3d
       -0.117706865 -0.09903383 0.018479131 0.082104035
000180 4a 31 99 3c 3c 47 a1 bc 21 f6 d4 3c 14 62 7c 3d
       0.01870026 -0.019687288 0.02599627 0.061616972
000190 62 a6 d0 3d f1 5f 5c 3c 41 a9 29 bd 2c 2d f7 bd
       0.10187985 0.013450609 -0.04142118 -0.12069163
0001a0 ba 15 3c 3d f4 6f 96 3d c7 a4 35 3d 60 54 09 3c
       0.045919158 0.07345572 0.044346597 0.008381933
0001b0 40 5e 18 3d c9 8f 0c be ff e9 bf 3d 1d d2 a9 bd
       0.03719926 -0.13726725 0.09370803 -0.08292029
0001c0 74 19 7d 3d 1f f6 d0 bc b0 16 59 bc 75 d6 41 3c
       0.061791852 -0.025507985 -0.013250038 0.011830916
0001d0 8a de 29 be eb 99 a2 bb 5f c9 ff 3a bc 88 0b 3d
       -0.16588798 -0.004962196 0.0019514969 0.034065947
0001e0 e1 a8 b3 3d c6 55 e5 3c 36 83 36 be a1 91 99 bd
       0.087724455 0.027995002 -0.1782349 -0.0749848
0001f0 4a 47 ac bd d2 1d 4d bd bf 8c 27 3e 51 58 2f 3d
       -0.08412035 -0.050077267 0.16362284 0.042808834
000200 d0 b2 87 bd c7 d5 24 be 4f b7 6d 3d ec af ba 3d
       -0.06625903 -0.16097175 0.058036145 0.09115586
000210 5d 7c 81 3d 94 45 d9 bc 04 a4 af bd 6f 7e e5 3d
       0.063225485 -0.026522435 -0.085762054 0.11205756
000220 cc ac 5f bd 39 83 1b 3d 25 8c 49 3c 9b 17 c1 bc
       -0.05460815 0.03796694 0.0123014795 -0.023570826
000230 50 4d 90 bd d3 81 85 3d db b2 49 bd 6d 10 21 3d
       -0.07045996 0.06518903 -0.049242835 0.039322305
000240 80 6a e1 3a c1 68 17 3e 2b 7d cd bb c7 c4 07 be
       0.0017197877 0.14786054 -0.0062710247 -0.13258658
000250 da 55 3e 3d 24 8f 23 be 4f f6 4a 3d ef 33 82 bd
       0.046468593 -0.15972573 0.049551304 -0.06357562
000260 31 29 89 bd 61 28 d0 bd 75 ee 1b 3e 1b b7 0d 3e
       -0.0669731 -0.10163952 0.15227683 0.1383938
000270 41 1a 24 bd 94 6f 41 3c 25 32 52 3d bd 5f 95 bd
       -0.0400641 0.011806387 0.051317353 -0.07293651
000280 84 66 1b 3e 8e 6f 2a bc ef 45 0f 3c db 51 08 3d
       0.15175825 -0.010402573 0.008744701 0.03328119
000290 fe a1 8d bd 8f a7 88 bc 61 b9 a5 3d 97 b0 dc bd
       -0.06915663 -0.01668146 0.08091999 -0.10775869
0002a0 c8 09 5c bd 93 30 8f bc ad 0f aa bd 44 f6 8e 3d
       -0.053720266 -0.017479217 -0.08303771 0.06980565
0002b0 df 3b 2e be a5 e9 f0 b9 a4 1e 6b bd 56 df 10 bd
       -0.17015027 -0.00045950446 -0.057402268 -0.03536924
0002c0 3c 0c 79 3d 23 18 d3 bd a3 ce e8 3d 69 a6 c2 3c
       0.060802683 -0.10307338 0.11367538 0.023760991
0002d0 a7 98 d6 3c 6d 88 e3 bc b5 b1 f9 3d 43 08 69 3d
       0.026195837 -0.027775014 0.12192098 0.056892645
0002e0 d3 a3 bc 3d 66 d2 02 3d d0 8d de bd 82 ec 83 3d
       0.092109345 0.031938933 -0.10866892 0.06441595
0002f0 6e d5 c9 3b 6e 5f 8c 3d 2b bc 30 bc a3 cb 0b 3e
       0.006159476 0.06854139 -0.01078705 0.136519
000300 8f ec 6d bd f8 b2 60 bc ee 35 02 be 2c 25 bb 3c
       -0.058086928 -0.0137145445 -0.12715885 0.022844873
000310 9b 8b 29 ba 98 67 11 3e 67 86 ac bb ad 1d 84 3d
       -0.0006467641 0.14199674 -0.0052650454 0.06450973
000320 89 d6 17 bb 54 18 91 bb 8f 84 a8 bd 48 c6 dc 3d
       -0.0023168644 -0.004427949 -0.082284085 0.10780007
000330 bf 32 3a 3d 64 af 2c 3d ae 3d 86 bd 47 e4 72 3c
       0.04545855 0.042159453 -0.06554733 0.014824933
000340 e8 e7 95 bd e0 b2 2f bc ea ce 82 bd 3c dc c3 3d
       -0.07319623 -0.0107237995 -0.06387122 0.09563491
000350 f0 a3 18 3d 72 97 f4 3c 13 f4 5c bc 4e 96 4f 3c
       0.037265718 0.029857371 -0.013485926 0.012670113
000360 c7 f4 cb bd 4f 33 e2 bc df fc 00 bd fe 65 ad 3d
       -0.09958797 -0.027612356 -0.031491157 0.08466719
000370 f9 75 6a 3d 3d 5a 44 3e 7c 9a 93 bb 4c 51 7a bc
       0.057241414 0.19175048 -0.0045045 -0.015278172
000380 1f 89 08 3e 3a 82 67 bd 14 e8 ac 3d 53 a4 17 3c
       0.13333558 -0.056520678 0.08442703 0.009255487
000390 9a ea b1 bb 48 a0 0a 3e 57 95 c6 bd 85 ce b2 3d
       -0.005429578 0.13537705 -0.09696453 0.08730797
0003a0 d5 9b b3 3d 8d 86 00 be 93 54 ba 3d be 2a 24 bd
       0.08769957 -0.12551327 0.090981625 -0.040079825
0003b0 73 55 9c bd 02 a3 4f 3e 87 49 12 3e 9a 16 f0 bb
       -0.07633486 0.20277026 0.14285861 -0.007326913
0003c0 08 f5 1e bd e9 3b 8f bc aa 7a e3 3d 57 e1 98 3d
       -0.0388079 -0.017484622 0.11107381 0.07464855
0003d0 79 56 06 3c 74 d6 eb bc 26 0b 3c bd de a3 14 bc
       0.008199328 -0.028788783 -0.04590907 -0.009072272
0003e0 bf af 0d be f3 d0 23 3d eb ca 53 bd 73 62 aa 3d
       -0.13836573 0.03999419 -0.05170719 0.08319559
0003f0 75 b4 0b bd f7 5a dd 3d 2c 8b 44 bd 59 ee d6 3a
       -0.034107644 0.10808366 -0.047984287 0.0016397937

network_body._body_endoder.seq_layers.2.bias f4 [128]
000000 ed 6a 14 bd cb 19 13 3d cc c4 af 3c 01 d4 ab bc
       -0.036234785 0.03591327 0.021456145 -0.020975115
000010 ad 80 29 bd c5 3f 39 3c 14 b1 d7 bc 96 62 91 bd
       -0.04138248 0.011306708 -0.026329555 -0.07098882
000020 99 5a c4 3c 7a df 32 bd 8f ac 79 bc fd 54 b2 bc
       0.023968982 -0.043670155 -0.015238895 -0.021769041
000030 b9 0c d9 bd 39 77 89 bd 6c 62 14 bd 62 af ff bb
       -0.1059813 -0.06712193 -0.036226675 -0.0078028897
000040 49 bc 8c bd 4d 64 2c 3d c7 31 e4 bc 3c 33 a4 bc
       -0.0687185 0.04208784 -0.027855767 -0.020043962
000050 5b 20 bc 3c 5c 99 89 3d 70 7e 75 bd b4 a5 5a bd
       0.022964647 0.06718704 -0.059935033 -0.053380683
000060 60 ee 21 bd f1 9a 10 3d 87 7a 70 bb 16 de 39 3d
       -0.039533973 0.035304014 -0.0036694126 0.045377813
000070 04 f3 22 bd 2b 93 91 3c 43 b4 1e 3c 6a d7 67 3c
       -0.03978254 0.01777037 0.009686532 0.01415048
000080 94 e9 54 bd 44 64 fb 3c a3 81 fe 3c e8 b0 55 bc
       -0.05198057 0.030687459 0.031067675 -0.013042666
000090 d0 4e 72 bd 74 85 af 3c 03 ff 06 bc 65 4c 17 bd
       -0.059157193 0.02142594 -0.0082395105 -0.03693809
0000a0 fc 60 fc bc 4e a1 05 bd 8e c8 ec bc 97 13 35 bd
       -0.030807965 -0.032624535 -0.028904226 -0.044208135
0000b0 9b 8e 20 bd 38 a2 ef bc 1e d5 2c bd 17 5f a2 3c
       -0.0391985 -0.029252157 -0.042195432 0.019820733
0000c0 4f 7a 63 3c 65 a6 ee 3c c9 63 72 3d 3f c0 4d 3a
       0.013884141 0.029132077 0.059177194 0.00078487763
0000d0 ec a2 0c bb ef a0 5d 3d a4 fc ad bc a3 b5 2a 3d
       -0.0021459414 0.054108556 -0.021238633 0.04167713
0000e0 d1 e7 19 bd b2 46 a1 3c e9 b3 58 bd 4a 9c 31 bd
       -0.037574593 0.01968703 -0.05290595 -0.04336194
0000f0 cd 0f 14 bc 83 96 cf bb c3 11 04 3d 4a 72 b8 3c
       -0.00903697 -0.006335081 0.0322435 0.022515435
000100 8a b4 26 bd 26 10 52 bc c3 8e 2c bd c6 d4 1b bd
       -0.04069952 -0.012821233 -0.042128336 -0.038044713
000110 b1 d3 11 bd f5 f0 e7 3c 0c cf 54 bd cc d2 2a bd
       -0.035602275 0.02831314 -0.051955268 -0.041704938
000120 1f a9 91 3c d2 67 c7 3c c8 dc 49 bd c0 dd 83 3c
       0.017780839 0.024341498 -0.04928282 0.01609695
000130 22 59 eb ba 02 aa 69 bc 9f 28 1f bc a8 9e 42 bd
       -0.0017955641 -0.014261724 -0.009714275 -0.047514588
000140 89 35 31 3d e4 dc dc bc bf 88 23 bd 51 19 80 bd
       0.043263946 -0.026960798 -0.039925333 -0.06254829
000150 b9 68 0c bd 1d 20 28 bd cb 30 e9 bc ae 77 f6 bc
       -0.03427956 -0.04104625 -0.02846565 -0.030086365
000160 40 13 c8 ba 98 1d d3 bc 1b 87 40 bb 96 f9 e3 bc
       -0.0015264526 -0.025770947 -0.0029377404 -0.027828973
000170 5b 36 8c bd 24 22 93 3d 3e fc 46 3d f2 bb 47 3c
       -0.06846305 0.07184246 0.0485804 0.012190806
000180 58 b6 30 bb cb 47 02 bd 1e af 4b 3d c6 9a 15 bd
       -0.0026964154 -0.03180675 0.04972755 -0.036524557
000190 5d 3e bd bc ce 1c 0c 3b 49 14 fc bc 47 cf 06 3d
       -0.023101026 0.0021379474 -0.030771391 0.03291252
0001a0 cc 0f 84 3c 0b ee 1e bd dc ab b0 3c 28 ec 08 3d
       0.016120814 -0.038801234 0.021566324 0.03342834
0001b0 08 d9 0c bd 07 81 31 ba fd 83 c6 ba 41 79 f6 3c
       -0.034386665 -0.0006771241 -0.0015145537 0.030087115
0001c0 6b 4a 99 3c 1d 05 6c bd 33 c3 af 3c 31 03 7f bd
       0.018712243 -0.057622064 0.021455383 -0.062258903
0001d0 03 85 08 3d 7e f4 7e 3d dd 34 3e bd ff 8a 34 bd
       0.033329975 0.062244885 -0.046437133 -0.04407787
0001e0 3a fb 14 3d ad 1e ef 3c 85 ed ee bc 4f d3 4b bd
       0.0363724 0.029189432 -0.029165993 -0.049762066
0001f0 4e a6 49 bd c9 d5 b4 bb cc 84 c1 3b 52 e8 31 3d
       -0.049230866 -0.0055186492 0.005905723 0.04343445

action_model._continuous_distribution.log_sigma f4 [1, 3]
000000 57 df 9c 3c d5 63 80 3c 6e 91 f4 3c
       0.019149465 0.015672604 0.029854503

action_model._continuous_distribution.mu.weight f4 [3, 128]
000000 4c b0 10 3d a2 5e 47 3b 2c a8 df 3c 89 bd 8d 3c
       0.03532438 0.0030421396 0.02730187 0.017302291
000010 2f b9 6c bc a2 54 9d 3d 49 7e 78 3d a0 12 de bd
       -0.014448448 0.07682158 0.06066731 -0.10843396
000020 8e 55 ce 3b a3 db a1 3d e4 a1 33 3b b0 bc 1b bc
       0.00629682 0.079032205 0.0027409727 -0.009505436
000030 5a f5 74 bd 40 a3 ba bd 68 73 d4 3c 55 32 b4 3d
       -0.059804298 -0.09113169 0.025933936 0.087986626
000040 22 de d3 bd d9 6c 06 bd c0 19 33 bb d9 fe 54 bc
       -0.10345103 -0.03281865 -0.002732858 -0.013000214
000050 d7 0e 6c bc 53 08 64 3d 8d 7c fd bc 8e 98 5c 3d
       -0.014407835 0.055672 -0.03094318 0.053856425
000060 ea 58 90 bc 15 03 dc 3a 5f 21 29 bc 94 96 09 3c
       -0.017620523 0.0016785586 -0.010322898 0.008397717
000070 7a 79 08 bd 22 33 b8 3c d6 87 8c 3d 88 c4 2c 3c
       -0.033318974 0.02248532 0.06861846 0.010544904
000080 bc 31 5f 3c 1e f1 ca 3a 7a 43 5a 3c 83 01 27 bc
       0.013622697 0.0015483235 0.013321752 -0.0101932315
000090 0e 56 71 bd 80 8e f9 3c 07 f4 a4 bc 72 67 45 3d
       -0.05891996 0.030463457 -0.020135893 0.048194356
0000a0 0d e2 eb 3b e1 d2 97 bc e7 63 b7 ba cc 5a f0 bb
       0.007198578 -0.018533172 -0.0013991565 -0.0073350426
0000b0 37 30 88 bc e4 73 57 bc 18 f2 83 3d 05 af 4f 3d
       -0.016624553 -0.013150189 0.0644266 0.05070402
0000c0 16 f4 9e 3c 25 ca d7 bc 6f af 78 3d 73 76 37 bc
       0.019403499 -0.026341507 0.06071418 -0.011197674
0000d0 f3 7c 63 3c 58 38 91 3d 4b c6 41 bc 37 6e b4 3c
       0.013884771 0.07090825 -0.011827062 0.02202521
0000e0 d2 ca ab bc b9 4b 82 3c 85 0e 87 3d 05 89 ad bc
       -0.020970736 0.015905248 0.06594566 -0.0211835
0000f0 54 1b 91 bb 24 99 3e 3c 6e 06 53 bc 47 75 0b bc
       -0.0044283066 0.011633191 -0.012879951 -0.008511848
000100 4b b9 b3 3c 0b 0f 43 3d 11 fc 49 bd f7 b2 07 bd
       0.02193894 0.047621768 -0.049312655 -0.03312966
000110 10 0b 2f 3d cf d7 5b 3c b0 10 c6 3c af cc 89 3d
       0.04273516 0.013418152 0.02417788 0.067284934
000120 3e b6 ad 3c 78 70 80 3b 0c 9b e1 3b 93 1f 29 bc
       0.021205064 0.0039196573 0.006884938 -0.010322469
000130 57 34 87 3c 0b ad 29 3b 29 95 7e 3b 30 cf 4b 3d
       0.01650445 0.0025890495 0.003884623 0.049758136
000140 62 77 b4 3d 91 8f ad bc 9e c4 8a 3c cb 98 a5 bc
       0.08811833 -0.021186622 0.016939458 -0.020214459
000150 08 23 c1 bc c6 bc ad 3d 33 20 2f bc 55 2a af bb
       -0.023576275 0.08483271 -0.010688829 -0.0053456225
000160 d2 07 f5 bc cb 85 04 bd b7 f6 cf 3b a4 21 1c bd
       -0.029910956 -0.032354157 0.0063465494 -0.03811802
000170 41 61 ba bc 5f b2 a6 3d b5 94 c8 3c e3 d0 17 3c
       -0.022751452 0.0813949 0.024484972 0.009266111
000180 f0 3d ba bb 73 e1 dc 3c 5f b7 23 3d ed 5b 9d bb
       -0.005683653 0.026962971 0.0399698 -0.004802218
000190 cd ec 88 b9 e5 1a af ba 10 7a c4 bb 9c 66 50 bb
       -0.00026116372 -0.0013359456 -0.0059959963 -0.0031799441
0001a0 fa b3 19 3c 2c 86 85 3d 02 9d 0e bd 7d 29 25 3b
       0.009381289 0.06519732 -0.034817703 0.002520173
0001b0 26 59 f8 3c 01 41 6e 3d f0 2f 67 3c b1 0f ce 3a
       0.030315947 0.05816746 0.01411055 0.0015721229
0001c0 24 9b c8 3b fc ba 0e bd 91 86 a0 3d 0e 3f c6 bd
       0.00612201 -0.03484629 0.078381665 -0.096799955
0001d0 83 48 7e 3c 84 79 42 3d 14 2c 4f 3d 08 25 31 bd
       0.015520218 0.047479168 0.050579146 -0.043248206
0001e0 ed b1 0c 3c 2f 41 22 3c e1 ec 79 bd 79 73 90 3d
       0.008587343 0.009903236 -0.06101692 0.07053275
0001f0 a0 87 f7 ba ac ae 5a bc d9 5a ad bc 54 79 c6 bc
       -0.0018885024 -0.013347309 -0.021161484 -0.024227776
000200 b9 07 c9 3b 4e 11 be bc 43 ee 9b 3c 71 b1 ad bb
       0.006134954 -0.02320161 0.01903451 -0.0053006937
000210 b0 a1 0b 3c 1d 2c 4b 3d 89 1c 8c 3d 18 e2 c0 3d
       0.008522436 0.049602617 0.0684138 0.09418124
000220 b9 22 ca bc 9b 76 dd 3d e2 13 e3 3b d7 67 94 3c
       -0.02467476 0.10813638 0.0069298605 0.018115921
000230 1d c8 5f 3d 97 c3 75 3d 52 da 7e 3c 3f 4d 82 3d
       0.054634202 0.060000982 0.015554981 0.0636239
000240 16 12 ac 3d 0b 5b fa bc d8 5d 40 3c e7 12 75 3c
       0.08401887 -0.03056099 0.011741124 0.01495812
000250 6e 6a 7b ba 2a 61 73 3c 89 ea f8 3d 5c 36 f8 3d
       -0.00095907494 0.014854709 0.12154109 0.12119743
000260 d0 67 e8 3c bc 83 b9 bc dd f3 9f bc ad 05 0a bc
       0.028369814 -0.022645824 -0.019525463 -0.008424205
000270 b0 64 7d bb ab 11 52 bb f1 eb 66 3d 80 46 d2 bb
       -0.003866475 -0.0032053988 0.056377355 -0.0064170957
000280 16 10 6e 3c 46 5d 39 bc 4a 50 f5 bb d2 f9 43 bc
       0.014530202 -0.011313742 -0.007486378 -0.011961417
000290 31 e7 c0 3d 21 90 d4 bc c2 53 b0 3c 01 fd 9a 3d
       0.09419096 -0.025947632 0.021524314 0.07567788
0002a0 b0 85 6a 3b e8 ef 70 bb db a5 79 3c be 43 28 3c
       0.003578525 -0.003676409 0.015237297 0.010270057
0002b0 fa f7 b7 3d b2 7d f4 3c aa 3d 99 3d 89 d1 95 bb
       0.08982845 0.029845092 0.074824646 -0.0045720977
0002c0 fd d3 9b 3c 8e 6a aa bc 5e 83 48 3c 6b 0f d9 bc
       0.019021982 -0.020802762 0.012238352 -0.02649661
0002d0 d0 d3 3b bc a9 2d 2d bd 99 05 a6 3b 37 b0 7e bc
       -0.011464074 -0.042279873 0.0050665853 -0.015544943
0002e0 b5 a2 37 bb 48 74 a2 bb 0e 3a c2 3d c8 71 37 bb
       -0.0028020565 -0.0049577095 0.09483729 -0.0027991403
0002f0 cd b0 4d 3c 4d f5 8b 3c 02 07 02 bd 8d 96 3a bc
       0.01255436 0.017084742 -0.031744964 -0.011388433
000300 32 32 e5 3d db a9 0b 3c 17 ac f7 bb 50 61 87 3c
       0.111912146 0.008524383 -0.0075583565 0.016525894
000310 1e 53 c9 3d db 8a de bb a6 a0 01 3e e9 9c d4 3d
       0.098303065 -0.006791455 0.12658939 0.10381491
000320 e1 d8 45 bd 2a fa 42 bc 5d 58 a7 3c c0 7a 59 3b
       -0.048302535 -0.011900464 0.020427877 0.0033184737
000330 a3 20 be 3b 3d de 66 3b d5 2f 13 3c f9 2b c3 3d
       0.0058022304 0.003522768 0.008983572 0.095298715
000340 4d 8e 88 3c 89 a5 cc bb 74 15 04 3c d4 47 7e 3d
       0.016669417 -0.0062453193 0.008061755 0.06208022
000350 a8 da 10 bc f1 33 e2 3d b2 83 74 3b c9 2d 9e 3c
       -0.008841194 0.11045063 0.0037309942 0.019308941
000360 cd 25 27 bc 5e 8d 12 3c 6e 4e 9d 39 dc e2 b2 bc
       -0.0102018835 0.008944837 0.00030003808 -0.02183669
000370 93 dd e3 3d d4 61 db bc 93 10 57 bc cf 54 19 bc
       0.11126246 -0.026780047 -0.01312651 -0.009358599
000380 c4 ec 41 bc 12 26 71 3c 6a 9d 8d 3c df 77 82 3c
       -0.0118362345 0.014718549 0.017286975 0.0159263
000390 a9 08 b8 39 75 f3 c3 bb d9 59 d2 3c 97 50 ea bc
       0.00035101667 -0.00597995 0.025677608 -0.028602881
0003a0 c7 67 9c 3b 94 da 9b 3d 55 2b 30 bb 68 bd 10 bd
       0.0047731134 0.0761005 -0.0026881297 -0.035336882
0003b0 4d f6 c6 3c 28 2d fd 3c e9 92 e6 3c e5 44 a5 bc
       0.024287367 0.030905321 0.028146224 -0.020174453
0003c0 62 f3 a2 bc 9c 70 f9 3d f4 88 62 3d d3 26 9c 3d
       -0.019891445 0.12179682 0.05530639 0.07624593
0003d0 e3 68 07 bc 31 fc bd bb d1 32 d9 3d 6f 1a 86 3d
       -0.008264753 -0.005797886 0.106053956 0.065480106
0003e0 88 2c ae bc 11 3b 06 bc db 16 db ba 95 03 cb 3d
       -0.021261469 -0.0081927935 -0.0016715185 0.099127926
0003f0 a5 93 f7 3d 2f 80 fa bb c6 33 77 bc a8 d2 99 bc
       0.12088708 -0.007644675 -0.015088027 -0.018777207

action_model._continuous_distribution.mu.bias f4 [3]
000000 23 5f b0 3c 95 af 18 bd 56 35 ff 3b
       0.02152974 -0.037276823 0.0077883406

exp_avg f4 [128, 1]
000000 e2 2d 49 3a c9 9c 37 39 c7 20 fc 39 e0 cd 85 39
       0.00076743786 0.00017510647 0.00048089607 0.00025521126
000010 6c a2 a2 b9 bc 08 6f 35 26 24 4a 39 11 1d e5 38
       -0.00031020062 8.904715e-07 0.00019277688 0.00010924985
000020 cc 99 cd b9 d8 39 e0 b9 93 b1 48 39 f8 b1 99 b9
       -0.00039215235 -0.00042767706 0.00019139638 -0.0002931503
000030 3a 7f 16 3a 38 e8 13 38 6c 54 51 3a 39 6c 87 b9
       0.0005741004 3.52638e-05 0.0007985297 -0.0002582984
000040 35 47 ab 39 c8 08 fa 39 da 45 6d b9 49 36 1d ba
       0.00032668715 0.00047690258 -0.00022628103 -0.0005997164
000050 a1 4b e6 b8 08 79 3a b7 4b a3 ba b9 97 13 d7 37
       -0.000109813416 -1.1114644e-05 -0.00035598347 2.563912e-05
000060 1e 2f ee b8 b3 7c 8c 39 68 5f 91 b8 9d 91 51 b8
       -0.000113575006 0.0002679579 -6.9319096e-05 -4.9965096e-05
000070 9b 8f 46 39 a0 df 9b b9 cb e3 37 b9 69 8c df 37
       0.00018936249 -0.00029730517 -0.000175371 2.6649055e-05
000080 5c 59 4c 3a fc 99 1b b9 10 f1 61 b9 b7 e9 af 38
       0.0007795298 -0.00014839316 -0.00021547475 8.388183e-05
000090 94 7d d2 b9 de 1e ed b9 97 f5 2b b9 f5 5c d8 39
       -0.00040147884 -0.0004522716 -0.0001639932 0.0004126799
0000a0 02 de 91 b9 09 aa ab 39 6e c4 09 3a fe bd ff 38
       -0.00027821964 0.00032742348 0.00052554056 0.00012194736
0000b0 ad 0d d6 39 09 56 04 3a 60 fc 22 39 87 fd 18 3a
       0.0004082745 0.00050482206 0.00015543541 0.00058361184
0000c0 1a 97 5e ba 72 ef 0d b9 d6 29 7d 39 17 48 12 3a
       -0.0008491144 -0.00013536008 0.00024143545 0.00055802
0000d0 0b 8a 0c 39 50 34 b5 38 87 23 11 39 bc 75 4c b7
       0.00013402865 8.6404965e-05 0.00013841513 -1.218676e-05
0000e0 f6 57 0e ba 9c ab f1 38 01 3e 9a b8 bc 18 e7 38
       -0.00054299773 0.0001152374 -7.3548414e-05 0.000110195455
0000f0 ef ab 57 39 68 4c 51 b9 29 ad b7 39 3a 9e 75 b9
       0.00020568048 -0.00019960257 0.00035033494 -0.00023423965
000100 2d 66 61 39 37 16 07 38 ab d7 38 b9 87 cb 4c b8
       0.00021495736 3.2207197e-05 -0.0001762795 -4.882694e-05
000110 18 90 1d 39 87 8b 19 39 98 bf 38 39 60 af 24 ba
       0.00015026366 0.00014643195 0.00017618982 -0.00062822364
000120 09 25 65 b9 dd 68 1f ba 71 01 3a 3a 51 9a 50 ba
       -0.00021852939 -0.00060809945 0.00070955517 -0.0007957565
000130 1c c9 75 b9 5a 0f 74 b8 bd 6d 73 39 8f e5 9c b9
       -0.0002343994 -5.818843e-05 0.00023215167 -0.00029925673
000140 7c 82 33 3a fa b7 36 39 61 6b 11 b9 3e 37 c8 ba
       0.0006847752 0.00017425409 -0.0001386828 -0.0015275253
000150 8e 02 af b9 ad d9 20 b9 d7 c3 f4 39 fd ae 20 ba
       -0.00033380504 -0.0001533988 0.0004668522 -0.0006129591
000160 e2 59 96 39 35 5a 15 39 a3 85 31 ba a7 68 33 39
       0.00028677197 0.00014243352 -0.00067719276 0.00017109756
000170 60 23 04 39 2b 1d f7 39 09 f5 d4 39 e3 b0 af 37
       0.00012601679 0.00047133243 0.00040618356 2.0943995e-05
000180 06 57 fa 38 1e 22 d2 b9 51 70 3f b8 56 3b 9b 39
       0.00011937138 -0.0004007974 -4.564255e-05 0.00029608113
000190 de b4 a9 b7 ed 66 0d ba c4 9f 22 ba 1a 9c df 39
       -2.0230593e-05 -0.000539406 -0.00062036165 0.0004265018
0001a0 da 71 1a 3a c7 06 40 39 0e eb 12 ba 23 a2 1a 39
       0.0005891599 0.00018313072 -0.0005604484 0.00014746985
0001b0 61 d6 00 b9 ab 2d 30 39 f6 44 92 b8 7e 6e 76 ba
       -0.00012286894 0.0001680168 -6.9746675e-05 -0.000940062
0001c0 e3 fa ca 39 dc 25 0f 39 ef 5d 90 b9 7c 9c c3 39
       0.00038715368 0.00013651646 -0.00027535806 0.00037309888
0001d0 ab 2f 55 ba 09 d9 e4 b9 89 ee 60 39 cb 36 07 b7
       -0.0008132408 -0.00043649253 0.00021451166 -8.0593845e-06
0001e0 f7 3a 8c 3a 43 42 62 39 79 0e 41 ba f3 f5 9a b9
       0.0010698725 0.00021577724 -0.00073645223 -0.00029556415
0001f0 ec 20 c7 b9 2e c1 fd b9 91 e1 61 3a 77 a7 c0 39
       -0.00037980767 -0.0004839985 0.0008616681 0.00036745865

exp_avg_sq f4 [128, 1]
000000 f9 01 c5 37 72 57 88 38 d9 dd 34 37 d2 7a b0 36
       2.3485149e-05 6.501273e-05 1.0780489e-05 5.259507e-06
000010 ef e8 c0 36 0d 4e 12 37 51 57 89 36 e3 da 29 36
       5.749163e-06 8.720451e-06 4.093083e-06 2.5310371e-06
000020 f8 26 95 37 15 95 35 37 c4 fe 07 37 30 c1 d6 37
       1.778033e-05 1.0823152e-05 8.105944e-06 2.5600748e-05
000030 7a 03 84 37 e8 94 70 36 3b 6e 55 37 4e e3 67 37
       1.5737245e-05 3.5849462e-06 1.2721454e-05 1.3821596e-05
000040 bd a1 65 38 bc 20 38 38 25 39 37 37 70 e9 ba 37
       5.4748485e-05 4.3899505e-05 1.0920955e-05 2.228163e-05
000050 10 3f dc 37 89 67 06 37 c0 fc 32 37 da 5b b1 35
       2.625541e-05 8.011129e-06 1.0668475e-05 1.321426e-06
000060 ec 85 6b 37 f5 b2 dc 37 b2 a9 53 37 95 de 4b 36
       1.4038273e-05 2.6309377e-05 1.261609e-05 3.0378917e-06
000070 bd 8c 45 37 be 03 fb 37 0f 71 3b 37 dd ed cc 36
       1.1774883e-05 2.9923274e-05 1.1172392e-05 6.1073647e-06
000080 3f cb 9b 38 6b 10 92 38 ae 79 96 36 df 34 e8 37
       7.4288335e-05 6.9648806e-05 4.4845137e-06 2.7681175e-05
000090 07 78 72 37 61 f1 d0 37 9d 61 15 38 0c 5d 74 36
       1.445227e-05 2.4907933e-05 3.5615278e-05 3.6412994e-06
0000a0 93 99 13 38 eb f4 65 37 76 a7 99 37 06 b0 98 36
       3.519056e-05 1.3706488e-05 1.8317001e-05 4.550445e-06
0000b0 04 31 95 37 c1 36 af 37 d7 31 8e 36 54 ba 6a 37
       1.7785009e-05 2.0887122e-05 4.237732e-06 1.399087e-05
0000c0 68 ff 97 37 f0 b5 61 37 33 cd d3 36 a4 cd 50 37
       1.8119536e-05 1.3453406e-05 6.3121784e-06 1.2445646e-05
0000d0 2f a9 1b 36 ed 00 b0 36 76 a2 9c 35 86 88 34 35
       2.3195278e-06 5.2453165e-06 1.1670188e-06 6.7253893e-07
0000e0 61 7c a1 37 92 68 f2 36 32 d2 f8 36 5c 25 7a 36
       1.9250614e-05 7.2243356e-06 7.415446e-06 3.727465e-06
0000f0 79 7e 01 38 5f d0 1a 38 ad f2 49 36 ca 3f 15 38
       3.0873784e-05 3.6910522e-05 3.009259e-06 3.5583776e-05
000100 0c 94 77 37 f4 62 3d 37 90 9c fa 35 27 38 31 37
       1.4756817e-05 1.1288317e-05 1.8672017e-06 1.0563096e-05
000110 42 6e 91 36 89 44 d3 37 1a 0a ff 37 7b e8 eb 37
       4.3341724e-06 2.5185074e-05 3.0403073e-05 2.812244e-05
000120 9b 70 05 36 ca bb b4 36 35 9d 2a 37 5f bb bf 38
       1.988409e-06 5.3862796e-06 1.0169392e-05 9.14249e-05
000130 dd e9 1d 36 fa ee 4a 38 51 a2 8b 37 84 a8 8d 36
       2.353095e-06 4.8383117e-05 1.6645676e-05 4.2217453e-06
000140 8b f4 0e 38 90 e2 b3 35 82 7e 14 37 10 62 59 38
       3.4083187e-05 1.3402478e-06 8.850942e-06 5.182816e-05
000150 f5 aa ae 37 5f a1 8f 36 78 7a ac 37 c4 36 10 37
       2.0822024e-05 4.280518e-06 2.0561027e-05 8.59582e-06
000160 5c c3 b2 37 de 88 95 36 3a f6 0d 37 99 ca 5e 37
       2.1310225e-05 4.4564795e-06 8.461584e-06 1.3279402e-05
000170 6a db 69 36 b0 54 33 37 db ec 7a 37 65 f6 50 38
       3.4847421e-06 1.0688949e-05 1.4956308e-05 4.9820537e-05
000180 03 6d 91 34 aa f1 f0 36 1b 52 66 36 70 e7 e6 37
       2.708767e-07 7.180691e-06 3.4320462e-06 2.7525908e-05
000190 6c fb dc 35 07 13 50 37 43 97 06 37 0c 5c d5 36
       1.6464451e-06 1.2402196e-05 8.022241e-06 6.3586103e-06
0001a0 e5 32 15 37 2e 56 59 35 45 fb 96 36 f2 90 9a 36
       8.892942e-06 8.096421e-07 4.4996e-06 4.6064315e-06
0001b0 df 75 88 36 9c b0 99 36 2a d8 d1 36 44 98 aa 37
       4.066838e-06 4.5803154e-06 6.25385e-06 2.0336483e-05
0001c0 af c5 e1 35 ca 85 90 35 6f 9e d6 37 b6 96 9c 36
       1.682134e-06 1.0767774e-06 2.5584564e-05 4.6667074e-06
0001d0 67 55 31 38 fe 3c f5 37 4d e4 d9 36 bf 9d b4 36
       4.2279626e-05 2.9234678e-05 6.4936817e-06 5.382782e-06
0001e0 22 90 fc 37 78 81 bc 36 7f 6a 42 38 b5 e6 12 37
       3.0107858e-05 5.6179088e-06 4.6352387e-05 8.755994e-06
0001f0 69 17 a8 36 31 45 97 37 86 8b 92 37 f3 23 28 37
       5.0095155e-06 1.8032822e-05 1.7469527e-05 1.002195e-05

exp_avg f4 [128]
000000 ca 3c d2 38 e4 15 1e b9 a1 50 1e 39 e2 d7 b6 38
       0.00010024903 -0.00015076209 0.00015098091 8.7186476e-05
000010 4a 3d ee b8 71 91 99 b6 f3 00 27 b9 65 86 4d 39
       -0.0001136014 -4.576687e-06 -0.00015926715 0.0001960039
000020 67 69 5f 39 bb 18 67 36 e9 76 b6 37 c4 e2 b3 b7
       0.00021306203 3.4436077e-06 2.1751463e-05 -2.1444059e-05
000030 04 d1 91 39 49 0f 02 b9 48 31 c6 37 3d d6 cb 38
       0.00027812284 -0.0001240346 2.3626388e-05 9.719699e-05
000040 e1 af 8c b8 fc 0c 23 39 25 f2 af b8 da f0 91 38
       -6.70848e-05 0.00015549728 -8.389753e-05 6.959001e-05
000050 4f 94 75 b8 f4 ce 8b 38 01 41 8a b8 0c e5 ce b6
       -5.8550675e-05 6.6665845e-05 -6.592461e-05 -6.165943e-06
000060 42 2d 08 39 e1 ad 42 b9 c3 41 a3 38 4a 30 a7 b9
       0.0001298683 -0.00018566057 7.784695e-05 -0.000318887
000070 5a f6 07 39 be 3e 1a 39 b0 08 9e 38 76 25 6e 37
       0.00012966376 0.00014709958 7.535645e-05 1.41946275e-05
000080 d2 8b 24 b9 d4 b1 8a 39 01 79 b2 38 cc f3 9b b7
       -0.00015692346 0.00026453903 8.51024e-05 -1.8590967e-05
000090 dd 41 0f 36 f3 3b 2f b8 6d 54 b9 39 fa 5d 3c 39
       2.1346998e-06 -4.1779083e-05 0.00035348852 0.00017964086
0000a0 b0 c4 dd b8 11 02 8a 38 03 b8 fc 38 15 d7 d9 38
       -0.00010574737 6.580738e-05 0.00012050571 0.000103874285
0000b0 d2 20 43 39 0b 81 fe b8 24 55 22 39 4d 6e 30 b9
       0.00018608876 -0.000121357 0.00015481241 -0.00016825758
0000c0 bf 83 c8 b8 35 11 57 39 14 09 7b 37 7e 88 17 38
       -9.561283e-05 0.00020510408 1.49628795e-05 3.6128324e-05
0000d0 a1 d4 0b 39 84 9a 07 b8 bf 67 ec 38 ce 26 5f 39
       0.00013335283 -3.2330412e-05 0.00011272681 0.00021281393
0000e0 fa b1 f2 38 a4 f2 01 39 02 00 e6 b8 b8 2b 0c 39
       0.0001157261 0.0001239279 -0.00010967256 0.00013367727
0000f0 79 09 11 b8 68 6e 2c b9 bd 21 e6 b6 91 0c 89 38
       -3.4579516e-05 -0.00016444328 -6.858462e-06 6.53501e-05
000100 23 c6 d3 38 63 76 20 b9 1c ce 00 b9 a6 39 76 b8
       0.0001009817 -0.00015302892 -0.00012283813 -5.870466e-05
000110 3b 5c 7c 37 62 eb 6a 38 9e 18 48 38 a2 8c 33 b8
       1.5041845e-05 5.6009165e-05 4.7706642e-05 -4.28079e-05
000120 2b be b7 38 aa 3b 7c b9 6e 32 23 39 4b 76 81 39
       8.7615415e-05 -0.0002405482 0.00015563678 0.00024692932
000130 72 89 57 39 ff 4a 27 39 e2 1d 8e b9 8f 49 ca b8
       0.000205552 0.000159543 -0.00027106615 -9.645812e-05
000140 ee 42 28 b8 11 84 20 b9 7e a7 7c 38 f2 27 eb b8
       -4.0116654e-05 -0.00015307988 6.023747e-05 -0.000112131136
000150 6a 68 26 b8 3c 89 84 39 e0 ca bd 38 eb 3d 48 b8
       -3.9674727e-05 0.0002527925 9.050011e-05 -4.774138e-05
000160 6d 4d 13 39 c2 6f d1 38 a8 bb 47 b9 01 f0 3b 39
       0.00014047856 9.986713e-05 -0.00019048026 0.00017923118
000170 01 c9 f8 38 0f d1 0b 39 4d 14 67 b7 ae 16 45 b9
       0.000118630014 0.00013333953 -1.37734e-05 -0.00018795833
000180 18 50 3c 39 f3 3a 05 37 0b 7e 81 b9 95 c4 9b 38
       0.00017958914 7.941143e-06 -0.00024698707 7.427592e-05
000190 a3 fd d3 b8 da 77 5e b8 ba d5 cd 38 88 17 16 b9
       -0.000101085076 -5.3040545e-05 9.8149714e-05 -0.00014313881
0001a0 72 2e 56 39 5e 73 96 b8 b2 89 9f b9 e7 28 c8 38
       0.00020425933 -7.174046e-05 -0.00030429434 9.544362e-05
0001b0 ba 96 9f 38 ad 43 a9 b8 f9 09 8e b9 0f 29 10 b9
       7.609786e-05 -8.0711536e-05 -0.0002709178 -0.00013748206
0001c0 87 09 09 39 5d 61 7d 38 c8 59 7b 38 43 80 d1 38
       0.00013068887 6.0410577e-05 5.992668e-05 9.989787e-05
0001d0 28 55 3b 38 59 fc ba 39 4f 06 cd 39 b7 d0 19 38
       4.4663582e-05 0.00035664698 0.00039105347 3.6672423e-05
0001e0 77 bc 3d b9 b3 67 f7 b8 68 b6 53 37 53 68 91 b8
       -0.00018094653 -0.00011797193 1.261905e-05 -6.933571e-05
0001f0 fb 58 4c b9 f8 91 a1 b7 74 18 70 38 ab 09 64 39
       -0.00019488104 -1.9260668e-05 5.7243233e-05 0.00021747376

exp_avg_sq f4 [128]
000000 d5 75 06 33 34 5a d4 33 00 d7 c0 32 ad 79 3a 32
       3.1306474e-08 9.888427e-08 2.2449512e-08 1.0854291e-08
000010 50 ec 1f 32 05 bb 13 32 51 9c 75 32 de 4e 66 32
       9.308749e-09 8.5990495e-09 1.4296419e-08 1.3405694e-08
000020 06 85 79 33 d5 e8 86 32 65 ba 41 32 c9 e5 2a 33
       5.8095814e-08 1.5705533e-08 1.127646e-08 3.9790198e-08
000030 16 bf 46 33 90 e1 33 32 6c b8 b9 32 50 ed df 32
       4.627426e-08 1.0470458e-08 2.16207e-08 2.6068534e-08
000040 b3 ed 6a 33 3c 5c 97 33 10 88 a7 32 e3 fb a7 32
       5.4698557e-08 7.048263e-08 1.9503233e-08 1.9555904e-08
000050 80 31 1d 33 7d 41 2f 32 17 3c 8c 32 d4 c1 a0 31
       3.659943e-08 1.0201231e-08 1.632547e-08 4.6786486e-09
000060 12 b0 a3 32 c8 37 6f 33 d7 1c c8 32 b5 5f 0b 33
       1.9055765e-08 5.5697257e-08 2.329618e-08 3.2450505e-08
000070 0b 42 ec 32 a4 44 11 33 71 a8 bf 32 f3 1d 71 32
       2.7504049e-08 3.382287e-08 2.2311925e-08 1.4034856e-08
000080 df ca c5 33 c2 2f 11 34 c8 c5 87 32 e5 27 27 33
       9.2104294e-08 1.3521552e-07 1.5806009e-08 3.8919e-08
000090 76 a7 c7 32 14 5e 84 33 9e 57 a1 33 11 9e c4 32
       2.3242801e-08 6.163842e-08 7.513084e-08 2.2889283e-08
0000a0 d4 1f 4a 33 c9 c9 a0 32 5a af 01 33 db c2 38 32
       4.7060738e-08 1.8718213e-08 3.0194634e-08 1.0754515e-08
0000b0 fb f5 04 33 93 65 cf 32 a0 3b 9f 32 af 3a 0f 33
       3.0957363e-08 2.4144162e-08 1.853715e-08 3.3348154e-08
0000c0 ba eb bf 32 f8 2b fc 32 ab 51 21 32 2c 1f b3 32
       2.2342522e-08 2.9356656e-08 9.3900026e-09 2.0852518e-08
0000d0 fe 46 53 32 41 14 e3 31 c2 98 af 31 da 68 81 32
       1.2297958e-08 6.608872e-09 5.110537e-09 1.5065257e-08
0000e0 a7 5a cd 32 3d e7 ac 32 44 e5 6c 32 a2 c5 3d 32
       2.3906365e-08 2.012859e-08 1.3789137e-08 1.1046184e-08
0000f0 0f bd 4a 33 06 ae 83 33 85 d6 ab 31 06 ca 1b 33
       4.7203738e-08 6.1318175e-08 5.001143e-09 3.627249e-08
000100 80 dd b3 32 5e fb da 32 e7 b7 e0 32 b2 f1 a9 32
       2.093907e-08 2.5492849e-08 2.6160661e-08 1.97841e-08
000110 dc ca 0e 32 ed f5 07 33 b3 5a 45 33 7e 9a 3d 33
       8.311613e-09 3.1655805e-08 4.5950127e-08 4.41455e-08
000120 b5 5e 8a 31 b2 08 0d 33 87 13 a9 32 7a 99 de 33
       4.0270955e-09 3.283703e-08 1.968307e-08 1.0365598e-07
000130 9e 93 8e 32 de 02 9f 33 c6 8c 60 33 4b b4 34 32
       1.6598104e-08 7.404536e-08 5.2282097e-08 1.0518373e-08
000140 6d 19 2a 33 51 22 23 32 e0 0f 82 32 86 96 97 33
       3.9604334e-08 9.495651e-09 1.5141211e-08 7.0588655e-08
000150 92 7a d1 32 6a 41 1c 33 40 ce 81 33 33 24 d1 32
       2.438654e-08 3.6381074e-08 6.044547e-08 2.4347264e-08
000160 bb a5 17 33 57 2f 68 32 cd 52 be 32 15 b0 d4 32
       3.5308158e-08 1.3514941e-08 2.2156565e-08 2.4760121e-08
000170 8c d4 23 32 36 5b 9a 32 ca 3e 9f 32 89 ee 9d 33
       9.536176e-09 1.7969437e-08 1.853859e-08 7.3542715e-08
000180 46 cc 8b 32 1a 5b 97 32 05 80 c4 32 42 6d 4f 33
       1.6274623e-08 1.7620142e-08 2.287562e-08 4.8295313e-08
000190 9b 75 c4 31 74 3b d7 32 fb 26 38 32 d0 7c 9f 32
       5.717721e-09 2.505633e-08 1.0719073e-08 1.8566794e-08
0001a0 bf 99 ee 32 29 6b 77 31 d3 a2 45 33 23 9f 84 32
       2.7776762e-08 3.6004144e-09 4.6015725e-08 1.543919e-08
0001b0 44 c0 ce 31 55 0c 85 32 96 20 40 33 e9 76 f4 32
       6.017247e-09 1.5488846e-08 4.473312e-08 2.8459413e-08
0001c0 0f 2c f2 31 ce 24 dc 31 17 af dd 32 ab d5 21 32
       7.048136e-09 6.407027e-09 2.5807408e-08 9.420016e-09
0001d0 d6 ca 81 33 2e 62 9c 33 c5 2c 67 33 f6 79 fe 31
       6.043926e-08 7.282175e-08 5.3824596e-08 7.4062383e-09
0001e0 9e 70 58 33 ac 13 3c 32 2b c3 7c 33 7d d4 df 32
       5.0393844e-08 1.0947513e-08 5.8850826e-08 2.6057245e-08
0001f0 9b ab 88 32 4d c3 c1 32 c2 60 01 33 97 4e fe 32
       1.5910521e-08 2.255697e-08 3.0123154e-08 2.960523e-08

exp_avg f4 [128, 128]
000000 7d dd bd 3a 93 3a 33 b7 16 46 23 b8 b6 5e 6a 37
       0.0014485564 -1.0682869e-05 -3.89275e-05 1.39695385e-05
000010 fb 06 b3 3a d1 13 a5 39 26 58 e5 3a c2 f8 01 b8
       0.0013658697 0.00031486017 0.0017497584 -3.098767e-05
000020 1e 35 f8 36 52 1c 33 3a 36 c5 1d 36 d8 d9 c5 37
       7.3971596e-06 0.0006832528 2.3509615e-06 2.3585671e-05
000030 c1 75 21 b8 9d aa 94 3a 98 df 19 3a cb 19 ae 37
       -3.8495058e-05 0.0011342351 0.0005869805 2.0754427e-05
000040 7f 84 e7 b7 47 54 13 34 46 da 39 37 9f c9 3b 38
       -2.7599044e-05 1.3721102e-07 1.107768e-05 4.477205e-05
000050 f5 a0 18 38 13 f7 57 b5 3e 34 85 3a 69 d1 f4 37
       3.6389527e-05 -8.045328e-07 0.0010162664 2.918458e-05
000060 c9 02 6c 39 83 fb 07 3b 9a a4 0c 37 82 32 95 37
       0.00022507751 0.0020749278 8.382975e-06 1.7785704e-05
000070 98 ba ca b7 4a e2 9f b7 69 3f 62 3a 16 89 9d 36
       -2.4167166e-05 -1.9059651e-05 0.00086306647 4.6949235e-06
000080 63 36 1e 37 60 4a 5b b7 e5 69 54 b6 74 b2 a2 37
       9.430197e-06 -1.3070734e-05 -3.16521e-06 1.9395004e-05
000090 28 04 16 39 f8 e8 2c 38 b3 8c 23 b8 3e 9a 17 b8
       0.00014306663 4.1224965e-05 -3.8993265e-05 -3.6144855e-05
0000a0 0d b9 9b b7 d6 50 0e b8 fe d1 4c 35 67 61 d5 b7
       -1.856361e-05 -3.3930723e-05 7.63015e-07 -2.5436935e-05
0000b0 72 b4 19 b8 f3 e2 99 3a b8 dd 8e b7 e9 71 e7 3a
       -3.6646095e-05 0.001174061 -1.7030965e-05 0.0017657849
0000c0 8d 40 92 3a 65 f2 22 b8 5e bd cd b7 78 37 70 3a
       0.0011158154 -3.8849557e-05 -2.4526085e-05 0.0009163539
0000d0 31 97 6c 3a 8f fc 8e 3a de 28 21 3a 1b c2 1a 3a
       0.0009025215 0.0010909009 0.0006147752 0.0005903558
0000e0 5a 68 ac 37 6c 76 32 39 b1 fd 9e 36 31 95 2d b5
       2.055259e-05 0.00017019518 4.7383005e-06 -6.4664624e-07
0000f0 8e 71 b8 37 95 f9 f7 37 2a 28 bd 3a c6 ac 0d b8
       2.1987387e-05 2.9560915e-05 0.0014431525 -3.3777927e-05
000100 62 8f 66 3a 42 da 83 3a d6 3d a8 37 66 c1 85 37
       0.00087951694 0.0010059553 2.0055955e-05 1.5944894e-05
000110 c8 b3 4f 39 fb bb 6a b6 fb 26 58 b7 29 d5 66 37
       0.00019808032 -3.4978136e-06 -1.2883679e-05 1.37586985e-05
000120 2f 80 14 b8 25 ea b4 3a a3 8f e3 39 d7 05 f8 b7
       -3.540533e-05 0.0013802691 0.00043403832 -2.9566623e-05
000130 e4 f6 36 38 5c dd 3e 36 79 09 0e 38 d1 96 4e 3a
       4.3622116e-05 2.8441054e-06 3.386426e-05 0.000788075
000140 59 ef 06 b8 1e 11 09 3a c5 ac c6 36 81 5d a2 3a
       -3.2171e-05 0.0005228686 5.920973e-06 0.0012387485
000150 7d 53 23 b8 f3 a1 99 b7 7f 4b d0 37 7d c1 4a 3a
       -3.8939983e-05 -1.8314435e-05 2.4830688e-05 0.00077345205
000160 7d 13 6d b7 a8 69 83 b6 9e cc 1e 3a fe 01 be b7
       -1.4130838e-05 -3.9164042e-06 0.0006057712 -2.2650693e-05
000170 e4 7c cd 39 02 b6 1f b8 dc 21 d7 3a 03 38 ae b7
       0.00039193698 -3.8078062e-05 0.0016413289 -2.0768499e-05
000180 fb 3f db 39 3d c9 53 3a f1 c4 88 38 ba a0 78 b7
       0.00041818604 0.0008078998 6.5216685e-05 -1.4819374e-05
000190 e4 f3 e0 3a e2 e3 9a 34 02 ed 73 39 9c ef 6d 37
       0.0017162529 2.8850542e-07 0.00023262578 1.4182089e-05
0001a0 9b 7b 80 39 5f e5 03 38 f4 16 28 3b 2b 33 29 b7
       0.00024506156 3.1446452e-05 0.0025648447 -1.0085098e-05
0001b0 f6 22 a3 39 25 f3 1e 38 27 42 e0 3a ae 9b 13 3a
       0.0003111583 3.789658e-05 0.0017109559 0.0005630803
0001c0 41 21 19 3a 30 e8 5e 3a 9b 68 02 38 a9 69 e1 39
       0.0005841442 0.00085032266 3.1091837e-05 0.00042994067
0001d0 bf 8d 20 b5 71 bc 05 b8 d5 fd cd 38 8b 91 d2 37
       -5.981091e-07 -3.188517e-05 9.822442e-05 2.5101725e-05
0001e0 2b f7 f6 39 3a 1e b8 3a fe f8 98 37 e0 69 33 3a
       0.0004710493 0.0014047094 1.8235758e-05 0.0006844085
0001f0 7b 07 16 37 51 47 05 b8 f4 ea 8b 3a dd f6 9b 3a
       8.942438e-06 -3.177609e-05 0.001067488 0.0011899133
000200 04 6f b9 b9 44 a0 db 39 2b fd 0c 39 ac 43 63 3a
       -0.00035368663 0.00041890342 0.00013445753 0.00086694467
000210 51 11 af b9 a4 64 a7 b8 c8 fd e1 b9 cb 8d 7c 39
       -0.00033391503 -7.981926e-05 -0.00043104426 0.00024085415
000220 1b f3 32 3a 87 f0 2b b9 a7 4a 1a 3a 31 aa 9d 3a
       0.00068263867 -0.00016397434 0.0005885758 0.001202887
000230 4e 10 fa 38 09 e7 8f b9 6a cf 12 b9 e2 3c 8f 3a
       0.00011923966 -0.0002744722 -0.00014000913 0.0010928179
000240 16 d9 75 38 de ba 0f 3a 47 b0 4e 3a fc 22 7f b7
       5.861473e-05 0.00054828625 0.0007884544 -1.520733e-05
000250 80 66 d7 3a 8b 64 0c 3a 3b 39 80 b9 4e bd 42 b7
       0.0016433746 0.0005355558 -0.00024456703 -1.1607377e-05
000260 c1 a8 76 b8 33 22 07 ba 1a 89 39 3a 5d 06 3f b7
       -5.8808135e-05 -0.00051549374 0.00070776197 -1.1385969e-05
000270 ab 2b 9b 39 11 7c b1 39 08 13 59 b9 1b f0 24 3a
       0.0002959644 0.00033852507 -0.00020701822 0.0006291882
000280 9f 0e 43 3a 3f 82 cc 39 02 13 03 3a 1f 58 8a 3a
       0.00074408384 0.00039006953 0.0005000086 0.0010554827
000290 be 26 26 b8 a3 c4 eb 3a 1b 38 0d 39 20 c2 ca 38
       -3.9613566e-05 0.001798768 0.00013467709 9.668269e-05
0002a0 b4 9d b5 39 48 78 64 39 69 e2 12 3a 84 fd 3f 38
       0.00034640508 0.00021788583 0.0005603196 4.5774053e-05
0002b0 2c 8e ce 38 04 c5 94 b9 88 88 b9 39 83 43 e4 b9
       9.849327e-05 -0.00028375548 0.00035387673 -0.0004353785
0002c0 5b bc 8d b9 19 58 1f 39 4b 1b 37 38 80 be 65 b9
       -0.00027033951 0.0001519624 4.365602e-05 -0.00021910109
0002d0 eb ec 62 b9 58 11 8a b9 59 40 19 b9 76 90 13 b9
       -0.00021641298 -0.00026334333 -0.00014615188 -0.00014072828
0002e0 16 a9 8f 3a e0 fd 43 b8 89 e2 26 3a 57 66 0c 3a
       0.0010960426 -4.6728062e-05 0.0006366154 0.0005355826
0002f0 c3 49 95 3a 0c 5d b9 3a a5 60 b8 b9 40 5a 68 39
       0.001138978 0.001414211 -0.0003516722 0.00022158865
000300 a4 85 5c b9 19 ee 7d b9 62 39 8e 3a ca 9f 74 3a
       -0.0002103062 -0.00024216658 0.0010850842 0.0009331672
000310 07 ec 5e b8 c6 4e 02 3a e9 a6 ce 39 62 30 64 3a
       -5.3148742e-05 0.00049708446 0.0003941574 0.00087047194
000320 3b ac 55 39 5a 35 b1 b9 87 54 dc b8 92 c8 85 39
       0.00020377424 -0.0003379982 -0.00010506162 0.00025517173
000330 9c 13 6e b7 9e 4a 1b 3a df 67 cd 3a d2 b9 46 b9
       -1.4190471e-05 0.00059238996 0.0015671215 -0.00018951975
000340 5c 32 77 39 cf ec 04 b9 83 f8 2b 3a 84 f9 9d b9
       0.00023574516 -0.00012676719 0.00065601635 -0.00030131277
000350 6d a7 19 39 db 33 b3 39 fe 9d a1 3a f6 98 42 b9
       0.00014653588 0.00034180176 0.001233041 -0.00018558264
000360 37 fd c7 39 f4 6f 01 3a 93 6a 19 b9 1d 0d a2 39
       0.00038144898 0.0004937642 -0.00014630919 0.00030908818
000370 33 35 ca b8 7b f0 f1 38 48 b5 d3 b9 79 60 ac 39
       -9.64202e-05 0.000115365685 -0.0004038012 0.00032878274
000380 aa 7f d6 b8 91 62 4b b9 fb 64 bf b7 9e 30 c4 39
       -0.000102280945 -0.00019396307 -2.2815997e-05 0.00037420256
000390 bf fb dd b9 e7 44 11 3a 96 06 80 b8 e5 02 68 3a
       -0.0004233997 0.0005541578 -6.104742e-05 0.0008850529
0003a0 eb 1f 84 b8 93 c1 c1 3a 36 a4 28 ba a5 64 de 39
       -6.300196e-05 0.0014782421 -0.0006433161 0.00042418126
0003b0 6d cb a4 b8 1d 12 de 3a 41 57 dd b9 43 fa 0e b9
       -7.8580204e-05 0.0016942654 -0.00042217414 -0.00013635405
0003c0 98 ef 11 b9 03 06 55 b9 04 a9 be 3a 25 f5 db b8
       -0.00013917533 -0.00020315502 0.001454622 -0.000104883955
0003d0 d1 54 0d 3a 34 58 76 39 6b c2 e2 b7 36 8d a3 3a
       0.0005391362 0.00023493246 -2.7031832e-05 0.0012477997
0003e0 00 a3 ef b8 ef 5f b3 b9 27 95 84 3a 27 c7 2b b9
       -0.00011426769 -0.00034213017 0.0010115252 -0.00016382021
0003f0 4e 61 dc b6 50 d2 79 39 53 11 86 b9 c7 4b 96 b9
       -6.5678387e-06 0.00023824838 -0.0002557138 -0.00028666688
