TWP_2/results/StaticDragDrop27/RobotArm/RobotArm-499949.pt (torch, 447133 bytes, 36 tensors)

network_body._body_endoder.seq_layers.0.weight f4 [128, 7]
000000 f1 a2 c5 3e 05 fb 07 be 54 f1 dc 3e f6 23 f3 bd
       0.38600877 -0.1327935 0.4315287 -0.118720934
000010 f5 55 20 bf 65 68 06 3c 75 13 f4 bd e7 29 60 3f
       -0.6263116 0.0082036005 -0.11917774 0.8756394
000020 8a 03 ca 3e 40 2a 88 be 28 0f 4e 3e 9d 43 36 3f
       0.39455825 -0.26594734 0.20122969 0.7119692
000030 ef e4 8d 3e 7e 49 14 3e 19 18 13 3f 1d 8f e8 bd
       0.27713725 0.1448116 0.57458645 -0.11355422
000040 7e d2 de 3e c7 a5 3a 3f 5a e3 cb 3c bf ab 90 be
       0.43519968 0.72909206 0.024888683 -0.28256032
000050 10 71 96 3e 69 00 c6 be a3 8e 22 bf 45 d1 af bd
       0.29383135 -0.38672188 -0.63498896 -0.08584837
000060 48 37 35 bd e4 b4 b5 3e ce a9 17 bf 3d 9d 36 3e
       -0.044242173 0.3548957 -0.59243476 0.17833419
000070 7a 1e 73 3f 58 65 fd bd 26 c2 3e be ec 01 ca 3d
       0.9496838 -0.123728454 -0.18628749 0.09863648
000080 64 0a 3e bf 61 9d bf 3e 75 18 53 bc 86 bf 0e bf
       -0.74234605 0.37424758 -0.012884249 -0.5576099
000090 2f 83 8c 3d 77 3a ff 3e 4b b7 28 3f 96 dc ef bd
       0.06860959 0.49849293 0.6590468 -0.11711995
0000a0 62 7f 1d 3e 27 d2 ed 3d 38 92 f6 3a 76 18 a1 3e
       0.15380624 0.11612349 0.0018811887 0.31463975
0000b0 a5 fe e9 be a6 98 0d 3f 6d 28 b7 3e fb 0d c9 3d
       -0.4570209 0.5531105 0.3577303 0.0981712
0000c0 9f 45 51 bd 05 11 67 be f9 f0 1a be 58 b8 a8 3e
       -0.051091786 -0.22565086 -0.15130986 0.32953143
0000d0 88 ad 34 be d9 0d 0d be c0 91 84 3d 89 30 b7 3e
       -0.17644322 -0.13774814 0.06473112 0.35779217
0000e0 a4 88 12 3e 17 54 59 be da e6 30 bf 5c b2 f1 3d
       0.14309937 -0.21223484 -0.6910225 0.118015975
0000f0 57 6f c6 be 4f b3 20 3d 11 f4 5a be 81 e0 f1 bd
       -0.3875682 0.039233502 -0.21382166 -0.11810399
000100 30 83 4d 3e b9 79 90 3d 92 82 a0 3e 4f d3 8f be
       0.20069575 0.07054467 0.31349617 -0.28090903
000110 cb 74 65 3e da c2 b0 3e db cc 1e 3f 81 1f 8d be
       0.22407834 0.3452366 0.62031335 -0.27563098
000120 75 1c 97 bd fb 89 e7 3e 99 c9 0b be 86 78 53 3e
       -0.073784746 0.45222458 -0.13651122 0.20651445
000130 44 fd 41 3e e8 cb 14 bf 23 42 e7 be 05 92 24 3f
       0.1894427 -0.58123636 -0.45167646 0.6428531
000140 60 89 ac be e5 cb a1 3e 4c 04 2b 3f 58 82 8a 3e
       -0.3369856 0.31600872 0.6680343 0.2705257
000150 1d 9f 5f be f5 77 f8 be c8 6d 21 3e 70 aa 23 3f
       -0.2183804 -0.4852902 0.15764534 0.6393194
000160 3d bf ce bc 25 a9 17 be 70 47 dc 3e 64 e0 41 bf
       -0.025237674 -0.14810617 0.43023252 -0.7573302
000170 ee 38 5d bd b3 b5 a3 be bc 94 99 be 65 7e a9 be
       -0.05400937 -0.31974563 -0.29996288 -0.33104244
000180 30 58 a6 3e 34 5e 1e 3e d3 c0 b0 3e b4 59 80 be
       0.32489157 0.15465623 0.34522113 -0.25068438
000190 d9 48 1d be 58 c3 f4 3d ba fc 2f 3e d7 49 7d be
       -0.1535982 0.11951321 0.17186251 -0.24735199
0001a0 5b be 35 3e b5 98 81 be 66 de 2e 3e 0b e5 87 3e
       0.17748396 -0.2531182 0.17077026 0.26541933
0001b0 78 76 59 be 88 33 53 3d 08 57 7e 3e c6 08 c7 be
       -0.21236598 0.051562816 0.24837887 -0.3887388
0001c0 c7 af 0a bf 22 2f 36 be 08 d8 c5 3d 8d ad 8d 3e
       -0.54174465 -0.17791417 0.09660345 0.2767147
0001d0 fd 2a e9 be 9e 25 eb 3e 95 b1 fb 3d 15 01 98 be
       -0.4554061 0.45927137 0.122897305 -0.29688326
0001e0 5f 6f 59 be b8 1f b6 3d 05 e2 ea bd 12 10 fe 3e
       -0.21233891 0.088927686 -0.11468891 0.49621636
0001f0 52 26 0e bf ff cc 03 bf 52 8a b5 be 76 cf 8c 3e
       -0.5552722 -0.51484674 -0.35457093 0.2750203
000200 7e 04 0c 3e 03 4e 86 3e 51 e3 15 bf b8 e6 b2 be
       0.13673589 0.26231393 -0.5854998 -0.3494165
000210 9a aa 85 bd 5c 14 29 be d6 70 7e 3e bd e7 9e 3e
       -0.0652668 -0.16511673 0.24847731 0.31036177
000220 6c 89 4c bf bc 33 0c bf 89 e2 1d 3f 5b 81 7b 3e
       -0.7989719 -0.5476644 0.6167379 0.24561064
000230 a4 a8 1d 3f ac a3 f5 3c b3 ef 0b 3f bc db 70 bf
       0.6158545 0.029985271 0.54662627 -0.9408529
000240 5b a9 1a 3e cd d6 38 3f 67 15 aa 3e 70 7d a5 be
       0.15103666 0.7220276 0.33219454 -0.32322264
000250 8b 35 38 3f 04 ea ab 3d d7 b6 fc be 58 6b d6 bd
       0.719567 0.08394244 -0.49358246 -0.10469693
000260 87 8d 3b 3e 59 aa 50 3e af b9 d4 3e 8d 1b 2d bf
       0.18315707 0.20377482 0.41547915 -0.67620164
000270 b5 e2 54 3e fc 8f 21 3f a0 7f 19 be de 34 cd 3c
       0.20789607 0.6311033 -0.14990091 0.025049623
000280 92 d9 01 3f fa e9 08 bf bb 86 33 3f bc ba b6 bd
       0.5072261 -0.5348202 0.7012746 -0.089223355
000290 d0 e1 e5 3e e6 8c b5 3e 99 d9 76 be bc d0 b8 3e
       0.44898844 0.3545906 -0.24106444 0.36096752
0002a0 f8 0f ee be 27 6c 83 be a4 4d 35 bf d0 c8 e6 3d
       -0.46496558 -0.2566845 -0.70821595 0.11268771
0002b0 16 ce 94 3d ef 0a b7 3e 4b b6 a1 3e 45 1d 65 3e
       0.0726587 0.3575053 0.3158439 0.22374447
0002c0 34 f8 f3 3d 3d d6 ea bd 85 56 b6 be 3e af 04 3e
       0.11912575 -0.11466644 -0.35612884 0.12957475
0002d0 fb d2 3d 3d 35 a2 fa be ac d0 18 bb e9 08 15 3f
       0.046343785 -0.4895188 -0.0023317738 0.5821672
0002e0 ba 3a 8e be 30 8b 9e 3d a1 9a 0a bd cb b7 5b be
       -0.2777918 0.07741392 -0.033838872 -0.2145683
0002f0 e2 80 fc 3d de 1a 3b bf 28 f0 dc be f3 97 db 3e
       0.1232927 -0.7308787 -0.43151975 0.42889366
000300 69 ba c6 3d 84 b5 25 3b 1d ea 87 bd a1 26 5b 3c
       0.09703524 0.0025285194 -0.066364504 0.013375909
000310 66 c2 2c 3e 0c f8 ee bd a9 3b e9 bc 78 be 14 3c
       0.16871032 -0.11668405 -0.028470831 0.009078614
000320 55 ae 9e bd f4 72 b3 3e 58 c0 52 be 39 e7 82 be
       -0.07748095 0.3504864 -0.20581186 -0.25567034
000330 b9 d6 68 3d 7b ab f9 be a1 66 4e 3e 12 b4 1f 3d
       0.0568454 -0.48763642 0.20156337 0.038990088
000340 18 2b 16 be 83 a5 ca be 02 d5 c2 3e 9b 31 9b be
       -0.14664876 -0.395794 0.38053137 -0.30311283
000350 70 17 26 be 94 85 17 bf 78 8a 1f 3f 8c 13 09 3f
       -0.16219878 -0.591882 0.6232066 0.5354545
000360 3a 7e cf bb d8 b6 ae 3d 00 96 69 bd 35 dc 4c bf
       -0.006332186 0.085309684 -0.057027817 -0.8002351
000370 fc e9 e9 3e 71 d9 05 3e fb e9 ae bd 76 63 a9 3e
       0.45686328 0.13071229 -0.08540722 0.33083695
000380 1a d2 50 3e bd ff aa bd 8b 08 20 3e 7a 8c 24 3d
       0.20392647 -0.083495595 0.15628259 0.04017303
000390 e7 d4 0b 3e 6a 2d 4b 3e 4d 1c cc 3d 37 7b 4b 3c
       0.13655435 0.19841543 0.099663354 0.012419513
0003a0 1d b9 c6 be a1 20 04 3f 82 60 31 3f 2a be d5 3e
       -0.38813105 0.5161229 0.69287884 0.41746646
0003b0 dc 0a 8c be 5d e9 97 bd 79 89 f9 3d 8f 86 c7 3e
       -0.27352035 -0.074175574 0.12184424 0.38969848
0003c0 2b 90 e6 be 8a 1c 61 3e d7 7a 58 3e 4c 97 08 bd
       -0.45031866 0.21983543 0.2114061 -0.033347413
0003d0 90 73 13 be bf 0e cc be 6b 02 d0 be 9e 30 0d be
       -0.14399552 -0.39855 -0.40626845 -0.13788077
0003e0 48 fe 4e 3d e2 5a ef bd 9c 11 ec bb 2f f6 bd 3e
       0.05053547 -0.116872564 -0.0072042476 0.37101886
0003f0 13 a5 03 3f 74 5a f7 3d 91 c7 8c 3d 3d cf ae 3e
       0.5142376 0.120777994 0.06874002 0.34142485

network_body._body_endoder.seq_layers.0.bias f4 [128]
000000 24 ba bc 38 97 c8 bd bc e4 6c aa bc 52 84 08 bc
       8.99921e-05 -0.023166938 -0.020803876 -0.008332329
000010 33 ca e0 bc 6a 54 af 3c 7e 01 9b bc 8b a4 17 38
       -0.027440166 0.021402556 -0.01892161 3.6154448e-05
000020 0d 78 34 bc 98 94 a1 3b cb 5e 41 bd 68 97 55 bc
       -0.01101495 0.004931044 -0.047209542 -0.013036586
000030 28 c2 a5 bb 36 8a e3 bc bd 98 a5 ba 9a 97 2a 3c
       -0.0050585456 -0.027775865 -0.001263402 0.010412121
000040 14 d3 15 bc aa 0f c7 3c 10 2d c0 bb 61 22 8a bb
       -0.009144563 0.024299461 -0.005864747 -0.004215524
000050 f4 ac 42 bc 5d a2 60 bc ca 3d d6 bc 4f 09 cb 39
       -0.011882056 -0.013710585 -0.02615251 0.00038726113
000060 a3 f3 90 bc e0 c3 1c 3d 28 4f 81 3a ab 9a 37 bc
       -0.0176943 0.03827274 0.0009865509 -0.011206309
000070 73 d7 f6 bc 36 a1 12 3c 61 40 5a 3c 3d d4 a0 3a
       -0.030132031 0.0089495685 0.013321013 0.0012270283
000080 5b f7 19 3b 2b 18 68 3a 79 51 61 bc 11 8c c0 3c
       0.0023493383 0.0008853699 -0.013752335 0.023504289
000090 c7 c4 af 3c ce 55 2f bd 13 78 3a 3d 47 66 d9 b9
       0.021456135 -0.04280644 0.045524668 -0.00041465668
0000a0 0b 78 0f bc 61 a3 97 bc 8d d7 9a 3c c3 ec 20 3b
       -0.008756648 -0.018510522 0.01890161 0.0024555183
0000b0 23 60 9b bb 5c e5 a1 bc cf 08 8f ba 1a 59 8b bc
       -0.004741685 -0.019762687 -0.0010912659 -0.01701026
0000c0 2d 85 59 3b aa e3 e3 bc f5 f3 53 3c f1 00 44 3b
       0.0033190951 -0.02781852 0.012936582 0.0029907788
0000d0 90 9d 04 bd 08 09 eb bc cb 13 bc 3c 99 7f 4f 3c
       -0.032376826 -0.02869083 0.022958657 0.012664699
0000e0 9a af ed 3c 47 f9 ec 3c da fc 4a 3b 11 38 46 bc
       0.029014397 0.028927458 0.0030973465 -0.012098328
0000f0 dc ca 7d ba c2 ef 8c bc d6 9e 98 3a 41 33 61 bb
       -0.00096814125 -0.01720417 0.0011644016 -0.0034362825
000100 1c 3e 9e 3b 64 e3 28 bc a5 f2 76 3b 70 eb 41 3c
       0.0048291814 -0.01030812 0.0037681249 0.011835918
000110 85 a3 9b bc 27 a7 24 bc a0 12 52 3c 26 8c 3b bc
       -0.01899887 -0.010049618 0.012821823 -0.011446988
000120 04 bf 10 bc d9 bc 0e bd 1e 9b 4f 3c 33 2f 68 bb
       -0.008834604 -0.034848068 0.01267126 -0.0035428524
000130 1c af 2e bc 25 63 0a 3a 7f a5 23 bd 32 d0 73 3c
       -0.0106618665 0.0005279056 -0.03995275 0.014881181
000140 17 7b 8d bc 4a 9b 7f bb 48 d8 35 3c 24 d7 3d bb
       -0.017270608 -0.0039002472 0.011098929 -0.0028967345
000150 9a d9 74 bb 68 20 20 bd f8 f1 09 bd 67 8d b8 ba
       -0.0037361146 -0.039093405 -0.033678025 -0.0014080227
000160 97 46 c9 3c 7f c3 3d 3b ec 53 42 bc af d9 9c bb
       0.024569793 0.0028955636 -0.011860829 -0.004786692
000170 98 cc ec ba 4f fb cd bc 0f 76 b7 bb 6d e1 41 bc
       -0.0018066345 -0.025144247 -0.0055987905 -0.011833531
000180 95 94 85 bc 3a de b9 bb 68 eb 85 bb af 82 30 3d
       -0.016306201 -0.0056722434 -0.0040869005 0.04309338
000190 c3 4b e3 bc 5a 5e fd 3c ea 86 b1 bd 8d ec 34 bc
       -0.027746087 0.03092878 -0.08668311 -0.011042726
0001a0 53 d7 48 bc 70 e6 ca 3c 79 e2 3a bc 33 6f 26 3c
       -0.012258369 0.024768084 -0.011406534 0.010158348
0001b0 8b a3 86 bc f7 be 85 bb 26 0b 3c bb f8 d3 fe bb
       -0.016435405 -0.0040816027 -0.0028693168 -0.0077767335
0001c0 32 60 07 bc ce c3 cc bb 55 ba 65 3c 41 81 58 3c
       -0.008262681 -0.0062489277 0.014021476 0.01321441
0001d0 e2 68 0d bd 5c f1 8f 3b 35 e7 c0 3c 1b 4a 14 bd
       -0.034523852 0.004392786 0.023547748 -0.036203485
0001e0 18 15 f6 3c ec d6 74 bc e5 57 da bc 3b 19 96 3c
       0.030039355 -0.0149438195 -0.02665324 0.018322578
0001f0 76 16 72 3c d9 a2 21 b9 ea 81 43 3a 15 45 02 bd
       0.014775863 -0.00015414822 0.00074580184 -0.031804163

network_body._body_endoder.seq_layers.2.weight f4 [128, 128]
000000 89 81 b0 bd 01 c5 3c bc d0 fb c0 bd 5b e5 bb bb
       -0.08618457 -0.011521579 -0.094230294 -0.0057341284
000010 8f 36 75 bc 06 c6 4d 3c d7 b9 68 3d 45 f6 22 be
       -0.014966621 0.0125594195 0.056817856 -0.15914257
000020 71 af 73 3b 59 01 54 3d da d2 b0 bb a7 ca 6b bc
       0.0037183429 0.051759098 -0.005396229 -0.014391578
000030 3e b8 00 be 53 c7 04 3e 8c 33 f6 bd e5 ea 86 bd
       -0.12570283 0.12966661 -0.120215505 -0.06587771
000040 2f 77 9b bd 9d 3f 6c bc b7 3f 98 bd eb e4 ca 3d
       -0.07591092 -0.014419463 -0.07434028 0.09906944
000050 9f 3e df bc 9e f6 79 3d 39 e9 d8 bc 7c ec 29 3e
       -0.02725154 0.061026208 -0.026478397 0.16594118
000060 00 88 26 3e 86 0a 9e bd 91 e1 11 be 9d 4a 80 bc
       0.16262817 -0.07716851 -0.14246203 -0.015660578
000070 e0 11 3a be e0 02 98 be 50 9a 61 bc b2 bd 93 3d
       -0.18170881 -0.29689693 -0.013769701 0.07213916
000080 38 96 50 bd a3 7e 37 bd c0 3f 92 3c f1 59 26 bc
       -0.05092451 -0.044798505 0.017852664 -0.01015328
000090 5a 93 3f 3d 0b 78 1d bd 10 83 89 bd ed 6b 3c bd
       0.046771385 -0.03844456 -0.06714451 -0.046001364
0000a0 9a 50 44 3d 3c 92 c3 bd b1 da 0a 3e 22 05 df 3c
       0.04792843 -0.09549376 0.13559987 0.027224127
0000b0 09 c7 63 be 06 a7 23 3e 46 3e 5b 3d 68 6d 61 3d
       -0.22243895 0.15981683 0.053526185 0.05503598
0000c0 be 1c 3d bd ae 52 8b bd 05 56 dc bd 49 77 00 bd
       -0.04616999 -0.06802879 -0.107585944 -0.03136376
0000d0 8c 0d 33 be c5 00 b5 bc c4 be f5 3c a9 91 52 3b
       -0.17485636 -0.022095094 0.02999819 0.0032130277
0000e0 1e f6 35 3d c9 50 78 3d 09 4c 3c 3d 71 cb a2 bd
       0.04442417 0.060623918 0.04597095 -0.079489596
0000f0 ca ac 38 3e 76 40 79 bd ff 17 53 3d 37 8f c9 bd
       0.18034664 -0.06085249 0.051536556 -0.09841769
000100 f7 c6 0e 3d ea 9f 19 3e cc e1 80 be 5f 44 c0 bd
       0.034857716 0.15002409 -0.2517227 -0.09388041
000110 d5 3e c4 bd 83 6b a3 bd 03 d5 07 bc 8f 80 9c bd
       -0.09582297 -0.079794906 -0.008290532 -0.07641708
000120 80 7a 84 bc 1d fb ca bc 35 d1 a5 bd b0 a7 67 bd
       -0.016171694 -0.024777943 -0.08096544 -0.056556404
000130 a3 71 64 3d fc ae c7 bd 9b f8 aa bc b3 d2 29 be
       0.055772435 -0.097501725 -0.020870497 -0.16584282
000140 96 7a 6f 3d 2d f8 33 3d 94 a7 c4 bd 5c 86 40 3c
       0.058466516 0.04393785 -0.096022755 0.011750784
000150 bc 3b d8 3d cc ca 9f 3d 8b dc 9b bd db fd 8d 3d
       0.105582684 0.07802352 -0.076104246 0.06933185
000160 59 76 cf bc 51 5b 7e 3d f1 85 fe 3d 9c ab 86 3d
       -0.025324987 0.062098805 0.12427891 0.06575701
000170 bb 74 af 3d b2 ce f9 3c 4a 86 bf bc 17 f9 b6 bd
       0.085671864 0.030494068 -0.023379464 -0.08934229
000180 45 e5 34 3d 0f 50 c6 bc e4 bf 6b bb 50 84 08 bd
       0.04416396 -0.024208097 -0.003597253 -0.033329308
000190 a6 58 d2 3d e1 d1 db 3a d8 0a 40 3d 81 d2 8b 3d
       0.102708146 0.0016770923 0.04688534 0.0682726
0001a0 fb 3f d0 3d 7c a6 ab bd fd 19 97 bd 47 cd 81 3d
       0.10168453 -0.08381364 -0.07378004 0.06337982
0001b0 85 ab 09 be 16 81 a6 3d b5 c9 09 3d a2 a5 6b bd
       -0.13444336 0.0813009 0.03363963 -0.057531007
0001c0 3c f1 a8 3c f3 f2 16 bd 4a 77 2b be 34 88 75 bd
       0.020622842 -0.03685279 -0.16744724 -0.059944347
0001d0 02 8e 01 3e fe 18 17 b8 80 d1 b9 3d 5b 7d d9 bc
       0.12651828 -3.602448e-05 0.09073162 -0.026549032
0001e0 de d4 19 bd 5e 38 2b 3d 26 27 a7 3b 94 45 d3 bc
       -0.03755652 0.041801803 0.0051011024 -0.025790013
0001f0 67 b7 22 bd 1f 82 29 bb 3e a3 b0 bd 91 59 d7 bd
       -0.039725687 -0.0025864912 -0.08624886 -0.1051513
000200 bd 46 9e 3c e5 6c e8 3b 7f 9e 71 3d be a3 19 be
       0.01932084 0.0070930594 0.058989044 -0.15003869
000210 5a 10 9e 3d df 65 09 3d 94 0e 94 bd e4 45 49 bd
       0.077179626 0.033544417 -0.07229343 -0.04913892
000220 57 45 07 bd 3c d1 d3 bd 4e 62 dd 3c 4d 7b cc bd
       -0.033025112 -0.10342643 0.027024414 -0.09984455
000230 ed 37 cd bd aa 65 70 bd 36 47 1b 3e be 95 70 3d
       -0.100204326 -0.058690704 0.15163884 0.058736555
000240 88 20 3d bb 9f 22 f2 bc 49 e2 bc 3d d3 57 1c 3e
       -0.0028858501 -0.029557524 0.09222848 0.15267877
000250 40 de 56 be 13 55 0b 3e 4e d8 f4 3a 82 19 0d bd
       -0.20983219 0.13606672 0.0018680186 -0.034448154
000260 2b a4 94 bd 65 e1 b4 bd 07 79 bd bd 16 4d ff bc
       -0.07257875 -0.08832053 -0.092516 -0.031164687
000270 20 2b a5 3c b3 75 2d 3c db 1e 7f 3d 68 27 44 bd
       0.020162165 0.010587144 0.062285285 -0.047889143
000280 17 9b 55 3d d2 71 b8 3c 4f 1b b4 bd f0 3a 8f bd
       0.05214986 0.022515211 -0.08794271 -0.06993663
000290 ce 3d e6 bd f0 7f 61 3e e7 0a 81 3d 10 06 82 3d
       -0.11242257 0.2202146 0.063009076 0.063488126
0002a0 c1 64 1a be 99 8c b2 bc fa d7 ac 3c c5 91 32 be
       -0.15077497 -0.021795558 0.02109908 -0.17438419
0002b0 58 17 39 bd d4 8a 1c be c3 9c ae bd b5 b7 34 3d
       -0.045188278 -0.15287334 -0.08525994 0.04412051
0002c0 01 c8 ca bd 86 d7 03 3d f0 c7 eb 3d e5 c9 ee 3d
       -0.09901429 0.03218796 0.115127444 0.11659602
0002d0 51 b8 c9 3d 0a 77 f3 3d a6 fa 3b bd 6e 4e 93 3d
       0.09849609 0.11887939 -0.045893334 0.07192694
0002e0 41 9b 21 be ed 51 35 3d 7d 46 a4 bc b2 26 1a be
       -0.15781881 0.044267584 -0.020053143 -0.15053824
0002f0 11 1b f8 bd 85 5a 34 3e 4f 34 f3 bc d7 c4 3c be
       -0.121145375 0.17612655 -0.029688029 -0.18434463
000300 ea fb 66 bd 1c 7a bc bd 1a 93 dd bd ce a7 9f bd
       -0.056392588 -0.09202978 -0.10819073 -0.07795678
000310 0d a7 1f be a5 34 02 bc d5 32 2e 3e 46 85 48 3e
       -0.15591069 -0.007947122 0.17011578 0.1958209
000320 f9 9b 05 be 65 63 1b bc 26 7c 34 3e 24 d2 8d bd
       -0.1304778 -0.009484147 0.17625484 -0.06924847
000330 08 ac 59 bd 4a 4f 12 be 1b 09 fc bc b5 12 7f 3d
       -0.053142577 -0.14288059 -0.03076606 0.0622737
000340 f0 47 2f bb 17 01 86 3d 60 75 bd 38 a3 3e 86 bd
       -0.002674576 0.065431766 9.034085e-05 -0.06554916
000350 59 b8 12 3e ad 16 12 3d 47 b0 81 bc 9e b4 8b 3d
       0.14328136 0.035666157 -0.015831126 0.06821559
000360 b4 ba 4a 3e e3 f7 36 3c 7a e2 e7 bd 5e 21 33 be
       0.19797784 0.011167499 -0.11322494 -0.17493197
000370 77 ef 6b bd f3 78 16 3e bd 6f 08 bd 2e 3f 81 3d
       -0.05760142 0.14694576 -0.033309687 0.06310879
000380 1b 5d 28 3e c7 67 04 be c3 5d b6 bd ce 5d df 3d
       0.16441767 -0.12930213 -0.089046024 0.10906564
000390 37 f7 dc bd 2b c9 e9 bc 43 bf a3 bd 34 80 f3 3d
       -0.1078934 -0.028538307 -0.07995465 0.11889687
0003a0 52 13 8e 3d 04 ce 7e 3d 3e 50 18 3d 97 0e ae 3d
       0.06937279 0.06220819 0.0371859 0.084988765
0003b0 a6 2c b2 3d ae 46 19 be 21 6d 06 3e 38 27 cc bd
       0.08699922 -0.14968368 0.13127567 -0.09968418
0003c0 7f a6 cb bd a5 54 cb bd f9 38 12 bc 1a 82 48 bd
       -0.09943866 -0.09928254 -0.008924716 -0.0489522
0003d0 11 78 7d bd 35 88 31 bc f9 80 92 bd 8d cf 25 3d
       -0.061882082 -0.010835697 -0.07153506 0.04048114
0003e0 2f 01 0b be 98 47 c1 bc f2 32 56 3d 75 e6 58 3e
       -0.1357467 -0.023593709 0.05229468 0.21181662
0003f0 62 44 e2 bd 60 87 ac bb ee d3 0e be 1b 10 b1 3d
       -0.11048199 -0.0052651614 -0.13948032 0.0864565

network_body._body_endoder.seq_layers.2.bias f4 [128]
000000 79 0d 26 b9 ed fd bb 3b 6b bc 98 bc d9 4e 32 bc
       -0.00015836013 0.0057370574 -0.018644532 -0.010883057
000010 57 2f 4f bc c2 4f 55 3b 37 b0 01 bc 29 c4 24 bc
       -0.012645564 0.003254876 -0.007915548 -0.010056534
000020 1a d7 29 3c e6 47 d5 bb 49 ac e7 3b 0c 9c 60 3b
       0.010366226 -0.006508815 0.0070700985 0.0034272699
000030 df 81 c7 bb 30 66 bb 3a 9f 23 de 3a e6 9a 97 bc
       -0.00608848 0.0014297422 0.0016947872 -0.018506479
000040 f6 63 c6 bc 60 2d 2d 3a 14 59 f2 bb ca ff 90 bb
       -0.024217587 0.00066061877 -0.007395873 -0.0044250237
000050 0a 4f 92 bc eb 5f 21 bc b5 cc 27 bc 33 06 d8 bb
       -0.017859954 -0.009849529 -0.010241677 -0.006592536
000060 1f 7f 62 bb b8 d8 7f bc 67 49 e0 bb 08 eb 44 bc
       -0.0034560633 -0.015615635 -0.0068446877 -0.012018926
000070 a8 0c 75 bc 17 ce fb 3b 99 db 1e bc f1 cc fe ba
       -0.014956631 0.00768448 -0.009695911 -0.0019439739
000080 71 bb c7 bc c0 47 0f 3c 49 19 da bb 7e 89 64 bb
       -0.024381371 0.008745134 -0.0066558463 -0.003487199
000090 7d ca 81 bb 8d e7 1d bc 2f ae 1b bc 29 ff 51 bc
       -0.003960906 -0.009637726 -0.009501978 -0.012817183
0000a0 fd 7e 51 bc cb 93 55 3b 6f f9 19 bc 0e ee d1 bb
       -0.012786624 0.0032589312 -0.0093978485 -0.006406552
0000b0 65 c3 fb b9 46 2c 29 bc a4 ef 73 bc 0c 4e a7 ba
       -0.0004802003 -0.010325497 -0.014888678 -0.0012764349
0000c0 11 42 f9 ba 39 93 1d bc 54 56 1f ba 05 79 05 bc
       -0.0019016882 -0.00961762 -0.00060782325 -0.008146529
0000d0 48 3c 55 3b f9 b0 94 ba d4 e5 5d bc 21 6b 12 bc
       0.003253715 -0.0011344246 -0.013543565 -0.008936674
0000e0 7e ff 16 bc 83 eb e6 bb 81 af 7b bb 5a 9f 0a bc
       -0.0092161875 -0.007047118 -0.003840417 -0.008460844
0000f0 05 39 9d bb 04 2e d8 ba 95 5b 26 bc aa 91 48 bc
       -0.004798057 -0.0016493206 -0.010153671 -0.01224176
000100 b9 b5 58 bc 82 17 f5 3b 1d 69 c9 bc 7c 92 bb bb
       -0.01322692 0.007479609 -0.024586255 -0.0057242494
000110 5c d2 c5 3b 5c 0d 8a bc 0c a8 ee bc 87 39 88 bc
       0.0060370397 -0.016852073 -0.029132865 -0.016628994
000120 da 56 c7 bb 0e 3e 52 bc 05 27 2f bc ed ba 1f bc
       -0.0060833516 -0.012832178 -0.010690455 -0.009749156
000130 47 61 a7 bc 4a 00 1e bc b0 e9 a7 bc 56 2f 27 bb
       -0.020432128 -0.009643624 -0.020497173 -0.0025510392
000140 70 65 d0 bb c1 54 fa 3b b9 47 6d bb 6f 03 88 39
       -0.0063597485 0.007639498 -0.003620608 0.000259425
000150 cb 84 8e bb ec e1 92 bb b5 68 26 3c 3f 82 1b bc
       -0.0043493262 -0.0044824984 0.0101568 -0.009491502
000160 36 e5 54 bc 86 5e 9d ba 76 14 0e bc ab 17 4d bc
       -0.012994101 -0.001200632 -0.00867187 -0.01251785
000170 21 12 b1 bb b5 2e 7d bc 68 c8 ea bb c8 a9 0d bb
       -0.0054037725 -0.01545303 -0.0071650036 -0.002161609
000180 10 df 99 bc 8c 77 a5 bb 28 b5 b3 bc 94 e4 73 bb
       -0.018783122 -0.0050496515 -0.021936968 -0.00372151
000190 7f 62 59 bc 52 27 13 bc 15 b5 f4 3b b8 92 13 bc
       -0.013268112 -0.008981543 0.0074678757 -0.009007148
0001a0 c8 88 7f 3a 49 a9 8e bb 40 b3 c9 bc 89 6b a6 bb
       0.000974786 -0.0043536765 -0.024621606 -0.005078737
0001b0 8d d8 d7 3b 55 2e e1 bb 2e 73 82 bc 49 31 29 bc
       0.006587094 -0.0068719783 -0.015924063 -0.010326692
0001c0 ae d1 c1 bb e0 03 28 3a db 89 d6 3b 5c 4c fe bb
       -0.0059148883 0.0006409269 0.0065471954 -0.0077605676
0001d0 03 7b 15 bc a7 ba 27 bb 1e a8 39 bc ed 20 d4 bb
       -0.009123567 -0.0025593431 -0.011331586 -0.0064736516
0001e0 71 2b 6f 3b 65 7d 5b bc b1 11 8c bb fa e6 6c bc
       0.00364944 -0.013396596 -0.00427457 -0.014459366
0001f0 ac 54 01 3c 05 75 ef ba 44 76 aa b9 42 7e 1a bc
       0.0078937225 -0.0018269127 -0.00032513042 -0.009429516

action_model._continuous_distribution.log_sigma f4 [1, 3]
000000 83 b6 cb bd ab 9c 98 be d7 44 6d bd
       -0.09946921 -0.29807028 -0.05792698

action_model._continuous_distribution.mu.weight f4 [3, 128]
000000 59 4d c7 3c 7d 98 40 3d 31 3f fc 3b 13 ad 92 bc
       0.024328874 0.047020424 0.0076979627 -0.017904794
000010 19 63 be 3c 53 10 b3 3c b4 8a 50 3c 82 35 ee bc
       0.023240613 0.02185837 0.012728382 -0.029078249
000020 7b 12 d6 bc cd a6 1e bd 20 99 2d bb d0 f5 72 3b
       -0.026131859 -0.038733292 -0.0026488975 0.0037072785
000030 76 97 39 bc 12 1a 3d 3c b0 aa 34 3c a0 39 99 39
       -0.011327615 0.01154186 0.011027023 0.00029225368
000040 3f 64 b1 3c 62 e2 d2 3c a9 0f 72 bc 1d 5d b9 3c
       0.021654246 0.025742713 -0.0147742415 0.022627408
000050 19 33 5d bc 73 7f 06 bd 84 80 c5 bc 2d 31 58 3c
       -0.013500952 -0.03283639 -0.024109133 0.013195318
000060 0a 4c 03 3c e3 22 73 3c ee 71 d2 3a 8f c6 1e 3d
       0.008013735 0.014839861 0.0016055682 0.03876358
000070 0a 59 22 bc 7b 9b f9 3c f1 ca 78 3c d0 83 0e 3c
       -0.009908924 0.030469647 0.015185104 0.008698419
000080 ec 59 de 3a 97 2f c9 3c 7b 1f 58 b9 d9 83 d7 3b
       0.0016964055 0.024558825 -0.00020611093 0.0065769968
000090 41 b6 46 3c e0 24 87 ba 81 c6 85 3c d3 22 38 3c
       0.012128414 -0.0010310672 0.016330006 0.0112387715
0000a0 7b 6f f5 bc 0e 24 c9 bc a6 b4 af 3a ef d6 b3 3b
       -0.029960385 -0.024553325 0.0013405278 0.0054882686
0000b0 d1 6f 23 3c 62 8e 3f bd 98 04 bf bc 2c b6 09 bd
       0.00997539 -0.046766646 -0.02331762 -0.033621
0000c0 1d 52 4e 3c 2b bb 2c 3c 8e 92 be 3c 42 fb d6 3b
       0.0125928195 0.010542671 0.023263242 0.006560714
0000d0 a0 ae 92 bd 54 97 ab 3b fd 16 92 3a 33 a1 b4 bc
       -0.07162213 0.0052365456 0.0011145767 -0.022049522
0000e0 95 f9 04 3d 6e 46 97 bc a3 9e ea 3b bc 04 88 3b
       0.032464582 -0.0184662 0.0071600243 0.004150955
0000f0 43 fe 0f 3c 53 1e a7 3b ff e0 00 3d e2 db cb bc
       0.008788648 0.0051000505 0.031464573 -0.024885122
000100 3c 10 21 bd 68 dd cf 3b 28 3f 21 3d 25 b7 84 bb
       -0.039322123 0.0063435324 0.03936687 -0.004050153
000110 35 50 a1 3d e9 84 58 bb 6a 97 e6 3c ad 51 3f 3c
       0.078766264 -0.0033038205 0.028148372 0.011677188
000120 c1 70 6e bc f3 6d d2 bc 2c c1 4a 3b 5d 46 24 bc
       -0.01455325 -0.025687193 0.0030937893 -0.010026542
000130 e4 a6 36 3a e0 73 4a bc 96 80 7a 3c 9e 41 2a bc
       0.00069676177 -0.012356728 0.015289446 -0.010391621
000140 f8 f7 7c 3c c9 eb 21 3d ca 37 bf bc 8d bf 81 bc
       0.01543998 0.039531503 -0.023342032 -0.015838409
000150 c4 ac 1f bd 9b 2e 55 3c ec 49 5c 3d ba 9d 1a bc
       -0.03898312 0.0130116 0.053781435 -0.009437019
000160 89 2c 1a 3b b9 8b b6 3c 9d 40 30 3b 51 bb b5 bc
       0.002352508 0.022283422 0.0026893981 -0.022184046
000170 23 ba 45 3b d6 63 02 bd 27 15 62 bc 55 2a 1d 3d
       0.003017076 -0.031833492 -0.013798988 0.03837045
000180 3a 17 d7 3b 0f 59 e7 bc 52 e7 a4 bc ca 70 7a bc
       0.006564048 -0.028240709 -0.020129833 -0.01528568
000190 54 f4 c5 3a 40 13 4b 3c 96 3d 08 3d 1a 6c 8c bc
       0.0015102723 0.012394726 0.033261858 -0.01714139
0001a0 03 9d e8 3b 3f 61 fb 3c 86 be 41 bd fd 52 8f 3b
       0.0070987954 0.030686019 -0.047300838 0.0043739066
0001b0 7e 69 8b bb a2 92 67 3c b8 2a 10 3a 5f 32 d3 b9
       -0.004254519 0.014134081 0.00054995297 -0.00040282586
0001c0 a2 20 a2 bc f1 46 59 bd 34 50 5a 3c fe c8 a0 3a
       -0.019790951 -0.05304617 0.013324786 0.0012266932
0001d0 d4 17 05 3b 65 46 f2 3c 8b 4f 99 bb 72 84 c2 3c
       0.0020308392 0.029574582 -0.0046786717 0.023744795
0001e0 5d 4b 2b 3c f7 b8 3d 3c 91 12 b3 3c ff 23 18 bc
       0.01045498 0.011579744 0.02185944 -0.009285926
0001f0 c6 69 be 3c 87 fc a1 3c 2b 6c 6d bd 30 3d 15 3b
       0.023243796 0.019773735 -0.057964485 0.0022772066
000200 6a e0 e6 3b f3 b9 b8 bc d5 e5 22 bc f9 ef de 3c
       0.007045795 -0.022549605 -0.009942492 0.027214037
000210 86 c6 ca 3c e0 b2 17 bc 9e b3 44 bc 2c 8d 1a 3d
       0.024752866 -0.009258956 -0.012005715 0.03773229
000220 4f 05 77 3c a6 b4 88 3c 0a c6 09 3c ea 4a 87 bc
       0.015076949 0.016687702 0.008409033 -0.016515214
000230 fa 0a 78 3b 86 96 4a bc 97 81 c0 bc 66 72 19 3c
       0.003784834 -0.012364989 -0.023499293 0.009365654
000240 da e9 c2 bb 2a 98 31 bc 5c 8f 03 3c ed 8e bf 3b
       -0.0059482874 -0.010839501 0.008029785 0.0058458955
000250 60 c7 a9 bb 59 70 1b 3b 14 32 a4 3b ed 9c 34 3d
       -0.005181238 0.0023718087 0.0050108526 0.04409497
000260 29 9d 1b bc 19 9d 42 bb 38 7a 06 3d ab b3 8b 3c
       -0.009497919 -0.0029695688 0.0328314 0.017053446
000270 2c 79 5f bb c6 5a 12 bd 0e d6 15 bb fc e1 d8 3c
       -0.0034099324 -0.0357311 -0.0022863182 0.026474945
000280 d9 41 90 3b ef dc a9 3c 04 9d b4 3b 85 88 79 3c
       0.004402381 0.020735232 0.005511882 0.015230303
000290 5a 24 9b 3c a4 40 3c bc 40 9b d4 bb a4 40 41 3c
       0.018938232 -0.011490021 -0.006488234 0.011795197
0002a0 b7 a8 da bc 65 1f 62 bd fc db f5 bb 0e f2 71 bc
       -0.026691778 -0.05520572 -0.007503031 -0.014767183
0002b0 54 9d 61 3c c9 37 af 3b 25 1d ca 3c 36 59 f9 bb
       0.01377042 0.0053472263 0.0246721 -0.0076095117
0002c0 a5 db d9 bc cf e5 dc 3b 32 97 1b bc 69 10 63 bb
       -0.026593992 0.0067412625 -0.009496497 -0.0034647232
0002d0 11 84 0b 3c c7 ab 00 bb 69 c1 50 bb e5 79 22 bc
       0.008515374 -0.0019633637 -0.0031853563 -0.009916757
0002e0 ec dc 82 3b 09 df 7e bb b0 19 04 bd fa 08 7f 3c
       0.003993621 -0.0038890264 -0.03225106 0.015566105
0002f0 f8 c1 1d bc fa c2 8b bc c4 b5 76 bb ca 92 61 3c
       -0.009628765 -0.017060746 -0.0037644962 0.013767907
000300 8d 53 02 bd 4e 6e 4e bc 6c 6b 10 bc a4 7a b7 ba
       -0.03181796 -0.012599541 -0.008814674 -0.0013998342
000310 99 2a c6 bc 59 fb 70 ba 93 ac 2e bc 1f 32 0b 3c
       -0.024190234 -0.0009192727 -0.010661262 0.0084958365
000320 db 59 40 bc 69 94 38 bc f9 94 46 3c 0e 5a 45 bb
       -0.011740173 -0.0112658525 0.012120479 -0.0030113491
000330 62 d7 e7 3b 55 4c 0b 3c c0 e2 eb 3c da e8 c0 bc
       0.007075236 0.008502086 0.028794646 -0.023548532
000340 e9 a3 2f bd 5c 20 30 3c 89 12 b7 3b d4 20 84 bc
       -0.042880926 0.010749903 0.0055869264 -0.016128935
000350 cc d3 18 bd c3 1f e3 bc 79 3e 1e 3d ed 1a 56 3c
       -0.03731136 -0.027725106 0.038633797 0.013067943
000360 7d 8f 75 bb c9 91 80 bc 7c 55 c4 bb 68 84 a6 3c
       -0.003746956 -0.015694516 -0.005991636 0.020326808
000370 23 dc b1 3a 2b 1e 06 3c a8 b3 9b 3c 2b ca 51 3c
       0.0013569634 0.008185904 0.019006565 0.012804548
000380 a9 34 74 bb e2 d2 06 3b e2 34 e6 bb ed 8d a0 bc
       -0.0037262833 0.0020572473 -0.007025347 -0.019598925
000390 22 6a 20 bc db d2 41 bc b4 2b 9a bc c8 7c c8 bb
       -0.009790929 -0.011830057 -0.018819667 -0.0061183907
0003a0 68 b7 f2 bb a2 bb 9d bc 36 1b 97 39 75 7d c6 bc
       -0.0074071176 -0.01925451 0.00028821238 -0.024229744
0003b0 bd e3 65 bc b8 6a 5b 3b c8 e7 5f 3b 15 2f c9 b9
       -0.014031348 0.0033480357 0.0034165252 -0.00038372786
0003c0 93 d5 13 bd 29 b4 8c bc 28 e8 8a bc da 96 8e 3c
       -0.036092352 -0.01717575 -0.016956404 0.017405916
0003d0 32 ca ad bb fd a7 b8 3c 34 1e 57 3c b1 84 80 3b
       -0.0053036446 0.02254104 0.01312976 0.003922068
0003e0 55 09 d1 bc cd 96 ef bb ea 57 75 3c c5 cc 02 3c
       -0.025517145 -0.007311678 0.014974574 0.007983391
0003f0 d9 86 bb 38 48 35 44 3a 7c e1 f9 3c e1 1b 89 bc
       8.941972e-05 0.0007484746 0.030503027 -0.016736927

action_model._continuous_distribution.mu.bias f4 [3]
000000 d6 49 09 3c 52 1e 10 bb ca a2 1a 3b
       0.00837942 -0.0021990729 0.0023595565

exp_avg f4 [128, 7]
000000 bc ca c2 b9 da e9 4a b8 07 12 5a b8 58 a3 a7 37
       -0.00037153612 -4.8378344e-05 -5.199204e-05 1.9984014e-05
000010 ed 05 5d 36 b0 23 53 37 8e 21 06 ba 77 e9 69 bb
       3.2935015e-06 1.2584889e-05 -0.00051166944 -0.0035692134
000020 9a b2 87 b9 5b 79 d8 ba c3 9b d0 38 d8 05 e3 37
       -0.00025882275 -0.0016515659 9.947226e-05 2.706323e-05
000030 d3 4e de 38 a2 a1 b4 bb 12 2e 6b bb 4d 05 94 b9
       0.00010600467 -0.005512432 -0.0035885614 -0.0002823271
000040 87 e1 f2 ba aa a6 f0 38 c1 8a 86 38 9a fb e0 b8
       -0.0018530347 0.000114751354 6.415463e-05 -0.00010728017
000050 3d 17 ae bb b3 a5 e7 37 64 64 35 b8 c3 a9 18 b9
       -0.005312829 2.7614506e-05 -4.324726e-05 -0.00014559091
000060 d9 ec ec b4 7b 24 38 37 09 60 1c b9 91 7c 09 39
       -4.4130755e-07 1.0975748e-05 -0.00014913095 0.00013111743
000070 82 ee 2d 3a 27 00 06 39 3c d1 09 3a 87 12 2a b8
       0.00066349667 0.00012779293 0.00052573136 -4.0548413e-05
000080 e0 b9 85 b6 d0 8c fe b7 93 d3 86 3a 54 25 5e ba
       -3.9853476e-06 -3.034473e-05 0.0010286443 -0.000847419
000090 a2 49 03 b9 33 2d 4c ba 01 8c 99 37 37 a7 5e b5
       -0.00012520564 -0.00077887176 1.8304216e-05 -8.2944774e-07
0000a0 7c cb 29 38 98 75 c1 ba b4 e6 f8 b8 e9 97 d6 b7
       4.048225e-05 -0.0014759777 -0.00011868533 -2.5581527e-05
0000b0 e6 88 17 39 41 6c 22 37 a9 2e 48 37 41 0d 8e b8
       0.00014451481 9.681157e-06 1.1931793e-05 -6.7735564e-05
0000c0 9d f1 59 b9 15 4d 1b 3b a6 e8 9e 39 7d a4 bf 3a
       -0.0002078474 0.0023697068 0.00030309445 0.0014621165
0000d0 b1 7c 6b b8 32 d5 1b b8 d7 66 89 b8 59 4c 61 3b
       -5.6144494e-05 -3.7153433e-05 -6.5518245e-05 0.0034377782
0000e0 0f b2 38 b9 6e 80 07 39 a8 bb 70 39 ec 26 ac 37
       -0.0001761394 0.00012922447 0.00022958091 2.0522122e-05
0000f0 40 0f 19 38 ae f2 c6 b9 dd 28 86 b9 65 4f e5 3a
       3.6492245e-05 -0.00037946313 -0.00025588917 0.0017494975
000100 ef e6 2c 39 a5 05 50 39 8d 65 a1 b8 ac f4 de b6
       0.00016489228 0.00019838529 -7.6959936e-05 -6.644599e-06
000110 08 f2 aa b9 b9 c2 39 3b 8d d6 7e ba 59 30 c5 b8
       -0.00032605254 0.0028344824 -0.00097213016 -9.4026975e-05
000120 e4 74 f7 b9 9c 42 cc 37 2f 90 d2 37 07 c4 ca b8
       -0.00047198602 2.4349712e-05 2.5101092e-05 -9.6686235e-05
000130 7a 36 cf ba b8 c5 03 3a be 1e 4b 38 07 c0 bf 39
       -0.0015809082 0.0005026716 4.8427602e-05 0.0003657343
000140 d5 f1 28 36 df 85 77 b6 2e d6 a9 b7 2e fa 42 3a
       2.5174716e-06 -3.6883791e-06 -2.0246105e-05 0.00074377924
000150 52 55 92 3b d6 1d 26 3a 94 48 23 3b 53 9d 15 b9
       0.0044657374 0.00063368434 0.0024915086 -0.00014268355
000160 81 23 32 b8 97 58 43 b9 1c f9 e1 3b f4 4d 9b 37
       -4.2471573e-05 -0.00018629651 0.006896151 1.851374e-05
000170 9d 7a 57 37 fa e1 aa b8 2a d4 10 b6 04 a4 78 36
       1.2843547e-05 -8.148323e-05 -2.1581168e-06 3.705035e-06
000180 10 3c 57 b8 82 20 aa 38 32 5d e6 3a 29 b3 0c 39
       -5.1315932e-05 8.112287e-05 0.0017575382 0.00013418183
000190 81 0d 5c 3a 60 a6 66 b8 c4 ac 38 b8 a5 4e 4d 39
       0.0008394346 -5.4991222e-05 -4.402992e-05 0.00019579621
0001a0 fd 96 30 3b 7b 25 b3 b0 cf 16 e4 30 8d fd 4c 30
       0.0026945465 -1.3034617e-09 1.6595666e-09 7.4575085e-10
0001b0 90 3b 20 2f d9 4e 03 2f 75 48 9f b0 38 e6 dc 2f
       1.4573076e-10 1.1942393e-10 -1.1589366e-09 4.0181347e-10
0001c0 4a 5b e2 b5 e0 74 ab 34 a8 bc 6c b7 9e da 0b 31
       -1.6864881e-06 3.193627e-07 -1.4110621e-05 2.0351432e-09
0001d0 5f af 1e b3 b2 86 b1 32 6f dc 35 37 86 22 74 37
       -3.694674e-08 2.0666764e-08 1.0839764e-05 1.4551571e-05
0001e0 75 7f b2 37 62 84 8a b8 95 a3 f6 2b e0 ea c8 36
       2.1278605e-05 -6.605011e-05 1.7524754e-12 5.9878075e-06
0001f0 9b 56 a5 b8 10 b6 83 38 7e 01 08 b8 80 ee ea b8
       -7.8839446e-05 6.2804786e-05 -3.2426316e-05 -0.000112024136
000200 7b 2b 15 b9 8f 25 a6 32 57 bb a6 36 0b a0 88 b8
       -0.00014225945 1.9342023e-08 4.9689947e-06 -6.514796e-05
000210 59 e7 56 38 98 81 86 3b 6e 53 ee 39 c8 87 16 3b
       5.1237035e-05 0.0041048042 0.00045457057 0.0022969116
000220 d6 1d c3 b8 79 00 2c b8 f1 0e d4 b8 b1 d1 ca 3b
       -9.303882e-05 -4.1008436e-05 -0.00010111731 0.006189548
000230 7c ee a1 39 e7 48 0d b7 bf 5c 79 38 cc 7d 66 37
       0.00030885998 -8.421229e-06 5.9452603e-05 1.3738358e-05
000240 85 81 b9 b5 b0 af fa 36 a9 d6 ec 39 67 71 63 3b
       -1.3821269e-06 7.4710333e-06 0.00045173362 0.0034705044
000250 34 9e ab 39 6e 43 f9 3a a0 96 b5 b8 b5 c9 8f b8
       0.00032733532 0.0019017288 -8.658809e-05 -6.856342e-05
000260 6c ff 4b 39 bf b1 a9 3b 88 49 a4 ba 5a 39 44 b9
       0.0001945474 0.0051786597 -0.0012534121 -0.00018713382
000270 c0 94 2b ba 9c 80 54 38 cd 12 e5 37 2a f9 2c b8
       -0.0006545298 5.0664516e-05 2.7307682e-05 -4.1240048e-05
000280 06 27 eb ba 60 5b df 3a b2 39 57 37 3a ec 64 3a
       -0.0017940707 0.0017040782 1.2828432e-05 0.000873271
000290 5f c6 60 b8 ec ef 80 b7 9d f6 fc 37 75 12 2f 3b
       -5.359051e-05 -1.5370511e-05 3.015558e-05 0.0026713882
0002a0 0f 36 78 b9 d4 4e f7 b7 a4 2a b2 39 9f 9e a6 37
       -0.00023671261 -2.9481402e-05 0.00033982575 1.9862606e-05
0002b0 b2 b8 43 37 11 37 47 b8 23 bb c9 b9 cf 84 ae b6
       1.16659085e-05 -4.7496582e-05 -0.00038477135 -5.201065e-06
0002c0 44 38 06 b6 d9 66 90 36 4d 9d 06 35 64 b1 84 34
       -2.0000307e-06 4.3035075e-06 5.014779e-07 2.4715985e-07
0002d0 f4 ad 1a 33 1c 31 42 b7 61 bf 4e 3a 54 19 5f 39
       3.601413e-08 -1.1574735e-05 0.0007886794 0.00021276373
0002e0 2f 00 24 3a 4d a8 37 b8 91 2b 34 b8 63 fa 69 39
       0.0006256131 -4.3787342e-05 -4.295592e-05 0.00022313888
0002f0 42 56 b8 3a cc f3 cc 32 84 39 f3 31 a6 4d 2f 33
       0.0014063793 2.3859592e-08 7.0787696e-09 4.0815983e-08
000300 68 46 8e b1 09 05 6a 30 7c c3 05 b0 b3 bc d0 33
       -4.140748e-09 8.513586e-10 -4.866292e-10 9.720079e-08
000310 3c b2 1c b8 dd 37 19 b7 48 cc b4 37 22 5e 10 36
       -3.7359292e-05 -9.132517e-06 2.1552798e-05 2.1512465e-06
000320 0b 53 84 35 d8 29 0b 36 a9 7d 58 b8 36 5a e8 b8
       9.858935e-07 2.073697e-06 -5.1615443e-05 -0.00011079425
000330 ec 01 92 b9 9c ac e9 39 d1 2a 60 b6 7c f2 74 b8
       -0.00027848722 0.00044569827 -3.3403524e-06 -5.8399964e-05
000340 11 54 48 3a 94 bb f7 b9 71 c3 d8 3a f5 55 1b 39
       0.00076419214 -0.00047251268 0.0016537738 0.00014813973
000350 0d 36 a1 3a 9e 35 1e b8 31 15 e6 b6 a2 3d fc b7
       0.0012299434 -3.772007e-05 -6.857001e-06 -3.0069441e-05
000360 ca 18 23 3b 7e a6 86 ba 2d 9c 19 38 9f ab 78 ba
       0.0024886602 -0.0010273007 3.6623493e-05 -0.0009486023
000370 72 38 94 b7 6e 14 9e b7 98 9c d9 38 e0 18 bb ba
       -1.766926e-05 -1.8844581e-05 0.00010376534 -0.0014274381
000380 01 41 3c ba cd f1 8c b8 94 8a fb b9 91 35 a9 37
       -0.0007181317 -6.720759e-05 -0.000479777 2.0171314e-05
000390 b1 ba 80 36 ac 96 9f 37 bf 98 89 ba 59 f9 71 bb
       3.836431e-06 1.902444e-05 -0.0010497792 -0.0036922304
0003a0 c3 7d e1 b9 96 a8 18 bb 9f 1f 82 38 ac c3 a2 37
       -0.00043009044 -0.0023293844 6.204773e-05 1.9403022e-05
0003b0 0a a8 9f 38 2d a6 b4 bb 0d ad 88 b9 c4 e4 71 b8
       7.6130105e-05 -0.0055129738 -0.00026068874 -5.7671932e-05
0003c0 41 8d aa 39 34 e3 09 38 e7 0d fc 37 c0 9e ee b8
       0.0003253017 3.2874945e-05 3.0047215e-05 -0.00011378294
0003d0 da 61 b7 b9 91 86 2a 3a a1 fb 01 39 45 b0 8e b8
       -0.00034977385 0.00065050373 0.00012396138 -6.8039204e-05
0003e0 b5 c9 1a b8 09 0d 81 b5 92 9f f4 b8 5e 48 95 3a
       -3.6904315e-05 -9.615043e-07 -0.00011664549 0.0011389365
0003f0 5e 6d 86 ba d2 f9 6e b7 17 d2 06 ba 49 7b 5a 37
       -0.0010255983 -1.4244071e-05 -0.0005143 1.3022517e-05

exp_avg_sq f4 [128, 7]
000000 11 30 0a 37 ef 21 5f 34 57 f0 2b 36 d6 50 be 31
       8.236632e-06 2.0780838e-07 2.5620882e-06 5.5389178e-09
000010 fb e4 cc 31 84 a5 68 35 c3 10 c2 37 1f 12 cc 38
       5.9632135e-09 8.666759e-07 2.3134407e-05 9.730853e-05
000020 61 b7 ce 36 c0 7d 39 38 33 8f 85 33 17 78 14 34
       6.1606265e-06 4.422455e-05 6.219343e-08 1.3827263e-07
000030 13 2a c4 37 93 af 95 39 5f 27 b7 38 0c 31 f8 36
       2.3384613e-05 0.00028550308 8.7334534e-05 7.3966858e-06
000040 25 67 15 38 9b cc 65 33 ef b7 f5 33 86 42 a3 37
       3.562043e-05 5.3504305e-08 1.1442159e-07 1.9462092e-05
000050 9d 59 81 39 9a c6 20 36 02 4e 76 36 8f 3c 00 37
       0.00024671564 2.395746e-06 3.6702263e-06 7.643494e-06
000060 e1 8a 7c 30 f8 3b d8 33 0a 53 92 37 36 9b 94 37
       9.1874425e-10 1.0069192e-07 1.7443224e-05 1.771525e-05
000070 61 9b 0c 38 ad 70 42 35 8c 9a 53 37 3d 6e c0 32
       3.352331e-05 7.2434597e-07 1.2612563e-05 2.2401872e-08
000080 83 82 6e 32 47 57 fb 35 0e c8 b6 38 33 eb 56 36
       1.3883098e-08 1.8726358e-06 8.7156994e-05 3.202539e-06
000090 12 24 e8 33 6c a6 45 36 07 e0 f5 30 6d 3c 3a 30
       1.0809903e-07 2.9452158e-06 1.7889769e-09 6.7752276e-10
0000a0 cd 5a a2 33 f6 06 33 37 e1 47 24 36 a7 46 97 35
       7.5602294e-08 1.0670852e-05 2.4479743e-06 1.1270939e-06
0000b0 b7 f2 a6 36 04 9e 08 31 26 ca 1d 33 74 47 d4 36
       4.9754412e-06 1.9880426e-09 3.6738264e-08 6.3264106e-06
0000c0 a1 dd 41 37 8d 68 47 38 a9 ca c1 35 4c 15 88 37
       1.1555298e-05 4.7542668e-05 1.4438602e-06 1.622238e-05
0000d0 fc 5f 04 33 5c 13 65 32 92 59 bc 35 42 4b fd 38
       3.0820942e-08 1.3333956e-08 1.403316e-06 0.00012077998
0000e0 18 e7 8e 36 99 b7 dd 35 13 ca 06 38 2e 8f d4 31
       4.2588326e-06 1.6519217e-06 3.2136286e-05 6.1862897e-09
0000f0 f9 44 1d 34 17 5e d5 37 04 7e 22 38 4f c6 a8 37
       1.4646857e-07 2.5435393e-05 3.874117e-05 2.0119505e-05
000100 ab d3 a7 36 2c c0 6a 37 da fe 87 32 51 34 87 33
       5.0016292e-06 1.399223e-05 1.5831962e-08 6.295944e-08
000110 6f a8 33 37 99 53 7b 38 4c 83 9d 37 96 e4 3b 35
       1.0708448e-05 5.992092e-05 1.8776998e-05 6.9995565e-07
000120 a7 20 80 37 97 dd 5f 32 28 bb 43 33 62 28 00 37
       1.5273994e-05 1.3030692e-08 4.5572193e-08 7.638797e-06
000130 73 f5 7e 38 2c e3 b4 36 ea 3e b0 33 9d c6 3a 36
       6.078691e-05 5.3908643e-06 8.207083e-08 2.7831768e-06
000140 18 20 63 31 f5 04 19 30 52 8a 46 33 33 58 70 37
       3.305109e-09 5.566812e-10 4.622627e-08 1.432565e-05
000150 04 78 ac 38 86 cf 68 36 b5 ad 09 38 2c d6 5d 33
       8.223954e-05 3.4691489e-06 3.2825123e-05 5.165036e-08
000160 7f d2 cb 33 cf df 80 37 03 88 5c 39 df 49 c1 34
       9.491213e-08 1.5363008e-05 0.00021031503 3.60028e-07
000170 ca 26 a7 33 45 b9 3f 36 9d 3b 53 30 be 72 62 32
       7.783599e-08 2.856906e-06 7.684607e-10 1.3181021e-08
000180 4f 8e 17 36 b4 ce 97 36 e8 d4 10 38 df d2 c6 36
       2.2583588e-06 4.524214e-06 3.453056e-05 5.9254085e-06
000190 16 11 cf 37 53 e8 da 32 e8 c8 e2 33 19 b4 97 37
       2.468428e-05 2.5484189e-08 1.056049e-07 1.8084467e-05
0001a0 76 7d 04 39 01 77 07 33 9c b9 07 31 4b 66 0c 33
       0.00012635239 3.154037e-08 1.9750592e-09 3.2689325e-08
0001b0 3e a4 0f 29 1c c7 2e 2f 24 b7 ec 32 9e 74 96 32
       3.1894836e-14 1.5895946e-10 2.7557299e-08 1.751533e-08
0001c0 26 d4 41 34 e7 f6 f6 32 97 2e cb 35 98 4a 5a 30
       1.8051705e-07 2.8750447e-08 1.5138238e-06 7.941394e-10
0001d0 9e e5 65 30 65 8a a9 33 bf 2e 70 36 76 15 2a 33
       8.363602e-10 7.8948496e-08 3.5789997e-06 3.9600728e-08
0001e0 7e 0a fc 32 1f 5b 3a 35 6d f4 cd 24 dc 18 d0 31
       2.9341432e-08 6.9423e-07 8.931865e-17 6.056423e-09
0001f0 06 ec 8c 35 b3 a9 31 35 4d 93 08 36 62 c2 be 36
       1.0499505e-06 6.6184583e-07 2.035132e-06 5.6850704e-06
000200 a9 96 a5 37 60 1d 4b 2e a7 87 60 34 15 06 18 38
       1.973969e-05 4.6182946e-11 2.0910976e-07 3.624529e-05
000210 72 60 e2 37 6d 0b 2a 39 6f cd 61 36 cc 4d 6d 38
       2.698621e-05 0.0001621672 3.364719e-06 5.6577657e-05
000220 28 fa dd 33 96 0b 8a 32 f2 52 6f 34 42 72 dc 39
       1.03366176e-07 1.6070583e-08 2.2288785e-07 0.000420468
000230 89 6b 53 38 e0 ea b5 35 5f 91 a1 37 ca a3 18 33
       5.040647e-05 1.3553909e-06 1.926039e-05 3.5539223e-08
000240 6a fc 1c 32 ec 95 17 35 8e cc 20 39 b9 d0 07 39
       9.137787e-09 5.647005e-07 0.00015334992 0.00012952359
000250 70 2d 93 36 ab 81 42 38 4c 1d ae 33 78 af fd 32
       4.386231e-06 4.6373967e-05 8.1078355e-08 2.953287e-08
000260 7a 52 61 36 b0 c9 b5 39 24 8a 2a 38 06 0e c6 35
       3.357562e-06 0.0003467328 4.0659812e-05 1.4756231e-06
000270 78 2f b4 37 d0 c9 ed 32 49 39 1c 33 68 4e bf 36
       2.1479776e-05 2.7682205e-08 3.637368e-08 5.7013713e-06
000280 17 c8 05 39 b8 12 95 37 d6 9e b7 36 4e 96 47 37
       0.00012758408 1.77709e-05 5.472316e-06 1.189632e-05
000290 61 95 54 32 e3 4e a3 33 24 f2 5c 37 75 2a 8b 38
       1.2373989e-08 7.6046284e-08 1.31694e-05 6.635945e-05
0002a0 f7 e6 2a 36 94 72 02 35 ce e4 3f 37 8d b2 84 31
       2.5466413e-06 4.8595507e-07 1.143776e-05 3.8620045e-09
0002b0 62 43 69 33 d3 41 1d 37 0e df 9d 37 d6 8c 84 32
       5.4310824e-08 9.373255e-06 1.8819726e-05 1.5430867e-08
0002c0 39 40 3f 30 46 53 d9 31 7f 01 70 2d c4 da 33 2c
       6.957666e-10 6.3249983e-09 1.3642753e-11 2.555887e-12
0002d0 f2 00 a7 2f db a7 0a 32 22 b6 86 38 9c 9f f9 36
       3.0377795e-10 8.070823e-09 6.423543e-05 7.4393593e-06
0002e0 bf 41 1a 38 19 fa 33 33 d6 5a 3c 34 ac e4 fb 37
       3.6777692e-05 4.1904148e-08 1.754191e-07 3.0028015e-05
0002f0 49 42 5b 39 3f 63 a6 33 52 2c 06 32 9d 38 82 33
       0.0002091016 7.74803e-08 7.809904e-09 6.0638946e-08
000300 34 62 21 2e 58 cf 29 30 98 c3 e5 33 ed 3e 52 34
       3.6694384e-11 6.1776495e-10 1.0699222e-07 1.9580666e-07
000310 cd 99 0c 33 6a 2c 8d 30 db a7 2a 32 82 5d 07 2e
       3.273617e-08 1.0271723e-09 9.933468e-09 3.0778498e-11
000320 df 96 db 2c 29 9a 11 2e 5a 9c 85 33 1c d4 02 36
       6.2411044e-12 3.3106105e-11 6.221735e-08 1.9494973e-06
000330 bc 8b 8b 36 23 a1 36 38 81 40 4a 31 5c 0e 90 34
       4.15879e-06 4.354225e-05 2.9431535e-09 2.6832538e-07
000340 46 af 43 38 7e 1c 30 38 f7 f7 52 37 87 2e a5 34
       4.665486e-05 4.1988205e-05 1.2574709e-05 3.0767498e-07
000350 f3 c3 c2 36 db 31 1e 32 91 a2 e7 30 78 10 82 32
       5.804462e-06 9.208146e-09 1.6853666e-09 1.5141481e-08
000360 64 cc 21 38 30 08 0b 39 de 5b 0b 37 59 25 10 38
       3.8575745e-05 0.00013259123 8.306435e-06 3.4367058e-05
000370 57 6f c9 33 6b f1 f4 33 d4 57 96 37 5c 7a cd 39
       9.3800445e-08 1.1406049e-07 1.7922292e-05 0.00039191812
000380 c4 2a 9f 36 ba 1d 31 34 9b c8 1e 36 be 53 5d 31
       4.743548e-06 1.6495224e-07 2.3660602e-06 3.2207335e-09
000390 d2 12 59 31 9a 82 f2 34 fa b4 6a 37 67 9d 84 38
       3.1588354e-09 4.5171038e-07 1.3989624e-05 6.323569e-05
0003a0 9c ea 83 35 96 d2 f9 37 89 0c 19 33 45 22 19 32
       9.828541e-07 2.9781175e-05 3.563449e-08 8.913564e-09
0003b0 db 81 7b 35 36 b1 25 39 70 fd 46 37 07 92 4f 36
       9.369375e-07 0.00015801642 1.1860728e-05 3.0930403e-06
0003c0 04 e7 f8 36 92 46 6c 32 72 cf 39 33 1b 92 e6 36
       7.4178697e-06 1.3753054e-08 4.326234e-08 6.871543e-06
0003d0 27 cf 1a 38 07 10 e6 36 01 3f bf 35 94 31 a2 37
       3.6909387e-05 6.8564e-06 1.4248945e-06 1.9334992e-05
0003e0 9d 61 b5 31 6f 6b fa 33 5a f2 a8 37 0d 51 1e 38
       5.2788907e-09 1.1661074e-07 2.0140014e-05 3.774562e-05
0003f0 33 e2 1e 38 58 d7 ba 35 db 5a 79 37 3d 6f d5 32
       3.78808e-05 1.3920753e-06 1.48627105e-05 2.4847049e-08

exp_avg f4 [128]
000000 3e 37 8f b7 30 8c 0f b9 d2 b4 0f b9 36 40 8d 36
       -1.7072653e-05 -0.00013689767 -0.00013704904 4.2096026e-06
000010 bc 9c ca 37 b0 0a ff b7 3c d6 21 b7 1f 4e b0 38
       2.4153262e-05 -3.0403346e-05 -9.646228e-06 8.406885e-05
000020 1c f4 52 b7 4e eb a3 38 b3 61 2b b8 39 1a 8d 37
       -1.2573812e-05 7.8162746e-05 -4.0860567e-05 1.682072e-05
000030 f5 1f 31 39 c5 f0 41 36 9e 24 93 38 98 0b 36 ad
       0.0001689194 2.8899387e-06 7.016327e-05 -1.03480766e-11
000040 ae eb 9d 34 e7 f1 05 36 c2 5a de 35 b2 1b 20 39
       2.9415008e-07 1.995935e-06 1.6566703e-06 0.00015269106
000050 bc a4 5a 37 4c cf 09 39 14 29 49 b8 9f 08 84 38
       1.3032168e-05 0.00013142562 -4.796039e-05 6.295856e-05
000060 01 b0 8c b7 2c b1 00 b5 49 21 10 38 3b 8d 97 30
       -1.6771259e-05 -4.7941535e-07 3.4363275e-05 1.1026836e-09
000070 5c 63 12 b6 90 b4 73 b7 f2 00 62 38 2a 8c a7 b7
       -2.181353e-06 -1.4525969e-05 5.388348e-05 -1.997322e-05
000080 c9 0f cb b7 5c dc 05 b9 d5 75 9d b7 de 33 16 38
       -2.4206836e-05 -0.00012765959 -1.8770728e-05 3.5811092e-05
000090 5b 5d 1b b8 f9 b5 a5 38 21 3f d9 35 25 cd de a7
       -3.7041824e-05 7.901708e-05 1.6186133e-06 -6.1839796e-15
0000a0 96 15 ec 38 03 81 29 32 e2 ff 56 b6 ca b0 23 b7
       0.000112573776 9.866429e-09 -3.2037428e-06 -9.756719e-06
0000b0 ac c4 ac 2e d1 a0 3a b8 13 b8 21 38 ea 16 d5 b7
       7.8565904e-11 -4.4495628e-05 3.8556824e-05 -2.5402249e-05
0000c0 38 ff 31 ab 21 9e 37 37 f8 31 21 34 c5 41 1b 35
       -6.323722e-13 1.0944467e-05 1.5012472e-07 5.7837707e-07
0000d0 24 06 f0 35 ca 40 19 39 e2 41 3d b6 51 b2 8b b9
       1.7883181e-06 0.00014615353 -2.8201544e-06 -0.00026645002
0000e0 e7 b6 21 b6 65 04 2f b5 c8 f1 90 2f 69 c4 2e b5
       -2.4097333e-06 -6.5198975e-07 2.6365243e-10 -6.5105866e-07
0000f0 7a 83 c4 b6 e0 96 f6 b8 80 d9 b0 38 9c 4f c5 37
       -5.856561e-06 -0.00011758297 8.4328465e-05 2.3521301e-05
000100 e8 09 84 39 c1 8b 5c ae ab b4 e0 b6 de f4 cf 36
       0.00025184383 -5.0146335e-11 -6.6967527e-06 6.197587e-06
000110 a2 61 ba b7 ab 11 fe 33 f9 d2 eb b8 f8 75 60 b5
       -2.2218392e-05 1.18310105e-07 -0.0001124497 -8.361817e-07
000120 7e 13 c7 b6 d7 7a 13 b6 6a 3d b9 b7 ca f5 a6 38
       -5.9329313e-06 -2.197621e-06 -2.2082317e-05 7.9612786e-05
000130 65 32 1e b9 54 0a ff 38 22 f9 45 b6 2c 37 fb b5
       -0.00015086828 0.00012161271 -2.9500302e-06 -1.8717014e-06
000140 8c 65 1c b9 dd b9 b7 ae 51 45 0b b7 c9 f5 d3 2b
       -0.00014915148 -8.3548925e-11 -8.301185e-06 1.5060671e-12
000150 82 b9 fb 36 e3 2d 40 b5 97 ae 9a 35 6c 6d 35 36
       7.501979e-06 -7.159235e-07 1.1524706e-06 2.7034794e-06
000160 8d c1 9e b6 05 11 f3 b6 cd d7 20 38 6f e4 cd 36
       -4.731299e-06 -7.2439457e-06 3.8347953e-05 6.1360693e-06
000170 a6 f5 31 39 83 bd ef 33 2b 58 3c 39 59 32 3d b7
       0.00016971547 1.1163777e-07 0.00017961922 -1.1277e-05
000180 53 28 fc b6 f3 c8 97 b7 0b 25 b7 32 74 ef 48 b7
       -7.5148796e-06 -1.8094177e-05 2.1320849e-08 -1.1976681e-05
000190 30 17 dd 35 43 c2 56 b6 1b 0d 11 37 59 f6 7f b8
       1.6472532e-06 -3.200156e-06 8.645725e-06 -6.1026167e-05
0001a0 a5 01 79 b7 28 38 81 b8 a3 48 8a 38 c6 80 7c b9
       -1.4841939e-05 -6.161659e-05 6.5938824e-05 -0.00024080565
0001b0 af 43 46 36 16 da b3 ac a8 6a 56 37 79 c0 fb b7
       2.9543696e-06 -5.1116984e-12 1.2780227e-05 -3.0011159e-05
0001c0 64 6c 1c 39 30 f8 81 b8 7a 4c 80 38 5f 6a ad 37
       0.00014917698 -6.197428e-05 6.1177605e-05 2.067274e-05
0001d0 08 70 ae 37 17 cc 9c 30 41 ad 2f 37 3d 7c 0b 38
       2.0794585e-05 1.14085e-09 1.0471152e-05 3.325589e-05
0001e0 7b ac d7 31 9a 7b 8e 35 99 20 dd 37 18 8f 1f 37
       6.2769323e-09 1.0615797e-06 2.6360432e-05 9.510455e-06
0001f0 5d 3c 81 b6 94 68 e7 b4 de 2d 44 b8 cb 31 6a b7
       -3.851527e-06 -4.3103194e-07 -4.677276e-05 -1.395908e-05
