TWP_2/results/MoveToGoal/MoveToGoal.onnx (onnx, 75062 bytes, 7 tensors)

network_body._body_endoder.seq_layers.0.weight f4 [128, 6]
000000 d7 f2 2a bf 6d 13 c2 bd 95 31 f2 bd 7c 12 2d 3f
       -0.66776794 -0.094763614 -0.11825863 0.6760633
000010 6d 1b 63 3c 9e 10 b8 be 2b 9c 1e 3e 65 a4 45 3e
       0.013861519 -0.35950178 0.15489261 0.19300993
000020 33 2b 62 3e 3d b2 86 be 5d 14 24 bf b2 33 88 be
       0.22086792 -0.2630786 -0.6409357 -0.2660194
000030 e6 fb 81 3e 94 6a 1c 3e 2a 0e fb 3e ca cb 9c 3e
       0.25387496 0.15275031 0.49034244 0.3062423
000040 44 32 30 be 1b 88 69 bd 1a 7e 06 be 7b 78 08 bf
       -0.17206675 -0.057014566 -0.13134041 -0.5330884
000050 88 d3 2c be 3d d1 10 be 4f 49 81 3e 36 da 8e 3e
       -0.16877568 -0.14142318 0.25251243 0.27900857
000060 32 c9 31 bf 69 eb cb bd 1b 30 91 be 53 38 9f 3c
       -0.69447625 -0.0995701 -0.28357014 0.019436037
000070 b9 9e 16 bf ca 09 9b 3e 63 45 48 3e 51 3c 2c bd
       -0.5883594 0.30280906 0.19557719 -0.04204971
000080 6f 33 c1 be a6 f1 8f bd 57 58 d5 3c 1c fe e1 3d
       -0.37734553 -0.07028513 0.0260431 0.11034796
000090 92 67 8d be dd 0d 01 3c 60 74 d7 3e 06 67 b1 3d
       -0.2761808 0.00787684 0.42080975 0.08662228
0000a0 87 cb 33 3e 29 09 79 3e 1b b4 64 3e bf 36 86 bf
       0.17558108 0.243199 0.2233433 -1.0485457
0000b0 81 e2 22 3f f5 06 7f 3e 87 05 4e 3e 45 01 14 3f
       0.6362687 0.24904998 0.20119296 0.5781444
0000c0 e6 7c b8 bd 2a 5d dc 3e ee c6 de 3d aa e4 eb 3d
       -0.090081975 0.4303983 0.108777866 0.115182236
0000d0 bd 34 07 be 7f 22 b3 be 88 d4 4b be 02 45 91 bd
       -0.13203712 -0.34987256 -0.19905293 -0.0709324
0000e0 28 a8 03 be 65 6e 9a be 19 23 65 3e c3 62 33 3d
       -0.12857115 -0.3016235 0.2237667 0.04379536
0000f0 d6 ee e4 bc 9a 93 04 bf 0b a2 35 3e 59 2c af bd
       -0.027945917 -0.5178772 0.17737596 -0.085533805
000100 be 3e 31 be f4 f6 2f 3e ea 94 de be 2e c7 92 be
       -0.1730909 0.17184049 -0.43472987 -0.28667587
000110 82 b0 b5 3b 96 85 9b 3d 07 28 98 3e c3 88 f5 3e
       0.005544723 0.07593839 0.29718038 0.47955903
000120 f1 72 19 3e 7b 93 a4 3e fd 97 8b be f3 52 bc 3d
       0.14985253 0.3214377 -0.27264395 0.09195509
000130 14 42 86 bd 20 3c 9e bd df fd 24 3e ec 7f 9e be
       -0.06555572 -0.07726312 0.16112469 -0.30956972
000140 d3 12 28 3e 35 b9 75 be d8 19 f6 be 8d 0b 3b bf
       0.16413431 -0.23996432 -0.48066592 -0.730645
000150 b4 0e 78 3f e9 de c7 be 1e cf f0 be 61 c0 6c be
       0.96897435 -0.39037254 -0.47033018 -0.23120262
000160 29 a1 c5 3e 60 eb 30 be e0 8d ee be 3e 54 2c 3f
       0.38599518 -0.17277288 -0.46592617 0.67316043
000170 06 8a a5 be e3 f3 fe bd 07 7f 8a be 36 d3 5f 3d
       -0.32331866 -0.124488614 -0.2705004 0.054644786
000180 df 61 cd 3e a6 6c 4e 3f 35 79 53 3f f6 68 5a be
       0.40113732 0.80634534 0.8260682 -0.21329102
000190 c3 aa fa 3b 2b 60 d4 3c a4 20 38 bf 9e e8 f3 bd
       0.007649751 0.025924763 -0.71924806 -0.119096026
0001a0 68 f0 81 be ca f8 87 bd ad 84 8b bd b9 24 8d 3e
       -0.25378728 -0.066392496 -0.06812415 0.2756708
0001b0 31 82 e4 3e 72 06 56 bf c8 bb c1 be 7e 7c 89 bc
       0.44630578 -0.83603585 -0.37838578 -0.016782995
0001c0 3f c1 0d bc eb 51 81 be ec 1a 2d bd ba 70 91 3e
       -0.0086520305 -0.2525781 -0.042262003 0.28406316
0001d0 85 ff 0d bf aa 32 1e bf ec e1 05 3e 7a 19 48 3f
       -0.55468017 -0.6179606 0.13074464 0.78163874
0001e0 7c 94 92 be d4 8c f8 bd 7e 5c 96 be 38 2d 5c 3e
       -0.2862891 -0.12136236 -0.2936744 0.21501625
0001f0 dd a0 e3 3e 39 69 4a 3f 54 82 00 3f 85 44 47 3e
       0.44458666 0.7906681 0.50198865 0.19459732
000200 a3 96 5e be 51 39 ed be 19 98 09 3f fb a7 0b 3d
       -0.21737151 -0.4633279 0.5374771 0.034095746
000210 fc b6 30 be 60 9b d7 3e 0c 84 d1 3e eb 25 b1 3e
       -0.17257303 0.4211073 0.40921056 0.34599242
000220 0a b6 a9 be 01 06 91 be 85 1d ef 3e ec b6 31 bf
       -0.33146697 -0.28324893 0.4670221 -0.6941974
000230 b3 7d d7 3c 12 e1 99 be 1c b3 5b 3e ef 07 04 bf
       0.026305055 -0.30054528 0.21455044 -0.51574606
000240 10 47 06 3f aa f1 5b be dd 7b 90 3e af e7 1d bf
       0.5245218 -0.21478906 0.282195 -0.61681646
000250 a2 7c ef 3e 04 dc 6a 3e fe 64 76 bd c5 f5 28 3f
       0.46774775 0.22935492 -0.060154907 0.66000015
000260 a0 33 67 be 46 77 32 bf fb 9e 28 3e 19 b2 43 3f
       -0.22578287 -0.69713247 0.16466896 0.7644363
000270 b9 54 13 bf 97 ea 94 be ec 98 a6 3e e4 aa ba 3e
       -0.5755115 -0.29085228 0.32538545 0.36458504
000280 2d f8 4c 3f 98 1c ab bf a3 bc 0f 3f 73 74 0f 3f
       0.80066186 -1.3368101 0.5614721 0.5603706
000290 b1 7d 8b 3e 5a 5f 51 bf 80 bc 13 be ff a5 04 3f
       0.27244332 -0.8178612 -0.14427376 0.5181579
0002a0 7d 09 58 be 3d d7 5f be c9 35 fb be d2 fb 88 3e
       -0.2109737 -0.2185945 -0.49064472 0.26754624
0002b0 0a e7 93 3d 3d 1b 0a bf 7b 4d 01 be e3 74 3b 3e
       0.072218016 -0.5394781 -0.12627213 0.18306307
0002c0 8a 57 a0 3c 86 35 e5 be 5a 14 92 bd 9c cc 0e 3f
       0.019572992 -0.44767398 -0.07132788 0.5578096
0002d0 98 f7 9e 3d 1b a5 10 bf 62 25 c5 3e b7 1d ed 3e
       0.077620685 -0.5650193 0.38505083 0.46311733
0002e0 b5 48 3f bf a6 56 b3 3e e7 94 51 bd b2 41 68 3e
       -0.7472032 0.35027045 -0.051167395 0.22681311
0002f0 99 16 16 bf 36 1f 23 bf 1c 1e cb 3e e5 39 d4 3e
       -0.5862823 -0.637195 0.3967141 0.4145042
000300 d3 e4 53 be fd 95 7f bf 0c 29 03 3e 18 80 01 be
       -0.20692758 -0.9983824 0.12808627 -0.1264652
000310 f4 a0 d8 be 56 e3 8b be 69 eb 8e be 56 a5 9e 3d
       -0.42310297 -0.2732188 -0.2791398 0.07746379
000320 ce 74 24 3f 79 bc fd 3e e3 84 03 3c 2e 56 8f bf
       0.6424073 0.49557856 0.008027288 -1.1198175
000330 2e 30 b1 3e f8 c7 20 be a7 a7 2c be b1 20 6b be
       0.3460707 -0.15701282 -0.1686083 -0.2296169
000340 bf 2f 08 bf 7e 3b 01 3f 1a 65 b1 be 5f 4e 76 3e
       -0.53197855 0.504814 -0.34647447 0.24053334
000350 f2 fd e2 bd 49 f1 9d 3e f6 d8 0e be 95 db 87 be
       -0.110835925 0.30848148 -0.13949952 -0.26534715
000360 ea 6f 3e bf eb 3a d9 3e 0a d1 05 3e a9 d0 b9 3e
       -0.7438952 0.42427763 0.13068023 0.36292008
000370 0a 84 0a 3d 24 74 12 3f 11 06 2e 3f 03 9f 24 bf
       0.03381733 0.57208467 0.67978007 -0.6430513
000380 32 94 94 be d2 ab 47 3e 89 90 02 be 3f 40 34 3f
       -0.29019314 0.19499138 -0.12750448 0.7041053
000390 3d 89 02 3f fd 63 a5 bd f3 4b 1c bf 3a bf 45 bf
       0.5099066 -0.08075712 -0.6105339 -0.77244914
0003a0 d2 1b 66 be 45 08 45 bf 15 bf 96 be e2 5f a4 be
       -0.2247155 -0.76965743 -0.2944266 -0.32104403
0003b0 48 1c 28 bf 68 91 5a be c6 3c 47 be 73 18 11 3f
       -0.65668154 -0.2134453 -0.19456777 0.5667793
0003c0 a6 6e cb 3d ab 05 f7 bd 6c c2 42 3e 45 35 9f 3e
       0.09933214 -0.12061628 0.19019479 0.3109533
0003d0 81 f5 d4 3c 8b f1 cf be 3c fc 99 3e e2 66 65 bf
       0.025995972 -0.4061397 0.30075252 -0.8961011
0003e0 63 a0 09 be 31 44 4e 3f bc 03 bb 3e 53 bd a5 bd
       -0.13440089 0.805728 0.36526287 -0.08092751
0003f0 ac 52 8a be 00 bb 14 3e d0 11 17 3f e1 90 e4 3e
       -0.270162 0.1452446 0.59011555 0.44641784

network_body._body_endoder.seq_layers.0.bias f4 [128]
000000 73 09 38 ba 57 ee 20 3b 9e 1f c0 bb 1c d7 ba 3a
       -0.0007020451 0.0024556124 -0.005863144 0.0014254781
000010 6f 7b a9 bb d3 6d ac 3b a4 b2 5a bb b1 80 bc bb
       -0.005172185 0.0052621155 -0.0033370638 -0.005752646
000020 a6 d5 ef 3b d7 ec 10 bc b6 54 51 bc cb 92 07 bc
       0.00731917 -0.0088455295 -0.012776544 -0.008274744
000030 35 6e 60 bc 69 fe 45 bc 0d 16 19 bc a5 8b 63 bc
       -0.01369815 -0.012084582 -0.009343636 -0.013888274
000040 67 03 95 bb a8 6c e5 3b 8e d1 52 bb ca 76 9c 3c
       -0.0045475247 0.007001478 -0.0032168361 0.019099612
000050 cd 50 64 3c 7b 80 8d bc 32 22 4e 3c 06 15 36 3b
       0.01393528 -0.017273178 0.012581395 0.0027783527
000060 16 34 c3 3b 23 48 31 bb 29 57 29 b9 6b 29 0e 3c
       0.005957137 -0.0027051053 -0.00016149566 0.008676867
000070 2b 22 c2 3b 4a 4b c5 3b 8a 40 5a 3a 5e c3 47 bb
       0.0059244833 0.006020938 0.0008325657 -0.0030481438
000080 f7 ae 94 bc 12 67 37 3b 3d 6c e9 3b 9e 14 e1 3b
       -0.018149836 0.0027985019 0.0071234987 0.006868913
000090 bb f4 2d 3c 8d fa 94 bc 66 e5 7e 3b 22 5f 32 bc
       0.01061743 -0.018185878 0.0038894056 -0.010886939
0000a0 31 3d 78 3c 18 0d 1f 3c 70 a8 11 3c 11 27 aa 3c
       0.015151308 0.009707712 0.008890256 0.020770581
0000b0 6b f7 0b bc f1 e4 e4 3b 90 20 1d 3b cf 7a d8 3b
       -0.008542876 0.0069852998 0.0023975708 0.006606437
0000c0 55 d2 58 3c 14 43 fa 3b 0d 65 44 3c 39 a1 4e bc
       0.013233741 0.007637391 0.011986983 -0.012611681
0000d0 7b 80 5f bb 48 ba 20 bc 05 13 3c 3c fb 3b f8 3b
       -0.003410368 -0.009810038 0.011479144 0.0075755096
0000e0 f9 27 69 3b fc 4f 6c 3c a0 16 fa 3c fb 84 84 3c
       0.0035576804 0.014423367 0.030528367 0.016176691
0000f0 e5 05 0f 3c 5f 62 a8 3b a2 be 55 3c 16 7d 48 3c
       0.008729433 0.00513868 0.013045939 0.012236854
000100 c6 c1 bb ba f5 0e 9d bb b3 26 37 bc 26 fd 73 3b
       -0.0014324717 -0.004793043 -0.01117866 0.0037229746
000110 a4 d7 e6 bb ee dd af bc 12 96 3d 3c 6a 0a 25 3c
       -0.0070447493 -0.021468129 0.011571424 0.010073284
000120 b1 6b 10 3a c3 63 64 3c cb d7 64 3b c6 d4 d6 3b
       0.00055092113 0.013939801 0.0034918662 0.0065561263
000130 31 97 9b bc d0 dd 3d bb aa 2f 2e bc e0 b1 82 3c
       -0.018992992 -0.0028971322 -0.010631481 0.015953958
000140 6e 05 72 3c bd 84 73 3c 50 9d 83 3a 85 e4 0e 3c
       0.014771802 0.01486319 0.001004139 0.0087214755
000150 9e 2e 0b bc f7 0f 06 bc d6 6b 34 bc 1b c0 75 3c
       -0.008495001 -0.008182517 -0.011012038 0.014999415
000160 b4 06 2d 3c 29 0a 28 bc d3 22 18 ba 8f fa 86 3b
       0.01056068 -0.010256329 -0.0005803529 0.0041192244
000170 1d 0b c2 bb 3e b8 46 3c 6e a3 b8 3c 38 5e da 3b
       -0.005921735 0.012128888 0.022538867 0.006664064
000180 0f 4a ac bb 60 a7 1c bb 1f 8a 31 3c a9 73 3d 3c
       -0.005257852 -0.0023903474 0.010836153 0.01156322
000190 9e df be bb 10 c4 36 3c 81 74 96 bc d9 43 06 3c
       -0.005824997 0.011155143 -0.0183661 0.008194887
0001a0 9e 67 82 bc 19 db 74 3c 99 25 b0 3a 54 27 a7 3c
       -0.01591855 0.014944815 0.0013438939 0.020404495
0001b0 2d 70 8b bc 42 d0 c5 3b 57 48 43 bc fd c5 10 39
       -0.017021263 0.006036789 -0.011919103 0.00013806667
0001c0 fb 3f 93 3c ca e4 4d 3c 35 53 31 bc 0c a2 4c b8
       0.017974844 0.012566755 -0.010823061 -4.8788308e-05
0001d0 6a da 41 b8 90 83 99 3c 92 77 1b bc 2f 58 57 bc
       -4.62182e-05 0.018739492 -0.009488957 -0.013143583
0001e0 d9 ac cc bb 5c 84 25 3c 5c 7c 57 3c a1 4e 23 3c
       -0.006246191 0.010102358 0.013152208 0.009967477
0001f0 90 5c 04 bc 0b 62 59 3c cc c9 69 3c 6a 79 2f 3b
       -0.008078709 0.013268004 0.0142693035 0.002677525

network_body._body_endoder.seq_layers.2.weight f4 [128, 128]
000000 63 6d 27 3c b1 6d 89 bd 10 c6 77 bd 5b f9 b5 3d
       0.010218951 -0.06710375 -0.06049162 0.088854514
000010 d1 30 ac bd 85 1c 40 3c e8 66 6e bd 62 af 16 3e
       -0.084077485 0.01172555 -0.058203608 0.1471534
000020 de fb 84 bd 6e 40 f6 3d 37 44 45 3c da ee 97 bd
       -0.06493352 0.12024008 0.0120401895 -0.07418604
000030 26 af 4a bd d0 60 ea bc 48 8b 90 3d 8b 45 9c bd
       -0.04948344 -0.028610617 0.07057816 -0.07630452
000040 4c 2c a1 bd 6c 32 5f 3d 86 c7 db bd a9 95 c1 bd
       -0.07869777 0.054491445 -0.107314155 -0.094523735
000050 91 ef ce 3d 16 38 49 3c 2a e0 8e bd 42 19 09 3e
       0.101042874 0.012281438 -0.0697635 0.13388541
000060 2e 5a c4 3d 46 44 0f be b7 b7 42 3d b2 b0 93 3a
       0.09587513 -0.13990888 0.047538485 0.0011267869
000070 d9 a4 8f 3d 23 63 c5 3d fc 48 c7 bd 5c 1a e1 bd
       0.07013864 0.096380495 -0.097307175 -0.10991356
000080 e5 39 d8 bd e8 6a 72 bc d0 68 07 be 4a f1 d0 3c
       -0.105579175 -0.014795996 -0.13223577 0.02550568
000090 46 e3 9b 3b 6a af 90 3d 77 25 07 3c 10 2d fe bc
       0.0047573177 0.070647076 0.008248678 -0.031027347
0000a0 3e 72 dc bd 81 71 3f 3d 4c b6 97 bd 9d 60 d9 bd
       -0.107639775 0.046739105 -0.07407817 -0.10614131
0000b0 42 cf d2 3d b7 97 0e 3e 30 e4 1f be db af a3 bd
       0.102934375 0.13925062 -0.1561439 -0.07992526
0000c0 22 3f 05 bd f4 38 08 38 65 d8 35 bd 84 52 6e 3e
       -0.03253091 3.247797e-05 -0.044395823 0.23273665
0000d0 00 6e 42 b9 c9 30 20 be 08 40 e0 bd 8b e7 87 bd
       -0.0001854226 -0.1564361 -0.10949713 -0.0663596
0000e0 ba c4 f7 3d 3c 9f 88 3d 0f 6e 83 bd a9 4d 85 3c
       0.120980695 0.066709965 -0.064174764 0.016272383
0000f0 c7 b5 67 3d 67 05 95 3d 31 65 e9 3d ac ed 31 3e
       0.05656984 0.07276421 0.11396254 0.17375821
000100 7a c8 82 bd ee 4f c3 bd 32 f0 51 bd 98 cf f9 bd
       -0.06385894 -0.0953673 -0.05125446 -0.121977985
000110 20 f0 cf 3d 0b 45 3e bd 38 b1 4f bd 40 fd af bc
       0.10153222 -0.046452563 -0.05070612 -0.021483064
000120 35 31 61 bd ae 2f 04 3e 54 bb d5 3b ec f8 30 bd
       -0.054978568 0.12908813 0.0065225754 -0.04320614
000130 62 12 c6 bd 6b 65 e1 3d 14 01 5d bc d8 98 e9 3d
       -0.09671475 0.11005672 -0.013489027 0.11406106
000140 5f 6f 56 bb 54 6d 59 3d 44 8e c5 3d 7d 0b 8c 3d
       -0.003272019 0.05308278 0.09646276 0.06838129
000150 6b 06 10 be 48 a7 f9 bd 5b 84 e1 3d d4 59 9e bd
       -0.14064948 -0.121901095 0.11011573 -0.07731977
000160 3c 3c ab bc 9d 47 a8 3d 68 7e b7 bc 51 a6 2e 3d
       -0.020902745 0.08216784 -0.022399142 0.04263908
000170 7e 02 ea 3d 03 3c a2 bc 7e 4b 18 3d d4 13 df bd
       0.114262566 -0.019804006 0.03718137 -0.10892454
000180 fe 3a 28 3d 49 12 2a be 28 6d b0 bc c3 9f 1b 3d
       0.041071884 -0.16608538 -0.021536425 0.037994158
000190 2f e5 2b bd 42 d6 b3 bc 07 48 46 bd 88 e5 a2 bd
       -0.041966613 -0.021952752 -0.048408534 -0.07953936
0001a0 de 5f 9a bd b6 88 12 3d ca e0 85 3d 35 8d 2a bd
       -0.075378165 0.03577491 0.06537016 -0.04163857
0001b0 c6 15 67 3d 80 ff 85 bd 53 40 0a 3e fd a9 7c 3d
       0.05641725 -0.065428734 0.135011 0.06168555
0001c0 96 cc 3f 3d 7f 4b 52 3d a4 04 4a be c1 1a d6 bd
       0.046825968 0.05134153 -0.19728333 -0.10454322
0001d0 bf c1 41 3e e8 c3 bf bc dd a3 05 3d d6 a5 35 be
       0.18921565 -0.023408845 0.032626975 -0.17739043
0001e0 fc 22 49 3d f4 3e 5c 3d 46 dd b2 3d 27 0d 48 3e
       0.04910563 0.053770974 0.08733611 0.19536267
0001f0 91 4a 47 bd 47 6d 2f be 88 d1 1c 3c df 38 31 bd
       -0.048655096 -0.1713153 0.0095714405 -0.043267127
000200 79 6d 77 3d e1 aa f5 bd bc 28 00 bd a2 20 a9 bd
       0.060407136 -0.11995483 -0.031288847 -0.08258177
000210 90 75 4e 3d e8 58 c2 3c 0f a2 34 bc 27 ae 85 bd
       0.050405085 0.023724034 -0.011024966 -0.065273575
000220 35 98 eb bc b1 7c 13 bd 4a a4 0d bd c2 8c f7 bd
       -0.028759101 -0.036007587 -0.034580506 -0.12087394
000230 7e dd 04 3d f5 ee b3 bd 4b 5c 97 3d 12 fe 93 bd
       0.032437794 -0.08785812 0.0739065 -0.072261944
000240 1e 34 8d bd a8 c7 51 3d 3f 11 5f 3d e9 d6 05 3d
       -0.06894706 0.051215798 0.054459807 0.032675657
000250 55 fd 1c 3e e4 f4 ca bd ef 6d c3 bd fe cb 44 be
       0.15331014 -0.099099904 -0.095424525 -0.19218442
000260 2f b7 b2 bc 1d 80 da bd cb 9e 05 bc d2 84 5c 3d
       -0.021815864 -0.10668967 -0.008155535 0.053837605
000270 98 0c 7b bb a5 aa de bd c4 26 94 bc ec 52 87 3d
       -0.0038307067 -0.108723916 -0.018084891 0.06607613
000280 da 20 40 bd a2 8d 98 3d c0 32 97 bd 59 08 46 bd
       -0.04690633 0.07448889 -0.07382727 -0.048347805
000290 ed b7 85 3d ea b4 eb bd e1 5e ad 3d 7d 63 23 be
       0.06529222 -0.11509116 0.08465362 -0.1595592
0002a0 e5 7d 90 3d 1b ac 53 bd 34 f9 e1 bb 4d 86 77 bc
       0.070552625 -0.051677804 -0.0068961624 -0.015107703
0002b0 59 5e e9 3c 28 b5 09 bd 83 51 58 bd 55 97 cb bd
       0.028487371 -0.03362003 -0.05281211 -0.09940974
0002c0 44 f1 20 be 4d f8 2d bd c4 46 c8 3c 6f 72 ac bd
       -0.15717036 -0.042473126 0.024447806 -0.08420264
0002d0 86 d2 4f 3d 8a 2e f3 3a 1f 5e 09 bd e4 57 83 3d
       0.05073788 0.0018553298 -0.033537026 0.06413248
0002e0 6d 17 a8 3c ca 5c 0f 3e a4 e5 97 3d 08 87 b8 bd
       0.020518983 0.1400024 0.07416847 -0.0901013
0002f0 b4 a9 87 bd 36 a6 42 3d d2 17 b1 bc b3 0c c3 3b
       -0.06624165 0.047521792 -0.021617804 0.0059524416
000300 52 80 a4 bd 73 3d 09 3e 62 92 20 3d b5 c2 30 be
       -0.08032288 0.13402347 0.0392021 -0.17261775
000310 34 eb ea bc 8c db 29 be b5 e0 b8 3d d7 05 b5 3d
       -0.028676607 -0.16587657 0.090272345 0.088390045
000320 7f e5 06 be 97 39 92 bd 65 34 c5 3d e5 ee c3 3a
       -0.13173483 -0.07139891 0.09629134 0.0014948515
000330 ba aa a8 bd bc 27 be bd 56 6a b7 bd 60 57 89 3d
       -0.082356885 -0.092849225 -0.08955829 0.067061186
000340 3d 2c c0 3c 73 46 e8 3d a5 2b 9d bd d3 6d 26 be
       0.023458594 0.11341562 -0.0767434 -0.16252832
000350 68 20 33 bd 72 1b 98 bc 50 ab d0 bd 60 a5 46 bd
       -0.043732077 -0.018567774 -0.10188925 -0.048497558
000360 bd f5 40 3d f5 5c 57 bd 0a ce 51 bd 21 cd 07 3d
       0.047109354 -0.052578885 -0.051221885 0.03315461
000370 aa d9 ca bd 07 69 04 be 69 b1 85 38 77 f5 d8 3d
       -0.099047974 -0.1293069 6.3749794e-05 0.10593694
000380 61 a4 36 bd ca 34 01 bd ad 7a 92 3d 6d 82 e0 3b
       -0.044590358 -0.031544484 0.07152305 0.0068514855
000390 0a 2c a8 bc 49 0a 07 be 2c b3 16 3c ac b8 8a bd
       -0.020528812 -0.13187517 0.009197991 -0.067735046
0003a0 89 08 21 3d b9 b4 9a bd cd db 02 bd 12 e6 01 3d
       0.03931478 -0.07554001 -0.0319479 0.031713553
0003b0 4c 32 cd 3d 7c 46 93 3b 0c 34 b5 bb 1d 0a 1b bd
       0.10019359 0.0044944864 -0.005529886 -0.03785144
0003c0 35 11 c6 3d 5e 20 f0 bc bd a5 22 be fd 28 75 3d
       0.09671251 -0.029312309 -0.15883537 0.059853543
0003d0 ef f5 99 3d 26 17 73 3c a6 0a c4 3c 0d 50 e7 bd
       0.07517611 0.014837062 0.023930859 -0.11294565
0003e0 28 6e b0 3d 5f 37 62 bd 91 c4 07 bd 2a 9a 4a 3d
       0.08614761 -0.055228587 -0.033146445 0.04946343
0003f0 b6 fd 28 be 31 ca bb bc 5a 97 04 be a4 e6 7b bd
       -0.16503033 -0.02292356 -0.12948361 -0.061499253

network_body._body_endoder.seq_layers.2.bias f4 [128]
000000 b9 8f ff bb cc 28 59 3c 00 b7 42 bc 54 79 32 ba
       -0.0077991155 0.013254356 -0.011884451 -0.00068082404
000010 b0 63 1e bc 03 0b 75 39 e9 38 60 bc 8e 55 2f bc
       -0.009667322 0.00023369123 -0.013685443 -0.01070155
000020 51 85 38 3c bc d3 c6 3b 28 c2 32 bc f4 7c a5 3b
       0.011262254 0.006067721 -0.010910548 0.005050296
000030 5a ab d7 3b df 2f 2b 3c 85 9c 2b bc f4 de d5 3a
       0.006581706 0.010448425 -0.010474329 0.0016317056
000040 ce ec 44 3a 6d 6a 15 3b 86 77 1a bc 72 b0 61 bc
       0.0007512093 0.002279903 -0.009427911 -0.013774978
000050 9e c9 77 bc 67 90 0a bc b0 37 2f bc ef 7c 40 3c
       -0.015123753 -0.00845728 -0.010694429 0.0117485365
000060 56 35 0d 3c d9 c6 9e 3c ce 9f 36 bc e1 71 f7 3b
       0.008618673 0.019381927 -0.011146499 0.007551417
000070 46 cb 48 bc c3 83 63 3b 78 d0 a8 3b 7c cb 2c 3b
       -0.012255495 0.0034715987 0.0051518045 0.0026366403
000080 0f ca 28 3c 4c 8d 6f ba 90 ba 22 bc d1 aa 6d bc
       0.010302081 -0.00091381813 -0.009932175 -0.014506058
000090 20 93 4d bc 35 ec 3c 3c 8a 4b 56 3c 4d d6 4d bc
       -0.012547284 0.0115309255 0.013079533 -0.0125633
0000a0 1a 2e 85 39 94 4a 29 bc 05 2d a2 3c 2c ee 32 bc
       0.00025402085 -0.010332722 0.019796858 -0.010921042
0000b0 8a 2d 2b 3c 4e 9b 62 3c e5 2c 98 bb aa f9 86 bb
       0.010447869 0.013830973 -0.0046440237 -0.0041191177
0000c0 fe bc e1 bb a4 f7 4e 3c 74 46 77 3a a8 14 68 bc
       -0.0068889847 0.012632284 0.00094328006 -0.014165081
0000d0 0a b5 07 3c de 71 0d bc 11 58 4d 3c 11 a7 73 3c
       0.008282909 -0.008633105 0.012533204 0.014871375
0000e0 e2 dc 3a bc 93 3d 2a bb 90 b0 8a 3c a2 73 fe 3b
       -0.011405202 -0.0025976643 0.016929895 0.0077652493
0000f0 86 5d 85 3c 6d 83 75 bc fe de 01 bc 27 7a a9 3b
       0.016279947 -0.014984948 -0.007926701 0.0051720324
000100 b3 9e 11 3c c7 5c 59 3c 18 2c 8b bb f0 55 18 3c
       0.0088879345 0.013266749 -0.0042471997 0.009297833
000110 40 06 10 3b 00 5c 81 b9 de ef 12 3c cf 90 04 3c
       0.0021976382 -0.00024673343 0.008968322 0.008091166
000120 f0 4b a3 3c 67 ba 4e bc 8a f2 14 bc 43 d9 33 3c
       0.01993367 -0.012617684 -0.009091029 0.010977092
000130 82 23 dc bb 5c a2 18 bc d1 1a 35 bc ee f9 92 3b
       -0.0067181 -0.009316053 -0.011053757 0.0044853603
000140 fb 4b 11 bc 29 1b 2e 3c 34 81 7b 3c 8e f8 27 3c
       -0.008868213 0.010626593 0.015350629 0.010252131
000150 e2 4c 42 3c 29 f9 33 3c aa 16 20 3c a8 39 6e bc
       0.011859151 0.010984697 0.0097710285 -0.0145401135
000160 93 a9 ef ba 73 c9 76 bb 20 6b 2f 3c 88 41 6d bc
       -0.001828479 -0.0037656694 0.010706693 -0.014480956
000170 50 9c 54 3c f7 85 28 3b 90 d9 5e bc 99 1c 17 bc
       0.012976721 0.0025714615 -0.013601676 -0.009223127
000180 54 25 2c bc 52 f3 ae bb e1 94 c8 bb 1c 09 0f 3c
       -0.010506947 -0.0053390646 -0.0061212634 0.008730199
000190 8d 9c 53 3c 64 88 2e 3c a8 94 7f 3c c1 42 6e bb
       0.012915743 0.010652635 0.015599407 -0.0036355706
0001a0 72 f1 34 3c 47 f0 85 bc 76 f0 28 bc 43 ba a7 bb
       0.011043893 -0.016349925 -0.010311237 -0.0051186397
0001b0 bd 1e 49 3c 4f 94 08 bc 8e de 50 bc 74 98 d5 ba
       0.012275395 -0.008336141 -0.012748374 -0.0016296045
0001c0 a4 92 31 bc a0 83 9f 3b ca d4 59 bc 4c f4 9d 3c
       -0.0108381845 0.004867986 -0.013295362 0.019281529
0001d0 b8 8a 9a 36 b4 b6 63 3c f4 5c 43 bb 30 9a 4b 3c
       4.6057066e-06 0.01389854 -0.0029810043 0.012426898
0001e0 d8 53 53 bc cd b1 5c 3c 60 4c 49 3c 46 fb 83 bb
       -0.012898408 0.013470125 0.012286276 -0.004027757
0001f0 eb 9c 31 bc ae bc 44 bc f7 98 85 bc e1 0c 8d bc
       -0.010840635 -0.012007875 -0.01630829 -0.017218055

action_model._continuous_distribution.log_sigma f4 [1, 2]
000000 1f 62 5d bc e2 09 4b 3a
       -0.013512163 0.0007745308

action_model._continuous_distribution.mu.weight f4 [2, 128]
000000 d8 f0 70 bb 38 6e 89 3c cc b3 0a bd 61 81 4b bc
       -0.0036764648 0.01677619 -0.033862874 -0.012420983
000010 eb 39 e2 bc 99 15 0a 3c 75 0a c0 bc 5c cf 71 bc
       -0.027615508 0.008428001 -0.023442486 -0.014758911
000020 c3 4f 80 3c a4 37 bd 3b 4e 37 2b bd a1 49 0c bc
       0.015663033 0.005774455 -0.04180079 -0.008562476
000030 c7 4a 96 3c ae 5e 54 3c 91 78 16 bc ee 69 35 3c
       0.018346203 0.0129620265 -0.009184019 0.011072619
000040 ca 96 01 3c c9 ae 08 3c 3d 55 19 bd 78 30 84 bc
       0.007909486 0.008342453 -0.037434805 -0.016136393
000050 d2 85 10 bd d6 c8 89 bb 65 8a 40 bd b2 e1 fe 3c
       -0.03528387 -0.0042048497 -0.047006983 0.03111348
000060 02 b1 af 3c ab 54 0e 3d 21 c9 61 bc 2c e0 c8 bb
       0.021446709 0.034748714 -0.013780863 -0.006130239
000070 95 29 c2 bc 7d 1f 25 3c 7c 0e 0f 3c 8c 18 63 3b
       -0.023701468 0.010078308 0.008731481 0.0034652082
000080 c0 0e c0 3c cb 0e d3 bb 0f 88 ce bc eb 6f 98 bc
       0.023444533 -0.0064409724 -0.025211362 -0.018608054
000090 15 26 bc bc ab e1 de 3c 5f 45 84 3b 50 00 45 bc
       -0.022967378 0.027207216 0.00403659 -0.012024
0000a0 42 3e 44 bc ca e9 0e bc ab 08 df 3c 37 82 02 bd
       -0.011977734 -0.008722732 0.027225813 -0.031862464
0000b0 60 2c b7 3c cd ac a8 3b 9c a0 60 bb 33 1b 95 3b
       0.022360027 0.0051475526 -0.0034275418 0.0045503615
0000c0 f8 0b 06 bc 44 ab 22 3d d3 1e 80 3b f2 c0 34 bd
       -0.0081815645 0.039714113 0.0039099245 -0.04412932
0000d0 41 fb 92 3c 69 8f eb bc 17 d6 c7 3c 89 b2 1d 3d
       0.017942073 -0.028754907 0.024394078 0.038500343
0000e0 3e 1d 23 bc ba 30 8c bb 8f 22 61 3c f6 14 87 3b
       -0.009955702 -0.0042782696 0.01374115 0.004122372
0000f0 81 30 20 3c ce 7f c6 bc 68 b7 3e bd 71 9f cd ba
       0.009777189 -0.024230864 -0.04656163 -0.0015687776
000100 bd 81 a5 3c 46 16 8b 3c 20 44 95 bc d9 97 b3 3c
       0.020203466 0.016978394 -0.018220961 0.021922993
000110 e5 c8 35 bb a8 5d 02 bc dd 77 4b 39 38 aa 75 3c
       -0.002773815 -0.0079569 0.00019404241 0.014994197
000120 34 91 0c 3d c6 57 65 bc e2 05 1a bc 04 35 e7 3c
       0.034318164 -0.013997978 -0.009400817 0.028223522
000130 dc 7d 6f bd 3f 31 e7 bb c2 fb 99 bc 7c c3 3e 3c
       -0.05846964 -0.007055431 -0.018796805 0.011643287
000140 66 ae 99 bc c9 53 9c 3c 8b 20 06 3c cc e7 85 3c
       -0.018759917 0.01908292 0.00818647 0.01634588
000150 32 cc b0 3c 7c ef 1d 3c 39 a2 0b 3c 8c eb b3 bc
       0.021581743 0.009639617 0.008522564 -0.021962903
000160 72 7d d9 bc ea 0b 9d bc 68 60 5e 3c e9 74 98 bc
       -0.026549075 -0.01917072 0.01357279 -0.018610435
000170 6f 89 0d 3d f1 2b 31 3b d5 38 93 bc f9 ea 2a bd
       0.034554895 0.0027034248 -0.017971436 -0.041727994
000180 d3 3d 05 3c 66 1f d2 bc 12 c6 5e bc 5b 1c 52 3c
       0.008132416 -0.025649738 -0.013597028 0.012824143
000190 63 01 37 3d fc d3 a9 3c 94 a1 2d 3c 03 e0 4f bc
       0.044679057 0.020730965 0.010597605 -0.012687686
0001a0 66 52 a8 3c c1 68 10 bd e1 e9 44 bd f4 50 1e bc
       0.020547103 -0.03525615 -0.048074607 -0.009662855
0001b0 f7 30 94 3c 49 dd ff bc a7 78 a0 bc 01 59 c8 bc
       0.018089755 -0.031233447 -0.019588782 -0.024456503
0001c0 6c 49 80 bc 33 07 3f 3c 32 07 b6 bc 1c 90 20 3d
       -0.01566001 0.011659431 -0.022220228 0.039199933
0001d0 b7 02 36 bc 46 df cc 3c 38 df 25 bd 66 da 0d 3d
       -0.011109046 0.025008809 -0.04049608 0.03463211
0001e0 8c c8 0c bd ed 94 55 3d f7 de 8c 3c 98 d3 c2 ba
       -0.034370944 0.05214398 0.017196162 -0.0014864085
0001f0 ad 70 c0 bc dd af d0 bc b0 65 22 bd af 53 0e bd
       -0.023491228 -0.025474483 -0.039647758 -0.034747776
000200 bf c1 95 3c e7 8a f1 3c 07 4d 42 3c 77 a6 24 3d
       0.018280862 0.02948518 0.011859185 0.040197816
000210 eb 72 d5 ba 56 37 97 3c ba 33 dd 3b 39 a4 6b ba
       -0.0016284859 0.018459003 0.006750551 -0.00089890097
000220 ec a7 a7 3c 4c c3 13 3c a4 a9 99 bc fa dc 17 3d
       0.020465814 0.00901873 -0.018757649 0.037075974
000230 a3 5b af bc db 82 1e 3d 50 46 56 3c f0 4d 5e 3c
       -0.021406 0.038699012 0.013078287 0.013568386
000240 58 38 f6 3b 2b 0f 89 bc 7f fc d4 ba db 07 09 3c
       0.007514041 -0.016730865 -0.0016249566 0.008363689
000250 2e 6e 90 bc ae f5 9f 3c e1 50 73 bc 65 5f 43 bc
       -0.017630663 0.019526329 -0.014850826 -0.011924599
000260 e6 d4 05 bd 46 a6 0a bc b4 40 95 bc b1 3b a4 3c
       -0.03267374 -0.008462494 -0.01821933 0.020047994
000270 31 c6 39 3c 60 b2 e2 ba 2c 6a b8 bb 0e 0d 78 bc
       0.011338756 -0.0017295592 -0.005627891 -0.015139831
000280 55 c0 f6 bc da 8a 04 3d 0f 10 63 3b 9f 2d 6a bc
       -0.030121008 0.03235898 0.0034647023 -0.0142931035
000290 62 c9 02 bc 46 5b 89 bc 58 d1 93 bc 4d 6c 81 39
       -0.007982584 -0.016767155 -0.018044159 0.00024685488
0002a0 c9 74 cd 3c b9 10 0c bc c9 b8 74 bd ca 86 62 bc
       0.025080102 -0.008548909 -0.059746537 -0.0138260815
0002b0 34 57 a8 ba aa 69 c9 3c 22 5f 15 bd 2d e3 13 bc
       -0.0012843371 0.024586517 -0.03646768 -0.009026331
0002c0 9d 34 1f b9 fa 55 8a 3c 10 d7 d5 3c 07 6a d7 3b
       -0.00015183022 0.0168867 0.026103526 0.0065739187
0002d0 f1 e7 05 bc b1 85 b3 3c 20 49 b6 3c 92 d0 a9 3c
       -0.008172975 0.021914335 0.022251666 0.020729337
0002e0 2d c6 38 bc 6e 62 b0 bc 2d 02 70 bd 4b b3 6e 3c
       -0.011277718 -0.02153131 -0.058595825 0.014569114
0002f0 b7 31 19 bd b8 62 00 bb 39 db 31 3a b3 7b c1 bc
       -0.037400927 -0.001959009 0.0006784681 -0.023618555
000300 ad 98 9c 3c 79 dd f3 3b cc ad 85 3c 45 07 b0 3c
       0.01911577 0.007442173 0.016318224 0.021487841
000310 53 5e 02 bd fa 2e fe bc 8a 17 2e 3d 1f 26 d9 3b
       -0.031828236 -0.03102826 0.042502917 0.006626859
000320 46 b0 33 3d ec d7 e1 3b f5 06 f7 bc 56 47 0f bd
       0.04386928 0.006892195 -0.030154685 -0.03498014
000330 cf d6 1b bc 9a 75 25 bc b3 3b c9 bc 9e 8b c4 bc
       -0.009511664 -0.010098839 -0.0245646 -0.023992356
000340 25 c3 c9 bb 7c f0 1d bd 88 63 86 3c ee 9d bf b9
       -0.0061572962 -0.038559422 0.016404882 -0.00036548026
000350 e2 6b 85 3b 4d ad 0a 3b b0 99 d0 bb fe a5 da 3b
       0.0040716985 0.0021160424 -0.006365977 0.00667262
000360 2c f8 d7 bb 7f e5 87 3c ec 79 3c 3c 13 a2 cc 3b
       -0.0065908637 0.016588924 0.011503678 0.0062449067
000370 a3 db 5c bc 1e dd 06 3b e4 dd 4d bb 41 91 3b bd
       -0.0134801 0.0020578573 -0.0031412775 -0.04579282
000380 c5 9b 1c bd 85 b9 90 bb d1 62 c9 bc 65 5b 5d bc
       -0.03823449 -0.004416647 -0.024583252 -0.01351056
000390 04 06 f3 bb bb 1f 65 bc c8 65 0b bd 3b 4b 68 3c
       -0.0074164886 -0.013984616 -0.034032613 0.014178093
0003a0 09 01 7e 3c 89 ca a6 bc 28 c0 3b bb 20 ef 65 3c
       0.0155031765 -0.020360248 -0.002864847 0.014034063
0003b0 11 b2 d9 3b f6 45 99 3b 87 ed 50 bc c0 51 2b bd
       0.0066435416 0.0046775294 -0.012751943 -0.04182601
0003c0 2d 44 bd 3b 99 af 98 bc 83 10 8c bc 27 9a 91 3c
       0.0057759495 -0.018638419 -0.017097717 0.0177737
0003d0 56 de 00 bd e6 2f 8d 3c 10 c4 b4 3c 6b e8 6c bc
       -0.031462036 0.017234754 0.022066146 -0.01445971
0003e0 57 13 22 3c 5e 9d d5 3c 42 d2 fe 3b e3 d3 94 bc
       0.009892306 0.026076015 0.0077765295 -0.018167442
0003f0 ba 07 8f bc 5e f2 25 3c 87 03 4f bc 67 d1 11 bb
       -0.017459739 0.010128586 -0.012635118 -0.0022250058

action_model._continuous_distribution.mu.bias f4 [2]
000000 71 7a 58 3c f0 56 fa 3a
       0.013212786 0.0019099396
