TWP_2/results/StaticDragDrop23/RobotArm.onnx (onnx, 76124 bytes, 7 tensors)

network_body._body_endoder.seq_layers.0.weight f4 [128, 7]
0.38685676 -0.13943434 0.44710946 -0.1271938 -0.6250048 0.00781316 -0.11798618 0.87855923
0.4046013 -0.26819646 0.16383167 0.71259797 0.27640694 0.15165608 0.5780941 -0.10894704
0.43431664 0.67973626 0.024262443 -0.27964523 0.30315918 -0.38173115 -0.63386095 -0.08930055
-0.04459723 0.35457402 -0.5924977 0.18169731 0.9559112 -0.11037831 -0.1826654 0.09936817
-0.750601 0.37603998 -0.007895795 -0.5767405 0.0570951 0.4815042 0.65538204 -0.11599914
0.1523691 0.09964635 0.009986706 0.31672862 -0.45460302 0.5555046 0.3633363 0.09095848
-0.045536455 -0.22716323 -0.14848904 0.33588752 -0.12706453 -0.14093205 0.055266958 0.35322404
0.1312319 -0.2233924 -0.6857172 0.13582416 -0.3876999 0.038151164 -0.21423233 -0.11765213
0.19755329 0.06976315 0.33337194 -0.28374326 0.22382268 0.33902144 0.63480645 -0.26837683
-0.05832462 0.42390284 -0.14679906 0.21714476 0.20249209 -0.5690915 -0.44123894 0.6601956
-0.3143626 0.3178147 0.66391397 0.2779103 -0.21651493 -0.47995228 0.1578937 0.6761251
-0.021791395 -0.15513362 0.4290913 -0.7575855 -0.048357833 -0.3287461 -0.3088894 -0.3236667
0.31836006 0.16007133 0.34690684 -0.25238135 -0.15955867 0.16124725 0.1777686 -0.2563901
0.17628515 -0.25336903 0.17043817 0.26524174 -0.19379771 0.051557884 0.2483943 -0.389125
-0.5441993 -0.18350612 0.10352755 0.28076452 -0.44765902 0.45868176 0.11595921 -0.2953063
-0.225905 0.09715681 -0.112423286 0.4876495 -0.5467041 -0.5230723 -0.33874896 0.2785066
0.13461663 0.2595344 -0.5826641 -0.35222018 -0.059680592 -0.16849823 0.24095027 0.32045087
-0.75227505 -0.54461646 0.5856186 0.23771256 0.6209997 0.024994712 0.5560158 -0.9367143
0.15249369 0.7198211 0.3349154 -0.32296687 0.7223164 0.08990779 -0.44461143 -0.104804136
0.16774632 0.20021555 0.4215241 -0.67195106 0.21086575 0.5982306 -0.15131931 0.03208411
0.5140602 -0.5403017 0.6971901 -0.10130181 0.48241678 0.36199284 -0.2466304 0.353444
-0.47176895 -0.2595998 -0.70530623 0.11904382 0.07725831 0.3527433 0.31716132 0.19723807
0.07124273 -0.08782986 -0.3068519 0.118229344 0.058283877 -0.5295199 -0.0023887495 0.58998966
-0.28077012 0.09789794 -0.03568173 -0.2157033 0.121490814 -0.73002183 -0.43065926 0.4309901
0.09448594 0.0024138177 -0.06639285 0.014596889 0.15549007 -0.13374169 -0.014190177 0.0030333784
-0.06555693 0.4029718 -0.21204454 -0.25935498 0.060203865 -0.4838928 0.19955304 0.043274727
-0.14968972 -0.39920905 0.38271493 -0.3022802 -0.16571243 -0.5695132 0.62294805 0.53406346
-0.005796547 0.07723305 -0.055147182 -0.81801325 0.46869633 0.13095811 -0.08746244 0.32260716
0.2035777 -0.08425003 0.16266435 0.044668138 0.13909242 0.19608352 0.09796625 0.00066747324
-0.39775348 0.5067474 0.6510121 0.4177716 -0.270639 -0.07929159 0.1281343 0.39178962
-0.44899818 0.21677999 0.20868321 -0.033862207 -0.13607374 -0.4010241 -0.4094321 -0.13967639
0.071883366 -0.11260794 -0.011939824 0.36827073 0.5140774 0.1264969 0.06651301 0.3196843
00000000: 1712 c63e e0c7 0ebe 88eb e43e 173f 02be
00000010: 5100 20bf c502 003c bda2 f1bd 42e9 603f
00000020: e727 cf3e 0c51 89be 7dc3 273e d26c 363f
00000030: 3685 8d3e bb4b 1b3e fafd 133f a01f dfbd
00000040: c05e de3e 3203 2e3f 08c2 c63c a92d 8fbe
00000050: ae37 9b3e 4472 c3be b644 22bf 35e3 b6bd
00000060: 96ab 36bd ba8a b53e eead 17bf dc0e 3a3e
00000070: 99b6 743f 060e e2bd a30c 3bbe 8a81 cb3d
00000080: 6327 40bf 5088 c03e 5d5d 01bc 44a5 13bf
00000090: 8ddc 693d b887 f63e 1ec7 273f f590 edbd
000000a0: a506 1c3e 6313 cc3d 489f 233c 412a a23e
000000b0: bac1 e8be 8d35 0e3f 3707 ba3e 7148 ba3d
000000c0: 6f84 3abd 7a9d 68be 830d 18be 73f9 ab3e
000000d0: 341d 02be 7e50 10be 9b5f 623d c8d9 b43e
000000e0: a861 063e fac0 64be 2a8b 2fbf 7d15 0b3e
000000f0: 9a80 c6be 6544 1c3d b85f 5bbe 9af3 f0bd
00000100: 694b 4a3e fbdf 8e3d baaf aa3e cc46 91be
00000110: c631 653e 3894 ad3e ad82 223f b068 89be
00000120: cce5 6ebd cb09 d93e 7e52 16be 325b 5e3e
00000130: 165a 4f3e fbaf 11bf 12ea e1be 9402 293f
00000140: 22f4 a0be 9cb8 a23e 44f6 293f 424a 8e3e
00000150: 17b6 5dbe 4ebc f5be e3ae 213e 8916 2d3f
00000160: de83 b2bc 59db 1ebe dbb1 db3e 20f1 41bf
00000170: dd12 46bd 6951 a8be c026 9ebe a4b7 a5be
00000180: 1700 a33e bde9 233e c69d b13e 2138 81be
00000190: 5963 23be 001e 253e f908 363e 9045 83be
000001a0: 1884 343e 96b9 81be 5887 2e3e c4cd 873e
000001b0: e872 46be 5c2e 533d 135b 7e3e 643b c7be
000001c0: a550 0bbf 07e9 3bbe 4106 d43d 5ec0 8f3e
000001d0: 9033 e5be 56d8 ea3e 067c ed3d 6332 97be
000001e0: a453 67be 26fa c63d 2e3e e6bd 32ad f93e
000001f0: cdf4 0bbf 11e8 05bf 8170 adbe 6b98 8e3e
00000200: f1d8 093e b1e1 843e 7929 15bf 3456 b4be
00000210: a373 74bd cd8a 2cbe abbb 763e 2312 a43e
00000220: 1995 40bf fc6b 0bbf 1aeb 153f ec6a 733e
00000230: d6f9 1e3f b6c1 cc3c 0d57 0e3f 82cc 6fbf
00000240: 4e27 1c3e 3246 383f 087a ab3e ea5b a5be
00000250: bae9 383f 9321 b83d 1ca4 e3be 8da3 d6bd
00000260: b1c5 2b3e 4e05 4d3e 02d2 d73e fc04 2cbf
00000270: 31ed 573e a425 193f 73f3 1abe a16a 033d
00000280: 7399 033f 3651 0abf 0d7b 323f 5377 cfbd
00000290: 55ff f63e 2057 b93e ae8c 7cbe 9df6 b43e
000002a0: b38b f1be 44ea 84be f38e 34bf 3fcd f33d
000002b0: 9b39 9e3d c59a b43e f862 a23e c7f8 493e
000002c0: b5e7 913d 24e0 b3bd b11b 9dbe 3a22 f23d
000002d0: 13bb 6e3d 9e8e 07bf 918c 1cbb 9009 173f
000002e0: 1ac1 8fbe b77e c83d 0127 12bd 53e1 5cbe
000002f0: 2dd0 f83d b6e2 3abf 5f7f dcbe bcaa dc3e
00000300: d881 c13d 2431 1e3b f9f8 87bd ca27 6f3c
00000310: ca38 1f3e 95f3 08be eb7d 68bc a5cb 463b
00000320: b642 86bd 5252 ce3e 3422 59be 2dca 84be
00000330: 5498 763d ccc0 f7be a257 4c3e d740 313d
00000340: 4348 19be 2165 ccbe 36f3 c33e 78c4 9abe
00000350: 85b0 29be 9ecb 11bf 8679 1f3f 62b8 083f
00000360: f6f0 bdbb 5c2c 9e3d 03e2 61bd 5169 51bf
00000370: f7f8 ef3e e219 063e 821f b3bd c42c a53e
00000380: ac76 503e 488b acbd 7c91 263e f0f5 363d
00000390: 3e6e 0e3e 1eca 483e 87a2 c83d 5ff9 2e3a
000003a0: 58a6 cbbe 33ba 013f bba8 263f 29e6 d53e
000003b0: 3291 8abe a163 a2bd a335 033e a698 c83e
000003c0: 17e3 e5be 93fb 5d3e 0db1 553e 19b3 0abd
000003d0: ea56 0bbe 0853 cdbe 16a1 d1be 5407 0fbe
000003e0: 9637 933d fe9e e6bd 409f 43bc fb8d bc3e
000003f0: 949a 033f 6788 013e f937 883d a9ad a33e

network_body._body_endoder.seq_layers.0.bias f4 [128]
-0.0015100371 -0.016654875 -0.0133413905 -0.0035727909 -0.020286722 0.003745742 -0.011269173 -0.0025202844
-0.014137224 0.0012017828 -0.035872158 -0.0023123187 -0.0017557021 -0.02192827 -0.002263871 0.009768165
-0.015029707 0.01573389 -0.0031721343 -0.011769485 -0.010384292 -0.015937142 -0.019015849 -0.0053848587
-0.019233305 0.0025137372 0.0005648027 -0.009105688 -0.0373523 0.0053391573 0.01655172 -0.004963136
0.0005365396 -0.009516598 -0.0054369904 0.019162474 0.023503121 -0.03727198 0.03511096 4.0856403e-09
-0.0008684766 -0.010180697 0.008057569 0.003235847 -0.0060465336 -0.014525726 -0.005374465 -0.008933674
0.0032548835 -0.02875003 0.012400627 0.0011100931 -0.009838056 -0.027338898 0.028102692 0.012241085
0.018359391 -0.01468365 0.0027796647 -0.007918093 0.0011271384 -0.015999863 0.0027046024 -0.0019759785
-0.009752688 -0.011031226 -0.00921517 0.012905834 -0.016184494 -0.00885849 0.01804767 -0.013508492
0.00188014 -0.019952824 0.014482232 -0.0037658243 -0.007928417 0.0014936907 -0.040226642 0.0067592165
-0.015209786 -0.0058771526 0.009733219 -0.0026885665 -0.0029620274 -0.03712492 -0.02621456 -0.0059524095
0.014149375 0.0058129113 -0.009128799 -0.002361546 5.301906e-05 -0.021422815 -0.011011931 -0.0070004426
0.0045383214 -0.016222464 -0.0042359754 0.03663975 -0.020025931 0.03038629 -0.058996506 -0.0074110986
-0.021197481 0.022675067 -0.008104344 0.012337235 -0.017599097 -2.006117e-06 0.0014813521 -0.003909735
-0.009077899 -0.0010424082 0.014629464 0.010997253 -0.02947867 0.0015436197 0.016489252 -0.023664236
0.00023494009 -0.0044970163 -0.024528958 0.02635962 0.010603433 0.004322863 0.0010816224 -0.022668965
00000000: 70ec c5ba ce6f 88bc d995 5abc 7c25 6abb
00000010: 5730 a6bc 1f7b 753b 56a2 38bc 5b2b 25bb
00000020: d19f 67bc 2485 9d3a afee 12bd 458a 17bb
00000030: 961f e6ba eaa2 b3bc 745d 14bb a70a 203c
00000040: 293f 76bc 5ce4 803c 95e3 4fbb ccd4 40bc
00000050: e122 2abc 9c8e 82bc 20c7 9bbc 7873 b0bb
00000060: 2a8f 9dbc 83bd 243b 450f 143a 0630 15bc
00000070: bafe 18bd 19f4 ae3b 7997 873c cda1 a2bb
00000080: 90a6 0c3a 81eb 1bbc c828 b2bb 9ffa 9c3c
00000090: 9e89 c03c 81aa 18bd 83d0 0f3d ac61 8c31
000000a0: 7aaa 63ba f0cc 26bc e503 043c 8110 543b
000000b0: 0022 c6bb 50fd 6dbc 481c b0bb 8b5e 12bc
000000c0: e24f 553b 2f85 ebbc 002c 4b3c 8b80 913a
000000d0: cc2f 21bc d3f5 dfbc 9e37 e63c d58e 483c
000000e0: 6f66 963c b193 70bc 092b 363b e4ba 01bc
000000f0: 7dbc 933a 2512 83bc b33f 313b 6b7f 01bb
00000100: bdc9 1fbc 51bc 34bc 39fb 16bc fe72 533c
00000110: 5895 84bc 3323 11bc b5d8 933c b952 5dbc
00000120: 086f f63a 1b74 a3bc e246 6d3c 0ccc 76bb
00000130: 31e6 01bc f1c7 c33a b1c4 24bd 6b7c dd3b
00000140: 7732 79bc 2195 c0bb 1478 1f3c a932 30bb
00000150: 931e 42bb 4d10 18bd ebbf d6bc 6e0c c3bb
00000160: c8d2 673c 3c7a be3b f590 15bc 2bc4 1abb
00000170: c860 5e38 e67e afbc 636b 34bc f863 e5bb
00000180: 33b6 943b f9e4 84bc f0cd 8abb 9013 163d
00000190: 6c0d a4bc abec f83c 52a6 71bd cdd8 f2bb
000001a0: 57a6 adbc 10c1 b93c 15c8 04bc 1d22 4a3c
000001b0: fb2b 90bc d4a0 06b6 ee29 c23a 3c1d 80bb
000001c0: 78bb 14bc 6aa1 88ba 6bb0 6f3c d22d 343c
000001d0: 407d f1bc 4853 ca3a 7814 873c 80db c1bc
000001e0: 405a 7639 b55b 93bb f4f0 c8bc 21f0 d73c
000001f0: 05ba 2d3c cea6 8d3b 3ac5 8d3a 44b4 b9bc

network_body._body_endoder.seq_layers.2.weight f4 [128, 128]
-0.10895479 -0.015484403 -0.09289189 -0.0004632684 -0.02240615 0.0109696025 0.05373507 -0.16891268
0.0025940698 0.04067386 -0.011141293 -0.009275043 -0.12731838 0.12559396 -0.118993215 -0.065871224
-0.07404039 -0.011679116 -0.075267434 0.08933322 -0.036583666 0.050958183 -0.030989716 0.16334307
0.15717226 -0.08078436 -0.14429241 -0.015648082 -0.17305213 -0.2935669 -0.023670163 0.07044661
-0.059197556 -0.041553646 0.016468007 -0.012965776 0.0367723 -0.04317829 -0.055529375 -0.04598795
0.022574956 -0.068333834 0.11639965 0.030089432 -0.22709571 0.15606499 0.048408743 0.05256077
-0.04616958 -0.0709081 -0.100697264 -0.028990498 -0.15995537 -0.031048704 0.026466709 -0.003720601
0.036717225 0.04582934 0.04596788 -0.0761505 0.179276 -0.08243828 0.04794984 -0.09620889
0.025659993 0.15025891 -0.25335124 -0.0869351 -0.099835545 -0.08441303 -0.0021492492 -0.0819247
-0.016110078 -0.018920943 -0.07735678 -0.059366837 0.05781597 -0.09628625 -0.024402885 -0.15906826
0.053078637 0.04189596 -0.09972344 0.011766979 0.102916285 0.06715418 -0.07720369 0.055288367
-0.025778439 0.06296874 0.11701656 0.07339933 0.08293691 0.048386082 -0.0308247 -0.087091394
0.062115133 -0.017996393 -0.002845118 -0.030199997 0.09532234 -0.006587269 0.05745196 0.05840179
0.099787675 -0.099960476 -0.07487727 0.05752575 -0.13860348 0.07957455 0.036301166 -0.058055267
0.016891157 -0.037982278 -0.17183201 -0.067557976 0.11926109 0.0007674289 0.08536319 -0.029443908
-0.05055384 0.038332928 0.0093746465 -0.018815724 -0.036851313 -0.0033280996 -0.09662983 -0.110072635
0.010033273 -0.0020025566 0.054001156 -0.15003943 0.06215145 0.037394397 -0.059066307 -0.043745067
-0.08269016 -0.10154878 0.0135260755 -0.08740468 -0.091865845 -0.06606527 0.14408922 0.06550612
-0.0045955884 -0.02956176 0.0938806 0.1520132 -0.22195852 0.15286146 -0.0044615436 -0.030415349
-0.115035795 -0.056244906 -0.100811616 -0.031300873 0.024081491 -0.011979956 0.050498854 -0.07163331
0.039635554 0.019154062 -0.07660121 -0.059550453 -0.12462064 0.20863698 0.072051816 0.06990344
-0.19370271 -0.012564171 0.023763694 -0.168442 -0.038322885 -0.15881255 -0.09969448 0.038590986
-0.099014305 0.006689007 0.11570381 0.119184904 0.09975554 0.114827506 -0.026225317 0.05340478
-0.15672849 0.06572246 -0.019973217 -0.14545467 -0.10590169 0.1681677 -0.04148732 -0.18029255
-0.04498966 -0.090720735 -0.09746856 -0.06393724 -0.16130222 -0.004005158 0.15969288 0.19644655
-0.13533105 -0.009270653 0.14770848 -0.08151339 -0.062790714 -0.13499999 -0.04560602 0.06227272
-0.010281452 0.07209221 0.004641568 -0.065733165 0.10985151 0.024705473 -0.008416506 0.07267587
0.2022915 0.019673701 -0.12673017 -0.1731285 -0.05406055 0.15169749 -0.022566212 0.07225355
0.15488678 -0.11601706 -0.08948687 0.1072136 -0.10675064 -0.02478149 -0.09408698 0.11430612
0.06698131 0.04765906 0.029302774 0.062083706 0.08472908 -0.14573327 0.13209535 -0.11340462
-0.112124555 -0.09646571 -0.011729051 -0.07727492 -0.06245609 -0.0057671363 -0.07973931 0.037908196
-0.12406875 -0.027434548 0.05269536 0.19523701 -0.08770883 0.0010993149 -0.14298883 0.036020435
00000000: b023 dfbd 4bb2 7dbc 1a3e bebd d5e2 f2b9
00000010: 1a8d b7bc d9b9 333c 4e19 5c3d 72f7 2cbe
00000020: 4501 2a3b a299 263d f889 36bc 5af6 17bc
00000030: c05f 02be b49b 003e b7b2 f3bd 7ee7 86bd
00000040: 7da2 97bd c359 3fbc d025 9abd 56f4 b63d
00000050: c1d8 15bd 87b9 503d 25de fdbc 6843 273e
00000060: c4f1 203e 4572 a5bd 64c1 13be 6830 80bc
00000070: 9434 31be 674e 96be eee7 c1bc 5046 903d
00000080: 2379 72bd 2834 2abd eae7 863c 686e 54bc
00000090: 8d9e 163d b8db 30bd c572 63bd dc5d 3cbd
000000a0: 1def b83c 9cf2 8bbd f162 ee3d 1d7e f63c
000000b0: c78b 68be 80cf 1f3e 3f48 463d f649 573d
000000c0: 501c 3dbd 4438 91bd 5e3a cebd 7b7d edbc
000000d0: 57cb 23be da59 febc b6d0 d83c 54d5 73bb
000000e0: cd64 163d 8cb7 3b3d d148 3c3d cbf4 9bbd
000000f0: 2194 373e 67d5 a8bd 0d67 443d 2b09 c5bd
00000100: e834 d23c 79dd 193e 41b7 81be 080b b2bd
00000110: 9476 ccbd bde0 acbd 6bda 0cbb 23c8 a7bd
00000120: 48f9 83bc 1800 9bbc 3b6d 9ebd a42a 73bd
00000130: 70d0 6c3d ba31 c5bd 8fe8 c7bc cae2 22be
00000140: fc68 593d 199b 2b3d ce3b ccbd 49ca 403c
00000150: c6c5 d23d 2188 893d f81c 9ebd 0e76 623d
00000160: 4e2d d3bc c1f5 803d 61a6 ef3d 6352 963d
00000170: d4da a93d 7c30 463d 1584 fcbc f95c b2bd
00000180: 706c 7e3d 2c6d 93bc 2975 3abb fc65 f7bc
00000190: 5c38 c33d 04da d7bb bf52 6b3d b736 6f3d
000001a0: 7b5d cc3d 14b8 ccbd 4159 99bd 1fa0 6b3d
000001b0: 12ee 0dbe fbf7 a23d 88b0 143d 5ccb 6dbd
000001c0: 535f 8a3c 4e93 1bbd bbf4 2fbe d65b 8abd
000001d0: 293f f43d 482d 493a e5d2 ae3d 5a34 f1bc
000001e0: 8b11 4fbd fd02 1d3d 1e98 193c 6f23 9abc
000001f0: 67f1 16bd 3f1c 5abb dce5 c5bd c36d e1bd
00000200: 9962 243c 533d 03bb 5130 5d3d f0a3 19be
00000210: 8592 7e3d de2a 193d 83ef 71bd 072e 33bd
00000220: 7559 a9bd cff8 cfbd 799c 5d3c 3a01 b3bd
00000230: 2924 bcbd 3a4d 87bd 208c 133e 1328 863d
00000240: 9796 96bb 812b f2bc 7944 c03d 59a9 1b3e
00000250: 1849 63be b787 1c3e 2432 92bb 9c29 f9bc
00000260: e397 ebbd 0f61 66bd 5276 cebd 5835 00bd
00000270: 8c46 c53c 9447 44bc e3d7 4e3d 7cb4 92bd
00000280: e458 223d fbe8 9c3c 18e1 9cbd 2deb 73bd
00000290: 1b39 ffbd efa4 553e e78f 933d 8929 8f3d
000002a0: 015a 46be f4d9 4dbc 14ac c23c 0f7c 2cbe
000002b0: 75f8 1cbd c29f 22be 9f2c ccbd 9511 1e3d
000002c0: 03c8 cabd 752f db3b 1ef6 ec3d 3717 f43d
000002d0: a24c cc3d af2a eb3d 7ad6 d6bc f8be 5a3d
000002e0: 6f7d 20be 7f99 863d df9e a3bc 12f2 14be
000002f0: fce2 d8bd 2734 2c3e 9cee 29bd 9c9e 38be
00000300: 1447 38bd cbcb b9bd 999d c7bd 87f1 82bd
00000310: 692c 25be b33d 83bb 8886 233e 4929 493e
00000320: 3994 0abe f0e3 17bc e440 173e 7ef0 a6bd
00000330: 6b98 80bd 703d 0abe 61cd 3abd ae11 7f3d
00000340: 8973 28bc 15a5 933d 4b18 983b 1c9f 86bd
00000350: d4f9 e03d 2263 ca3c 63e5 09bc 16d7 943d
00000360: 8125 4f3e be2a a13c 8ec5 01be 9948 31be
00000370: 986e 5dbd 9656 1b3e c7dc b8bc abf9 933d
00000380: a49a 1e3e 5a9a edbd e444 b7bd ce92 db3d
00000390: 14a0 dabd 8d02 cbbc adb0 c0bd 5419 ea3d
000003a0: 7f2d 893d 2636 433d 5f0c f03c 7c4b 7e3d
000003b0: 7186 ad3d 1a3b 15be 0144 073e ae40 e8bd
000003c0: 8fa1 e5bd d08f c5bd 352b 40bc 5042 9ebd
000003d0: f5d1 7fbd 3ffa bcbb 5d4e a3bd a045 1b3d
000003e0: c217 febd 6bbe e0bc 17d7 573d 36ec 473e
000003f0: b0a0 b3bd e316 903a aa6b 12be 2a8a 133d

network_body._body_endoder.seq_layers.2.bias f4 [128]
-0.007973384 0.0013506311 -0.013519991 -0.009079049 -0.010994019 5.2370393e-05 -0.0037205524 -0.0082807075
0.006984815 -0.007622945 0.004581304 -0.00047452917 -0.011843163 -0.0060672075 0.002729325 -0.018020052
-0.02058133 0.0008095522 -0.003071048 -0.006108497 -0.0147318505 -0.00937433 -0.0130125135 -0.0027213886
-0.0052886684 -0.013176922 -0.004690134 -0.009355358 -0.010472613 0.010469337 -0.00923827 -0.0008245481
-0.017832763 0.0025635401 -0.004635216 -0.00033190506 -0.0054295375 -0.0073263315 -0.0091009885 -0.011607035
-0.010953395 0.0047452333 -0.007715575 -0.003432265 -4.659297e-05 -0.01154086 -0.00860795 -4.629207e-05
0.00019558835 -0.007738551 0.00032282216 -0.009377626 0.0064179595 -0.003938712 -0.012965325 -0.0077410294
-0.010393945 -0.0074132644 -0.0018521248 -0.005535751 -0.00032478195 -0.0007853518 -0.007023206 -0.0093200505
-0.010778161 0.0028599715 -0.02213512 -0.0051606786 0.005074963 -0.013040519 -0.026664646 -0.015133446
-1.4742944e-05 -0.010217829 -0.0081799 -0.005894 -0.0108218985 0.0015202219 -0.0062381756 -0.0027061224
-0.00584803 0.006066665 -0.006077326 0.001557339 -0.002036735 -0.004939794 0.008800481 -0.0040699015
-0.012174157 0.0008601099 -0.008112251 -0.008906272 -0.010078157 -0.01140019 -0.005616665 -0.0063550086
-0.017041147 -0.0016784753 -0.0066177137 -0.012347474 -0.011856794 -0.0054694135 0.0050263572 -0.008102746
0.0007760006 -0.0073814886 -0.013847354 -0.0019268821 0.0030167622 -0.005200678 -0.010435937 -0.004983178
-0.0043796706 -0.007033315 0.0065712873 -0.006815142 -0.006495968 -0.0021483935 -0.007855379 -0.008647124
0.0046315943 -0.010569749 -0.0030043 -0.008802308 0.004431398 -0.001553621 0.009998998 -0.008416267
00000000: cca2 02bc a907 b13a f482 5dbc 4bc0 14bc
00000010: 4220 34bc 48a8 5b38 83d4 73bb ceab 07bc
00000020: e0e0 e43b e6c9 f9bb c31e 963b 3aca f8b9
00000030: d309 42bc 6dcf c6bb 7ade 323b ca9e 93bc
00000040: 2d9a a8bc 2138 543a a343 49bb c929 c8bb
00000050: dc5d 71bc ca96 19bc 7032 55bc 5359 32bb
00000060: 914c adbb 04e4 57bc b2af 99bb 3747 19bc
00000070: 5395 2bbc 9587 2b3c 1d5c 17bc 7c26 58ba
00000080: 0416 92bc 1101 283b 03e3 97bb 8b03 aeb9
00000090: 43ea b1bb b911 f0bb 501c 15bc 6f2b 3ebc
000000a0: de75 33bc e77d 9b3b efd2 fcbb daef 60bb
000000b0: d26c 43b8 e015 3dbc 5c08 0dbc bb29 42b8
000000c0: d916 4d39 ac93 fdbb 7540 a939 9da4 19bc
000000d0: bf4d d23b 5010 81bb 846c 54bc 76a8 fdbb
000000e0: 5d4b 2abc f8ea f2bb ffc2 f2ba 3f65 b5bb
000000f0: 7f47 aab9 11e0 4dba ec22 e6bb 20b3 18bc
00000100: e296 30bc 5c6e 3b3b b654 b5bc e91a a9bb
00000110: e04b a63b e7a7 55bc d16f dabc 46f2 77bc
00000120: 7658 77b7 ae68 27bc fd04 06bc 7522 c1bb
00000130: 554e 31bc 2f42 c73a 9c69 ccbb 3359 31bb
00000140: d5a0 bfbb e0ca c63b 4e24 c7bb a01f cc3a
00000150: be7a 05bb ffdd a1bb e52f 103c cf5c 85bb
00000160: 1e76 47bc 0079 613a 3fe9 04bc 9deb 11bc
00000170: db1e 25bc ddc7 3abc 000c b8bb ad3d d0bb
00000180: e099 8bbc 4900 dcba 68d9 d8bb 0f4d 4abc
00000190: 0043 42bc c438 b3bb 24b4 a43b 61c1 04bc
000001a0: 856c 4b3a 6ae0 f1bb 03e0 62bc 6f8f fcba
000001b0: dfb4 453b 736a aabb 7efb 2abc ed49 a3bb
000001c0: 5783 8fbb b977 e6bb f453 d73b 8e51 dfbb
000001d0: 21dc d4bb 10cc 0cbb d9b3 00bc abac 0dbc
000001e0: a1c4 973b be2c 2dbc cae3 44bb 8e37 10bc
000001f0: 4335 913b dfa2 cbba d6d2 233c 62e4 09bc

action_model._continuous_distribution.log_sigma f4 [1, 3]
-0.104308456 -0.25152197 -0.038520638
00000000: ac9f d5bd 7dc7 80be d1c7 1dbd

action_model._continuous_distribution.mu.weight f4 [3, 128]
0.016949112 0.03978334 0.0053784763 -0.016851436 0.03181628 0.020243114 0.014185209 -0.030345537
-0.021712165 -0.032398418 -0.0030031449 0.013563848 -0.005370319 0.013557541 0.0064262673 -1.1432089e-05
0.019940386 0.025217844 -0.015591665 0.021506498 -0.0109094195 -0.031432748 -0.02355886 0.0013570054
0.009837236 0.009042416 0.0017282827 0.027571388 -0.01130541 0.031055033 0.008544673 0.003668753
-0.013162874 0.01973453 -0.004002617 0.0031116027 0.008754676 0.0009888301 0.016807878 0.016049204
-0.02831349 -0.023870781 -0.0012921446 0.0028224757 0.008813885 -0.040421434 -0.023903271 -0.028079337
0.011318927 0.011123725 0.020216584 0.0040756115 -0.063086 0.007267538 0.0017395563 -0.02417944
0.03498163 -0.018588215 0.009121853 0.0003388269 0.0077332812 0.0039531467 0.031015456 -0.019392075
-0.036753457 0.010139927 0.0010361864 -0.0005968207 0.07223062 -0.005510443 -0.00014245702 0.01682489
-0.017311651 -0.028040119 0.002156803 -0.017302746 0.0016138348 -0.017012872 -0.011653188 -0.010303773
0.01826509 0.035543963 -0.030034017 -0.01518242 -0.036648355 0.005912101 0.04724449 -0.008973458
0.0035797402 0.017488705 0.0018798588 -0.024917219 0.0072077275 -0.030996555 -0.009852454 0.03182407
0.0061209444 -0.02843818 -0.017178116 -0.014129425 0.0009685921 0.013526185 0.030227311 -0.016056541
0.0063037933 0.034862805 -0.028363407 0.00846858 -0.0016685145 0.009625402 -0.001124657 0.0034818063
-0.020558214 -0.059596192 0.012472556 -0.0018199803 -0.004440121 0.031054698 -0.0017028634 0.009994001
0.0153405545 0.013610493 0.018560605 -0.0015851582 0.0155526865 0.01620561 -0.04867884 0.0028252457
0.009244932 -0.009750361 -0.010908059 0.029672917 0.015865799 -0.011419684 -0.013225837 0.039744366
0.022391224 0.016966762 0.011063325 -0.020096427 0.005965686 -0.013266303 -0.028923221 0.009512304
-0.0048170905 -0.010898595 0.011597026 0.0062895184 -0.0044407165 0.0062637553 0.00554049 0.048431646
-0.006982593 -0.0009138321 0.034248088 0.024449466 -0.00536462 -0.03839179 -0.011162175 0.03184124
-0.0018195965 0.018532671 0.005413386 0.02020093 0.023217374 -0.015383047 -0.00078721583 0.01437392
-0.026638405 -0.057628524 -0.011111941 -0.016104227 0.011992688 0.010209807 0.028215392 -0.0063588037
-0.031153232 0.010072202 -0.011003307 -0.001770881 0.01673529 -0.004391375 -0.0048827506 -0.010166143
-0.006456339 -0.0034908755 -0.0356511 0.017733742 -0.015611082 -0.0208544 -0.0013818039 0.01636463
-0.03178123 -0.012076716 -0.0011834332 -0.002349978 -0.01646607 -6.662238e-05 -0.007512128 0.0021884716
-0.010823266 -0.011761797 0.015545402 -0.005871189 0.012228974 0.005084817 0.028500637 -0.023646085
-0.04012832 0.00957219 0.004593255 -0.02037366 -0.038486402 -0.013578862 0.028019007 0.015606696
-0.0039775735 -0.017453888 -0.0057281954 0.021988342 0.0067154355 0.009473525 0.015543516 0.007306256
-0.0051427623 0.0021590856 -0.0074300016 -0.019941963 -0.011185391 -0.016465615 -0.01979135 -0.0038560252
-0.007442502 -0.011768612 0.0106836315 -0.026784219 -0.012503232 0.0023064425 0.00786472 0.002818531
-0.04064684 -0.015035634 -0.018977022 0.015599448 0.013825401 0.024329413 0.016589843 -0.0065478743
-0.024120208 -0.007348999 0.01701235 0.013478794 0.0009493079 -0.00020678318 0.034576382 -0.016981145
00000000: ddd8 8a3c dbf3 223d ee3d b03b 060c 8abc
00000010: ca51 023d e3d4 a53c 1469 683c 3497 f8bc
00000020: b6dd b1bc 34b4 04bd 69d0 44bb e73a 5e3c
00000030: 80f9 afbb 7320 5e3c 7093 d23b 73cc 3fb7
00000040: 055a a33c a795 ce3c 2f74 7fbc 652e b03c
00000050: 6cbd 32bc a0bf 00bd 83fe c0bc 8cdd b13a
00000060: 5c2c 213c a426 143c 8b87 e23a 64dd e13c
00000070: 543a 39bc 2067 fe3c f5fe 0b3c 766f 703b
00000080: 18a9 57bc 4faa a13c 6328 83bb 08ec 4b3b
00000090: c66f 0f3c a29b 813a adb0 893c 9f79 833c
000000a0: b1f1 e7bc a88c c3bc 2e5d a9ba 49f9 383b
000000b0: 1d68 103c f290 25bd cbd0 c3bc a306 e6bc
000000c0: 0573 393c 4940 363c 409d a53c b58c 853b
000000d0: 3c33 81bd 8724 ee3b d301 e43a f613 c6bc
000000e0: e648 0f3d 5046 98bc d373 153c 94a4 b139
000000f0: 7767 fd3b 6689 813b 2014 fe3c 21dc 9ebc
00000100: cb8a 16bd f021 263c a5d0 873a f673 1cba
00000110: a6ed 933d f290 b4bb 8460 15b9 5ad4 893c
00000120: 2ad1 8dbc 64b4 e5bc 2659 0d3b 7dbe 8dbc
00000130: 4f87 d33a 945e 8bbc 03ed 3ebc 28d1 28bc
00000140: aca0 953c 8c96 113d e609 f6bc afbf 78bc
00000150: 961c 16bd 4cba c13b 7083 413d 6905 13bc
00000160: 139a 6a3b 7944 8f3c 9865 f63a 321f ccbc
00000170: cd2e ec3b 7dec fdbc 306c 21bc f559 023d
00000180: 3492 c83b 30f7 e8bc 1fb9 8cbc 1b7f 67bc
00000190: 1ee9 7d3a ef9c 5d3c 449f f73c 0289 83bc
000001a0: 0d90 ce3b 4dcc 0e3d 605a e8bc cdbf 0a3c
000001b0: 0eb2 daba ddb3 1d3c 3a69 93ba 042f 643b
000001c0: b369 a8bc 231b 74bd b159 4c3c 688c eeba
000001d0: 6f7e 91bb 6c66 fe3c 9d32 dfba e1bd 233c
000001e0: f356 7b3c 8cfe 5e3c 690c 983c 15c5 cfba
000001f0: b2d0 7e3c a1c1 843c 7763 47bd c227 393b
00000200: 0e78 173c fabf 1fbc b7b7 32bc 9e14 f33c
00000210: fef8 813c a019 3bbc 2eb1 58bc fdca 223d
00000220: cd6d b73c e1fd 8a3c f342 353c 43a1 a4bc
00000230: cd7b c33b e85a 59bc 64f0 ecbc 7fd9 1b3c
00000240: afd8 9dbb 0590 32bc 7401 3e3c 4e18 ce3b
00000250: 6e83 91bb 3040 cd3b 008d b53b 4360 463d
00000260: 3cce e4bb 3c8e 6fba b947 0c3d 3f4a c83c
00000270: b2c9 afbb b640 1dbd 8ee1 36bc f66b 023d
00000280: 877f eeba d4d1 973c c662 b13b 6c7c a53c
00000290: 5d32 be3c 2d09 7cbc 295d 4eba 9780 6b3c
000002a0: c938 dabc e30b 6cbd dc0e 36bc 03ed 83bc
000002b0: fb7c 443c 0947 273c f723 e73c 835d d0bb
000002c0: 1035 ffbc e105 253c 3747 34bc e81c e8ba
000002d0: 7218 893c 86e5 8fbb 7bff 9fbb e58f 26bc
000002e0: b28f d3bb 2cc7 64bb e306 12bd 5a46 913c
000002f0: a0c5 7fbc d9d6 aabc a51d b5ba 1e0f 863c
00000300: 092d 02bd 6bdd 45bc 6e1d 9bba 1702 1abb
00000310: dae3 86bc 9eb7 8bb8 4c28 f6bb 766c 0f3b
00000320: 1154 31bc 8db4 40bc 24b2 7e3c 1a63 c0bb
00000330: 095c 483c 899e a63b 2b7a e93c 6fb5 c1bc
00000340: 985d 24bd add4 1c3c 0483 963b a9e6 a6bc
00000350: eba3 1dbd e079 5ebc 1e88 e53c 3ab3 7f3c
00000360: 4e56 82bb 75fb 8ebc 96b3 bbbb e520 b43c
00000370: 280d dc3b d836 1b3c 3baa 7e3c 5169 ef3b
00000380: 9e84 a8bb 727f 0d3b 5f77 f3bb 545d a3bc
00000390: ee42 37bc e6e2 86bc 7821 a2bc 5eb5 7cbb
000003a0: 3be0 f3bb 23d1 40bc 660a 2f3c 946a dbbc
000003b0: 5bda 4cbc af27 173b 07db 003c 1ab7 383b
000003c0: 4d7d 26bd 0558 76bc b375 9bbc d494 7f3c
000003d0: ef83 623c 7a4e c73c 6ce7 873c 8d8f d6bb
000003e0: be97 c5bc dfcf f0bb 7c5d 8b3c 29d6 5c3c
000003f0: fada 783a f0d3 58b9 f79f 0d3d 0b1c 8bbc

action_model._continuous_distribution.mu.bias f4 [3]
0.0067869965 -0.0023339249 0.00079473504
00000000: 7465 de3b c3f4 18bb c455 503a
