TWP_2/results/DynPnp34/RobotArm/RobotArm-11102.pt (torch, 462430 bytes, 36 tensors)

network_body._body_endoder.seq_layers.0.weight f4 [128, 12]
0.20232119 -0.5213564 -0.22546244 -0.45720673 -0.32008716 -0.026476098 0.06523209 -0.19314256
-0.15784077 0.45788214 0.3113169 0.02929784 0.3818551 -0.19568305 -0.039910335 -0.10841125
-0.45982575 0.34367517 -0.386998 -0.22187153 0.36029595 -0.12949288 -0.5600592 0.22425745
0.30821887 0.44171077 0.3007817 -0.05404993 0.24526 0.020778012 -0.22757028 0.4040619
0.4713957 0.2587157 -0.62929803 0.08607304 0.5195457 -0.28570274 0.054343194 0.38372475
0.27067482 -0.1884868 -0.37697986 -0.008325182 0.2452475 -0.33849508 -0.11330647 0.09629833
-0.16076055 -0.41727167 -0.90124696 -0.2361792 -0.14894009 0.15162681 0.14737082 -0.30652633
-0.09760703 -0.02707847 -0.3030889 0.18482324 -0.36594778 -0.08094384 -0.2090601 -0.3598685
-0.31759432 -0.42239276 0.41565794 -0.025611566 -0.08340669 0.009837072 -0.46198013 0.15909596
-0.24079055 -0.2938147 -0.19091094 0.23173389 -0.010023111 0.24056172 -0.15014777 0.19241644
-0.42734677 0.47707638 0.05466154 -0.1653345 0.084014036 0.28707793 -0.18930891 0.011079887
0.092767484 0.4047177 0.33857802 0.04785899 -0.5128974 0.4957939 -0.03100849 0.17134736
0.31925857 -0.09123761 0.74868464 0.15914997 0.14698094 0.10221977 0.2936819 -0.3573599
-0.17323531 0.024060909 -0.13049902 0.11064825 0.08607076 -0.08700391 -0.21258937 0.31771332
0.3071923 0.1756781 -0.074075446 -0.034187652 0.13635862 0.35758504 -0.15976588 0.043291852
0.21490604 0.33664173 -0.053103372 -0.1232036 0.15702277 0.34987065 -0.05786715 -0.43486372
-0.49496663 0.024282526 0.26209345 -0.30346847 0.2678952 0.34601882 0.12569645 0.3865722
0.6823766 -0.40630218 0.19798544 0.081390575 0.13787103 0.43422112 0.11149038 0.37339672
0.058730308 -0.66590005 0.18258685 -0.021727452 0.032662153 -0.31599325 -0.026766688 -0.09211499
-0.06992521 -0.33674031 -0.35761714 -0.017810054 0.18291298 -0.42203918 0.23774913 -0.46770194
0.3154523 -0.2345881 0.049528174 -0.14255866 -0.1006118 -0.08401474 0.28724238 -0.45602947
-0.19504613 0.19550602 -0.24269289 0.39378494 0.09104659 -0.15565936 0.351181 -0.1608261
0.20033285 -0.3293414 0.5365785 -0.4419229 0.0798866 -0.108912565 -0.018763587 0.00884206
-0.25176156 0.18374656 0.14784603 -0.34717438 0.04262086 -0.54672825 0.19705163 -0.3681891
-0.36101875 0.055575483 -0.73590255 -0.16887599 -0.24929139 0.08921388 0.34237376 0.28452152
-0.06686399 -0.037320092 -0.11653321 0.12253819 -0.29106286 0.028445786 -0.17653543 0.25862193
0.5732568 0.38050735 0.12457679 -0.1862849 -0.34623137 -0.15063111 -0.03216396 -0.023093998
0.35352725 -0.22463933 -0.10408053 0.29655555 -0.39043882 0.01813699 0.18453655 0.23409241
0.080904506 0.07581547 -0.165554 -0.069075376 -0.354625 0.17072318 -0.16480106 0.22059844
0.03883445 0.3812392 0.24621964 -0.33742225 0.055114154 0.42407236 0.24341258 -0.41388026
-0.05294025 0.07822086 -0.06788297 0.06383792 0.4506558 -0.010337524 0.072287016 -0.06445218
0.281594 -1.0267138 0.46330377 -0.2006709 0.40387437 0.28094384 0.23111498 0.40725076
00000000: 492d 4f3e 9d77 05bf a0df 66be 0017 eabe
00000010: 77e2 a3be 67e4 d8bc 6798 853d 2ac7 45be
00000020: 03a1 21be 876f ea3e ee64 9f3e 0602 f03c
00000030: 8382 c33e 2361 48be 0579 23bd b806 debd
00000040: 486e ebbe 31f6 af3e 9a24 c6be 4a32 63be
00000050: b678 b83e c899 04be 0a60 0fbf bfa3 653e
00000060: ddce 9d3e ea27 e23e 0f00 9a3e 7663 5dbd
00000070: 7025 7b3e a636 aa3c 2f08 69be 34e1 ce3e
00000080: c75a f13e 6276 843e ad19 21bf 1047 b03d
00000090: f200 053f a147 92be f896 5e3d 9277 c43e
000000a0: e495 8a3e af02 41be 8103 c1be 5866 08bc
000000b0: 2922 7b3e 3a4f adbe 390d e8bd 0f38 c53d
000000c0: 6a9e 24be a2a4 d5be 1fb8 66bf f6d8 71be
000000d0: c083 18be 0f44 1b3e 60e8 163e 05f1 9cbe
000000e0: 32e6 c7bd abd3 ddbc 782e 9bbe 4e42 3d3e
000000f0: 825d bbbe e2c5 a5bd da13 56be af40 b8be
00000100: b99b a2be dd43 d8be 1ed1 d43e 59cf d1bc
00000110: 20d1 aabd ac2b 213c a988 ecbe 0dea 223e
00000120: cc91 76be e16e 96be 287e 43be a64b 6d3e
00000130: f937 24bc d055 763e 56c0 19be d108 453e
00000140: 32cd dabe 5b43 f43e c7e4 5f3d 724d 29be
00000150: 8d0f ac3d e1fb 923e 32da 41be 6a88 353c
00000160: e1fc bd3d 2937 cf3e 195a ad3e ca07 443d
00000170: 3e4d 03bf b3d8 fd3e 8405 febc af75 2f3e
00000180: dc75 a33e c9da babd cca9 3f3f 36f8 223e
00000190: 2c82 163e 9958 d13d 795d 963e e0f7 b6be
000001a0: 9964 31be 621b c53c 89a1 05be 8d9b e23d
000001b0: de45 b03d 1b2f b2bd 07b1 59be 52ab a23e
000001c0: 4f48 9d3e f6e4 333e deb4 97bd 5a08 0cbd
000001d0: 98a1 0b3e 6315 b73e ab99 23be cc52 313d
000001e0: 5410 5c3e 4e5c ac3e ec82 59bd 2b52 fcbd
000001f0: 94ca 203e 3f22 b33e 1b06 6dbd 75a6 debe
00000200: 446c fdbe 26ec c63c 1d31 863e 3860 9bbe
00000210: 8f29 893e 6129 b13e 92b6 003e cbec c53e
00000220: 3cb0 2e3f d706 d0be b2bc 4a3e 1ab0 a63d
00000230: 102e 0d3e 3b52 de3e 1155 e43d db2d bf3e
00000240: 318f 703d 6d78 2abf 0cf8 3a3e c5fd b1bc
00000250: c0c8 053d dec9 a1be d045 dbbc c9a6 bcbd
00000260: f334 8fbd 3a69 acbe 9819 b7be 64e6 91bc
00000270: 8a4d 3b3e 8515 d8be 8274 733e a176 efbe
00000280: f782 a13e dd37 70be 0ede 4a3d e6fa 11be
00000290: 8f0d cebd ec0f acbd 6f11 933e b27c e9be
000002a0: 2cba 47be bb32 483e 7c84 78be 2e9e c93e
000002b0: a276 ba3d 2b65 1fbe ffcd b33e 99af 24be
000002c0: 0e24 4d3e 709f a8be 355d 093f b843 e2be
000002d0: 969b a33d 8d0d dfbd 18b6 99bc 4ade 103c
000002e0: e4e6 80be 0f28 3c3e f364 173e d7c0 b1be
000002f0: 3693 2e3d 62f6 0bbf e7c7 493e 4883 bcbe
00000300: 73d7 b8be 1ea3 633d 1c64 3cbf d4ed 2cbe
00000310: 3e46 7fbe c4b5 b63d 9d4b af3e ceac 913e
00000320: fdef 88bd f4dc 18bd f7a8 eebd 4df5 fa3d
00000330: 3106 95be 2307 e93c b4c5 34be 186a 843e
00000340: f5c0 123f dcd1 c23e 1e22 ff3d 78c1 3ebe
00000350: 3d45 b1be 0b3f 1abe 5bbe 03bd a02f bdbc
00000360: 8601 b53e da07 66be 2c28 d5bd 21d6 973e
00000370: 99e7 c7be 0694 943c 26f7 3c3e ecb5 6f3e
00000380: 43b1 a53d 2445 9b3d fd86 29be 6477 8dbd
00000390: 6891 b5be 0fd2 2e3e 9cc1 28be 8fe4 613e
000003a0: df10 1f3d c931 c33e 0021 7c3e 9cc2 acbe
000003b0: 61bf 613d 0320 d93e 2641 793e 1de8 d3be
000003c0: e0d7 58bd 4232 a03d 3a06 8bbd 75bd 823d
000003d0: 5bbc e63e b85e 29bc 370b 943d 81ff 83bd
000003e0: 172d 903e 5c6b 83bf 2736 ed3e ac7c 4dbe
000003f0: 9fc8 ce3e dfd7 8f3e 68a9 6c3e 2c83 d03e

network_body._body_endoder.seq_layers.0.bias f4 [128]
-0.00012919659 -0.0013980253 -0.00040489552 3.4620112e-05 -9.024258e-13 -4.793577e-05 3.3302054e-05 -0.0005553755
0.00037319653 5.8307975e-05 -0.00020693157 -0.00034638908 1.2759522e-15 -0.00030148626 -0.00013545828 -1.5690328e-07
0.0028880443 -0.0013634977 0.002803982 0.00012729553 -4.145426e-05 -0.000464604 -0.0001628376 0.0005767838
-6.648909e-06 -7.701828e-05 -0.001225855 0.00025644086 -0.00013368149 -3.9515828e-05 -0.000931859 -0.0006065115
-0.00030538632 0.00014328028 -0.0006186316 5.712954e-12 0.00023737387 -0.00031606376 0.00012753108 -7.752285e-05
0.00010070122 0.0001538831 -0.001062981 -0.0019383768 -0.0007797517 -1.5679481e-05 -5.3858643e-05 -0.00042600976
-0.00014039196 1.391365e-05 -6.5729346e-08 -1.6700468e-06 -0.0004939281 -0.00020579476 1.5620797e-05 -0.00012877845
0.0010629124 -0.00028714267 -0.00028796605 6.470557e-05 -0.00033570098 -9.258946e-05 0.0006280213 -0.00049393246
9.926047e-05 -0.0007523996 -0.00029943525 -0.00096315314 -0.00012773217 -0.00073828944 0.00042828752 -0.0010836401
0.00020645694 0.00051022734 -0.00085973076 1.6222265e-09 -0.0035988889 -0.0007812157 -8.858909e-20 -0.0007158034
-0.0006648498 -0.00032763844 0.0003587933 -0.0004210941 3.5493322e-08 -0.0010322231 0.00016972615 -0.0005606464
0.00013542887 2.6209553e-05 -0.00018904563 -0.00017956087 0.0002781447 0.00029024956 -0.0005413712 -0.00053632044
-0.00036256274 -0.0004589388 -6.562198e-06 -0.00031843633 0.00016616132 -0.0004979874 6.173488e-05 0.00022954372
-7.033423e-05 -3.8474474e-07 -0.0005086877 9.8305434e-05 -0.0014644973 -1.8471765e-05 0.0006159638 -0.00020963051
-0.0008674739 4.370128e-05 0.0001358079 -0.00014288773 -0.0011602106 -0.00038296508 -0.0002468793 0.00068030186
-0.0002632378 0.00023322855 -0.00011190651 0.00028743348 -1.0666644e-05 0.0015494579 -1.3034783e-05 -8.992738e-17
00000000: f278 07b9 f23d b7ba 2848 d4b9 1035 1138
00000010: a202 7eab a40e 49b8 cfad 0b38 9e96 11ba
00000020: 97a9 c339 b68f 7438 c5fb 58b9 8e9b b5b9
00000030: 54e2 b726 cd10 9eb9 ce09 0eb9 3f79 28b4
00000040: 5845 3d3b 64b7 b2ba 03c3 373b a27a 0539
00000050: 2cdf 2db8 1896 f3b9 63bf 2ab9 4e33 173a
00000060: b219 dfb6 e084 a1b8 deac a0ba e972 8639
00000070: da2c 0cb9 ccbd 25b8 0048 74ba 4cfe 1eba
00000080: 421c a0b9 823d 1639 aa2b 22ba b701 c92c
00000090: 90e7 7839 5cb5 a5b9 ddb9 0539 c393 a2b8
000000a0: 8e2f d338 ae5b 2139 b953 8bba 2211 feba
000000b0: 4068 4cba 6e87 83b7 47e6 61b8 105a dfb9
000000c0: 2e36 13b9 ac6e 6937 1727 8db3 5f26 e0b5
000000d0: f47a 01ba 9cca 57b9 6809 8337 b408 07b9
000000e0: 6c51 8b3a a38b 96b9 26fa 96b9 8ab2 8738
000000f0: 0601 b0b9 962c c2b8 cca1 243a 3f7b 01ba
00000100: 0f2a d038 af3c 45ba 85fd 9cb9 1d7c 7cba
00000110: d8ef 05b9 c489 41ba c78b e039 ee08 8eba
00000120: 5d7c 5839 c7c0 053a 8e5f 61ba 05f5 de30
00000130: 56db 6bbb 80ca 4cba d22c d19f c1a4 3bba
00000140: 5149 2eba e3c6 abb9 6c1c bc39 4bc6 dcb9
00000150: 5271 1833 a94b 87ba 84f8 3139 58f8 12ba
00000160: e901 0e39 96dc db37 8d3a 46b9 8148 3cb9
00000170: f3d3 9139 a32c 9839 ceea 0dba db97 0cba
00000180: 5916 beb9 b99d f0b9 da30 dcb6 cdf3 a6b9
00000190: 973b 2e39 5e8b 02ba a977 8138 acb1 7039
000001a0: 6780 93b8 ea8e ceb4 7459 05ba 5429 ce38
000001b0: 60f4 bfba d0f3 9ab7 a278 213a 43d0 5bb9
000001c0: 3067 63ba e44b 3738 a867 0e39 22d4 15b9
000001d0: 3512 98ba b4c8 c8b9 946f 81b9 4956 323a
000001e0: 2e03 8ab9 d08e 7439 5aaf eab8 abb2 9639
000001f0: e3f4 32b7 2e17 cb3a f7af 5ab7 c15b cfa4

network_body._body_endoder.seq_layers.2.weight f4 [128, 128]
0.062430825 0.07216014 0.13270214 0.16956809 -0.015025783 0.032368127 0.10108477 0.033865437
-0.094414175 -0.122419134 -0.056718428 -0.16025774 -0.074455254 0.2177881 -0.14039262 0.060340274
0.07853259 -0.07556505 0.036688395 0.017678434 0.11751337 -0.121476956 0.07262725 -0.08092585
0.10262552 0.052086405 -0.11875154 0.04185166 0.105685204 -0.21794108 -0.102652565 -0.15173401
0.02875341 -0.10612776 -0.113045335 0.113878116 -0.07600662 0.12488631 0.16387169 -0.035233323
0.15814959 0.07562005 -0.17567337 -0.113242224 0.031026144 -0.14072946 -0.04612171 0.0768505
0.016165704 -0.021233825 0.13906445 0.16785158 0.110468 0.1362494 -0.115430616 -0.004679946
0.16429548 0.07315164 -0.0892312 0.027684884 -0.11704725 0.015010625 0.16003828 -0.053123374
-0.106818825 -0.084878735 0.25858715 -0.1393715 0.15285283 -0.21960732 0.04798272 0.11738052
0.113480575 -0.004154189 -0.014368848 -0.054516193 -0.18333402 0.14698339 0.0069693206 0.036231115
0.008507559 -0.060531702 -0.108513966 -0.06138826 -0.16830947 -0.046859093 -0.0044732764 0.05843559
-0.02318708 0.05619551 -0.01587932 -0.042620435 0.030931123 0.089512825 -0.012677612 0.11325401
0.057173736 0.02832133 0.050161418 -0.12523149 -0.011178545 0.13395463 0.082398735 0.008349997
0.14987244 0.00066605216 -0.034062162 -0.05685448 0.023671797 -0.044944204 -0.096420564 -0.079082936
-0.008363287 0.03794568 0.19187401 -0.18404688 -0.03229767 -0.07669721 0.1039132 0.13215433
-0.03324977 -0.07270465 0.14442481 -0.05994488 -0.089594275 -0.0066123446 0.05204292 -0.020695232
-0.01869077 -0.043142647 -0.050399292 -0.13306144 -0.08821017 0.11173157 0.018424109 -0.0006198206
0.12569475 -0.016421327 0.040869925 -0.0364602 0.023375968 0.14390573 0.040582117 0.08072347
-0.027070563 -0.23612718 -0.12782687 -0.067132905 0.031144066 0.0309886 0.07584045 -0.048103463
-0.08014235 -0.024193136 0.09470423 0.12085648 0.13352852 -0.08415063 0.0181972 0.08554812
0.04879944 0.008041644 0.15302539 0.08445407 -0.09690686 -0.14625846 -0.028799748 -4.327498e-05
0.042708375 0.11522176 0.07759216 -0.126886 -0.067540206 0.011477457 0.1677379 0.089707516
-0.023831956 -0.08598294 0.031113645 0.06615173 -0.10899692 0.066790715 -0.081582434 -0.14191484
0.015144362 0.12664035 -0.014434167 -0.07376659 0.053714886 0.02675445 -0.12377541 0.0020325864
0.06033984 0.29315892 0.01926198 -0.089494325 -0.08163072 -0.047081452 0.0058172517 -0.063395716
-0.088470966 0.040751174 0.115270644 -0.015875591 -0.12245627 0.038001716 0.022825513 -0.107074395
0.01336889 -0.015229846 0.03042656 -0.14450663 0.20885874 0.090274684 0.009734627 0.08314141
0.010180277 0.014712217 -0.0672586 -0.052637942 0.032140177 -0.114526615 -0.032034107 -0.011757573
0.012270479 -0.08561284 0.111058205 0.11813934 0.15915257 0.047718454 -0.040577114 -0.23012035
0.012202852 0.013097461 -0.15382442 0.05771369 0.22113384 0.046609472 -0.006226299 -0.052310586
0.032058585 0.032303303 0.09133332 0.009732785 0.0352651 -0.033341587 0.07187418 -0.055532634
-0.1071492 0.008363608 -0.09706778 0.064255536 0.014137704 -0.006557002 -0.14994551 0.0021659816
00000000: 77b7 7f3d b2c8 933d 12e3 073e 42a3 2d3e
00000010: b42e 76bc 7194 043d 8805 cf3d 7cb6 0a3d
00000020: 385c c1bd e2b6 fabd 9551 68bd 9b1a 24be
00000030: ff7b 98bd d803 5f3e 15c3 0fbe 5d27 773d
00000040: b2d5 a03d d9c1 9abd 9246 163d 5dd2 903c
00000050: daaa f03d e9c8 f8bd 98bd 943d 74bc a5bd
00000060: 542d d23d 8e58 553d 0234 f3bd a56c 2b3d
00000070: 7c71 d83d f22b 5fbe 823b d2bd 2960 1bbe
00000080: 458c eb3c 8359 d9bd 5084 e7bd ee38 e93d
00000090: 5ca9 9bbd 65c4 ff3d fbcd 273e d150 10bd
000000a0: f7f1 213e afde 9a3d b8e3 33be 8aeb e7bd
000000b0: 8a2a fe3c 621b 10be 1eea 3cbd cc63 9d3d
000000c0: f06d 843c 8ff2 adbc e966 0e3e 49e1 2b3e
000000d0: 0c3d e23d f684 0b3e e366 ecbd 3c5a 99bb
000000e0: 133d 283e 87d0 953d d9be b6bd 69cb e23c
000000f0: 78b6 efbd 20ef 753c 13e1 233e e597 59bd
00000100: d4c3 dabd e7d4 adbd 8965 843e 67b7 0ebe
00000110: 7485 1c3e bee0 60be 8789 443d 3365 f03d
00000120: 8168 e83d dd1f 88bb 516b 6bbc 5f4c 5fbd
00000130: eabb 3bbe d082 163e e65e e43b 1467 143d
00000140: 4a63 0b3c 17f0 77bd 923c debd 4272 7bbd
00000150: 5159 2cbe 52ef 3fbd 9094 92bb 285a 6f3d
00000160: d5f2 bdbc 432d 663d 5915 82bc c492 2ebd
00000170: 4463 fd3c 8052 b73d c2b5 4fbc b8f1 e73d
00000180: 022f 6a3d 2202 e83c 0f76 4d3d af3c 00be
00000190: 3726 37bc 672b 093e abc0 a83d 6dce 083c
000001a0: 2978 193e 019a 2e3a c484 0bbd 3ee0 68bd
000001b0: 5beb c13c 6a17 38bd 2578 c5bd 3cf6 a1bd
000001c0: 2b06 09bc ee6c 1b3d 9f7a 443e c976 3cbe
000001d0: 904a 04bd 6d13 9dbd 72d0 d43d 7753 073e
000001e0: e930 08bd 2de6 94bd 19e4 133e c388 75bd
000001f0: 347d b7bd 5eac d8bb f52a 553d 0c89 a9bc
00000200: 631d 99bc 58b6 30bd 7d6f 4ebd 4241 08be
00000210: 89a7 b4bd 85d3 e43d 28ee 963c 757b 22ba
00000220: 20b6 003e 0586 86bc 3967 273d 4a57 15bd
00000230: f57e bf3c 065c 133e 6f39 263d 5952 a53d
00000240: 16c3 ddbc 53cb 71be 0ce5 02be fa7c 89bd
00000250: d721 ff3c cedb fd3c 3d52 9b3d 2308 45bd
00000260: ac21 a4bd af30 c6bc 4bf4 c13d 9a83 f73d
00000270: b3bb 083e 2a57 acbd 4b12 953c da33 af3d
00000280: ece1 473d 19c1 033c b0b2 1c3e 41f6 ac3d
00000290: 1b77 c6bd c7c4 15be 73ed ebbc 2882 35b8
000002a0: faee 2e3d 63f9 eb3d a3e8 9e3d 67ee 01be
000002b0: 8552 8abd f20b 3c3c 7cc3 2b3e 93b8 b73d
000002c0: 3c3b c3bc d317 b0bd 0be2 fe3c 8f7a 873d
000002d0: c739 dfbd 92c9 883d b114 a7bd 2052 11be
000002e0: 0f20 783c 02ae 013e 497d 6cbc f012 97bd
000002f0: 2404 5c3d 262c db3c f67d fdbd 2435 053b
00000300: e826 773d ed18 963e 4dcb 9d3c cd48 b7bd
00000310: 022e a7bd 7bd8 40bd a59e be3b 9dd5 81bd
00000320: 4430 b5bd b4ea 263d 0413 ec3d 870d 82bc
00000330: 5aca fabd b0a7 1b3d 92fc ba3c d249 dbbd
00000340: 3009 5b3c 9b86 79bc 1f41 f93c 8cf9 13be
00000350: 11df 553e efe1 b83d fc7d 1f3c 0b46 aa3d
00000360: 2dcb 263c 830b 713c e0be 89bd e29a 57bd
00000370: 6ba5 033d ee8c eabd 3236 03bd d6a2 40bc
00000380: 1f0a 493c c955 afbd 7c72 e33d 0af3 f13d
00000390: e4f8 223e 6d74 433d 3034 26bd aba4 6bbe
000003a0: 79ee 473c bc96 563c 2684 1dbe 3165 6c3d
000003b0: e970 623e 93e9 3e3d fb05 ccbb a043 56bd
000003c0: dd4f 033d 7850 043d f70c bb3d 4276 1f3c
000003d0: 2372 103d 3091 08bd c532 933d 3076 63bd
000003e0: 0a71 dbbd 8407 093c 79cb c6bd 6898 833d
000003f0: d4a1 673c 1fdc d6bb 518b 19be 24f3 0d3b

network_body._body_endoder.seq_layers.2.bias f4 [128]
-4.5443735e-06 -0.00016592877 -0.00036128575 -0.0005467219 -0.00059994037 -5.866301e-05 -2.8084149e-05 -0.000584991
-6.3784326e-05 0.0008735172 -0.00064975355 -0.0010500603 -0.00064974214 0.000684922 -0.0007632388 0.00022657323
-0.00010959532 8.26842e-08 -0.00042991736 -0.0001353239 -0.00024341184 -0.0003434189 5.3582342e-05 -0.0001295124
-0.00011372905 -0.0001695214 -0.00031636094 0.00014573082 0.0006698946 -0.000113061644 -9.971675e-05 -0.0005146984
-0.00020088322 -0.00015167805 -0.0005889796 -0.00011171937 -0.00011908692 0.001874019 -8.040728e-05 -0.00019746515
-9.5837e-05 -0.00030878434 -0.0002555261 -0.0011466268 -0.00025385892 0.00030302626 0.00071308704 -0.00038947465
-2.9912536e-07 -0.00010369202 -0.0016318266 -0.0006529738 3.5638262e-05 -4.883921e-09 -0.0002265964 -0.00054197037
0.00066075847 0.0003757756 -0.00021856697 -0.0003863538 0.00021780169 0.0009809154 0.00076469965 0.00016885667
0.00031649746 1.2702855e-12 0.00013418116 -0.00038596944 -6.628865e-07 -0.00045674483 1.28089564e-20 -1.7806789e-12
-0.001867768 -0.00019027042 -0.00020493484 -0.00065536815 -0.00013869503 -0.00015065861 -0.0004095558 -0.0004295967
-4.5083783e-05 -0.00024062586 -0.0014840795 6.0471215e-05 -0.00013095337 -0.0004558468 -0.00016664481 -0.00025343645
2.2671948e-05 -6.680486e-05 -0.00048356724 -0.0011700724 -0.0001521967 -0.00023438904 -0.00029874066 -0.0005045101
-0.00036083502 0.0002647569 -0.00038926885 -9.594377e-05 -0.00016285045 -0.0005470771 6.404738e-05 -0.0014092742
-0.00040133152 0.0010628013 8.749496e-05 2.296101e-16 0.0007929012 -0.00018345668 -0.00060464017 -0.00034476642
-0.0002028221 -0.00040788506 -0.00018354267 8.79813e-05 1.2051757e-05 -0.0002716527 0.00028727454 -0.00018853247
-0.0006193856 4.574995e-05 -8.848149e-08 0.001924454 -2.2042374e-05 1.8269846e-05 -0.00010117963 -4.725135e-11
00000000: df7b 98b6 2afd 2db9 f46a bdb9 e351 0fba
00000010: 5145 1dba ed0c 76b8 4096 ebb7 155a 19ba
00000020: f3c3 85b8 bffc 643a 3954 2aba 2da2 89ba
00000030: 7553 2aba 568c 333a 1714 48ba 4a94 6d39
00000040: 8ad6 e5b8 1f90 b133 8866 e1b9 bce5 0db9
00000050: 5e3c 7fb9 e80c b4b9 9abd 6038 b8cd 07b9
00000060: d281 eeb8 8ec1 31b9 3fdd a5b9 52cf 1839
00000070: de9b 2f3a 821b edb8 061f d1b8 d3ec 06ba
00000080: 2ea4 52b9 c40b 1fb9 c065 1aba e14a eab8
00000090: 4ebe f9b8 a5a1 f53a 54a0 a8b8 a60e 4fb9
000000a0: 19fc c8b8 55e4 a1b9 22f8 85b9 694a 96ba
000000b0: 5e18 85b9 7fdf 9e39 76ee 3a3a 6732 ccb9
000000c0: 7a97 a0b4 3b75 d9b8 04e3 d5ba 542c 2bba
000000d0: 4b7a 1538 6ccf a7b1 829a 6db9 0413 0eba
000000e0: c036 2d3a bf03 c539 202f 65b9 878f cab9
000000f0: b261 6439 0f92 803a 2076 483a 1e0f 3139
00000100: 92ef a539 dcc6 b22b fbb2 0c39 f15b cab9
00000110: 37f1 31b5 4177 efb9 50f4 711e b89b faab
00000120: e5cf f4ba 5483 47b9 c7e3 56b9 03cd 2bba
00000130: aa6e 11b9 1dfa 1db9 a6b9 d6b9 7e3b e1b9
00000140: 5818 3db8 8350 7cb9 7285 c2ba 79a2 7d38
00000150: 8750 09b9 b9fe eeb9 60bd 2eb9 aadf 84b9
00000160: a32f be37 9619 8cb8 4c87 fdb9 1d5d 99ba
00000170: fe96 1fb9 54c6 75b9 4ba0 9cb9 1a41 04ba
00000180: 752e bdb9 12cf 8a39 c816 ccb9 6b35 c9b8
00000190: d6c2 2ab9 b969 0fba 2d51 8638 65b7 b8ba
000001a0: ce69 d2b9 b24d 8b3a 807d b738 785c 8425
000001b0: b3da 4f3a 475e 40b9 b780 1eba c4c1 b4b9
000001c0: a5ac 54b9 68d9 d5b9 5c75 40b9 9a82 b838
000001d0: e731 4a37 9c6c 8eb9 569d 9639 cdb0 45b9
000001e0: 445e 22ba a2e3 3f38 3703 beb3 f63d fc3a
000001f0: a3e7 b8b7 3242 9937 6630 d4b8 4ad0 4fae

action_model._continuous_distribution.log_sigma f4 [1, 3]
0.00028945546 0.00026289118 0.0010298353
00000000: 0ec2 9739 a8d4 8939 8afb 863a

action_model._continuous_distribution.mu.weight f4 [3, 128]
0.012846094 0.011927565 -0.0037355 -0.00021686687 0.024118373 -0.010458789 0.008631859 -0.0075535257
0.037391298 0.04091619 0.00050310895 -0.0099659115 -0.0044820956 -0.028994245 -0.002706301 -0.029079003
0.012752526 0.0060857213 0.007501761 -0.008794016 -0.021754125 0.003287244 0.006200958 0.020378407
0.0037536086 -0.052195627 -0.010533632 0.00053045206 -0.0052701235 0.014718834 0.026307393 -0.014948942
-0.0114309285 -0.0073648402 0.015509163 0.017852914 0.020328408 0.012776835 0.011991618 -0.0009350145
0.012824762 -0.025123425 0.00038507924 -0.013301877 0.0075465054 -0.00028516128 0.020468634 -0.019095605
-0.011414217 -0.029435692 0.006714737 -0.0008251841 0.012539846 0.010728365 0.018073304 0.030120436
-0.031529035 0.022746582 -0.009320773 0.004644976 0.0032873757 0.00988037 0.027173506 -0.009346153
-0.0089144865 0.0075620525 0.008636601 -0.010870751 -0.005367907 -0.01726322 -0.0031217756 0.009777375
-0.010227561 0.01959967 -0.030463763 0.00468584 0.02359566 0.009297259 -0.0052496777 -0.041447327
0.019455742 -0.019548347 0.001620096 0.009502498 0.013112199 -0.0029659078 0.0075205853 0.01996617
-0.009963592 0.006240177 0.0016595345 0.018784445 -0.0013776609 0.00881289 -0.0138230575 -0.0022333844
-0.021310693 -0.0154690575 0.0016831346 0.01233406 -0.00261379 0.009215245 0.012686819 -0.0016222578
-0.030255768 -0.0048101526 -0.014133376 -0.015405449 0.02269156 0.011929242 0.014373738 -0.0151416855
-0.005445417 -0.024206603 0.005042497 -0.011080781 0.004069535 -0.0019347082 0.0026549017 0.027810818
0.0031015463 -0.0031071447 -0.008866079 0.008956022 0.013802642 0.0016708779 -0.016487068 -0.0012074
-0.01739989 0.0055043614 0.01079724 -0.016214788 -0.0069614183 -0.017675791 0.0023594126 -0.011038738
0.01946999 -0.01080037 0.031598672 -0.012721616 0.0105005475 -0.011687358 -0.0015716259 0.01295289
0.014811028 0.01798801 0.025631014 -0.006478774 -0.018243177 0.01598515 0.0031781239 -0.0050675953
0.019279152 0.027296185 0.0033322275 0.024399556 -0.0036541133 -0.025785126 -0.0022483247 -0.005817939
0.019873349 0.009286634 -0.021639116 -0.035310306 0.006820024 0.024709167 0.009771468 -0.022591108
-0.004376887 0.026647156 -0.00013298985 0.0072552855 -0.0119578615 -0.012298063 -0.015149745 0.003841742
-0.01705872 -0.011787905 -0.029696455 -0.027996829 0.0013491459 0.0054819966 -0.014517339 0.034479763
0.013482218 0.006274034 0.018284237 0.0061781965 -0.031689085 -0.012856259 0.00026518083 0.0012314991
0.01883961 0.010475642 0.049930237 -0.008609358 0.018851679 -0.0025015697 -0.025673285 -0.039812706
0.008404521 -0.0050325566 -0.015504022 -0.0399865 -0.017611353 0.034559328 0.021247229 -0.013490619
0.008254555 0.007969505 0.010801697 -0.00041479254 -0.03346645 -0.013293267 -0.015818054 -0.004363609
0.0111477105 0.00279235 -0.000230528 -0.0018860421 -0.0015209896 0.008620266 0.016571559 0.0021670214
-0.021782272 0.037958138 0.0040419083 -0.013420953 -0.010459047 0.0002591232 -0.0019465357 -0.0059661195
-0.020038372 -0.009149729 0.0076689213 0.016426865 -0.0077917 0.00297277 -0.024266735 0.015937803
-0.02019206 0.022611195 0.004602477 0.005493318 0.01691716 -0.0015070839 -0.015920538 -0.0017858022
-0.0040269103 0.0075343773 0.00083434116 0.006686702 0.0073129367 -0.0084923385 0.0023087664 0.023204392
00000000: 6c78 523c d56b 433c 4acf 74bb c266 63b9
00000010: e593 c53c 575b 2bbc a46c 0d3c 9183 f7bb
00000020: 9e27 193d bc97 273d 12e3 033a 1048 23bc
00000030: 8bde 92bb 5785 edbc 325c 31bb 1737 eebc
00000040: f9ef 503c bb6a c73b 55d1 f53b c714 10bc
00000050: b535 b2bc cd6e 573b 6831 cb3b 9ef0 a63c
00000060: 1aff 753b 15cb 55bd 4195 2cbc 090e 0b3a
00000070: 00b1 acbb 4427 713c 9a82 d73c 68ec 74bc
00000080: ca48 3bbc c254 f1bb 251a 7e3c 4640 923c
00000090: c387 a63c ee55 513c 7e78 443c c31b 75ba
000000a0: f31e 523c a4cf cdbc 76e4 c939 1ef0 59bc
000000b0: ad48 f73b b381 95b9 d6ad a73c 636e 9cbc
000000c0: b202 3bbc 1f23 f1bc 4c07 dc3b 2b51 58ba
000000d0: ed73 4d3c 06c6 2f3c 770e 943c 22bf f63c
000000e0: 9724 01bd 0a57 ba3c 28b6 18bc e234 983b
000000f0: 0371 573b 47e1 213c f99a de3c 9b20 19bc
00000100: 110e 12bc 18cb f73b 8880 0d3c 3c1b 32bc
00000110: 45e5 afbb 996b 8dbc b496 4cbb 4831 203c
00000120: 8091 27bc 7d8f a03c 248f f9bc ad8b 993b
00000130: b04b c13c 8853 183c 7d05 acbb acc4 29bd
00000140: a661 9f3c db23 a0bc 6759 d43a 5eb0 1b3c
00000150: 8cd4 563c ad5f 42bb 3e6f f63b 1890 a33c
00000160: 553e 23bc 667a cc3b bd84 d93a d6e1 993c
00000170: a192 b4ba f163 103c 1b7a 62bc f95d 12bb
00000180: c393 aebc ee71 7dbc a09c dc3a cc14 4a3c
00000190: 1f4c 2bbb 8afb 163c 60dc 4f3c f0a1 d4ba
000001a0: f2da f7bc 7c9e 9dbb ad8f 67bc 2367 7cbc
000001b0: a7e3 b93c de72 433c d47f 6b3c d514 78bc
000001c0: 786f b2bb ed4c c6bc 883b a53b 2a8c 35bc
000001d0: bc59 853b 0996 fdba dcfd 2d3b 83d3 e33c
000001e0: 5043 4b3b 3da1 4bbb 0843 11bc 47bc 123c
000001f0: 7a24 623c 5c01 db3a e30f 87bc 9f41 9eba
00000200: 378a 8ebc ee5d b43b e8e6 303c e0d4 84bc
00000210: 9c1c e4bb d2cc 90bc 60a0 1a3b d3db 34bc
00000220: 877f 9f3c 09f4 30bc 9c6d 013d 536e 50bc
00000230: 7d0a 2c3c 557c 3fbc 04ff cdba 5c38 543c
00000240: f4a9 723c 975b 933c 22f8 d13c e54b d4bb
00000250: b772 95bc 4af3 823c 1248 503b 120e a6bb
00000260: 50ef 9d3c 409c df3c 8061 5a3b 94e1 c73c
00000270: d979 6fbb 543b d3bc a158 13bb 69a4 bebb
00000280: 6fcd a23c f726 183c 8444 b1bc 8aa1 10bd
00000290: 827a df3b e16a ca3c 8218 203c fd10 b9bc
000002a0: fd6b 8fbb 234b da3c 3173 0bb9 bfbd ed3b
000002b0: e8ea 43bc d17d 49bc a336 78bc bcc5 7b3b
000002c0: bbbe 8bbc 0f22 41bc fb45 f3bc 9b59 e5bc
000002d0: d3d5 b03a 52a2 b33b 22da 6dbc a73a 0d3d
000002e0: 85e4 5c3c 6996 cd3b d3c8 953c 7872 ca3b
000002f0: 6acc 01bd 0fa3 52bc f807 8b39 416a a13a
00000300: 8755 9a3c 07a2 2b3c a683 4c3d 440e 0dbc
00000310: d66e 9a3c 60f1 23bb c850 d2bc a612 23bd
00000320: 1eb3 093c 25e8 a4bb 9504 7ebc e2c8 23bd
00000330: af45 90bc 158e 0d3d ab0e ae3c c207 5dbc
00000340: 1d3e 073c 8792 023c 9af9 303c 8378 d9b9
00000350: 1e14 09bd 01cc 59bc dd94 81bc 9bfc 8ebb
00000360: e3a4 363c dcff 363b e4b9 71b9 1235 f7ba
00000370: f15b c7ba 043c 0d3c 14c1 873c 9604 0e3b
00000380: bc70 b2bc fe79 1b3d fc71 843b 8fe3 5bbc
00000390: 6c5c 2bbc edda 8739 e622 ffba 707f c3bb
000003a0: 8327 a4bc bfe8 15bc 934b fb3b a291 863c
000003b0: 8451 ffbb ced2 423b 08cb c6bc ff8f 823c
000003c0: d269 a5bc 1d3b b93c 60d0 963b 4b01 b43b
000003d0: db95 8a3c 5889 c5ba ca6b 82bc 9411 eaba
000003e0: 2cf4 83bb f0e2 f63b b0b7 5a3a 1f1c db3b
000003f0: 5ca1 ef3b 7323 0bbc ac4e 173b 2317 be3c

action_model._continuous_distribution.mu.bias f4 [3]
-0.00014427549 0.00018427808 9.685897e-05
00000000: a848 17b9 c53a 4139 c320 cb38

exp_avg f4 [128, 12]
-0.00029454526 -0.0012918409 -0.00040749751 0.0003748494 -3.1247822e-05 0.00036780274 -0.00042551814 -3.1247822e-05
-0.0012385157 -0.0016479581 -0.00055734185 0.0 1.8425602e-08 1.287723e-07 9.753146e-08 -1.683074e-09
4.673722e-09 6.38901e-08 -1.5585242e-08 4.673722e-09 3.5935397e-08 1.1888802e-07 3.2215787e-08 0.0
-0.0009911227 -0.0043420093 -0.0018986075 0.00029524261 -0.00015817364 -0.00030885116 0.0017410893 -0.00015817364
-0.0019638126 -0.0051081576 -0.0024555614 0.0 -4.862308e-10 -1.996652e-09 -1.2711616e-09 -4.8752224e-10
-1.14453495e-10 8.7498797e-10 1.5908342e-09 -1.14453495e-10 4.2044913e-11 -2.9449891e-09 -2.2385653e-09 0.0
1.7168531e-18 8.01996e-16 5.27414e-18 -6.667069e-16 4.3747703e-17 3.235433e-16 -2.4502614e-16 4.3747703e-17
4.1901862e-16 9.810295e-16 3.8701033e-16 0.0 6.061494e-06 0.00016263775 4.9493763e-05 6.164185e-05
7.186736e-06 -7.234945e-05 9.382072e-05 7.186736e-06 -4.084704e-05 0.0001936871 3.831482e-05 0.0
-0.00035250635 -0.0023703147 -0.00081500894 -8.283284e-05 -8.513093e-05 0.00037248305 7.634032e-05 -8.513093e-05
-0.00195417 -0.0030871294 -0.0012566916 0.0 0.00058057276 0.002229294 0.000999148 -0.00014661119
8.306506e-05 -0.00015815478 -0.00039235386 8.306506e-05 0.0010410454 0.0029936743 0.0006660289 0.0
-0.000632535 -0.002617037 -0.0013741329 0.00084769225 -9.5798736e-05 -6.450791e-05 9.425346e-05 -9.5798736e-05
-0.00097426336 -0.0033919064 -0.0017673553 0.0 0.0014552973 0.0043350128 0.0019427363 -0.00066123315
0.00019764224 -3.6695918e-05 -0.0027413263 0.00019764224 0.0015136948 0.0055607078 0.003662336 0.0
-0.00027150707 0.000782328 0.00032036644 7.416185e-05 6.134664e-05 0.0007020658 -0.0005348339 6.134664e-05
-0.0018587074 0.00030631368 0.0018433464 0.0 0.0002535471 0.0036374778 0.001744713 0.001142492
0.00014163136 -0.00018083517 -0.0004528607 0.00014163136 5.960283e-05 0.004603723 0.002086662 0.0
-5.24368e-20 -8.803113e-20 -1.5342998e-19 7.04695e-20 -1.003254e-20 7.8357075e-21 8.9469904e-20 -1.003254e-20
1.1630967e-19 -2.1718325e-19 -1.1011932e-19 0.0 -9.576301e-05 -0.00037414685 -0.0002895381 0.000110137305
-1.9564017e-05 0.0004866471 -8.559331e-05 -1.9564017e-05 -0.00019937364 -0.0006862336 -0.00039210348 0.0
2.7367962e-05 0.0007985428 0.00055398146 0.00038214686 3.060983e-05 0.00036602764 -0.00059454824 3.060983e-05
0.00019105175 0.00079037866 0.0006738518 0.0 2.9363539e-12 -4.5748184e-12 -4.726573e-12 1.6917149e-12
-1.6930679e-13 3.015377e-12 -1.4019307e-11 -1.6930679e-13 3.2249524e-12 -4.6510265e-12 1.0123017e-12 0.0
-4.866496e-07 -0.000573046 -5.532415e-05 4.599498e-06 -2.9560153e-05 0.000112428475 -0.00030178632 -2.9560153e-05
-8.546775e-05 -0.0006104841 -0.0003802863 0.0 -3.3610715e-05 0.0001409711 0.0002490327 -0.00010850083
8.505917e-06 -8.472971e-05 2.7140028e-05 8.505917e-06 -0.00021405234 0.00020420275 0.00014983986 0.0
1.6451671e-06 -0.00013207502 -1.0853604e-05 -8.2535305e-05 -6.649825e-06 -1.1619651e-05 -4.3337157e-05 -6.649825e-06
-7.980087e-05 -0.0001544535 -8.779302e-05 0.0 -0.0006902728 -0.004779878 -0.0016510636 -0.0002812804
-0.00019011062 -0.00024652653 0.00080146285 -0.00019011062 -0.0022566698 -0.005674973 -0.0024323233 0.0
5.7120867e-11 6.511282e-09 5.703557e-11 -1.1334619e-09 3.5474754e-10 -3.6161185e-09 1.9859872e-09 3.5474754e-10
4.8597624e-09 7.1893695e-09 8.845285e-09 0.0 -1.0263392e-05 2.78485e-05 0.00012888496 -3.529068e-05
00000000: 326d 9ab9 fd52 a9ba 64a5 d5b9 6f87 c439
00000010: 1810 03b8 a6d5 c039 1418 dfb9 1810 03b8
00000020: b155 a2ba 4c00 d8ba 941a 12ba 0000 0000
00000030: 5446 9e32 a944 0a34 7d72 d133 e751 e7b0
00000040: 7e96 a031 f433 8933 4fe0 85b2 7e96 a031
00000050: 6357 1a33 614f ff33 a25d 0a33 0000 0000
00000060: 8fe8 81ba 6a47 8ebb b2da f8ba cbca 9a39
00000070: 6adb 25b9 4ded a1b9 4335 e43a 6adb 25b9
00000080: 4fb3 00bb 5562 a7bb 7ced 20bb 0000 0000
00000090: 73a7 05b0 7935 09b1 06b5 aeb0 5402 06b0
000000a0: 97af fbae ce83 7030 81a4 da30 97af fbae
000000b0: 5dea 382e cc60 4ab1 42d5 19b1 0000 0000
000000c0: e05c fd21 dc28 6726 d894 c222 492a 40a6
000000d0: 2cc0 4924 9082 ba25 7a3f 8da5 2cc0 4924
000000e0: 3c8c f125 9a61 8d26 a518 df25 0000 0000
000000f0: d663 cb36 bd89 2a39 8697 4f38 b745 8138
00000100: 9825 f136 51ba 97b8 9ec1 c438 9825 f136
00000110: 2d53 2bb8 7c18 4b39 3ab4 2038 0000 0000
00000120: 9ad0 b8b9 4857 1bbb 53a6 55ba 8bb6 adb8
00000130: 5288 b2b8 d449 c339 e618 a038 5288 b2b8
00000140: 8811 00bb 7051 4abb 93b7 a4ba 0000 0000
00000150: 9431 183a 5919 123b d8f5 823a a4bb 19b9
00000160: 3733 ae38 5ad6 25b9 d8b4 cdb9 3733 ae38
00000170: b073 883a 8531 443b 7198 2e3a 0000 0000
00000180: b5d0 25ba 9882 2bbb 401c b4ba aa37 5e3a
00000190: 8ee7 c8b8 6c48 87b8 f1a9 c538 8ee7 c8b8
000001a0: b565 7fba bf4a 5ebb 9aa6 e7ba 0000 0000
000001b0: adbf be3a b90c 8e3b 6aa3 fe3a 9b56 2dba
000001c0: 2f3e 4f39 f1e9 19b8 d3a7 33bb 2f3e 4f39
000001d0: 2b67 c63a 9936 b63b cd03 703b 0000 0000
000001e0: 1059 8eb9 2515 4d3a dbf6 a739 5787 9b38
000001f0: 3aa7 8038 d70a 383a 1834 0cba 3aa7 8038
00000200: df9f f3ba ba98 a039 719c f13a 0000 0000
00000210: 84ee 8439 c062 6e3b dbae e43a acbf 953a
00000220: e182 1439 929e 3db9 ef6d edb9 e182 1439
00000230: 0dfe 7938 d4da 963b 61c0 083b 0000 0000
00000240: 34a0 779f 8edb cf9f 5e23 35a0 3364 a61f
00000250: 6382 3d9e 2803 141e 3d41 d31f 6382 3d9e
00000260: 7150 0920 ce33 80a0 8601 02a0 0000 0000
00000270: 60d4 c8b8 2429 c4b9 25cd 97b9 84f9 e638
00000280: 681d a4b7 ab24 ff39 8f80 b3b8 681d a4b7
00000290: f40e 51b9 5be4 33ba 3d93 cdb9 0000 0000
000002a0: 4094 e537 4d55 513a 1139 113a e25a c839
000002b0: 0e63 0038 66e7 bf39 75db 1bba 0e63 0038
000002c0: 1055 4839 6a31 4f3a 6ea5 303a 0000 0000
000002d0: a6a0 4e2c 4df6 a0ac 2f4d a6ac 7416 ee2b
000002e0: 5c9f 3eaa 3430 542c 59a1 76ad 5c9f 3eaa
000002f0: 94ef 622c b9a4 a3ac 0378 8e2b 0000 0000
00000300: 4ea2 02b5 7738 16ba db0b 68b8 6355 9a36
00000310: f2f7 f7b7 94c7 eb38 1339 9eb9 f2f7 f7b7
00000320: 263d b3b8 e508 20ba 2a61 c7b9 0000 0000
00000330: 3bf9 0cb8 a4d1 1339 9a90 8239 f18a e3b8
00000340: a3b4 0e37 ebb0 b1b8 c4aa e337 a3b4 0e37
00000350: 3d73 60b9 421f 5639 551e 1d39 0000 0000
00000360: 83cf dc35 9e7d 0ab9 e017 36b7 ce16 adb8
00000370: 9021 dfb6 05f2 42b7 ebc4 35b8 9021 dfb6
00000380: c45a a7b8 ccf4 21b9 851d b8b8 0000 0000
00000390: 6cf3 34ba 86a0 9cbb 8068 d8ba d178 93b9
000003a0: 6e58 47b9 3b40 81b9 4319 523a 6e58 47b9
000003b0: a3e4 13bb 20f5 b9bb 9d67 1fbb 0000 0000
000003c0: 6138 7b2e d8b9 df31 58d8 7a2e 25c8 9bb0
000003d0: 4706 c32f 6e7f 78b1 db79 0831 4706 c32f
000003e0: ecfa a631 5d06 f731 faf5 1732 0000 0000
000003f0: ef30 2cb7 339c e937 4b25 0739 1405 14b8

exp_avg_sq f4 [128, 12]
1.0412905e-06 2.609817e-05 5.2864643e-06 1.4644047e-06 4.5803084e-08 6.4854174e-07 3.9537068e-07 4.5803084e-08
1.8990817e-06 4.1795913e-05 1.4038598e-05 0.0 6.240115e-17 2.309911e-14 2.3995397e-15 4.0058215e-18
5.3847532e-17 1.0239983e-14 6.0293383e-16 5.3847532e-17 3.14848e-15 2.7599085e-14 2.5563363e-15 0.0
2.9683274e-06 0.00012278574 2.6009755e-05 2.0100406e-06 1.9936738e-07 8.458119e-07 2.5424445e-06 1.9936738e-07
4.218237e-06 0.00018131825 5.6780344e-05 0.0 1.8646219e-19 4.936176e-18 1.2073903e-18 8.729538e-19
1.5145194e-20 8.36283e-19 2.3024057e-18 1.5145194e-20 3.8925377e-19 9.0085395e-18 7.584648e-18 0.0
5.122564e-36 4.086683e-31 6.836063e-35 1.1806273e-31 1.2086063e-33 3.0659297e-32 1.6200657e-32 1.2086063e-33
2.7807776e-32 5.2640085e-31 9.0151066e-32 0.0 1.5211289e-10 6.4695676e-08 2.485303e-09 1.2603769e-09
1.5796242e-10 1.8267073e-08 1.7962243e-08 1.5796242e-10 5.955475e-09 9.3914146e-08 1.5354509e-08 0.0
5.098213e-07 6.6459004e-05 1.1051333e-05 2.1352055e-06 1.1376661e-07 5.1233553e-07 1.0837446e-06 1.1376661e-07
1.31717e-06 8.972236e-05 3.1213094e-05 0.0 1.0004002e-06 6.3529085e-05 1.2205201e-05 1.6797386e-06
1.0780048e-07 7.060124e-07 9.3219444e-07 1.0780048e-07 1.7117411e-06 9.21132e-05 3.0425854e-05 0.0
4.76861e-07 1.804002e-05 4.3806294e-06 6.725647e-07 3.12589e-08 2.8179036e-07 3.8839093e-07 3.12589e-08
9.546745e-07 2.684107e-05 9.268766e-06 0.0 4.573243e-06 0.00027895698 5.021555e-05 3.179947e-06
4.5970828e-07 1.6952349e-06 4.6448863e-06 4.5970828e-07 6.709356e-06 0.0004066245 0.00012685795 0.0
7.1243744e-06 0.00042395713 8.0065984e-05 3.864652e-06 7.3296826e-07 1.8100728e-06 5.0329477e-06 7.3296826e-07
1.2065351e-05 0.00062156474 0.00020184371 0.0 7.550008e-07 0.00010060806 1.6453743e-05 1.9246806e-06
1.7203473e-07 3.5035356e-07 1.4407627e-06 1.7203473e-07 2.1756127e-06 0.0001397789 4.8976515e-05 0.0
9.71673e-40 2.720526e-39 8.463637e-39 1.759494e-39 3.5673e-41 2.1352e-41 2.83993e-39 3.5673e-41
4.790077e-39 1.6814389e-38 4.300798e-39 0.0 1.1884595e-07 2.5763059e-06 8.666681e-07 4.7707994e-07
6.4056134e-09 7.676839e-08 9.2649834e-08 6.4056134e-09 1.2546587e-07 4.577413e-06 2.0278467e-06 0.0
3.7875683e-08 1.2610526e-05 1.8220703e-06 2.832077e-07 2.0925583e-08 1.2544848e-07 1.5175866e-07 2.0925583e-08
3.1446618e-07 1.6763797e-05 6.8783356e-06 0.0 8.959266e-24 1.27335e-21 5.290865e-22 4.2031437e-23
4.6177795e-24 6.9217963e-22 2.168963e-22 4.6177795e-24 7.273942e-22 1.1965721e-21 2.9601696e-21 0.0
5.22608e-12 9.2185495e-08 7.045812e-10 2.3222306e-09 2.4825628e-10 3.4590075e-09 2.6028022e-08 2.4825628e-10
4.2664863e-09 1.0839494e-07 3.962129e-08 0.0 2.3848285e-08 1.2455872e-06 2.2701576e-07 1.9666169e-07
2.1230508e-09 6.15162e-08 1.3727035e-08 2.1230508e-09 1.4624793e-07 1.6276659e-06 6.9627566e-07 0.0
1.6826117e-12 8.151917e-09 1.00733324e-10 2.9318377e-09 2.017406e-11 5.1485827e-10 1.0734007e-09 2.017406e-11
2.6547384e-09 1.0630819e-08 2.0055055e-09 0.0 1.3053933e-06 0.00017517814 2.7715905e-05 4.576592e-06
2.8866432e-07 1.2041145e-06 2.1929347e-06 2.8866432e-07 5.5954442e-06 0.0002423514 8.345626e-05 0.0
6.5665165e-22 9.7483095e-18 2.965993e-21 2.688718e-19 2.8750016e-20 2.6911643e-18 7.9022673e-19 2.8750016e-20
5.217513e-18 1.1845777e-17 1.7466652e-17 0.0 1.7765506e-08 1.4806532e-06 3.6487538e-07 2.908008e-07
00000000: 78c2 8b35 65ed da37 6262 b136 908c c435
00000010: 06b9 4433 7317 2e35 5543 d434 06b9 4433
00000020: f3e3 fe35 054e 2f38 5287 6b37 0000 0000
00000030: 23e3 8f24 ec0e d028 b2e7 2c27 eac9 9322
00000040: f253 7824 9677 3828 aac8 2d26 f253 7824
00000050: 34df 6227 2897 f828 1534 3827 0000 0000
00000060: 7a33 4736 0cc0 0039 862f da37 3ce4 0636
00000070: b011 5634 c00b 6335 dd9e 2a36 b011 5634
00000080: 618a 8d36 3f20 3e39 6e27 6e38 0000 0000
00000090: bd22 5c20 dd1c b622 ea2d b221 43d3 8021
000000a0: d50a 8f1e c2d3 7621 37e3 2922 d50a 8f1e
000000b0: 5ec6 e520 a02d 2623 7de9 0b23 0000 0000
000000c0: c8e3 d904 d69e 040d d5bb b506 1241 190c
000000d0: 6dd0 c808 3231 1f0b bc3c a80a 6dd0 c808
000000e0: e062 100b acd3 2a0d a90b ea0b 0000 0000
000000f0: f93f 272f d3ee 8a33 eac9 2a31 9239 ad30
00000100: 78ae 2d2f b8e9 9c32 644b 9a32 78ae 2d2f
00000110: e9a0 cc31 d9ad c933 ece4 8332 0000 0000
00000120: a7da 0835 e85f 8b38 1d69 3937 8d4a 0f36
00000130: db4f f433 6e87 0935 2e75 9135 db4f f433
00000140: 9ec9 b035 5329 bc38 ceea 0238 0000 0000
00000150: 7d45 8635 eb3a 8538 f0c4 4c37 6173 e135
00000160: f17f e733 cd84 3d35 ea3b 7a35 f17f e733
00000170: fabe e535 e62c c138 063b ff37 0000 0000
00000180: a301 0035 a654 9737 52fd 9236 4b8a 3435
00000190: 8641 0633 f948 9734 0b84 d034 8641 0633
000001a0: 5e22 8035 c228 e137 0c81 1b37 0000 0000
000001b0: dc73 9936 f940 9239 899e 5238 1367 5536
000001c0: d3cd f634 d487 e335 45db 9b36 d3cd f634
000001d0: ee20 e136 3730 d539 2c05 0539 0000 0000
000001e0: e90d ef36 9046 de39 19e9 a738 1cad 8136
000001f0: 32c1 4435 a1f1 f235 b1e0 a836 32c1 4435
00000200: 4a6c 4a37 81f0 223a 02a6 5339 0000 0000
00000210: 43ab 4a35 8afd d238 2506 8a37 c329 0136
00000220: 8cb8 3834 3a18 bc34 3b60 c135 8cb8 3834
00000230: be00 1236 9d91 1239 226c 4d38 0000 0000
00000240: a194 0a00 b89f 1d00 2d29 5c00 c128 1300
00000250: 7163 0000 853b 0000 92ec 1e00 7163 0000
00000260: c928 3400 ad17 b700 e0d4 2e00 0000 0000
00000270: 4138 ff33 99e4 2c36 faa4 6835 af10 0035
00000280: 5f18 dc31 dedb a433 c9f6 c633 5f18 dc31
00000290: ccb7 0634 ae97 9936 2416 0836 0000 0000
000002a0: c1ac 2233 cc91 5337 dc8d f435 c50b 9834
000002b0: d8bf b332 04b3 0634 1af3 2234 d8bf b332
000002c0: e7d3 a834 fb9f 8c37 74cc e636 0000 0000
000002d0: 234c 2d19 586c c01c 16e8 1f1c 6640 4b1a
000002e0: 46a4 b218 ce32 511c 141b 831b 46a4 b218
000002f0: 66d7 5b1c 24d2 b41c 02aa 5f1d 0000 0000
00000300: 58e0 b72c 83f7 c533 7fac 4130 1d95 1f31
00000310: f77a 882f 81b3 6d31 3a94 df32 f77a 882f
00000320: 6998 9231 c0c6 e833 122c 2a33 0000 0000
00000330: efda cc32 0d2e a735 9ec1 7334 f429 5334
00000340: 1be5 1131 e31a 8433 23d4 6b32 1be5 1131
00000350: 5308 1d34 2d76 da35 b3e7 3a35 0000 0000
00000360: 7ace ec2b 830c 0c32 d283 dd2e 6f79 4931
00000370: f273 b12d ee85 0d30 ee86 9330 f273 b12d
00000380: a76e 3631 d6a2 3632 3ad1 0931 0000 0000
00000390: f934 af35 06b0 3739 747f e837 a090 9936
000003a0: b9f9 9a34 0f9d a135 552a 1336 b9f9 9a34
000003b0: 80c0 bb36 b51f 7e39 3d05 af38 0000 0000
000003c0: f675 461c 17d3 3323 a61a 601d c2b6 9e20
000003d0: a3c4 071f a892 4622 d83b 6921 a3c4 071f
000003e0: 047e c022 1a84 5a23 f719 a123 0000 0000
000003f0: c39a 9832 dbba c635 17e4 c334 5c1f 9c34

exp_avg f4 [128]
-1.0415925e-05 1.5579074e-09 -5.2724532e-05 -3.8151166e-11 1.4582567e-17 2.3955783e-06 -2.8376959e-05 2.768836e-05
-3.1932905e-05 6.5880675e-05 2.0448857e-05 4.7210433e-05 -3.34418e-21 -6.5213417e-06 1.0203279e-05 -5.6435667e-14
-9.853385e-06 2.835306e-06 -2.216609e-06 -6.33702e-05 1.1824919e-10 -1.245748e-06 1.4912004e-05 -4.413484e-05
-2.6268664e-12 -1.7726774e-05 6.2424433e-06 4.4798108e-07 -1.6539585e-05 3.712632e-05 5.224857e-06 3.4046167e-05
-1.8404277e-09 -4.9642833e-05 6.0325547e-06 -4.4065185e-18 2.4564682e-05 6.71768e-05 -2.5068824e-05 4.3330132e-05
5.105554e-05 1.6806933e-05 1.2387613e-06 -2.7192195e-08 9.1808187e-07 -1.5814214e-06 1.6737004e-06 -2.4241692e-06
8.2382525e-05 -2.3405228e-05 5.550389e-14 7.822952e-06 -1.4147029e-05 -3.8039227e-05 -1.6178342e-11 2.9873732e-05
-1.2771393e-08 1.3661432e-05 -2.0649289e-07 2.7158048e-05 -2.7246768e-05 3.8176946e-05 8.1246835e-06 1.0979996e-05
1.1124288e-05 6.1596584e-06 1.4799619e-05 -2.517232e-06 1.0133862e-05 1.5373958e-05 1.1159103e-05 1.1778588e-05
9.3236554e-07 -2.4613819e-05 2.262613e-09 -8.723773e-15 1.6622559e-07 -1.1471779e-05 5.082042e-26 3.804127e-05
1.9354743e-06 3.711119e-05 1.6445612e-05 -1.3766117e-05 -5.557237e-14 -4.745908e-06 -1.5667913e-05 -1.4803622e-07
-2.700773e-05 2.2325537e-06 1.21768e-05 5.4046137e-05 -2.9767096e-05 -5.638348e-05 1.7120872e-05 -1.1328281e-06
-1.1464236e-05 6.0404524e-05 1.3066326e-12 2.6889855e-05 -3.455807e-07 2.6676515e-05 -4.430285e-05 2.02518e-05
-3.0186518e-06 1.6463476e-12 -2.9941286e-06 -6.338968e-05 1.0102707e-05 -3.2200885e-05 -2.229966e-05 3.9626293e-06
3.4914192e-05 -1.922455e-05 -1.3714883e-10 -7.800945e-06 -4.4265103e-06 0.00011352039 3.2713884e-05 1.8086077e-05
3.3961758e-05 -1.1034222e-05 -3.6029332e-06 2.0497707e-07 5.8311256e-05 -4.8978063e-06 2.569156e-05 1.4813695e-22
00000000: 0fc0 2eb7 fe1d d630 8924 5db8 65ca 27ae
00000010: 1d80 8623 b9c3 2036 0e0b eeb7 4d44 e837
00000020: b2ef 05b8 6b29 8a38 9689 ab37 d103 4638
00000030: d9ad 7c9d e6d1 dab6 c02e 2b37 e529 7ea9
00000040: f74f 25b7 3046 3e36 0dc1 14b6 9ee5 84b8
00000050: 3004 022f 9333 a7b5 922e 7a37 6c1d 39b8
00000060: 6bd9 38ac f5b3 94b7 2e76 d136 0d82 f034
00000070: 7dbe 8ab7 15b8 1b38 2e51 af36 cbcc 0e38
00000080: 4bf2 fcb0 9637 50b8 406b ca36 6492 a2a2
00000090: 4110 ce37 45e1 8c38 e44a d2b7 60bd 3538
000000a0: 7824 5638 9dfc 8c37 8443 a635 4594 e9b2
000000b0: 1b72 7635 3a41 d4b5 e8a3 e035 e9ae 22b6
000000c0: c8c4 ac38 5856 c4b7 a1f7 7929 533f 0337
000000d0: 0759 6db7 4f8c 1fb8 634e 8ead 5a99 fa37
000000e0: 2e69 5bb2 6733 6537 55b8 5db4 77d1 e337
000000f0: fd8f e4b7 2f20 2038 404f 0837 b936 3837
00000100: 74a2 3a37 10af ce36 e14b 7837 b7ed 28b6
00000110: 9b04 2a37 53f7 8037 fc37 3b37 a69c 4537
00000120: ac47 7a35 c679 ceb7 4f7c 1b31 4d27 1da8
00000130: be7b 3234 ea76 40b7 89a6 7b15 818e 1f38
00000140: 32e3 0136 d6a7 1b38 aff4 8937 06f5 66b7
00000150: 9546 7aa9 0a3f 9fb6 966e 83b7 e3f3 1eb4
00000160: a98e e2b7 fbd2 1536 f54a 4c37 99af 6238
00000170: 5ab4 f9b7 4d7d 6cb8 cb9e 8f37 ad0b 98b5
00000180: 8556 40b7 dd5a 7d38 67e4 b72b 8691 e137
00000190: 4088 b9b4 61c7 df37 d3d1 39b8 69e2 a937
000001a0: 0b94 4ab6 ecb3 e72b bdee 48b6 13f0 84b8
000001b0: cc7e 2937 700f 07b8 2810 bbb7 baf6 8436
000001c0: d470 1238 6844 a1b7 f7cb 16af cee0 02b7
000001d0: 6f87 94b6 cc11 ee38 4436 0938 8eb7 9737
000001e0: 2972 0e38 9f1f 39b7 ecc9 71b6 ab17 5c34
000001f0: 3c93 7438 d657 a4b6 3484 d737 2a16 331b

exp_avg_sq f4 [128]
5.0892313e-09 5.9830586e-18 2.2151934e-08 1.6827987e-21 1.3428959e-34 1.755138e-11 1.26407365e-08 1.19778285e-08
3.4732108e-09 5.107871e-08 8.144093e-08 1.9114971e-08 3.959e-42 7.1173506e-10 2.325065e-09 5.130869e-25
2.7584027e-11 2.3589458e-10 2.2415624e-12 3.2073803e-08 3.1944465e-21 3.4217132e-10 2.6926678e-08 1.7343035e-08
9.618754e-23 5.7989386e-08 1.52073e-10 4.09289e-12 5.7245877e-08 9.563553e-09 2.7781693e-09 7.22872e-09
2.1196531e-17 2.4498974e-08 7.8617757e-10 5.158115e-36 4.6128994e-09 2.680719e-08 2.7565097e-08 1.02670095e-08
2.1024832e-08 1.3182149e-08 6.0282514e-13 1.536859e-15 5.1870986e-12 6.2773072e-12 1.8789994e-11 1.1101943e-09
4.209169e-08 3.7230365e-08 6.0787588e-27 5.960604e-08 1.0175626e-08 2.7489198e-08 1.7342163e-22 6.3058366e-08
3.1628994e-16 1.573364e-08 1.5994377e-08 2.5412754e-09 1.0970061e-08 1.0972193e-07 1.0072199e-09 4.4133133e-10
6.8722067e-10 2.358745e-11 7.32671e-09 8.090316e-09 1.2506328e-08 2.2261981e-09 6.0421614e-09 1.6730013e-10
2.4566681e-08 2.0088928e-09 2.6551505e-18 2.7793312e-29 5.5281076e-15 7.314973e-10 0.0 4.296777e-09
4.142504e-09 5.6799987e-09 1.9395974e-09 2.2064244e-08 2.4459486e-28 8.790983e-12 1.876112e-09 2.391788e-11
1.6412056e-08 1.3412056e-10 7.072142e-09 3.0103642e-08 1.9930368e-09 1.8571503e-08 9.61148e-09 1.5658341e-09
3.8869e-09 1.00729975e-08 1.3125026e-23 6.067213e-09 6.607551e-10 3.7604458e-08 5.0788636e-08 4.0814104e-08
2.1318862e-10 2.1285678e-25 1.5118726e-10 1.7453546e-07 1.1483831e-10 6.6281544e-08 8.7508084e-10 4.0473283e-09
7.144266e-09 1.260776e-08 1.1839116e-19 2.202668e-09 2.638577e-11 3.044902e-08 1.8972438e-08 3.1014127e-10
5.1585327e-09 4.619471e-09 5.223924e-09 2.1315218e-08 6.343506e-09 2.4005582e-11 3.3836696e-09 1e-45
00000000: 5add ae31 64bc dc22 9e48 be32 1f4c fe1c
00000010: 6180 3207 3262 9a2d 8c2a 5932 0cc7 4d32
00000020: 5fad 6e31 a361 5b33 a0e4 ae33 4432 a432
00000030: 090b 0000 e7a3 4330 fac6 1f31 efca 1e17
00000040: b5a1 f22d 36af 812f 66bc 1d2c 85c1 0933
00000050: 955d 711d 551c bc2f 644c e732 bdf9 9432
00000060: 3491 e81a 0110 7933 be34 272f 7a01 902c
00000070: 82de 7533 f34c 2432 12ea 3e31 7e60 f831
00000080: e580 c323 d071 d232 541a 5830 e666 db04
00000090: 7e7f 9e31 a245 e632 4ac8 ec32 c962 3032
000000a0: 189a b432 b477 6232 21ae 292b 177c dd26
000000b0: 3b81 b62c f5dc dc2c 4e47 a52d 7d95 9830
000000c0: 4dc8 3433 38e7 1f33 f0cd f013 c400 8033
000000d0: e0d0 2e32 6321 ec32 65a7 511b b46a 8733
000000e0: 2854 b625 a426 8732 0264 8932 97a2 2e31
000000f0: d776 3c32 45a0 eb33 666e 8a30 dd9f f22f
00000100: dbe6 3c30 377a cf2d 6cbe fb31 96fd 0a32
00000110: 6adb 5632 b1fb 1831 6a9b cf31 cdf2 372f
00000120: b406 d332 d10c 0a31 60ea 4322 c8ed 0c10
00000130: cb2b c727 8c12 4930 0000 0000 daa2 9331
00000140: da55 8e31 cc29 c331 c249 0531 c987 bd32
00000150: c907 9b11 11a7 1a2d e9ec 0031 4762 d22d
00000160: 7efa 8c32 9577 132f 38ff f231 4e4b 0133
00000170: e0f5 0831 2b87 9f32 bc1f 2532 e434 d730
00000180: 898d 8531 830d 2d32 fbdf 7d19 c577 d031
00000190: 82a0 3530 8a82 2133 b222 5a33 954b 2f33
000001a0: 4367 6a2f 81c0 8316 6e3b 262f f167 3b34
000001b0: 3988 fc2e aa56 8e33 578a 7030 ad10 8b31
000001c0: a179 f531 8499 5832 88c5 0b20 bf5d 1731
000001d0: 7917 e82d 0dc7 0233 d5f8 a232 8180 aa2f
000001e0: ef3e b131 4cb9 9e31 1f7e b331 a918 b732
000001f0: 12f6 d931 c427 d32d 2586 6831 0100 0000
