TWP_2/results/DynPnp36/RobotArm/RobotArm-3499956.onnx (onnx, 79646 bytes, 9 tensors)

network_body.observation_encoder.processors.0.normalizer.running_mean f4 [12]
000000 c3 9a 70 bf ff 43 a3 41 bf 7d 96 3f 01 ba 5b bd
       -0.9398615 20.408201 1.1757125 -0.053644184
000010 ce 11 e7 3f ac f6 25 3f 0e 44 52 bf b1 ff 3f 40
       1.8052309 0.64829516 -0.82135093 2.9999812
000020 24 12 16 3f 0d 77 aa 41 3d 6f 27 42 8b 61 c0 3e
       0.5862143 21.30813 41.85863 0.3757442

network_body._body_endoder.seq_layers.0.weight f4 [128, 12]
000000 e6 aa c0 be 99 df 98 3e 99 47 3b be 17 97 b9 3e
       -0.37630385 0.2985809 -0.18289031 0.36248085
000010 c7 e0 24 bf 87 a9 b2 be 8e f1 f0 3e b3 4c ae 3e
       -0.64405483 -0.34894964 0.47059292 0.34042892
000020 bb cf e6 3e f1 12 63 be dd 41 ed 3d b5 8d 67 be
       0.4508036 -0.22175194 0.11584828 -0.2261265
000030 c4 5c c7 be f2 cb 1b 3e b4 1d 74 3e 0b 6d 22 3f
       -0.38937962 0.15214518 0.23839456 0.63447636
000040 6f 5c 13 be 4f 20 03 3d 34 6e e7 be d7 2c 27 3f
       -0.1439073 0.032013234 -0.45201266 0.65302795
000050 2e bb 1b 3e 15 30 8d 3e 00 dc 31 be ee 01 2f 3c
       0.15208122 0.27575746 -0.1736908 0.010681612
000060 c4 62 b4 3e 12 94 9a 3e cb 57 0b be a1 c9 23 3e
       0.35231602 0.30191094 -0.13607709 0.15994884
000070 13 50 52 be 66 fa 82 3e ff b4 82 be 2e 3f f2 be
       -0.20538358 0.25581664 -0.25528714 -0.47313827
000080 7a a9 21 be 2d 8f f5 3d 21 d1 8c be 05 0c 0f 3e
       -0.15787306 0.11990199 -0.27503303 0.13969429
000090 00 00 83 3e af b4 aa bd f3 63 84 3d ae 76 97 be
       0.25585938 -0.08335244 0.06464376 -0.29582733
0000a0 93 c0 d4 3d 67 eb 0d 3e c2 72 2f bd 82 50 93 3e
       0.10388293 0.1385933 -0.04283405 0.2877236
0000b0 dc e4 de bd ec 50 c3 be 4a 06 18 bf af f6 0a 3f
       -0.10883495 -0.38147676 -0.59384596 0.5428266
0000c0 38 ff 89 be bf bb 8b be c1 1c 66 be 5d f8 17 be
       -0.2695253 -0.27291676 -0.22471906 -0.14840837
0000d0 f7 79 8d be cd 62 71 be d8 80 c3 be a9 cb c7 be
       -0.27632114 -0.23572846 -0.38184237 -0.39022568
0000e0 d7 3a 02 3f 61 18 21 bf ac b7 91 be 54 8d 87 3e
       0.5087103 -0.62927824 -0.28460443 0.26475012
0000f0 cc 33 80 3d af 52 95 bd 2b 19 73 be 2e 6c 1d bd
       0.062598795 -0.07291161 -0.2374007 -0.038433246
000100 b9 89 1c 3c 05 0b 45 bf d5 7c ed bc 54 d2 14 3f
       0.00955432 -0.7696994 -0.028990189 0.58133435
000110 cb f6 82 3f 4b ab cf bd 7c 92 a9 bc 7e 37 ac 3e
       1.0231565 -0.101400934 -0.020699732 0.33636087
000120 6c de 2a be 5b 05 10 3e bc 51 38 bc 3e 6f 42 bc
       -0.1668641 0.14064543 -0.011249956 -0.0118673425
000130 5a 86 8f be 6c 30 0c bf be 66 bc 3d 58 6e 17 bd
       -0.2803219 -0.54761386 0.09199284 -0.036970466
000140 d9 2c b6 be a3 63 b8 3d 63 38 a0 3e bf f3 da bd
       -0.3558109 0.09003379 0.3129302 -0.10691022
000150 ad f8 09 bd 36 80 69 be 02 17 81 be c1 cf d2 be
       -0.03368442 -0.22802815 -0.25212866 -0.4117413
000160 15 5e d6 3c d7 40 15 3e fd c9 4a 3e 31 39 4b 3e
       0.026167909 0.14575516 0.19803615 0.19846036
000170 ae 79 c8 be 8e 3d df 3e 05 03 d4 3e ef df 07 bd
       -0.39155334 0.4360165 0.41408554 -0.033172544
000180 a8 8e 54 3b 9b 5f 92 be ea 40 64 3d a7 6f 29 3e
       0.0032433663 -0.28588566 0.05572597 0.16546498
000190 a4 6a 31 bf 2f de eb 3e f0 b7 e2 3e 02 5f 20 be
       -0.69303346 0.4606795 0.44280958 -0.15661243
0001a0 65 b8 45 bf 49 b1 8b 3e e8 9b 58 be 71 7a 96 3e
       -0.7723449 0.27283695 -0.21153224 0.2939029
0001b0 f1 19 7a bd ba 30 64 bf 44 54 0b be 7e 05 89 be
       -0.061059896 -0.8913685 -0.13606364 -0.26762003
0001c0 17 dd 2a 3e a0 e7 ab 3d 5a e8 02 3e fe 76 e4 be
       0.16685902 0.08393788 0.12783948 -0.44622034
0001d0 c7 28 20 bf cb c5 94 be cb d4 3c be 18 1f d5 bd
       -0.6256222 -0.29057154 -0.18440549 -0.10406321
0001e0 96 cf b1 be 29 63 3b be 4a 63 ad 3e 0a 56 27 3e
       -0.34728688 -0.18299545 0.33864814 0.16341415
0001f0 11 c8 d9 3d b7 52 d0 3d b3 a0 86 be be 7e f7 bd
       0.10633863 0.101720266 -0.2629448 -0.12084721
000200 fb a2 80 3e 5b a9 0e 3e c7 1e 94 be 4f 7b a9 be
       0.25124344 0.13931791 -0.2892973 -0.3310189
000210 8b 6e c6 3e 6c a6 34 be a9 31 ef bc 91 a1 e9 3e
       0.38756213 -0.1764161 -0.029198484 0.45631078
000220 d7 80 b2 3d 16 93 b1 bd 3a c4 ba be 81 c2 e8 be
       0.087159805 -0.086706325 -0.36477834 -0.45460895
000230 dc 19 c1 be f0 2a 36 bd 29 b6 eb be 90 4e 5b 3d
       -0.37715042 -0.044474542 -0.46037415 0.05354172
000240 5b 0d 88 3e 34 e6 a3 bb 23 c7 65 3e 97 42 0e be
       0.2657269 -0.0050018076 0.22439246 -0.1389259
000250 e3 5c 86 3e 0e 0d df bd d2 ab 05 3f 9b 53 31 be
       0.26242742 -0.10891162 0.522153 -0.17317049
000260 9d 85 c8 bd 72 19 cc 3d ce 42 5d be 08 4a 24 bd
       -0.0979111 0.09965791 -0.21607515 -0.040109664
000270 93 50 10 be 8d af ab be 1f c1 0c 3d 6c 6d 63 be
       -0.14093237 -0.33532372 0.034363862 -0.2220971
000280 26 1e 65 3e 3f b4 cd be fa 10 11 3e ba b4 11 3e
       0.22374782 -0.4017658 0.14166632 0.14229098
000290 5d cd 3f 3f b5 52 9e 3e 32 ac 94 be 69 05 8c bd
       0.74922734 0.30922475 -0.29037625 -0.068369694
0002a0 22 ec 85 be 51 00 6a 3e 3a 87 b9 3e de 26 0d be
       -0.26156718 0.22851683 0.36235982 -0.13784358
0002b0 54 5d d9 3d 56 ae 83 be b0 fc cb 3d 9e ca 85 be
       0.10613504 -0.25718945 0.09960306 -0.26131147
0002c0 e8 1f 85 3e 63 f4 86 bd 06 e4 9a 3e 37 88 dc bc
       0.26000905 -0.06589582 0.30252093 -0.026920421
0002d0 8b 47 c6 bd 4a 24 78 3d 51 19 01 bf 27 68 6f 3e
       -0.096816145 0.060581483 -0.50429255 0.23379575
0002e0 3d 4f d0 be 84 f0 c1 3e e6 04 b3 bc 4d 5f 1c 3e
       -0.40685454 0.3787881 -0.021852922 0.1527073
0002f0 d4 66 8a 3e 93 cf 40 bc 3d f8 03 3e 42 9b 00 3e
       0.27031577 -0.01176824 0.12887664 0.12559226
000300 86 da 8e 3e cd 66 b0 be 6d e8 9a 3e c5 4f 03 be
       0.27901095 -0.3445343 0.30255452 -0.12823398
000310 0d cc 9a bd 4d cf 95 be d3 30 8e be 63 98 d3 bd
       -0.07558451 -0.2925972 -0.27771625 -0.103318
000320 33 ab 0e be f3 5f f2 be c3 b6 98 be de ae 3a 3e
       -0.13932495 -0.47338828 -0.29826936 0.18230769
000330 76 65 34 3c 26 32 7f bd 20 e1 97 bd be bd d0 3e
       0.011010518 -0.062303685 -0.07415986 0.40769762
000340 78 2e 48 3f 00 b7 41 bd 7a d2 90 3e 97 0f 83 3e
       0.78195906 -0.047293663 0.2828558 0.25597832
000350 2a a6 34 be 53 98 5f 3e b3 5c 96 be a5 7e 4f be
       -0.17641512 0.21835451 -0.293676 -0.20263155
000360 c1 d7 4c bd 30 42 93 be b6 6d 05 bf 7b fb 0d be
       -0.050010446 -0.28761435 -0.5212053 -0.13865463
000370 8e ac 92 be a1 8c cd 3e d4 b2 a7 3e cb 63 4f bc
       -0.28647274 0.40146354 0.32753623 -0.01265807
000380 77 db 84 3e 11 dd bf 3d ab f2 ca 3e 2f 47 89 3e
       0.25948688 0.09368337 0.39638266 0.2681212
000390 67 b9 01 be 14 14 29 bb ac 08 12 bf cb 96 53 be
       -0.12668382 -0.002579932 -0.5704448 -0.20662992
0003a0 c3 72 60 3e 91 2d 09 be 3b 35 c6 be 0e bd 91 be
       0.21918778 -0.13396288 -0.38712487 -0.2846455
0003b0 db bf a1 3e da 26 f3 3e 7e 98 f2 3e 08 9f bc bc
       0.31591687 0.4749058 0.47381967 -0.02302505
0003c0 32 58 a8 3d b7 71 f9 3e 73 4a c1 3e cb e5 0c be
       0.08219947 0.4871957 0.37752113 -0.13759534
0003d0 f3 12 40 bf be 11 f1 bd fc 72 03 3f 21 a2 cd 3e
       -0.75028914 -0.11770962 0.5134733 0.40162757
0003e0 84 36 36 bf f0 6b 08 3e 28 4a 94 3e 2c 76 b9 3d
       -0.71176934 0.13322425 0.28962827 0.090557426
0003f0 30 02 4b 3b 25 eb 0c 3f 29 4b eb 3e 19 dd b4 3e
       0.0030976646 0.550463 0.4595578 0.35324934

network_body._body_endoder.seq_layers.0.bias f4 [128]
000000 87 47 90 3e 4c e4 4a 3e 1a 73 15 be d2 46 0d bd
       0.2817957 0.19813651 -0.14594689 -0.034491368
000010 2f d5 67 3d ca de a5 3e a2 b9 2c 3e 4f ef 25 be
       0.056599792 0.32396537 0.16867688 -0.1620457
000020 ff 30 8f bb bd c9 49 3d 6c 62 36 bc 12 20 3d 3e
       -0.0043698545 0.04926466 -0.011131864 0.18469265
000030 21 04 d3 3d 14 13 0b 3e fa c0 99 3d f6 66 f3 3d
       0.10303522 0.13581496 0.075075105 0.118848726
000040 cc bd d1 3c bb 2e ca 3d 65 13 a2 38 af 84 f7 bd
       0.025603198 0.098721944 7.7283745e-05 -0.12085854
000050 29 04 be 3d c9 2d 3e 3e 67 48 95 3d 82 a6 3e 3e
       0.09278137 0.18572153 0.072892 0.18618205
000060 df 8c 7a bc 11 22 66 3d de 74 8e 3d 02 0e 1b be
       -0.015292375 0.056184832 0.069558844 -0.15142062
000070 c2 45 e5 3c 6b f5 b7 3d 22 ce 48 3d 86 69 a3 bc
       0.027987365 0.08982357 0.04902471 -0.019947778
000080 8d 5d ba 3b dd a8 06 3e 28 a6 48 bd b7 3c 20 3c
       0.0056874217 0.13150354 -0.048986584 0.009780101
000090 0d 3d 9c bd 1a 47 5d 3e d2 37 ba 3d ef 7b 35 be
       -0.07628832 0.21609154 0.09092678 -0.17723058
0000a0 f3 6c 29 bd 62 81 34 3e 7f aa 41 3e 31 35 82 3d
       -0.041363668 0.1762748 0.18912695 0.06357802
0000b0 12 92 38 3d 89 b7 da 3d 46 45 68 be 97 6c 84 3c
       0.04506118 0.10679538 -0.22682676 0.01616506
0000c0 1d 1c 91 3d 9d e2 8d bd b0 8f 59 3c 62 22 65 3c
       0.0708544 -0.06927989 0.013278887 0.013985248
0000d0 26 52 4b 3e c7 f2 8c 3d 41 ab b9 3a c1 33 3d be
       0.19855556 0.068822436 0.0014165418 -0.18476774
0000e0 79 1f 35 3e c7 85 b1 bd 71 43 ef 3d cb c5 35 3e
       0.17687787 -0.08668094 0.11682785 0.17751233
0000f0 a1 19 18 3e 09 4c 99 3d 0d a9 66 3e b5 81 67 3e
       0.14853527 0.07485206 0.22525425 0.22608073
000100 70 5f 6a bc 44 9b 02 3e e0 18 c2 3d 60 c2 00 3c
       -0.014304981 0.12754542 0.09477401 0.007858843
000110 05 89 0b be 18 cd 0e 3e d4 d2 28 bd 99 b2 d3 bd
       -0.13626488 0.13945425 -0.041216686 -0.10336799
000120 ca 52 ce bd 26 4c e0 3d f1 c2 d4 bd e1 5f c6 3d
       -0.100743845 0.10952024 -0.103887446 0.09686256
000130 9e 4a 2c 3e 18 69 5b 3e 8f 09 c9 3d 51 7c 43 3e
       0.16825339 0.21426809 0.09816276 0.19090392
000140 f0 19 4b 3e a6 32 9d 3d 3f 26 86 3e 44 41 a4 3b
       0.19834113 0.07675676 0.26201054 0.005012663
000150 62 c5 fa 3d 77 11 0c be 50 d3 74 3d 1a c1 d2 bd
       0.12244679 -0.13678537 0.059771836 -0.102907375
000160 e6 a4 12 3e 0e f2 de 3d 8c 35 34 3e 5c 5e 67 3e
       0.14320716 0.10886012 0.17598552 0.22594589
000170 95 75 38 bd 83 a2 0f bd 28 6a 97 3d 47 64 87 bd
       -0.04503401 -0.035067093 0.073932946 -0.06610923
000180 43 a9 57 3d f5 83 57 3d bf 0c 86 3d e2 f3 51 3d
       0.052651655 0.05261608 0.065454 0.051257975
000190 fc b2 85 3e be 2a 10 3e 79 6f c0 bd 64 82 f0 3d
       0.26113117 0.14078805 -0.09396262 0.1174362
0001a0 fb 81 37 3e 06 5f 46 3e dd 9f 65 be 82 1f 86 3e
       0.17920677 0.19372186 -0.22424264 0.26195914
0001b0 4e c8 c7 3d fe 81 c7 3d af 28 f5 3c f7 b7 80 3d
       0.09755002 0.09741591 0.029926626 0.062850885
0001c0 3e 98 49 3c c1 da 1b 3d 12 67 2d 3d 60 10 8b bc
       0.012304364 0.038050417 0.042334624 -0.016975582
0001d0 31 84 63 3e 03 97 66 3d 0e 59 3a be f7 3d 0e 3e
       0.22218396 0.05629636 -0.18198034 0.13890825
0001e0 f2 f5 73 3d 3c 09 00 3e 1e c3 6d 3b be a1 1b 3d
       0.059560724 0.12503523 0.003627963 0.037996046
0001f0 9e 96 14 be 25 37 26 3e f9 9d 3a 3e 30 1b b0 be
       -0.14510581 0.16231973 0.18224324 -0.34395742

network_body._body_endoder.seq_layers.2.weight f4 [128, 128]
000000 f6 11 04 3d dc 0d 05 be e3 89 ec bd 0b 2b 85 bd
       0.03224369 -0.12993568 -0.11549737 -0.065023504
000010 e5 ca 57 be e6 ce ab 3d 64 96 8b bd 61 09 2d bc
       -0.21073492 0.08389072 -0.06815794 -0.010561318
000020 f0 f4 bb bd 4f 73 27 be e4 f1 36 3d a6 96 b8 3c
       -0.091775775 -0.1635258 0.04466428 0.022532772
000030 fe 0a 0d 3e 8f 6b ff bc 4b 69 23 3e ef cd f1 bd
       0.13773724 -0.031179218 0.15958135 -0.11806857
000040 e2 b1 79 bd 29 08 b8 bc 87 30 98 3d c5 28 82 bc
       -0.060960658 -0.022464829 0.07431131 -0.015888581
000050 8d 9f 95 bb ef e1 e5 bd 0f a5 9d 39 b9 76 28 3e
       -0.004566139 -0.11224734 0.00030068352 0.16451539
000060 12 d6 16 bd 80 a7 12 3e bb 62 3b 3e 53 96 22 be
       -0.036825247 0.14321709 0.18299381 -0.15877657
000070 58 5a 0a 3e 7d b5 4b bc 96 df 03 be 52 54 92 be
       0.13511026 -0.012433407 -0.1287826 -0.28579956
000080 ce 15 b5 3d 2d 10 a5 3d fa eb 0d 3d 83 24 82 3d
       0.088420495 0.08059726 0.034648873 0.0635462
000090 47 c7 90 3d 99 88 a6 b9 dc ba 05 be a5 fb 10 be
       0.07069259 -0.0003176376 -0.13059562 -0.14158495
0000a0 f4 a8 7f 3e e2 d8 a5 bd ca cf 8e be 9a 6c c4 3d
       0.24966794 -0.08098008 -0.27892905 0.095910266
0000b0 90 b1 76 bd 37 b7 ed bd 87 af f7 bb 71 30 86 3d
       -0.06022793 -0.11607211 -0.0075587663 0.06552208
0000c0 7f 9b dc ba 0f 26 98 be c2 81 0e bc 50 30 ee bd
       -0.0016831009 -0.29716536 -0.008697929 -0.11630309
0000d0 11 4d be 3d 1f 28 a0 bd 50 9a 0a be ef e9 aa bd
       0.09292043 -0.078201525 -0.13535428 -0.083454005
0000e0 73 17 72 3e 1e fa b1 3d 76 80 21 bd a0 77 78 3e
       0.23641758 0.08690284 -0.03942915 0.24264383
0000f0 0a 5a 54 bd 02 04 9f 3d ce 1a 2a bb fb c3 65 bc
       -0.05184368 0.07764436 -0.0025955918 -0.014023776
000100 88 96 f9 3c 76 4d 17 3e 5c 3f 95 be a4 21 bd bd
       0.030467287 0.14775643 -0.29149902 -0.09234932
000110 4c e1 43 3e 05 e9 0a 3e ef 9a 70 be 91 0d 6f 3d
       0.19128913 0.13565452 -0.23496602 0.058362547
000120 31 15 15 3e ea bf 4d bd 4e 20 0b be 5b d1 bc bd
       0.14558865 -0.05023185 -0.13586542 -0.09219619
000130 e8 4f 83 3d 44 ec 96 bb e4 5e 30 bd a3 a3 06 3d
       0.06411725 -0.004605802 -0.043059245 0.0328709
000140 9b 90 20 3e d9 28 8a 3d 1d 49 27 3d ea 23 2e 3c
       0.15680163 0.06746072 0.04084121 0.01062868
000150 71 e6 fb bd a7 4f e5 3d 14 bb 0f 3e 6c e8 25 3e
       -0.122998126 0.11196833 0.14036208 0.16201943
000160 a9 f7 1c be 15 14 b1 3d 3f 92 5e bd 68 87 05 be
       -0.1532885 0.086464085 -0.05433869 -0.13039935
000170 07 64 00 be d9 3d f7 3b f1 39 06 be dd 17 03 3d
       -0.12538157 0.0075452146 -0.1310804 0.03200518
000180 4a 3b 2d 3d f5 ab d3 bd ab cb 23 be be ac ca 3d
       0.04229287 -0.103355326 -0.15995662 0.09896229
000190 0d 55 00 be 76 69 83 bc f5 4d f7 bb 25 4f 99 3c
       -0.12532444 -0.016041499 -0.007547135 0.018714497
0001a0 3e af 48 3d 00 c7 1e 3e 05 73 f9 bc 30 99 99 3d
       0.04899525 0.155056 -0.030450353 0.07499921
0001b0 9d 26 b6 3c 87 a6 f8 bd 2b 47 17 bd a0 b7 76 bc
       0.02223521 -0.121411376 -0.036933105 -0.015058428
0001c0 f9 ac 95 bd ad cf 41 bc 8f 09 ba bd cc 33 7b bd
       -0.073083825 -0.011829299 -0.090838544 -0.061328694
0001d0 22 d3 aa 3d 9e 28 c9 bc 68 d2 7f 3d ca 04 5c 3e
       0.08341052 -0.0245555 0.06245652 0.21486202
0001e0 f2 a6 49 bd 0c 3a ac bb e7 f2 53 3e 29 57 de bd
       -0.049231477 -0.005255943 0.20698129 -0.10856468
0001f0 a7 ba 2a bc 6b 15 0e bb 46 a5 25 3e 27 48 33 be
       -0.010420478 -0.0021680247 0.16176328 -0.17507993
000200 b6 37 70 be ec db 28 be 34 d4 88 3d ca 4a 02 be
       -0.23458752 -0.16490144 0.066810995 -0.12723842
000210 eb c1 71 be 00 8a 82 be ef 12 06 be 91 74 b2 3d
       -0.2360913 -0.2549591 -0.1309316 0.087136395
000220 22 f2 0c be c0 a2 c4 bc 8a 7a d9 bb ad 78 70 be
       -0.13764241 -0.024003386 -0.0066369222 -0.23483534
000230 ef 34 96 3b df 09 08 3d 5a ac c7 bd 89 84 04 be
       0.004583947 0.03321254 -0.0974967 -0.12941183
000240 69 35 8b bd 72 3f 6d bd b0 98 87 3c 04 c7 19 3c
       -0.067972966 -0.057921834 0.0165523 0.009385828
000250 fb cf 82 be ea 52 06 be 13 7a e8 bc 8c 24 1e bd
       -0.25549302 -0.13117567 -0.028378522 -0.038609073
000260 7f 3c 81 3d 6c 4e d9 3d 4a db 03 3e 48 7a fb 3c
       0.06310367 0.10610661 0.12876621 0.030697957
000270 bf 40 8c bd 94 3b 45 bd dd 09 b7 3c 79 fb e1 bd
       -0.06848287 -0.04815252 0.02234357 -0.11034293
000280 54 4b 06 be 7a 6e 1e be da fa e7 bc 5e fd d0 3d
       -0.13114673 -0.15471831 -0.028317858 0.10204576
000290 99 b8 38 bd e2 09 f6 bd 08 77 0a bc a5 8a 2a 3e
       -0.04509792 -0.12013604 -0.008451231 0.16654451
0002a0 12 26 fd bb e6 a6 5f be d0 5b 33 be 27 fa 25 3e
       -0.0077254856 -0.2184101 -0.17515492 0.16208707
0002b0 08 93 06 3e 92 04 33 be 65 26 d7 bc 96 be 18 be
       0.13142025 -0.17482212 -0.026263425 -0.14916453
0002c0 45 20 8a bd 62 89 5b bb d5 03 b8 bb 42 49 1a bd
       -0.06744436 -0.0033498635 -0.005615691 -0.03766752
0002d0 20 14 d8 bd 91 f2 f4 bd 1c d4 91 bd 37 40 c4 bc
       -0.105507135 -0.11960328 -0.07120535 -0.023956401
0002e0 88 ce 86 be 2c 0e 55 3e 89 0e 19 3c 10 45 21 be
       -0.26329446 0.20806187 0.009341844 -0.15749002
0002f0 d1 fa 25 3c d3 cf 16 3c e5 ef 60 bd 52 bd ec bd
       0.0101306 0.009204823 -0.05491628 -0.115595475
000300 bd 72 58 bd 47 87 c8 bc ea 23 d1 3c a2 cb e2 bd
       -0.052843798 -0.024478568 0.02552982 -0.11073996
000310 e5 29 4e bd 41 c1 03 be 71 21 3d be a8 96 2a 3c
       -0.050332922 -0.1286669 -0.18469788 0.010411896
000320 37 1b bc 3c dc 2f 59 bd da 13 90 bc 39 29 c5 bc
       0.022962196 -0.053024158 -0.017587591 -0.024067508
000330 7b da 77 3d fb 38 65 bd 2a 12 20 be 30 9a 07 be
       0.060511094 -0.055962544 -0.15631929 -0.13242412
000340 c8 67 38 be ef 27 23 be 7a 91 01 be 88 09 60 bd
       -0.1800834 -0.15933202 -0.12653151 -0.05469659
000350 34 52 5a 3c 39 88 c7 bc 1a 13 19 3e 5c 1c 76 bd
       0.013325263 -0.024356948 0.14948693 -0.06008564
000360 f9 45 39 be 6b 2b 53 bc af 97 01 3d c9 b5 cf bc
       -0.18093099 -0.01288877 0.031638797 -0.025355237
000370 5b 16 fd 3c 08 9d 83 3b 0f eb 5a bc a2 15 28 3d
       0.030894449 0.0040165223 -0.013361706 0.041036256
000380 f1 9a b7 bd d1 10 92 3d 36 41 c6 bd c7 13 61 bd
       -0.089650996 0.07132114 -0.09680407 -0.0549505
000390 0e c6 ad bc 06 20 1a 3d 26 69 17 3c 63 aa b3 3d
       -0.021212604 0.037628196 0.009241378 0.08772733
0003a0 57 a7 8a be 0b 03 11 bd b4 c3 0a bd 37 33 48 3c
       -0.27080795 -0.035403293 -0.033878043 0.012219242
0003b0 dd f3 80 3c d4 65 4d be cc d4 ec bd 5b 3c af bc
       0.015741283 -0.20058376 -0.11564025 -0.021391084
0003c0 ac a4 5f bd 2f 28 9f bd 21 91 cc 3c 68 28 5b 3d
       -0.054600403 -0.07771336 0.024971547 0.05350533
0003d0 2e 2d 45 bc 53 35 70 3c f5 a5 85 bd d3 18 47 be
       -0.012034697 0.014661151 -0.065257944 -0.19443063
0003e0 0c ad 4c be 45 61 3c be f6 e0 22 be ab 8f 60 bd
       -0.19987887 -0.1839648 -0.15906128 -0.054824512
0003f0 a7 71 ac 3d 29 a1 e3 bd 82 89 fc bd 73 e3 23 bd
       0.08420115 -0.11114723 -0.12330915 -0.040011834

network_body._body_endoder.seq_layers.2.bias f4 [128]
000000 2a 60 91 3d 62 54 58 be 8f 54 16 be 7f 61 56 be
       0.0709842 -0.2112594 -0.14680694 -0.2093563
000010 26 23 f4 bd 23 04 29 be ba 16 ed 3c 55 5c 44 3e
       -0.119207665 -0.16505484 0.028941501 0.19175847
000020 eb 0b 0b 3e 06 f3 eb 3c 13 cf 12 3e 56 59 1b 3e
       0.13578765 0.028802406 0.14336805 0.15170798
000030 45 0f 1f be d5 08 d1 3d ad 68 99 3d de 30 85 3b
       -0.15533169 0.10206763 0.074906684 0.0040646633
000040 d7 65 39 3e 53 7d 5e 3d 14 d8 79 bc c6 0d 09 3b
       0.18105255 0.054318737 -0.015249271 0.002091275
000050 9b 7e 12 3e ad a9 ae bd d0 e1 db bb 23 ea 62 3d
       0.14306109 -0.08528457 -0.0067102686 0.05539907
000060 0d c0 04 3e e2 00 fb 3d 73 f2 45 be fe 36 19 3e
       0.12963887 0.12256028 -0.19330768 0.14962384
000070 5f 74 2b be 1e 24 2f bd ad f3 c0 3d 34 c5 05 3e
       -0.16743611 -0.042759053 0.094214775 0.13063508
000080 23 86 30 3e a3 28 8e 3d 5b bb 70 bd 2b 1e f5 3d
       0.17238669 0.069413446 -0.058772426 0.11968645
000090 b5 69 ca bc c6 ec 27 3e 65 1a 0d 3e 07 a5 8a 3d
       -0.024708608 0.16398916 0.137796 0.06769758
0000a0 8b 6f 32 be 97 2c 2a 3e 29 2d 43 3d 10 88 20 bc
       -0.17425363 0.16618572 0.04765049 -0.009798065
0000b0 05 2a c4 bd 32 a7 2c bd 80 08 47 3e f3 ad 47 3e
       -0.09578327 -0.042151637 0.19436836 0.1949995
0000c0 dc 61 41 be 47 7a 5e 3e 83 5c 4a 3e d4 c7 38 3e
       -0.18884987 0.21726333 0.19761853 0.18044978
0000d0 2e 00 3f be 8e 4e 90 3d f1 a1 b6 bd f5 e2 0f be
       -0.18652412 0.07046233 -0.089176066 -0.14051421
0000e0 f4 0c 87 3c 0d f8 bd 3d 71 52 ac bc f3 53 ca 3d
       0.016485669 0.092758276 -0.021035405 0.09879293
0000f0 53 66 69 be ca 18 c9 3d fe 81 5f 3d 80 09 01 3c
       -0.2279294 0.09819181 0.05456733 0.0078758
000100 ec 70 05 3e 88 8a 60 3e 75 a1 cf 3d 87 79 4a be
       0.13031358 0.21927845 0.10138217 -0.19772922
000110 fa c7 22 3e f0 14 f4 bd 7b 42 57 be b3 84 09 3e
       0.15896598 -0.11918056 -0.21021454 0.13429527
000120 a8 89 1d 3e 0a 91 1f be 0a 1d 2c 3e 94 02 66 be
       0.15384543 -0.15582672 0.16807953 -0.22461921
000130 e6 35 47 3e ae 96 31 3c 08 6a f5 3d 28 0a 45 be
       0.19454154 0.0108391475 0.119831145 -0.19242156
000140 df e6 f4 bd 85 2c e4 bd a0 4b 6f bc a5 58 12 3e
       -0.11958098 -0.11141304 -0.014605433 0.14291628
000150 86 b0 47 3e d7 52 07 bd f6 44 8b 3d f5 27 c0 bd
       0.19500932 -0.033037987 0.06800263 -0.09382621
000160 ad 66 31 3c 33 33 cc 3c bb e5 38 be ac 64 c5 bd
       0.0108277025 0.024926757 -0.18056385 -0.09638342
000170 f5 8f 75 bc f6 54 2e 3e ab 42 92 bd 93 3d 21 be
       -0.014987935 0.17024598 -0.07141622 -0.15746145
000180 4b 75 52 bd 77 33 90 3d fc 13 97 3c f4 e2 b1 3d
       -0.05138139 0.07041066 0.018442146 0.08685866
000190 2d 53 c7 bd 9b 9c 4e be 43 8f cc bd 63 6d 82 3b
       -0.097326614 -0.20176928 -0.099882625 0.003980325
0001a0 18 78 4e be bf 65 56 3c e6 a8 2e be 59 2b 42 be
       -0.20163 0.013085782 -0.17056617 -0.18961848
0001b0 12 38 30 be fd 5d 20 3e e5 60 b1 3b 48 c4 2f 3e
       -0.17208889 0.15660854 0.005413162 0.17164719
0001c0 a9 19 6a 3d 5f 1a a4 bc 61 ee 68 be 08 01 1e 3e
       0.057153378 -0.020032106 -0.22747184 0.15430081
0001d0 f3 82 84 bd ed 84 23 3e 32 68 32 be 36 5b 3b be
       -0.06470289 0.15968676 -0.1742256 -0.18296513
0001e0 65 e0 33 be 9f 94 f3 3c bb eb dc bd 01 5e 56 3d
       -0.17566068 0.029733954 -0.107871495 0.052335743
0001f0 a6 ab 55 be 72 5b fe 3d aa 9c ff 3c f9 25 2a 3e
       -0.2086626 0.124197856 0.031202633 0.16616048

action_model._continuous_distribution.log_sigma f4 [1, 3]
000000 2b d0 d2 be d3 d3 7c bf 46 12 d0 be
       -0.41174445 -0.9876072 -0.40638942

action_model._continuous_distribution.mu.weight f4 [3, 128]
000000 f4 86 91 bd ae b8 66 3c 1f e7 d2 3c 32 a0 42 3d
       -0.071058184 0.014082117 0.025744973 0.047516055
000010 35 83 f1 3c e4 e8 b8 3d 6c 69 16 bd c7 9c 44 3e
       0.02948151 0.09028795 -0.036721632 0.19200431
000020 31 30 10 bd 6c 43 ab bb 65 4a 2d 3d d2 bd c1 ba
       -0.03520221 -0.005226543 0.042307276 -0.0014781302
000030 21 9f 07 be 97 db 5d 3e 6c 85 27 3c a2 ef cf ba
       -0.13244297 0.21665798 0.010224681 -0.0015864263
000040 88 2a 40 be d6 f4 0c be 64 e3 ee 3d 85 41 fb bd
       -0.18766224 -0.13765272 0.11664465 -0.12268356
000050 ee eb a4 3c 61 2a e4 bd 35 0a be ba 07 12 5c be
       0.020132031 -0.11140896 -0.0014498892 -0.21491252
000060 e4 5f 10 be 79 3c a8 bd 64 00 52 3d 52 6b 34 3e
       -0.1409908 -0.08214659 0.051269904 0.17619064
000070 38 0d c3 bc ac 6a 89 3d 97 f7 13 be 75 31 12 3e
       -0.023810014 0.06709799 -0.14449917 0.14276679
000080 6f 5a a0 3c 16 ba ee bd 0a ed 28 3d 1f a7 0b be
       0.019574372 -0.11656587 0.041241683 -0.1363797
000090 ea ec 0d be 15 69 24 3d c7 1b 0f bc 58 8c 9f 3d
       -0.13859907 0.040139277 -0.00873465 0.0779044
0000a0 9a 91 a8 3d 89 42 d8 bd d5 62 84 3d 60 a9 de 3c
       0.08230896 -0.105595656 0.06464163 0.027180374
0000b0 3f 8b 08 3e 56 1d cb bc 5e cb 79 3c b0 25 82 bc
       0.13334368 -0.024794262 0.01524624 -0.015887111
0000c0 31 e6 6e bc e7 32 bb bc d7 7c 9a 3d e8 f3 99 bd
       -0.014581249 -0.02285142 0.075433426 -0.075172246
0000d0 0b 47 c8 3d 2c c6 b8 3d e4 8b 90 3c 7c 3d 4e 3d
       0.09779175 0.09022173 0.01764483 0.050351605
0000e0 d4 51 f9 bc 3e 7e 92 bb ff 9d 4f be d1 4f 0e be
       -0.030434527 -0.0044706156 -0.20275114 -0.13897635
0000f0 27 aa 8b 3d b0 ca 71 3c 1b d6 19 3e 86 a3 9c 3d
       0.06819563 0.014757797 0.15023081 0.07648377
000100 24 89 4f 3c d7 15 54 bd 92 52 00 3e 78 42 36 bd
       0.012666974 -0.05177864 0.12531498 -0.044496983
000110 65 bb 05 3e 87 2a 07 3e c7 4b 95 3c df da a1 3d
       0.13059767 0.13199817 0.01822461 0.079030745
000120 bf 88 07 be 60 0b e1 bc 70 42 20 3d 55 c0 03 bd
       -0.13235758 -0.027471244 0.03912586 -0.032165844
000130 04 a7 1b 3e 9e f5 1a be 92 e2 dc 3d cf 72 03 3e
       0.1520043 -0.15132758 0.10785402 0.12836765
000140 c6 c8 03 3e d8 be 87 3d 59 5d fd 3d 2e cf 2a be
       0.12869558 0.066281974 0.1237132 -0.16680595
000150 1c 35 bc bd 50 92 22 3d 29 68 0b be 96 75 28 bc
       -0.09189817 0.039690316 -0.13613953 -0.010281941
000160 2a f7 9c 3d 25 20 9d 3d 8d 2a ce 3c 0a c8 d4 bd
       0.0766433 0.07672147 0.025166774 -0.10389717
000170 7e de a7 3d b4 72 88 bd 9d a8 ac 3d b9 0c f1 bd
       0.08196734 -0.06662503 0.08430598 -0.11770005
000180 be e9 cf 3d 18 93 9b 3d 1e 26 17 bd d6 26 db bd
       0.10152005 0.07596415 -0.036901586 -0.10700767
000190 ef 24 6c 3c f5 03 63 3c 56 ef d8 3b 9a dc 51 3d
       0.0144131025 0.013855924 0.006620328 0.051235773
0001a0 76 13 71 bc 2b b7 df bd 02 21 4a bc 58 14 7b 3d
       -0.0147141125 -0.109236084 -0.012336971 0.0612987
0001b0 19 40 08 ba d7 1f e5 bd 7d 0a 8b 3d 86 dd 44 3d
       -0.00051975396 -0.111877136 0.0678911 0.048062824
0001c0 b3 2f 31 3e 77 fb ef 3d 14 81 18 3c 16 3e 3d bd
       0.17303352 0.11717885 0.009308118 -0.046201788
0001d0 35 c2 b6 bd 5c 5f ee bd 40 7b 0e 3c 05 4c 65 3c
       -0.08923761 -0.11639282 0.008696377 0.013995175
0001e0 80 80 31 3d 59 3c 87 bd fb 3c 88 3d 38 c5 b9 bd
       0.043335438 -0.06603307 0.06652256 -0.090708196
0001f0 db 58 29 3d 5f e1 f4 bd 1f a9 31 3d 34 0a 67 3d
       0.041344505 -0.119570486 0.043374177 0.056406215
000200 d0 e5 0a bd 68 d5 0a 3e b7 06 7f 3d f0 d5 66 3e
       -0.033910573 0.1355797 0.062262263 0.22542548
000210 42 bc e6 3c 6f f2 5f 3e e0 ef ad 3b c5 6e 34 bd
       0.02816594 0.21869825 0.0053081363 -0.04405095
000220 a7 a5 85 bd e0 da f1 ba e2 3d a1 bd de e1 8a bd
       -0.06525736 -0.0018452071 -0.07873131 -0.06781362
000230 23 7a 06 3e 97 ad 13 bd 8c 05 a7 bc 80 c4 81 bb
       0.13132529 -0.03605422 -0.020388387 -0.003960192
000240 f6 6f 24 bc fb 18 da bc 85 44 0a 3d 4b 94 a7 3d
       -0.010036459 -0.02662324 0.03375675 0.081825815
000250 65 a8 80 bd 6f c2 7e 3d 5e 61 28 bd 65 c7 ee bc
       -0.06282119 0.062197145 -0.04110848 -0.029147813
000260 8e 5e 4b bd ec 7f 75 bd 42 3a 48 3e 1b e4 9e bd
       -0.04965072 -0.05993645 0.19553474 -0.077583514
000270 66 5e 6c 3d 46 bc 0f 3d 86 2a 03 bd c0 ac 58 bd
       0.057707213 0.03509166 -0.032022975 -0.052899122
000280 09 7d a5 bd 18 35 83 39 36 6b 8e 3d d4 ff 3c bc
       -0.08080489 0.00025025825 0.069540426 -0.011535604
000290 9e 4e 1f 3d 48 99 ad bd 15 07 3f bd 8f ef 33 bd
       0.038893335 -0.08476502 -0.046637613 -0.043929633
0002a0 4e db 0a 3e 25 48 bb bc fd b2 95 3c e3 a8 6b b9
       0.1356022 -0.02286155 0.018273825 -0.00022474262
0002b0 52 a2 d0 3d 13 b6 e6 3c d5 b8 af bd 98 ea 9e bd
       0.1018721 0.028162992 -0.08580176 -0.07759589
0002c0 15 7b 71 3e 43 77 b7 bd 62 14 df bd 55 f5 cc bd
       0.23582108 -0.08958294 -0.108925596 -0.10007731
0002d0 0b 87 30 3e 72 5b 19 bd cd 37 db bb 4e 85 b4 3c
       0.17239015 -0.037440725 -0.0066900016 0.02203622
0002e0 3e 2e b2 3c 1a 5b f4 bc d0 cd 8c 3d 98 46 09 3c
       0.021750566 -0.029828597 0.06875193 0.008378647
0002f0 44 20 29 3e c4 e3 fc bb 76 a2 b3 bc 89 a6 36 3d
       0.16516215 -0.0077175815 -0.021928053 0.044592414
000300 79 96 1c bd 78 ec 9f bd 35 d5 76 bd bd 4c 13 3e
       -0.03822944 -0.07808775 -0.060261924 0.14384742
000310 cd ba 57 bd 33 78 b3 3d fd 0f 67 3e 08 d2 9d bd
       -0.05266838 0.087631606 0.22564693 -0.07706076
000320 53 00 d5 bc 46 de 75 3d 84 8f 53 bd 2a e1 5f 3e
       -0.026001131 0.06002643 -0.05165054 0.21863237
000330 c7 ec e5 bd 3d 7a a3 3c 10 24 85 bd d0 a1 22 3e
       -0.11226802 0.019955749 -0.06501019 0.15882039
000340 f6 8d 18 3d 0d f4 32 3e 28 1d a1 3b 13 57 77 bd
       0.03724476 0.1747591 0.004916806 -0.060385775
000350 ac 57 aa bd 62 4b 08 3c 1e 04 bc 3b 70 a4 0b bb
       -0.08317503 0.008318754 0.0057377955 -0.002130773
000360 c9 30 af bc 8a eb 27 3c 6d 42 94 3e 13 0f 90 3c
       -0.021385567 0.010249028 0.2895693 0.017585313
000370 db 1e 37 3d 32 91 95 bd 18 a6 9a 3d 71 df b0 3d
       0.04470716 -0.073030844 0.07551211 0.08636368
000380 39 14 9a 3c 65 28 9e bc 92 7c 36 bc e0 9c 67 bc
       0.018808471 -0.019306371 -0.011138098 -0.014136523
000390 c1 4b 69 3d 80 4d 2b 3e 7a 16 a0 3c 16 57 2e 3c
       0.05695701 0.16728783 0.019541968 0.01064088
0003a0 e6 e0 83 3e 41 c9 b5 bb f8 d4 f8 3d ce 37 51 3e
       0.2575752 -0.005547673 0.121499956 0.20431444
0003b0 43 14 17 3e 85 75 80 bd 72 d4 a8 3d 09 70 dd bd
       0.14753823 -0.06272415 0.08243646 -0.10812385
0003c0 5e 40 4d bd 00 65 ef bb 9c 7f 70 3d 8f b3 44 bd
       -0.050110213 -0.0073057413 0.058715448 -0.048022803
0003d0 6f 53 2f 3d a2 db 2b bd e7 a5 99 3e d0 c2 db 3c
       0.042804178 -0.041957505 0.30009386 0.026826292
0003e0 54 cb 24 3e d3 70 1d 3c a0 11 93 3d 96 c0 17 3c
       0.16093189 0.009609419 0.07181096 0.009262225
0003f0 7f 12 f3 3d 5f c7 95 bb ef 85 3f bc 86 39 70 bd
       0.11868762 -0.004570886 -0.011689647 -0.05864861

action_model._continuous_distribution.mu.bias f4 [3]
000000 3a a7 f1 bc 8f 73 4a be 1b 63 29 3c
       -0.029498685 -0.19770645 0.01033857

onnx::Div_51 f4 [12]
000000 41 dd 95 41 fe 91 8a 41 04 2a 94 41 db 6c b5 41
       18.733034 17.321285 18.520515 22.678152
000010 81 c3 1a 40 84 51 b6 41 06 a3 bc 41 b6 3c c8 3a
       2.4181826 22.789803 23.579601 0.0015276882
000020 4a 1f bf 41 55 8f 92 41 b9 b7 98 41 04 f8 f7 3e
       23.890278 18.319986 19.089708 0.48431408
