TWP_2/Assets/Scripts/OnnxModels/DynamicTouch.onnx (onnx, 77046 bytes, 9 tensors)

network_body.observation_encoder.processors.0.normalizer.running_mean f4 [7]
0	0xbf67659c	-0.9038942
1	0x41fc98ac	31.574547
2	0x3f9d552e	1.229162
3	0xbf063671	-0.5242682
4	0x403fffae	2.9999804
5	0xbe9a71ec	-0.3016504
6	0x42158c65	37.387104

network_body._body_endoder.seq_layers.0.weight f4 [128, 7]
0	0x3e819740	0.25310707
1	0x3e59eb24	0.21281105
2	0x3e85984a	0.2609275
3	0xbf0aef7f	-0.5427169
4	0x3f1cbd4a	0.6122633
5	0xbcb2924a	-0.021798272
6	0x3dab2e02	0.08358385
7	0x3ebcf0e2	0.3690253
8	0x3e8c371c	0.27385795
9	0x3defe62f	0.11713826
10	0x3e830ea6	0.25597113
11	0xbf11f72d	-0.57017785
12	0xbef2f293	-0.47450694
13	0x3e052c04	0.13005072
14	0xbebed8af	-0.3727469
15	0x3f0669b9	0.5250507
16	0x3ecd5aca	0.4010833
17	0x3eabe836	0.335756
18	0x3ede1cc9	0.43381336
19	0x3dac23e2	0.084052816
20	0xbecf60ee	-0.4050364
21	0x3df7a7bd	0.120925404
22	0xbebba1e4	-0.3664695
23	0xbcd72713	-0.02626375
24	0x3ee6b4d5	0.4505984
25	0x3e68c400	0.22731018
26	0x3e8409fd	0.2578887
27	0x3dcbc612	0.09949888
28	0x3e0341cd	0.1281807
29	0x3d1f7b62	0.038936026
30	0x3f2a5ad7	0.6654486
31	0xbe05b7af	-0.13058351
32	0x3e0e9244	0.13922983
33	0x3d65894f	0.05603915
34	0x3dcdc69e	0.10047649
35	0x3f12dddb	0.57369775
36	0x3e9959cd	0.29951325
37	0x3cce84d2	0.025209818
38	0x3f31ccb8	0.69453
39	0x3f529aec	0.8226764
40	0x3e0156f4	0.12630826
41	0x3b15f702	0.0022882824
42	0xbd181628	-0.037130505
43	0xbe981a29	-0.2970746
44	0x3ebca23f	0.36842534
45	0xbe7c939f	-0.24665688
46	0x3e3a579a	0.1819748
47	0xbe9f388c	-0.3109783
48	0x3f770aaf	0.96500677
49	0xbe737d6e	-0.23778316
50	0x3ea9f59f	0.33195207
51	0x3f2f66e4	0.68516374
52	0xbdd14e16	-0.10219972
53	0xbac22893	-0.0014813117
54	0xbe85b208	-0.2611239
55	0x3e289e33	0.16466598
56	0x3f30f895	0.69129306
57	0xbeaaafe5	-0.33337322
58	0x3ea164ce	0.3152222
59	0xbf19c27e	-0.60062397
60	0x3da08fd2	0.078399315
61	0x3f5bc02d	0.8584011
62	0xbe560625	-0.20900781
63	0xbd5386de	-0.05164229
64	0xbea1d12f	-0.31604907
65	0xbdd53f85	-0.10412506
66	0xbbf75fcd	-0.007549262
67	0xbef201dc	-0.47267044
68	0x3d475def	0.048673566
69	0x3f3f5710	0.7474222
70	0x3ee41542	0.44547468
71	0xbf0dd60a	-0.5540472
72	0x3eb47b9b	0.35250553
73	0xbf8eaefe	-1.1147153
74	0x3d1832b9	0.037157748
75	0xbee5120f	-0.4474034
76	0xbb34793f	-0.0027538089
77	0xbd32a9bc	-0.043618903
78	0x3dd7402e	0.10510288
79	0xbe3b37a8	-0.1828295
80	0xbed6e046	-0.41967982
81	0x3ec3f631	0.38273767
82	0xbf499471	-0.7874213
83	0x3f1d2256	0.6138052
84	0xbdfcb712	-0.123396054
85	0x3d2ee79f	0.04270136
86	0x3e126827	0.14297543
87	0xbe8578de	-0.26068777
88	0xbede892d	-0.43464032
89	0xbe60fa32	-0.21970442
90	0x3fc6df8e	1.5536973
91	0xbf0ac750	-0.54210377
92	0xbeff53f2	-0.49868733
93	0xbe2d40a0	-0.16919184
94	0x3e2bfec2	0.16796401
95	0x3bd1da2c	0.006404182
96	0x3ede4572	0.43412358
97	0x3e02ae5b	0.12761824
98	0x3f21f778	0.6326823
99	0xbdb2c3d5	-0.08728758
100	0x3f057909	0.5213781
101	0x3eb7d194	0.35902083
102	0xbf67cbcd	-0.9054535
103	0xbdc17c71	-0.094475634
104	0x3f5482ca	0.8301207
105	0x3c24090b	0.010011922
106	0xbe172de8	-0.14763606
107	0x3e06e61b	0.13173716
108	0x3a4fa03c	0.00079203
109	0x3e4f072b	0.20217578
110	0xbf3192f9	-0.6936489
111	0xbeacccb2	-0.3374992
112	0x3df63526	0.12021856
113	0xbf149983	-0.5804674
114	0xbe18f028	-0.14935362
115	0xbf22522f	-0.6340665
116	0xbeec1bb2	-0.4611488
117	0x3ed00f77	0.406368
118	0x3e6773e5	0.22602804
119	0xbe8a211f	-0.26978394
120	0xbe1681e0	-0.14697981
121	0x3dda4dfc	0.106594056
122	0x3dab51a0	0.08365178
123	0x3f2d2f48	0.6765027
124	0xbf32b0f3	-0.69801253
125	0x3bb8bb1d	0.00563754
126	0x3f6f24c9	0.93415505
127	0xbe26ecf8	-0.16301334
128	0xbf105f73	-0.56395644
129	0xbe0d8d7a	-0.138235
130	0x3eb43910	0.35199785
131	0xbe95d1f1	-0.29261735
132	0xbf2d9789	-0.6780935
133	0x3ed2098f	0.41022918
134	0xbc412514	-0.011788625
135	0xbebd7b61	-0.37008193
136	0xbd6095cb	-0.054830354
137	0xbec24dc0	-0.37949944
138	0x3e10c2c2	0.14136794
139	0x3ec169f0	0.37776136
140	0x3f0f42ea	0.5596148
141	0xbec1abee	-0.37826484
142	0xbe4b55f1	-0.19857003
143	0xbe246d08	-0.16057217
144	0xbcef08b3	-0.029178953
145	0xbeff7ead	-0.49901333
146	0x3ea97e45	0.33104149
147	0x3e891133	0.26770934
148	0xbdacfd06	-0.08446698
149	0x3e683059	0.22674693
150	0x3f458a73	0.7716438
151	0x3e0ee8bc	0.13955969
152	0xbf4d7613	-0.8025829
153	0xbed25142	-0.4107762
154	0x3ec4a491	0.38406804
155	0xbe90f157	-0.28309128
156	0xbf02dadf	-0.5111522
157	0x3ea38e01	0.31944278
158	0xbda8a7d6	-0.08235137
159	0xbed2e374	-0.41189158
160	0xbdfb00eb	-0.122560345
161	0xbe83a786	-0.25713748
162	0xbf2d716c	-0.67751193
163	0x3f030f56	0.51195276
164	0xbd27db0d	-0.040980387
165	0x3eae5ecc	0.340567
166	0xbdba14a0	-0.09085965
167	0x3d8559c0	0.06511259
168	0x3f084e46	0.53244436
169	0xbe3f9a41	-0.18711187
170	0xbd87b14c	-0.066256136
171	0x3e0d1f19	0.13781394
172	0x3e7855d7	0.24251495
173	0xbf18c284	-0.5967181
174	0xbcc52a0d	-0.024067903
175	0x3dde6739	0.10859532
176	0x3e933bbc	0.2875651
177	0x3f155fcc	0.583493
178	0xbeaf054c	-0.3418373
179	0xbf2bb4b0	-0.6707258
180	0xbe13537f	-0.1438732
181	0xbf28d921	-0.6595631
182	0x3f134a20	0.5753498
183	0x3e348a67	0.17630921
184	0x3be5a3f5	0.0070080706
185	0xbf1196e4	-0.56870866
186	0x3ec9dbb7	0.39425442
187	0xbea99fc8	-0.33129716
188	0x3da3d41f	0.07999443
189	0xbdaab079	-0.08334441
190	0xbeb4ef5c	-0.35338867
191	0x3e6cb7d7	0.23117004
192	0xbe7d8a45	-0.24759777
193	0x3e980863	0.296939
194	0xbd21b423	-0.039478432
195	0xbe3a1549	-0.18172182
196	0x3e674b71	0.22587372
197	0xbe904489	-0.28177288
198	0x3e14490e	0.14480993
199	0x3eed5430	0.46353292
200	0xbe190574	-0.14943486
201	0xbef67a84	-0.48140347
202	0xbe16343f	-0.14668368
203	0xbe9115ee	-0.28337044
204	0x3c90a7eb	0.017658195
205	0xbf2b0574	-0.66805196
206	0x3e33623c	0.17517942
207	0x3de82f7c	0.11337182
208	0x3e059165	0.13043745
209	0x3ead5a01	0.3385773
210	0x3ef79aaf	0.48360202
211	0xbcf5754f	-0.029963164
212	0xbe48bb48	-0.19602692
213	0x3ee126b0	0.4397483
214	0xbe3a7b6f	-0.18211149
215	0xbf0fd7e3	-0.5618879
216	0x3ee1fdd4	0.44138968
217	0x3dbe0865	0.09278945
218	0x3d4374a3	0.047718655
219	0xbe8bb677	-0.27287647
220	0xbf6943f5	-0.9111932
221	0x3ef0193c	0.46894252
222	0x3e86e467	0.26346132
223	0xbc13f318	-0.009030126
224	0x3e888ef1	0.26671556
225	0xbdc87c98	-0.09789389
226	0xbdaf7601	-0.08567429
227	0xbe869bf0	-0.26290846
228	0x3e14ae0b	0.14519517
229	0xbe3902da	-0.18067494
230	0x3eca7653	0.395434
231	0xbef9e123	-0.48804578
232	0x3ef94afc	0.4869002
233	0xbed5f16b	-0.4178575
234	0xbea2065c	-0.31645477
235	0xbe97a41c	-0.29617393
236	0x3ca9120f	0.020638494
237	0x3f0795e6	0.529631
238	0xbec9735a	-0.3934582
239	0xbf1f37c8	-0.6219449
240	0x3ea443c8	0.32082963
241	0x3bf90146	0.0075990288
242	0x3f4c0e8e	0.7970971
243	0x3f036229	0.51321656
244	0xbf36dfa6	-0.7143501
245	0xbe7a6105	-0.24451073
246	0xbe93269a	-0.28740388
247	0xbe877512	-0.26456505
248	0xbd8f7f89	-0.07006747
249	0x3d199348	0.037493974
250	0x3ea37310	0.31923723
251	0x3ef8b806	0.485779
252	0xbe074d6b	-0.13213126
253	0xbeda0b1b	-0.42586598
254	0x3efd5d6e	0.49485344
255	0xbf77f7d1	-0.9686251

network_body._body_endoder.seq_layers.0.bias f4 [128]
0	0x3e731958	0.23740137
1	0x3e2968a8	0.1654383
2	0x3e444ae3	0.19169192
3	0x3d035af1	0.03206915
4	0xbe0b98c5	-0.13632496
5	0x3e003768	0.12521136
6	0xbe01f3cd	-0.12690659
7	0x3d810117	0.06299036
8	0x3df5b74d	0.119978525
9	0xbe143d1e	-0.1447644
10	0x3dcbbefa	0.09948535
11	0x3dcc50a5	0.09976319
12	0xbd950edd	-0.072782256
13	0xbc976634	-0.018481351
14	0xbcef3fe7	-0.029205276
15	0x3e1dff32	0.1542938
16	0xbc4fb7b0	-0.012678072
17	0x3d8c9d7d	0.06865976
18	0x3e3f1d6d	0.18663569
19	0xbe272977	-0.16324411
20	0xbd500542	-0.050786264
21	0x3dfd5f46	0.123716876
22	0x3e0452a6	0.12922153
23	0xbd89b9c4	-0.06724885
24	0x3dad9315	0.08475319
25	0x3dd8622c	0.105656
26	0x3d29658c	0.04135661
27	0x3c8b727c	0.017022364
28	0x3dd41562	0.10355641
29	0xbd28cff9	-0.041213963
30	0xbd908304	-0.07056239
31	0x3e25b59b	0.16182558
32	0xbd2107d9	-0.039314125
33	0xbde990fd	-0.114046074
34	0xbd3afd7d	-0.0456519
35	0xbe32b195	-0.17450555
36	0x3d7956dc	0.06087385
37	0xbd5de856	-0.05417665
38	0x3dfcecf0	0.1234988
39	0xbd3b3e63	-0.045713793
40	0xbe28a6a3	-0.16469817
41	0x3e3eaa47	0.18619643
42	0x3c35fdeb	0.011107902
43	0x39994dc2	0.00029240368
44	0x3e2bba55	0.16770299
45	0xbd6cac51	-0.05778152
46	0x3dea44fe	0.114389405
47	0xbd8475e2	-0.06467797
48	0x3d1b6c77	0.037945237
49	0x3e09593c	0.13412946
50	0x3e397065	0.18109281
51	0xbc965f0e	-0.018355872
52	0xbd58612d	-0.05282705
53	0xbd0f6199	-0.035005186
54	0xbd918090	-0.071045995
55	0x3d541c2b	0.051784676
56	0x3e508cc0	0.20366192
57	0x3d13daf3	0.036097478
58	0xbe0f6e85	-0.14007004
59	0xbe102eda	-0.14080372
60	0x3dafcfd0	0.08584559
61	0xbdba18e4	-0.09086779
62	0x3e3d781e	0.18502852
63	0x3e50d0c7	0.20392142
64	0xbdf50094	-0.11963001
65	0x3ddda1a8	0.10821849
66	0x3e2869e6	0.16446647
67	0xbc041f87	-0.008064157
68	0x3e4df9c5	0.20114811
69	0xbe0f77e4	-0.14010578
70	0x3e2c4522	0.16823247
71	0x3e5832f1	0.21113183
72	0x3d8ede59	0.06976003
73	0x3e0ae271	0.13562943
74	0x3e23d2a3	0.1599832
75	0x3d5290c9	0.05140761
76	0xbd82b910	-0.06382954
77	0x3da5b68c	0.08091459
78	0x3dbec711	0.09315313
79	0xbda4651b	-0.08027097
80	0x3d3923e0	0.04520023
81	0xbce93562	-0.028467838
82	0x3e3060f6	0.17224488
83	0x3d75a96b	0.059976023
84	0xbe3970e8	-0.18109477
85	0x3e100b6d	0.14066859
86	0x3df8b453	0.12143769
87	0x3d4e3e75	0.050352532
88	0xbd86b2c8	-0.065770686
89	0xbe10e0d9	-0.14148273
90	0xbd72f704	-0.059317604
91	0x3e3d3e9b	0.18480913
92	0x3e41c85d	0.18924089
93	0x3e0b07fc	0.13577265
94	0x3e2ec4c7	0.17067252
95	0x3e3f369a	0.18673173
96	0x3cc2e38b	0.023790142
97	0x3e34ef7d	0.17669483
98	0xbd6b9d90	-0.05752331
99	0xbc2d2418	-0.010567687
100	0xbd8a411b	-0.06750699
101	0x3e0d5696	0.13802561
102	0x3e012a26	0.12613735
103	0xbd0e4baf	-0.034740146
104	0xbe156d02	-0.14592364
105	0xbd1ae2fe	-0.037814133
106	0x3e1e8ba1	0.15482952
107	0xbe1e1299	-0.15436782
108	0xbd261809	-0.040550265
109	0x3dfb1362	0.12259556
110	0xbdbfadf7	-0.09359353
111	0x3e51d3a4	0.2049089
112	0x3e1a6092	0.15075901
113	0x3e18c9bd	0.14920707
114	0x3e11b1b1	0.1422794
115	0x3e06c310	0.13160348
116	0x3e18bf0b	0.14916627
117	0xbd157e73	-0.036497544
118	0x3e27d7cf	0.16390918
119	0xbdcbec41	-0.09957171
120	0xbe24a5a6	-0.16078815
121	0x3e45b965	0.19309004
122	0x3e74e3a1	0.23914959
123	0x3e1ee44c	0.15516776
124	0x3dca9406	0.098915145
125	0x3d0bf43c	0.034168467
126	0x3dc9d875	0.09855739
127	0x3dd578e9	0.104234524

network_body._body_endoder.seq_layers.2.weight f4 [128, 128]
0	0xbe01b5c9	-0.12667002
1	0x3e2e28dd	0.17007776
2	0xbd971609	-0.0737725
3	0x3e2f78b8	0.17135894
4	0x3dc63310	0.09677708
5	0x3d2fd299	0.04292545
6	0xbe2ddfbb	-0.16979878
7	0xbe10cc36	-0.141404
8	0xbc91ebfc	-0.017812721
9	0x3c3e04ec	0.011597853
10	0x3e68047c	0.2265796
11	0xbc5cd17c	-0.013477679
12	0xbdde7bed	-0.10863481
13	0xbe0000ea	-0.12500349
14	0x3cbb66dd	0.022876197
15	0x3b44cd7f	0.0030029712
16	0x3d7933bb	0.06084035
17	0xbcb502fc	-0.02209615
18	0x3d7f6573	0.06235261
19	0x3d8801cc	0.06640968
20	0x3d9e79dc	0.077380866
21	0xbd684ec7	-0.056715753
22	0x3d754561	0.059880618
23	0x3e5aa452	0.21351746
24	0xbdd3c382	-0.103400245
25	0x3c240635	0.0100112455
26	0x3e54c12a	0.20776811
27	0xbc8f2715	-0.01747469
28	0xbd2c5e62	-0.042082198
29	0xbda829c0	-0.08211088
30	0x3d63f78a	0.055655994
31	0xbbc7e9aa	-0.006100853
32	0x3c634c98	0.013873242
33	0xbe21abb6	-0.15788159
34	0x3ce24aed	0.027623618
35	0xbd1a8051	-0.03772003
36	0xbc1dc06a	-0.009628395
37	0xbe4faef6	-0.20281586
38	0xbd5565e8	-0.05209914
39	0x3e33cc08	0.175583
40	0xbd0be916	-0.034157835
41	0x3e49b1b1	0.1969669
42	0xbe3671d4	-0.1781686
43	0x3c1727ea	0.009225825
44	0x3d4e097c	0.050302014
45	0x3d0c7547	0.034291532
46	0xbc2aad61	-0.010417313
47	0x3c958262	0.018250648
48	0xbd621718	-0.055197805
49	0x3dc4199c	0.09575197
50	0xbddac8ca	-0.10682829
51	0x3d48f2fb	0.04905985
52	0xbd55c1e8	-0.052186877
53	0x3d7b920d	0.06141858
54	0x3d85a373	0.06525316
55	0xbd20321b	-0.039110284
56	0xbdd6db65	-0.10491065
57	0x3db0a3e1	0.086250074
58	0xbd096a11	-0.03354842
59	0xbd6e509c	-0.058182344
60	0xbdf23923	-0.11827304
61	0x3cd6009f	0.026123343
62	0x3e073b96	0.13206324
63	0x3da07b58	0.07836026
64	0xbd420564	-0.047368422
65	0xbd560da9	-0.05225912
66	0xbddaa72c	-0.10676417
67	0x3e242437	0.1602944
68	0xbe1e610b	-0.15466706
69	0xbe085e0d	-0.13317128
70	0x3e134251	0.14380766
71	0xbd9b3308	-0.07578093
72	0xbdba6838	-0.091019094
73	0x3da6291d	0.081133105
74	0x3b216c10	0.002463106
75	0xbdb9463c	-0.09046599
76	0xbd802399	-0.0625679
77	0x3daac44d	0.08338223
78	0x3e3f910f	0.18707679
79	0x3d4d1ca7	0.050076153
80	0x3e03b467	0.12861787
81	0xbdf377dc	-0.11888096
82	0x3dd30b09	0.10304839
83	0xbd1251f2	-0.03572268
84	0x3df1a5cc	0.11799201
85	0x3d1a9943	0.037743818
86	0x3d1df533	0.03856392
87	0x3ddae486	0.10688119
88	0xbdd7589c	-0.10514948
89	0xbd75634c	-0.05990915
90	0xbc430b8e	-0.01190461
91	0xbd72b4b9	-0.05925438
92	0xbd39d5bc	-0.04536985
93	0xbdee96ac	-0.11649832
94	0xbe162654	-0.14663059
95	0x3dbab93d	0.09117363
96	0x3d5a7cdc	0.05334173
97	0x3e0c70a1	0.1371484
98	0xbdef6ae9	-0.11690313
99	0x3ddbf3ce	0.107398614
100	0x3dbde798	0.092726886
101	0x3d5910a6	0.052994393
102	0xbdb52aea	-0.08846076
103	0x3d5f2785	0.054481048
104	0x3da3e703	0.08003046
105	0x3e3832e4	0.17988163
106	0x3e4d8795	0.20071252
107	0x3d4b46d1	0.049628083
108	0x3de8eade	0.11372922
109	0xbe87981b	-0.26483235
110	0x3cffd38d	0.031228805
111	0x3ad92d19	0.0016569226
112	0xbdbbebdd	-0.09175847
113	0xbb5b2fbe	-0.0033445205
114	0x3dd8105d	0.10549996
115	0xbe1f5a6e	-0.1556184
116	0x3d571ae2	0.05251587
117	0x3e4e2734	0.20132142
118	0x3db75794	0.08952251
119	0xbcd69b3e	-0.026197072
120	0xbb9f80e3	-0.0048676594
121	0xbd343dc7	-0.044004228
122	0x3d9bfdd2	0.07616772
123	0xbe081f56	-0.13293204
124	0x3e576e65	0.21038206
125	0xbcd1e5b0	-0.025622219
126	0xbb21f673	-0.0024713546
127	0x3e5ca4b4	0.21547204
128	0x3d79e19d	0.061006177
129	0x3dfe5bac	0.12419829
130	0x3bd57416	0.0065140827
131	0xbd73c669	-0.05951539
132	0xbd830ca9	-0.06398899
133	0xbcca5469	-0.024698453
134	0x3a5e4d25	0.00084801234
135	0x3e0fa5ec	0.14028138
136	0xbd0b4828	-0.03400436
137	0xbc93651a	-0.017992545
138	0x3e01c5fe	0.12673184
139	0x3e113a9b	0.14182512
140	0x3d5bd516	0.05367001
141	0xbd3d0dad	-0.04615562
142	0x3e26a606	0.1627427
143	0x3e0345a0	0.12819529
144	0xbe41f4c7	-0.18941031
145	0xbbc487b1	-0.005997621
146	0xbd41b1b3	-0.047288608
147	0x3df6dd89	0.12053973
148	0xb926fcd9	-0.00015925187
149	0xbc987f2a	-0.018615324
150	0x3d0396bc	0.032126173
151	0x3d0d20aa	0.03445498
152	0x3d65a9e7	0.056070235
153	0x3da5b84b	0.08091792
154	0xbd84d4ae	-0.06485878
155	0xbd706065	-0.05868568
156	0x3a8cef8f	0.0010752546
157	0x39c68146	0.0003786182
158	0x3e3e9bfd	0.18614192
159	0x3e25ee96	0.16204295
160	0xbde3c0c2	-0.1112075
161	0x3ae2ad6e	0.0017294118
162	0x3d8128a2	0.06306578
163	0xbdf19624	-0.11796215
164	0xbdca3cbd	-0.09874866
165	0x3d3c723a	0.046007372
166	0x3beec527	0.007286686
167	0x3e0b3319	0.13593711
168	0xbe15cab7	-0.14628111
169	0x3e0d649a	0.13807908
170	0xbe4c3c07	-0.19944774
171	0xbe13a90d	-0.14419957
172	0xb953ff59	-0.00020217652
173	0x3c6c05f0	0.0144057125
174	0x3e35be1b	0.177483
175	0xbb3f0764	-0.0029148692
176	0x3c9c61d4	0.019089617
177	0x3ca2b0a2	0.019859616
178	0x3e53941a	0.20661965
179	0x3db953c2	0.09049179
180	0xbd2ed7e4	-0.042686358
181	0xbd3c5b87	-0.045985725
182	0xbd2437fa	-0.040092446
183	0x3e035d65	0.12828596
184	0x3d91c601	0.071178444
185	0x3e7e43b7	0.24830519
186	0xbd88491e	-0.06654571
187	0xbddabac7	-0.10680156
188	0x3d10b8e6	0.035332583
189	0xbd6f9edc	-0.05850111
190	0x3d638ce2	0.05555428
191	0x3ed9438d	0.4243435
192	0x3c9d0d8b	0.019171497
193	0xbd98bef6	-0.07458298
194	0xbcad5ce7	-0.021162463
195	0x3c717db7	0.014739445
196	0x3e3e82f9	0.1860465
197	0xbc1964fc	-0.009362455
198	0x3e40ead3	0.18839578
199	0x3db61a27	0.08891707
200	0xbc3a0de4	-0.011355851
201	0xbd5d9bde	-0.054103725
202	0xbd5c65a0	-0.053807855
203	0xbe72d013	-0.23712187
204	0xbd130cdc	-0.035900936
205	0xbddffb0c	-0.10936555
206	0xbddb8f99	-0.107207485
207	0x3dcd5d84	0.10027602
208	0xbaf12c7a	-0.0018400096
209	0xbdc97991	-0.0983764
210	0xbd06ecb1	-0.03294057
211	0x3dc85cca	0.09783323
212	0xbe496576	-0.1966761
213	0x3ca08d3e	0.0195986
214	0xbdd18f94	-0.102324635
215	0xbdbecf8d	-0.09316931
216	0xbd047d82	-0.032346256
217	0xbb52e436	-0.0032179481
218	0xbe567deb	-0.20946471
219	0xbd9b62fd	-0.0758724
220	0xbd2be9ab	-0.04197089
221	0xbe25966b	-0.16170661
222	0xbd797071	-0.060898248
223	0x3e6dac23	0.23210196
224	0xbd71125a	-0.058855392
225	0xbcbb6538	-0.022875413
226	0xbda352bc	-0.07974765
227	0xbb8bd730	-0.0042675957
228	0xbd9b653b	-0.075876676
229	0x3b30858f	0.0026935076
230	0x3cabd379	0.020974861
231	0xbd1fcbc2	-0.039012678
232	0xbe57fe87	-0.21093188
233	0xbe0bf88f	-0.13669036
234	0x3d3c0cf7	0.0459108
235	0xbe3bcbf4	-0.1833952
236	0x3c9b90dc	0.018989973
237	0xbcc17e31	-0.023619743
238	0xbc143573	-0.009045946
239	0xbd46655a	-0.0484365
240	0xbe2570e5	-0.16156347
241	0x3e2fb2d5	0.17158063
242	0x3e0e14a2	0.13875058
243	0x3de2aa83	0.11067679
244	0x3d9d33ec	0.07675919
245	0x3dceaf87	0.10092073
246	0x3cc7771a	0.024348784
247	0x3bf7ce83	0.00756246
248	0x3ddad13a	0.10684438
249	0x3dca60bd	0.098817326
250	0x3caea3a1	0.021318259
251	0xbd7dfa51	-0.0620063
252	0xbde95566	-0.113932416
253	0x3bb024e7	0.005375493
254	0x3e44d0d1	0.19220282
255	0xbdfe42c8	-0.12415081

network_body._body_endoder.seq_layers.2.bias f4 [128]
0	0x3d626c1d	0.055278886
1	0x3ddf3d62	0.1090038
2	0xbdfcee71	-0.123501666
3	0xbda2792b	-0.07933267
4	0x3c761bc0	0.015021265
5	0xbe10d55b	-0.14143889
6	0x3e081298	0.13288343
7	0x3e0e20fd	0.13879772
8	0xbe1192d0	-0.14216161
9	0x3d8390d0	0.06424105
10	0x3e322b3f	0.1739931
11	0x3e1f3792	0.15548542
12	0xbe0c747f	-0.13716315
13	0x3e19baea	0.15012708
14	0xbe030a2a	-0.12796846
15	0x3df5ae4f	0.11996137
16	0xbe1f37dd	-0.15548654
17	0x3d72aaa1	0.059244756
18	0xbcb1747e	-0.021661993
19	0x3d803ba1	0.06261373
20	0x3e15bd2f	0.14622949
21	0x3e21f77e	0.15817067
22	0x3e0a97ef	0.1353452
23	0x3daac0ff	0.08337592
24	0xbcdf0f32	-0.027228925
25	0xbe1fd7e4	-0.156097
26	0xbe30a981	-0.1725216
27	0xbd6bd851	-0.057579342
28	0x3d8600be	0.0654311
29	0xbcfad435	-0.030618766
30	0xbdeb4064	-0.11486891
31	0x3ca7c307	0.020478738
32	0x3db5d2c6	0.088780925
33	0xbe0e97c5	-0.13925083
34	0x3e0a031f	0.13477753
35	0xbdd88c70	-0.10573661
36	0xbd068ca6	-0.032848977
37	0x3c0c97c5	0.008581107
38	0x3d86cb2a	0.06581719
39	0xbdaafb6a	-0.08348735
40	0xbe0d26b4	-0.13784295
41	0xbe25cce9	-0.16191448
42	0x3d79122f	0.060808357
43	0x3cbd912a	0.023140509
44	0x3e0b9227	0.13629971
45	0x3ddad804	0.10685733
46	0xbddd92df	-0.10819029
47	0x3dc8c824	0.09803799
48	0xbc7c33bf	-0.015393197
49	0xbdc31d67	-0.095270924
50	0xbda8289d	-0.08210871
51	0x3d98cc6a	0.07460864
52	0x3e1d739f	0.15376137
53	0xbdef6c08	-0.11690527
54	0xbbe3bb47	-0.0069498154
55	0x3e312e84	0.173029
56	0xbe2582d0	-0.16163182
57	0x3dec464d	0.11536846
58	0x3bdf326d	0.006811431
59	0x3e2cd4c1	0.16878034
60	0xbd758a40	-0.0599463
61	0x3e0edb79	0.1395091
62	0xbe4498cd	-0.19198914
63	0x3e372a72	0.17887285
64	0xbd95c31f	-0.07312607
65	0x3dcfd083	0.10147192
66	0xbcbe3622	-0.023219172
67	0x3e17712b	0.14789264
68	0x3e3f135c	0.18659729
69	0x3d07df12	0.03317172
70	0x3ccb39b3	0.024807787
71	0x3e19c57f	0.15016745
72	0xbd30aba3	-0.043132436
73	0x3cb01833	0.021495914
74	0xbe0d4e80	-0.13799477
75	0xbe01b73c	-0.12667555
76	0x3dce2285	0.10065178
77	0xbd9f98ba	-0.07792802
78	0x3d8c43fd	0.06848905
79	0x3e542118	0.2071575
80	0x3de5b5da	0.11216326
81	0x3da5be00	0.0809288
82	0x3cc053cb	0.023477456
83	0x3d98e90d	0.07466326
84	0x3bea671c	0.007153405
85	0x3d1b2fc5	0.037887353
86	0x3deed653	0.11661973
87	0x3d94cf08	0.072660506
88	0x3ca7c642	0.020480279
89	0xbd821989	-0.06352527
90	0x3db57ecc	0.08862075
91	0x3d80c2fa	0.06287189
92	0x3daa3436	0.0831074
93	0x3d87b075	0.066254534
94	0xbd49bca9	-0.049252186
95	0xbdf04ccb	-0.11733397
96	0x3daa08ea	0.083024815
97	0x3dd99df9	0.10625834
98	0x3ded53f3	0.11588278
99	0x3e295590	0.16536546
100	0xbdc2d6c0	-0.095136166
101	0xbe0f79ee	-0.14011356
102	0x3da99811	0.082809575
103	0x3d0d888d	0.034554053
104	0x3db7cb94	0.08974376
105	0xbd9a172a	-0.075239494
106	0xbe154dfa	-0.14580527
107	0xbe2a1ba4	-0.16612107
108	0xbe1ab141	-0.1510668
109	0x3ce3de85	0.027816067
110	0x3e036bed	0.12834139
111	0x3ce496f2	0.027904008
112	0x3c604dc7	0.013690419
113	0x3df283c2	0.11841537
114	0xbe13ad20	-0.1442151
115	0x3d6d94b3	0.05800314
116	0x3df754f2	0.12076749
117	0x3e1ccbc5	0.15312107
118	0xbdbc19eb	-0.09184631
119	0xbe24ea3c	-0.16104978
120	0x3d6accf0	0.05732435
121	0x3de5c4f0	0.112192035
122	0xbe2271cb	-0.15863721
123	0xbcbdd052	-0.023170624
124	0x3d8860e5	0.06659106
125	0x3cff06d9	0.031131195
126	0x3e27ac0e	0.16374227
127	0xbe30691e	-0.17227599

action_model._continuous_distribution.log_sigma f4 [1, 3]
0	0xbddad647	-0.106854014
1	0xbed0a709	-0.40752438
2	0xbd7322f7	-0.059359517

action_model._continuous_distribution.mu.weight f4 [3, 128]
0	0xbe321216	-0.17389712
1	0xbcdb8e12	-0.026801143
2	0xbd7fb396	-0.062427126
3	0xbdba8b37	-0.091085844
4	0x3d9dda1c	0.07707617
5	0xbd0806b3	-0.033209514
6	0x3dae5386	0.085120246
7	0xbc224538	-0.009904198
8	0xbcc48e8c	-0.023993753
9	0xbd8c9263	-0.068638586
10	0x3dc04c99	0.0938961
11	0x3ca3c558	0.019991562
12	0x3c9217ad	0.017833555
13	0x3dadcb47	0.08486038
14	0xbc725f42	-0.014793219
15	0x3bb12eb2	0.005407178
16	0xbd07423b	-0.033022147
17	0xbd05231e	-0.032504193
18	0x3d70095d	0.05860268
19	0xbd4b6445	-0.04965617
20	0xbc8ae614	-0.016955413
21	0x3ce69fcc	0.028152369
22	0x3d446997	0.04795226
23	0xbccc9f53	-0.024978315
24	0xbd3ed705	-0.046591777
25	0xbd57f741	-0.052726034
26	0xbcd0b59d	-0.025477225
27	0x3d41230d	0.047152568
28	0xbdb0e983	-0.08638289
29	0x3d36f8de	0.044670932
30	0xbd2eeb0d	-0.04270463
31	0xbd371b79	-0.044703934
32	0xbd256a67	-0.040384676
33	0xbce3f644	-0.02782739
34	0xbdbfbf95	-0.09362713
35	0xbc84e93f	-0.016224502
36	0xbe2f82ff	-0.17139815
37	0x3cb40488	0.021974817
38	0x3db7a569	0.08967096
39	0xbd445636	-0.04793378
40	0xbca6eb9f	-0.020376025
41	0xbd2c8b38	-0.042124957
42	0xbd7489f6	-0.059701882
43	0xbddee666	-0.10883789
44	0xbd85c420	-0.065315485
45	0xbde37db1	-0.11107958
46	0xbd83e6f8	-0.06440538
47	0x3d72e8d3	0.05930407
48	0x3dbf4519	0.09339351
49	0xbccdb001	-0.02510834
50	0xbd951959	-0.07280225
51	0xbd25adbe	-0.040448897
52	0x3de68c0e	0.11257182
53	0xbd194a66	-0.037424468
54	0xbd78b9d8	-0.06072411
55	0x3d48650e	0.0489245
56	0xbd0e2179	-0.03469989
57	0xbd86c915	-0.06581322
58	0xbd8e175a	-0.06938048
59	0x3d31fe7b	0.043455582
60	0xbe093dd4	-0.13402492
61	0xbd1b9360	-0.037982345
62	0xbd0a5317	-0.033770647
63	0x3e60b893	0.2194541
64	0x3ca91203	0.020638471
65	0xbcb56bee	-0.022146191
66	0xbdced7a4	-0.10099724
67	0x3cee79b0	0.02911076
68	0xbc72912d	-0.01480512
69	0x3df57a5b	0.11986228
70	0x3c40b87e	0.011762736
71	0xbd4633de	-0.04838931
72	0xbcbcf670	-0.02306673
73	0xbdf6fa74	-0.12059489
74	0xbccc2566	-0.024920177
75	0xbcdd6ea2	-0.027030293
76	0xbc19e1a8	-0.00939218
77	0xbd811548	-0.06302887
78	0xbdf9da28	-0.12199813
79	0x3d3b69a8	0.04575506
80	0x3dc36fec	0.09542832
81	0x3dd4eaf1	0.10396374
82	0xbc0a764f	-0.0084510585
83	0xbd96ca49	-0.073628016
84	0xbdb77ad4	-0.089589745
85	0xbe462a73	-0.1935213
86	0x3d2edc3e	0.042690508
87	0x3da980b8	0.08276504
88	0x3d33ae8d	0.043867636
89	0xbd313e83	-0.043272506
90	0xbde4c87e	-0.11171053
91	0xbdb55d59	-0.08855695
92	0x3d3646a5	0.044500966
93	0xbe21d737	-0.15804754
94	0x3ceef178	0.029167876
95	0x3c13c55e	0.009019224
96	0x3d7fd739	0.06246111
97	0xbc644024	-0.013931308
98	0xbca98439	-0.020692931
99	0x3cab589f	0.020916281
100	0xbcfff98e	-0.031246927
101	0xbd21d848	-0.039512902
102	0xbd2e2e22	-0.042524464
103	0xbc45e33f	-0.0120781055
104	0x38f763ab	0.000117964424
105	0xbe070b57	-0.1318792
106	0xbd23d94a	-0.040002145
107	0xbd89989d	-0.06718562
108	0xbd06442a	-0.03277985
109	0x3d2d720a	0.042345084
110	0xbb50d5a2	-0.0031865616
111	0xbc7a76a4	-0.015287075
112	0xbcaefa69	-0.02135964
113	0x3d388010	0.045044005
114	0xbd5f8cce	-0.05457764
115	0xbd0556fe	-0.032553665
116	0xbd744572	-0.05963654
117	0x3d20e34c	0.039279267
118	0xbd0fb7d8	-0.035087436
119	0xbcd1cecb	-0.025611302
120	0x3db8df08	0.09026915
121	0x3e150348	0.14552033
122	0xbd0080c1	-0.03137279
123	0xbda9348e	-0.08261977
124	0xbb4763c6	-0.003042446
125	0xbdabecde	-0.08394788
126	0x3e20c7c6	0.15701208
127	0xbc871934	-0.01649151
128	0xbb212388	-0.0024587829
129	0xbd72b46d	-0.0592541
130	0x3d83569d	0.064130045
131	0x3d94f8aa	0.072739914
132	0xbc13f0ac	-0.009029549
133	0x3dac2a5d	0.08406518
134	0xbd632031	-0.055450622
135	0xbd964499	-0.07337303
136	0x3e1035b2	0.14082983
137	0xbd3c3458	-0.045948356
138	0xbdef7f02	-0.11694147
139	0xbdf3c574	-0.119028956
140	0x3dc06453	0.09394135
141	0xbcfad0ef	-0.030617205
142	0x3e73b5a8	0.23799765
143	0xbdc1bc8b	-0.0945979
144	0x3e41d9e3	0.18930773
145	0xbd004694	-0.03131731
146	0x3c84db97	0.01621799
147	0xbd3bd75d	-0.045859683
148	0xbdaf9262	-0.08572842
149	0xbda9b211	-0.082859166
150	0xbdb1dd79	-0.08684821
151	0xbd713f8f	-0.058898505
152	0x3c2d0ed0	0.010562614
153	0x3e0b3f01	0.13598253
154	0x3e156b27	0.14591657
155	0x3cd03405	0.02541543
156	0xbd2a1f24	-0.041533604
157	0x3d01ddc7	0.031705644
158	0x3e01c617	0.12673222
159	0xbc2db584	-0.010602359
160	0xbd697017	-0.056991663
161	0x3e072420	0.13197374
162	0xbda82b7d	-0.0821142
163	0x3e0e7d32	0.13914946
164	0x3c4f33e3	0.012646648
165	0x3bdb64e2	0.006695376
166	0xbc8bfd0e	-0.01708844
167	0x3daccb23	0.08437183
168	0x3e13db22	0.14439061
169	0x3e731b14	0.23740798
170	0xbd2779e2	-0.04088772
171	0xbb9c0ec4	-0.0047625024
172	0xbda8bb60	-0.08238864
173	0xbdd107d0	-0.10206568
174	0x3d8805ec	0.066417545
175	0xbd449aa2	-0.04799903
176	0x3d548ca6	0.051891945
177	0x3d84626c	0.06464085
178	0x3cc6e7b8	0.024280414
179	0xbcf61ea9	-0.030043917
180	0xbdafbb05	-0.08580593
181	0x3d93473e	0.07191323
182	0x3bf998ec	0.0076171067
183	0xbdc3e52d	-0.09565196
184	0x3e0cb26e	0.1373994
185	0xbd75c38e	-0.06000095
186	0x3cb6f392	0.02233294
187	0xbdc0721d	-0.093967654
188	0x3d9f264a	0.07770975
189	0xbd8ccfbe	-0.06875561
190	0x3e1f0af8	0.15531528
191	0xbdfa79a5	-0.12230233
192	0x3d576826	0.052589558
193	0xbda04ca7	-0.0782712
194	0x3cc04c22	0.023473803
195	0xbdbf6c6e	-0.09346853
196	0xbdc15a3b	-0.09441038
197	0xbcc9c3a8	-0.024629429
198	0x3b80e508	0.0039335527
199	0xbdb459f6	-0.08806221
200	0x3c49580d	0.012289059
201	0x3c10043c	0.008790072
202	0x3d89b9a7	0.067248635
203	0x3da1ed26	0.079065606
204	0xbcf6ed50	-0.030142456
205	0x3c620f33	0.013797569
206	0xbda7cee4	-0.08193758
207	0xbe2ebeaa	-0.1706492
208	0xbcd02dd2	-0.025412474
209	0xbcb289bd	-0.021794194
210	0x3be593cb	0.0070061437
211	0xbd26bb62	-0.040706046
212	0x3c3599e5	0.011084055
213	0xbc6e4d9c	-0.014544871
214	0xbd976119	-0.07391567
215	0xbca8831b	-0.020570328
216	0x3c938a4e	0.018010285
217	0x3d21d736	0.03951188
218	0xbd31a09f	-0.04336607
219	0xbc960dd0	-0.018317133
220	0xbd0c200c	-0.03421025
221	0xbce78417	-0.028261228
222	0x3db81812	0.08988966
223	0x3e2ce2cb	0.1688339
224	0x3d052a0c	0.032510802
225	0xbd829ed1	-0.06377948
226	0xbd5c94ff	-0.05385303
227	0xbdc42332	-0.095770255
228	0x3ce7fe16	0.0283194
229	0x3e7b4b61	0.24540474
230	0xbd4e8422	-0.05041898
231	0x3d0f707a	0.035019375
232	0xbd0bd67e	-0.034140103
233	0xbb7cabb0	-0.0038554482
234	0x3e4da238	0.20081413
235	0x3e30e3bf	0.17274378
236	0x3e21cae5	0.15800054
237	0xbc85bfc1	-0.016326787
238	0xbd915e31	-0.07098044
239	0xbd0eb995	-0.034844954
240	0xbc189ff4	-0.00931548
241	0xbd343997	-0.044000234
242	0x3e057cad	0.13035841
243	0xbca9a552	-0.020708714
244	0xbd923820	-0.07139611
245	0xbd94b67f	-0.07261371
246	0x3d502e22	0.050825246
247	0x3e0278ef	0.12741445
248	0xbcd562fb	-0.026048174
249	0xbcb66fd7	-0.022270126
250	0x3ddd4aaf	0.108052604
251	0x3b6d221c	0.003618366
252	0xbcec9662	-0.028880302
253	0xbd320e88	-0.04347089
254	0xbdde2307	-0.10846525
255	0x3e26e186	0.16296968

action_model._continuous_distribution.mu.bias f4 [3]
0	0x3d0a8d16	0.033825956
1	0xbe24dc13	-0.16099577
2	0xbc2fd7bb	-0.0107325865

onnx::Div_51 f4 [7]
0	0x417075ff	15.028808
1	0x418fe6c2	17.987675
2	0x417c5fef	15.773421
3	0x41bd7cd4	23.685951
4	0x3b457e3d	0.0030135058
5	0x41bc407d	23.531488
6	0x41957c90	18.685822
