TWP_2/results/StaticDragDrop15/RobotArm/RobotArm-12200.pt (torch, 468574 bytes, 36 tensors)

network_body._body_endoder.seq_layers.0.weight f4 [128, 14]
-0.22256798 0.17230423 -0.12627023 -0.41940752 -0.28223643 -0.32159004 0.18540952 0.27460662
-0.01042385 0.22366804 0.6844252 -0.27152452 -0.36568597 0.30692884 -0.14314502 -0.22498487
-0.4977292 -0.13904367 -0.41246703 -0.06533705 0.13964052 -0.015608216 0.013605612 0.22193737
-0.040402863 -0.1849944 0.14954555 -0.06717089 -0.009068973 -0.1784235 -0.05631871 0.0052964306
-0.21886764 0.21627504 -0.24995871 -0.19379397 -0.034459274 0.12766843 -0.70911866 0.013871249
0.10524808 0.29102254 0.16791327 0.26514256 -0.46149823 0.2266466 0.29173952 -0.1153523
-0.03945953 -0.1793116 0.12839799 0.11512413 -0.16118182 0.0012630684 0.10376141 -0.18468592
-0.027997322 -0.428945 -0.012299014 -0.106204554 0.10563378 -0.26625606 -0.13100483 -0.06482474
-0.089491434 0.034220543 0.24735002 0.1149732 -0.007874685 -0.14352079 -0.31367722 0.29142338
-0.31342465 0.14968991 0.015734721 0.30989134 0.016589545 -0.15496384 -0.0997868 -0.19942053
-0.33831236 0.009373588 0.18853189 -0.17018169 0.0023084562 -0.19892778 -0.30482435 0.2326846
-0.35552776 -0.29868543 0.26739013 -0.12319536 0.45728424 0.2774683 0.3568284 0.08292468
0.16478863 -0.32525507 0.05658843 0.15074258 0.1467439 0.023236573 -0.39658704 0.50464
-0.07544166 -0.09564742 0.01739491 0.59713376 0.09131484 0.439837 -0.3129018 0.44158834
0.2223097 -0.017023565 0.08498647 0.33789763 0.94191736 -0.015782678 -0.113642894 0.17252539
-0.15191288 -0.40649205 0.08981696 0.10617872 0.5751027 0.11928356 -0.08381266 0.07430086
-0.38669908 0.6465749 0.18705784 0.06268445 0.039027162 0.048052084 0.14895791 -0.0026268202
-0.25150248 0.283984 0.37629408 -0.24505492 -0.059789922 0.1138293 0.19102976 -0.07297475
-0.08977357 -0.12901719 -0.32448873 -0.006628314 0.50015324 -0.4011567 -0.06322862 -0.04094165
0.33131662 -0.39862224 -0.01615486 -0.31340742 -0.36685115 0.13695312 0.07325951 0.2616865
0.59105456 -0.27908033 -0.01692995 0.017274277 -0.0017552879 0.42035484 0.20756087 -0.25587952
0.15102272 0.572493 -0.375543 0.2057508 -0.34341508 -0.028212765 0.5215495 0.10362238
0.07233225 -0.7536375 -0.31272092 -0.09495772 -0.29061997 0.10989446 0.17725438 -0.023235388
0.12044223 0.29292515 0.1539162 -0.08830886 -0.09473119 0.3351307 0.28783154 0.20975196
0.091145545 -0.056355875 0.050071344 0.0638615 0.16981338 -0.065613374 0.5230868 -0.0066789156
0.1668574 -0.17967191 -0.5208393 0.20577368 -0.2571099 0.18011984 -0.44058186 -0.12530005
0.1957277 -0.12832941 0.072031364 -0.4153314 -0.13836403 0.0879364 -0.51349914 -0.11405621
-0.109213986 -0.35875526 -0.29522315 0.38695613 0.110142924 0.21772945 0.06984236 0.27413848
-0.08249992 0.15627138 -0.58957356 0.5031833 0.3904516 -0.17929733 0.37397137 -0.053071957
-0.12580846 0.3165039 -0.12986116 -0.24641131 0.06913702 -0.30476555 -0.3212173 0.08725483
0.5638291 0.20413637 -0.14198364 -0.45035022 -0.14552292 -0.4992956 -0.2558065 -0.1805254
0.2763875 0.45946684 -0.21547428 -0.50223243 0.027472587 -0.0919189 0.18393636 0.4829234
00000000: dce8 63be 8570 303e fc4c 01be 95bc d6be
00000010: 4b81 90be 73a7 a4be fedb 3d3e 3d99 8c3e
00000020: ccc8 2abc 3c09 653e 7d36 2f3f 4305 8bbe
00000030: 313b bbbe c725 9d3e 9c94 12be 6f62 66be
00000040: 5dd6 febe 7761 0ebe e12e d3be 6ecf 85bd
00000050: edfd 0e3e 9ab9 7fbc 13ea 5e3c 8d43 633e
00000060: 797d 25bd 2c6f 3dbe 7822 193e e490 89bd
00000070: 0896 14bc a6b4 36be 73ae 66bd ae8d ad3b
00000080: d71e 60be 3477 5d3e 2df5 7fbe ed71 46be
00000090: 2b25 0dbd 83bb 023e cd88 35bf 3c44 633c
000000a0: 4e8c d73d e800 953e 75f1 2b3e c4c0 873e
000000b0: 7f49 ecbe 0c16 683e e25e 953e d43d ecbd
000000c0: 51a0 21bd 769d 37be c37a 033e 33c6 eb3d
000000d0: d90c 25be 8b8d a53a dd80 d43d 4e1e 3dbe
000000e0: a45a e5bc ae9e dbbe ce81 49bc c681 d9bd
000000f0: 8656 d83d b752 88be 2126 06be d5c2 84bd
00000100: 4947 b7bd d72a 0c3d 5349 7d3e 1277 eb3d
00000110: d304 01bc 1df7 12be 4d9a a0be 7235 953e
00000120: 3279 a0be 5048 193e 1ae6 803c 14aa 9e3e
00000130: cce6 873c d7ae 1ebe 065d ccbd e534 4cbe
00000140: 4737 adbe ad93 193c 810e 413e 1c44 2ebe
00000150: 7849 173b b9b3 4bbe f011 9cbe df44 6e3e
00000160: bc07 b6be 4ced 98be 5ce7 883e d94d fcbd
00000170: 2921 ea3e 5310 8e3e 36b2 b63e 6ad4 a93d
00000180: 5abe 283e d587 a6be 45c9 673d 435c 1a3e
00000190: 0844 163e a05a be3c 750d cbbe 1630 013f
000001a0: 2881 9abd cbe2 c3bd c57f 8e3c c2dd 183f
000001b0: 4603 bb3d 5132 e13e aa34 a0be de17 e23e
000001c0: 27a5 633e 0175 8bbc 630d ae3d eb00 ad3e
000001d0: 7f21 713f ad4a 81bc 9bbd e8bd 7faa 303e
000001e0: 0d8f 1bbe ba1f d0be f4f1 b73d 3b74 d93d
000001f0: ee39 133f f04a f43d f9a5 abbd 0d2b 983d
00000200: 6cfd c5be ef85 253f 178c 3f3e b460 803d
00000210: f2da 1f3d 43d2 443d 6c88 183e bb26 2cbb
00000220: efc4 80be 5a66 913e 9ea9 c03e adef 7abe
00000230: 47e6 74bd 561f e93d 4e9d 433e c973 95bd
00000240: 35db b7bd 151d 04be 6323 a6be 5432 d9bb
00000250: 0b0a 003f 6964 cdbe 027e 81bd 6eb2 27bd
00000260: 55a2 a93e 3718 ccbe 3257 84bc f076 a0be
00000270: ead3 bbbe 703d 0c3e 1509 963d c6fb 853e
00000280: 5a4f 173f 9ee3 8ebe aeb0 8abc c982 8d3c
00000290: b011 e6ba c038 d73e d68a 543e a402 83be
000002a0: b3a5 1a3e e78e 123f 2c47 c0be 56b0 523e
000002b0: 1ad4 afbe 751e e7bc 4584 053f f837 d43d
000002c0: ee22 943d 63ee 40bf f51c a0be 3179 c2bd
000002d0: 24cc 94be 5910 e13d 2c82 353e 2458 bebc
000002e0: 6aaa f63d 49fa 953e 359c 1d3e 47db b4bd
000002f0: 6d02 c2bd 4096 ab3e a85e 933e 38c9 563e
00000300: 84aa ba3d 6bd5 66bd 9c17 4d3d d1c9 823d
00000310: 8fe3 2d3e 4e60 86bd 04e9 053f ceda dabb
00000320: abdc 2a3e eafb 37be b955 05bf 56b6 523e
00000330: e9a3 83be 5671 383e f293 e1be a84e 00be
00000340: d86c 483e c968 03be 2e85 933d 51a6 d4be
00000350: 4daf 0dbe 0018 b43d ae74 03bf 4d96 e9bd
00000360: 95ab dfbd c5ae b7be 7d27 97be 1d1f c63e
00000370: 9d92 e13d 78f4 5e3e 8309 8f3d e15b 8c3e
00000380: b8f5 a8bd 9b05 203e 4bee 16bf 9fd0 003f
00000390: 46e9 c73e b899 37be 2d79 bf3e fb61 59bd
000003a0: efd3 00be cd0c a23e 53fa 04be 3f53 7cbe
000003b0: b697 8d3d 3b0a 9cbe 9876 a4be a9b2 b23d
000003c0: 1b57 103f 2009 513e 2964 11be 4e94 e6be
000003d0: f603 15be aca3 ffbe 12f9 82be a7db 38be
000003e0: aa82 8d3e 3d3f eb3e 4aa5 5cbe 4e92 00bf
000003f0: 310e e13c fa3f bcbd d059 3c3e bc41 f73e

network_body._body_endoder.seq_layers.0.bias f4 [128]
0.00012943463 -0.0002339841 -0.00013654717 -0.0012412516 4.6922636e-05 -0.0017507144 7.400547e-05 0.00034851834
-3.2036551e-09 2.3073419e-07 0.00017848804 3.8510054e-05 -4.6307738e-05 0.00017924845 2.1725002e-12 -0.00019608565
-0.00040746576 9.269238e-05 -7.4014206e-05 0.00025324317 -0.0008606637 0.00069510366 -0.0006154608 -0.00020083039
-6.07934e-05 -0.0009581429 9.614141e-05 -0.00031808883 -0.0013695272 -0.00033623714 -0.00018820421 -0.00028151684
-0.00067458244 -0.0008794256 0.0002228584 -0.00023594261 3.2105163e-10 -0.0012837137 3.6613228e-13 -5.3693268e-05
0.0009775276 -1.2329376e-07 -1.5383024e-05 -0.0001337311 -0.00016006292 -0.0007769165 -8.4376494e-05 -0.0011032094
-0.0012627112 0.0004009821 -0.0028158298 -0.0012659193 -0.00031773656 -2.8338853e-05 -7.163107e-22 -0.0004756904
-0.00058812357 0.0005573069 -0.0014952458 -0.0010737157 0.0002375651 -0.0001137538 0.0012978794 -0.0008111364
-0.0008867931 -0.00039246262 0.0005053392 -0.00019342141 0.00056265603 0.00016296044 -0.00028562 -0.0003818425
1.9921408e-05 -0.00037222964 0.00023042178 -0.00016081601 -0.00042228482 4.1410745e-05 -6.33065e-05 -0.0018737973
-5.785607e-06 -0.00049968495 -0.00047270366 -0.00038863605 -0.00017083772 -0.00024838804 -4.209046e-05 -0.00081694213
-0.00039219589 -0.00041723272 8.745888e-05 0.0003117881 0.00034268113 -3.0479784e-23 0.00013718213 2.0940289e-13
-1.1730516e-16 9.1600945e-05 -0.0010445123 -0.001908024 -0.0006831624 3.153722e-07 -0.00040560443 0.00031878683
3.4120625e-05 -0.0015111718 -0.0010643698 -0.00017986279 -0.0010378672 -0.00012234904 -0.00022436817 -0.00014946755
0.000288708 -0.00018157566 -0.00020840194 -0.0001952191 -0.00043450165 -0.00083779753 -0.00015066206 0.0006059799
-0.00029480888 -0.001308219 0.0014341531 -0.0002853157 0.00031626227 0.0006821422 -0.00023047451 -0.00040237242
00000000: d8b8 0739 a159 75b9 1a2e 0fb9 7eb1 a2ba
00000010: ccce 4438 3a78 e5ba 6233 9b38 57b9 b639
00000020: 4c27 5cb1 bbbf 7734 8528 3b39 db85 2138
00000030: 8e3a 42b8 a4f4 3b39 49e0 182c 579c 4db9
00000040: 21a1 d5b9 d863 c238 1338 9bb8 b9c5 8439
00000050: 2a9e 61ba 9e37 363a e056 21ba ff95 52b9
00000060: 6bfc 7eb8 e22b 7bba 879f c938 29c5 a6b9
00000070: b581 b3ba fc48 b0b9 af58 45b9 8d98 93b9
00000080: 76d6 30ba 4189 66ba 19af 6939 5d67 77b9
00000090: 0080 b02f 4942 a8ba 391d ce2a b534 61b8
000000a0: 6220 803a bb62 04b4 cb0a 81b7 2b3a 0cb9
000000b0: 90d6 27b9 fca9 4bba 49f3 b0b8 9199 90ba
000000c0: 8f81 a5ba e83a d239 c989 38bb 34ed a5ba
000000d0: e195 a6b9 39b9 edb7 db7d 589c 1666 f9b9
000000e0: 4e2c 1aba 3c18 123a 20fc c3ba ecbb 8cba
000000f0: e51a 7939 1b8f eeb8 9b1d aa3a 71a2 54ba
00000100: ad77 68ba 71c3 cdb9 bd78 043a 2ad1 4ab9
00000110: 357f 133a 5ce0 2a39 44bf 95b9 0832 c8b9
00000120: e61c a737 d127 c3b9 609d 7139 b8a0 28b9
00000130: 1c66 ddb9 73b0 2d38 6bc3 84b8 349a f5ba
00000140: fc21 c2b6 4afd 02ba 36d5 f7b9 d9c1 cbb9
00000150: e722 33b9 143a 82b9 4a8a 30b8 0f28 56ba
00000160: a49f cdb9 07c0 dab9 216a b738 7e77 a339
00000170: e2a9 b339 2564 139a 8cd8 0f39 46c4 6b2a
00000180: 5f3e 07a5 e219 c038 04e8 88ba a916 faba
00000190: 4116 33ba 6d50 a934 4ea7 d4b9 d822 a739
000001a0: be1c 0f38 8312 c6ba 5382 8bba 8d99 3cb9
000001b0: 0b09 88ba d24a 00b9 5f44 6bb9 64ba 1cb9
000001c0: bb5d 9739 5865 3eb9 7886 5ab9 bab3 4cb9
000001d0: d3cd e3b9 a49f 5bba 0afb 1db9 9fda 1e3a
000001e0: 9490 9ab9 8c78 abba 31fa bb3a 6d96 95b9
000001f0: 01d0 a539 cad1 323a 88ab 71b9 83f5 d2b9

network_body._body_endoder.seq_layers.2.weight f4 [128, 128]
0.066208646 0.0036153512 0.048672505 -0.04878204 -0.056531563 0.009430136 -0.035533637 0.15177117
0.08074987 -0.00087170687 0.014101919 -0.058542978 -0.07758391 0.11151864 0.017839985 0.1176864
-0.048117626 -0.09187237 0.030477908 0.039034758 -0.08841946 0.02405046 0.012924764 0.029924052
0.0039624823 0.013608696 -0.113612466 0.1803987 -0.08326505 -0.09735892 -0.030613363 0.22993964
-0.053848345 0.09653262 0.10776857 -0.17748725 0.075231716 -0.118863896 0.048435293 0.02426904
0.0402187 -0.058642603 -0.12937972 0.16967364 -0.082036 -0.058166154 0.018073572 0.026732873
-0.069153115 -0.081951395 0.017531753 0.19952427 -0.024683962 -0.07238122 -0.13350968 0.0034032643
0.070335485 -0.25549638 -0.13401914 0.016270611 -0.0058730473 -0.02113857 -0.06796082 0.23644921
-0.021385277 0.20137362 -0.053778116 -0.060269687 0.0012959616 -0.023882952 -0.03674935 -0.06617152
-0.045813754 0.10752239 -0.011719445 -0.09484755 0.17472911 0.038970865 -0.028432071 0.12822448
-0.005616377 0.053745024 -0.015474351 -0.042735722 0.0024312239 -0.04998676 0.117782414 -0.21280156
-0.07358385 0.016142657 0.014539458 -0.019134745 0.04584335 -0.033712488 -0.106774256 -0.032617927
0.02930864 0.016403876 -0.13097169 -0.06983208 -0.038183875 0.04651383 0.089171365 0.030495457
0.11652777 0.18164973 -0.070205994 -0.035651162 0.0027838068 0.100674644 0.04756684 -0.108319774
-0.058988165 0.03140099 -0.08861713 0.07324264 -0.01775246 0.23081496 -0.062077273 -0.04834328
-0.1395372 0.101451285 -0.05561476 0.0720845 -0.0370309 0.010350961 -0.082037985 -0.08850841
-0.20129383 0.042878587 0.044070154 -0.028693018 0.09444064 0.011385752 -0.18358079 -0.054578084
-0.010477166 0.057174817 0.14324711 -0.10157189 0.051368337 0.09254893 -0.08774256 0.11677751
0.025095563 -0.037311625 0.05360934 -0.13294804 -0.032025456 0.022601955 -0.12032729 -0.041592725
-0.22691548 0.029400224 -0.09397141 0.02888948 0.04441216 -0.03065002 0.051008027 0.18795368
-0.16149586 0.008862152 -0.006542247 0.14247726 0.057663653 0.054561857 -0.11830028 0.07656955
0.057741456 0.060946286 -0.014672142 -0.023457494 0.08928644 0.05446365 -0.13588728 0.01941714
0.09226159 -0.06879947 0.1609618 -0.0005529557 0.07081615 0.04434942 0.09736828 0.08167907
-0.15879673 -0.099062726 -0.032393504 -0.02101103 0.04986984 -0.007496175 0.001413212 -0.09221557
-0.047909215 -0.097497195 0.09777444 -0.11020956 0.039616223 0.0075433375 -0.10655046 -0.0019896708
-0.14018264 -0.18570662 -0.09965801 0.103953816 -0.047911204 0.021217199 0.00020363025 -0.10136657
0.046512205 0.13400082 0.063223004 -0.0067087514 0.007468137 -0.016794145 -0.17818527 -0.034329735
0.0008789592 -0.04428064 0.13434875 -0.22946452 -0.13305882 0.073364526 0.017601963 0.0431036
-0.08597623 0.0057064574 0.046665564 0.16325593 0.063117065 0.0016073595 0.06286023 0.028335296
-0.015232118 -0.07347317 -0.029871745 0.15972276 -0.12605074 -0.17824604 -0.06918893 0.035471223
-0.06631648 0.014047331 -0.051206253 0.19024932 -0.022727253 -0.09474614 0.13871257 -0.007849569
0.16454695 -0.078239605 -0.1284066 -0.032659166 0.16444811 -0.0030708848 -0.08590911 -0.20429465
00000000: 6698 873d 87ef 6c3b d25c 473d adcf 47bd
00000010: a48d 67bd db80 1a3c b88b 11bd e769 1b3e
00000020: 3060 a53d 4283 64ba bc0b 673c c3ca 6fbd
00000030: 50e4 9ebd e263 e43d 2925 923c 9105 f13d
00000040: fd16 45bd 9527 bcbd ceac f93c e9e2 1f3d
00000050: 4315 b5bd 7805 c53c 64c2 533c 4923 f53c
00000060: b6d7 813b 02f7 5e3c a7ad e8bd 70ba 383e
00000070: de86 aabd 1d64 c7bd e0c8 fabc 4c75 6b3e
00000080: 1590 5cbd e5b2 c53d c5b5 dc3d 38bf 35be
00000090: 1613 9a3d ea6e f3bd 1664 463d decf c63c
000000a0: 5dbc 243d 3a33 70bd 1e7c 04be edbe 2d3e
000000b0: 7e02 a8bd a23f 6ebd 070f 943c e6fe da3c
000000c0: 26a0 8dbd 22d6 a7bd c09e 8f3c 1750 4c3e
000000d0: 0536 cabc 9b3c 94bd c3b6 08be 4d09 5f3b
000000e0: 0d0c 903d 6cd0 82be 503c 09be f249 853c
000000f0: b172 c0bb cb2a adbc 0b2f 8bbd be1f 723e
00000100: 2d30 afbc e334 4e3e 7146 5cbd 59dd 76bd
00000110: 41dd a93a 2ea6 c3bc 7d86 16bd ef84 87bd
00000120: 34a7 3bbd b334 dc3d ea02 40bc 6f3f c2bd
00000130: 30ec 323e ea9f 1f3d 60ea e8bc 474d 033e
00000140: 9609 b8bb be23 5c3d 2288 7dbc a70b 2fbd
00000150: 2b55 1f3b ebbe 4cbd e837 f13d a7e8 59be
00000160: 21b3 96bd 9b3d 843c e836 6e3c 78c0 9cbc
00000170: 3dc6 3b3d 1b16 0abd 76ac dabd 609a 05bd
00000180: ac18 f03c 6c61 863c 711d 06be 1f04 8fbd
00000190: b266 1cbd 4985 3e3d 7a9f b63d 9cd1 f93c
000001a0: 1da6 ee3d 6302 3a3e 29c8 8fbd f406 12bd
000001b0: 8770 363b 822e ce3d 72d5 423d c2d6 ddbd
000001c0: 939d 71bd 539e 003d e67c b5bd 3d00 963d
000001d0: 9b6d 91bc c25a 6c3e bd44 7ebd 9a03 46bd
000001e0: d7e2 0ebe b1c5 cf3d 4dcc 63bd 0aa1 933d
000001f0: b7ad 17bd 1497 293c 8803 a8bd e643 b5bd
00000200: f81f 4ebe 75a1 2f3d e882 343d 9f0d ebbc
00000210: 186a c13d 4e8b 3a3c 9afc 3bbe 458d 5fbd
00000220: 6ba8 2bbc 2430 6a3d 5faf 123e ec04 d0bd
00000230: 9b67 523d 4b8a bd3d 5fb2 b3bd 0c29 ef3d
00000240: 3695 cd3c 13d4 18bd 7895 5b3d 8823 08be
00000250: 202d 03bd bc27 b93c 276e f6bd 225d 2abd
00000260: 885c 68be bdd8 f03c 1574 c0bd a1a9 ec3c
00000270: 86e9 353d c015 fbbc cbed 503d ee76 403e
00000280: 2c5f 25be 8f32 113c 5860 d6bb 8fe5 113e
00000290: b930 6c3d 417c 5f3d 6b47 f2bd 7fd0 9c3d
000002a0: 4e82 6c3d d0a2 793d 6d63 70bc ee29 c0bc
000002b0: cfdb b63d 4715 5f3d 0926 0bbe b210 9f3c
000002c0: a5f3 bc3d bde6 8cbd 2cd3 243e 3bf4 10ba
000002d0: 0f08 913d bda7 353d 0569 c73d 5b47 a73d
000002e0: 9c9b 22be 66e1 cabd 0daf 04bd 531f acbc
000002f0: 5144 4c3d 79a2 f5bb 873b b93a 84db bcbd
00000300: 743c 44bd 9cac c7bd f73d c83d 8db5 e1bd
00000310: 9f44 223d 1a2e f73b 2137 dabd 2365 02bb
00000320: 0a8c 0fbe e029 3ebe 8019 ccbd bde5 d43d
00000330: 8a3e 44bd b1cf ad3c 9485 5539 4799 cfbd
00000340: 9583 3e3d 8337 093e 107b 813d 16d5 dbbb
00000350: 46b7 f43b e093 89bc 3376 36be 569d 0cbd
00000360: f469 663a 9e5f 35bd b892 093e bff8 6abe
00000370: 9240 08be 2440 963d fe31 903c 678d 303d
00000380: 4e14 b0bd 3cfd ba3b 6424 3f3d 902c 273e
00000390: 8543 813d 09ae d23a ddbc 803d 6c1f e83c
000003a0: 2290 79bc 1a79 96bd 97b5 f4bc 5d8e 233e
000003b0: 7213 01be 2186 36be edb2 8dbd 464a 113d
000003c0: efd0 87bd c726 663c a6bd 51bd b8d0 423e
000003d0: 812e babc 440a c2bd ab0a 0e3e 7b9b 00bc
000003e0: ff7e 283e 163c a0bd 057d 03be 9ec5 05bd
000003f0: 1665 283e e640 49bb 1ef1 afbd 9e32 51be

network_body._body_endoder.seq_layers.2.bias f4 [128]
-1.1831237e-05 0.00033317975 -0.00039228206 0.00010571012 -7.171992e-05 -6.243048e-05 2.1278077e-10 -0.00062234787
8.226145e-08 0.00040473303 -1.7277595e-12 0.00032500213 -0.000543549 -4.9403407e-05 -0.00087871484 0.00073485094
0.00051635655 -2.633723e-05 0.00033500785 -0.0011789923 -0.00014020888 -0.0005118159 -0.001332541 -0.0002681842
-0.0017827915 0.0001086188 -3.995149e-05 3.013638e-11 -7.761545e-05 7.2594285e-06 2.4867671e-14 -2.7958999e-05
-0.00010519622 -0.0007543969 -0.0012710766 2.6339512e-05 -0.0006538451 5.1138937e-12 -0.00013456654 2.6196474e-07
-0.0013110157 -0.00029555208 -0.00054114853 -0.00042452282 -0.0007082867 -0.00014006734 -0.000114087816 -0.00033826535
-0.00057646615 1.3646279e-05 1.0560568e-06 0.0003146678 1.4914394e-05 -0.0001577844 -0.00031891547 0.00025930826
-3.5437836e-06 -9.032395e-05 -2.7930545e-11 -0.0004000429 -0.00052175036 -0.00023325882 0.00037505297 -0.0013885478
-0.00034224262 -8.945056e-05 -0.0012677016 0.000422656 0.0002595652 -0.00022769022 -0.000100420926 -0.0013844966
0.0005192941 -0.00021768868 6.131373e-05 -0.0015941691 5.4484175e-05 -0.00018533638 -3.6593206e-17 2.4132432e-05
-0.00049748825 -2.2951703e-08 0.000795293 1.5899896e-20 -0.0017532249 -9.360804e-05 -0.00064866303 -0.0006870108
-3.714269e-05 0.00016171845 -0.00012437973 6.4225965e-06 1.740964e-09 -0.0007946298 -0.0003725611 -0.00013891673
-0.0008079618 9.846626e-10 -0.00010970365 -0.0002818475 -2.4775563e-05 -0.00071601337 9.831502e-06 -3.4229853e-07
-0.00011164815 1.2599877e-05 -0.00034176998 0.00032647498 -0.0003191473 1.4164526e-05 -0.00077107875 -4.0560197e-05
-0.0011869626 -0.0010729125 -0.00033129024 4.36459e-05 0.00085295236 -6.877165e-05 0.0003106149 -2.253718e-13
-0.00048814516 -0.002506152 -0.00014506897 -0.00010983826 -0.00022095264 -7.841206e-05 -1.8451643e-11 -8.25944e-05
00000000: c77e 46b7 a1ae ae39 35ab cdb9 b0b0 dd38
00000010: 5768 96b8 1ced 82b8 76f4 692f 0f25 23ba
00000020: b6a7 b033 5932 d439 1929 f3ab 0c65 aa39
00000030: f57c 0eba 8136 4fb8 8e59 66ba 03a3 403a
00000040: 1a5c 073a c5ee dcb7 fea3 af39 6b88 9aba
00000050: 0905 13b9 622b 06ba a8a8 aeba 139b 8cb9
00000060: 8eac e9ba 46ca e338 9691 27b8 8c8a 042e
00000070: 7ac5 a2b8 0496 f336 f2fc df28 7e89 eab7
00000080: ca9c dcb8 b8c2 45ba 419a a6ba acf3 dc37
00000090: cd66 2bba dced b32c 6e1a 0db9 29a4 8c34
000000a0: 63d6 abba 54f4 9ab9 dddb 0dba 7d92 deb9
000000b0: 51ac 39ba 0adf 12b9 6e42 efb8 3559 b1b9
000000c0: fd1d 17ba 52f2 6437 d6bd 8d35 fff9 a439
000000d0: d638 7a37 ed72 25b9 1c34 a7b9 c4f3 8739
000000e0: bdd1 6db6 4d6c bdb8 ffad f5ad d9bc d1b9
000000f0: 13c6 08ba f096 74b9 c2a2 c439 efff b5ba
00000100: 076f b3b9 6797 bbb8 0229 a6ba ee97 dd39
00000110: 4016 8839 21c0 6eb9 1399 d2b8 ff77 b5ba
00000120: 3d21 083a 5c43 64b9 8f95 8038 70f3 d0ba
00000130: f085 6438 db56 42b9 a2c1 28a4 0170 ca37
00000140: df69 02ba 5427 c5b2 367b 503a 972b 961e
00000150: 77cc e5ba 6f4f c4b8 0a0b 2aba 8418 34ba
00000160: a9c9 1bb8 f792 2939 ee6b 02b9 af81 d736
00000170: ba46 ef30 b44e 50ba 4e54 c3b9 2daa 11b9
00000180: 66cd 53ba bc54 8730 b310 e6b8 eec4 93b9
00000190: 1ed5 cfb7 d8b2 3bba fbf1 2437 27c5 b7b4
000001a0: a524 eab8 0f64 5337 972f b3b9 bb2a ab39
000001b0: 3a53 a7b9 2da4 6d37 3822 4aba 2e1f 2ab8
000001c0: db93 9bba f8a0 8cba 06b1 adb9 6e10 3738
000001d0: aa98 5f3a 8039 90b8 07da a239 00bf 7daa
000001e0: bced ffb9 413e 24bb a81d 18b9 f858 e6b8
000001f0: 86af 67b9 2771 a4b8 684d a2ad 8836 adb8

action_model._continuous_distribution.log_sigma f4 [1, 3]
0.0048027206 0.004179105 0.005643002
00000000: 2460 9d3b e0f0 883b efe8 b83b

action_model._continuous_distribution.mu.weight f4 [3, 128]
-0.012091586 -0.016979897 0.017836707 -0.02133551 -0.03052821 -0.016966933 -0.003866114 0.028327107
0.011130598 0.012086707 -0.009686484 0.006276286 0.00090970023 -0.016248843 0.011253906 0.008421358
0.0072536934 0.006284221 -0.005653729 0.0038445424 0.0007538193 0.0024408954 0.0008179788 -0.019568276
-0.032718822 0.008412905 -0.028605195 -0.022591462 -0.03919345 0.0010708896 0.0016123172 0.026036466
0.025591467 0.0120108295 0.005445161 -0.021706073 -0.0011749252 -0.0034735377 0.012774352 -0.012740716
0.001338299 -0.017528705 0.007076734 0.018778006 -0.004664241 0.026740286 -0.014135219 0.0163736
0.007972912 -0.019162761 0.00043369824 7.260822e-05 -0.03149535 -0.028564105 0.02310761 0.0021728438
-0.017800726 0.0045775604 0.0035842578 0.028031735 0.01657211 -0.01002472 -0.0083023915 0.0061805192
0.0019302992 0.026997188 0.0012563849 -0.009305782 -0.023623316 0.0018391893 0.012646236 0.0045843455
0.0038145678 -0.012749419 0.024406284 0.011787974 -0.011119788 -0.013479483 -0.02968733 -0.010587033
0.0015978215 -0.0008645475 0.013237636 0.0055160047 -0.020762607 -0.008889677 0.010522858 -0.014825087
-0.027552532 -0.023827601 -0.016671875 0.004002117 -0.01250651 0.02008187 0.022295099 -0.014887592
-0.009838994 0.019016288 0.00022518644 0.029757485 0.018708484 0.036368504 -0.0064301384 0.00015441443
-0.0003638493 -0.021046573 -0.014639217 -0.02446724 -0.004099854 0.009338653 0.00941243 0.010206153
-0.0170551 -0.008398192 0.0060947444 -0.008658897 -0.020166524 -0.020387646 0.0071442514 0.011024157
0.045831107 0.01155342 0.0045578885 0.030792316 0.004613968 0.026104823 -0.0069934307 5.095074e-05
-0.010505354 -0.020817133 -0.0019720593 0.014230975 -0.03499796 -0.028762657 -0.0029281462 0.019127978
-0.0028375501 0.006137732 -0.016498802 -0.008650264 -0.003713108 0.0077975392 0.0030905392 0.0034003903
-0.0121249175 -0.014168646 0.020717572 0.00021420594 -0.009181471 -0.0058401567 0.019929582 0.0007292009
-0.0015132771 0.01942269 -0.0028199253 0.033271216 -0.005866105 0.0011133985 0.006131995 0.008174838
-0.005875113 0.0067723813 -0.00072772586 0.012068619 -0.0004704366 0.019894218 -0.0043161996 0.008133859
-0.028962726 0.0016280962 -0.002318118 -0.014753009 -0.010284735 -0.004418686 -0.0038245085 0.009113527
-0.011005599 0.010351304 -0.026940374 -0.03907542 0.0074222493 0.008457647 -0.007200318 -0.009917881
0.024549335 0.024676112 -0.01801056 -0.017711021 -0.013514635 0.0067444267 -0.026147462 -0.0037814355
0.012415555 -0.03255921 -0.0065920204 0.030734872 -0.0047348766 0.0031851672 0.002774294 0.0027909419
0.018766504 -0.0147568 -0.024581049 -0.00881894 0.01658807 -0.0022414108 -0.007157667 0.010979835
-0.01592264 0.025856499 -0.046736058 0.022516329 -0.012527203 0.010731574 0.007957101 -0.0037562582
-0.0016306232 -0.0071230275 -0.010877968 -0.008477453 0.013485492 -0.0040640556 0.019959383 0.0062836753
0.00487721 0.002595062 -0.017078089 -0.008191082 0.023979072 -0.027280152 0.007076452 -0.0035537237
-0.0018365247 -0.0013008706 -0.009011149 0.03260749 -0.01026047 0.021708803 0.015732935 0.0001730204
0.012362803 -0.0013508336 0.009103209 -0.042595666 -0.017413631 -0.0046782685 -0.018563867 -0.024177626
0.019877844 0.008219785 0.012185744 -0.002134078 0.0025467668 0.0018049902 -0.0144296475 0.009536514
00000000: ca1b 46bc 6d19 8bbc 491e 923c cfc7 aebc
00000010: 4c16 fabc 3dfe 8abc a15e 7dbb 400e e83c
00000020: 1d5d 363c 5307 463c 0fb4 1ebc 4ea9 cd3b
00000030: f378 6e3a 4b1c 85bc 4e62 383c bcf9 093c
00000040: 64b0 ed3b deeb cd3b eb42 b9bb b8f4 7b3b
00000050: f59b 453a 6ef7 1f3b a16d 563a a64d a0bc
00000060: 2c04 06bd 48d6 093c 7155 eabc bb11 b9bc
00000070: 5089 20bd 185d 8c3a 6354 d33a 6d4a d53c
00000080: 32a5 d13c 12c9 443c 526d b23b efd0 b1bc
00000090: f3ff 99ba 4ba4 63bb 844b 513c 70be 50bc
000000a0: dd69 af3a 5c98 8fbc f3e3 e73b 55d4 993c
000000b0: 7dd6 98bb 720e db3c 6897 67bc ee21 863c
000000c0: d1a0 023c 39fb 9cbc fe61 e339 3e45 9838
000000d0: 4501 01bd 45ff e9bc 2c4c bd3c 4566 0e3b
000000e0: d4d2 91bc 5cff 953b dee5 6a3b cfa2 e53c
000000f0: 3cc2 873c b93e 24bc c106 08bc f485 ca3b
00000100: 1802 fd3a 3529 dd3c 48ad a43a 4777 18bc
00000110: af85 c1bc f410 f13a 2932 4f3c 4738 963b
00000120: d4fd 793b f0e2 50bc b0ef c73c 5922 413c
00000130: c52f 36bc 0dd9 5cbc d832 f3bc 3c75 2dbc
00000140: fe6d d13a cda2 62ba abe2 583c 9abf b43b
00000150: 5816 aabc 02a6 11bc 1168 2c3c ece4 72bc
00000160: d9b5 e1bc 1a32 c3bc 7593 88bc 3124 833b
00000170: 1be8 4cbc bc82 a43c 36a4 b63c 16eb 73bc
00000180: bb33 21bc 0cc8 9b3c 0620 6c39 f8c5 f33c
00000190: 8942 993c 24f7 143d e9b3 d2bb 4fea 2139
000001a0: 07c3 beb9 dd69 acbc 54d9 6fbc 856f c8bc
000001b0: 1158 86bb 2601 193c 9836 1a3c b537 273c
000001c0: 23b7 8bbc 9298 09bc 6cb6 c73b 0cde 0dbc
000001d0: 4434 a5bc fe03 a7bc 531a ea3b aa9e 343c
000001e0: 66b9 3b3d 8e4a 3d3c 575a 953b 2b40 fc3c
000001f0: c530 973b c8d9 d53c 2629 e5bb f1b3 5538
00000200: a61e 2cbc b188 aabc aa3d 01bb 0929 693c
00000210: 055a 0fbd aa9f ebbc 24e6 3fbb 47b2 9c3c
00000220: 31f6 39bb 071f c93b 7f28 87bc d6b9 0dbc
00000230: 9d57 73bb 8082 ff3b a58a 4a3b 15d9 5e3b
00000240: 97a7 46bc 9c23 68bc e6b7 a93c 789c 6039
00000250: e16d 16bc c95e bfbb 5d43 a33c d827 3f3a
00000260: 2759 c6ba 551c 9f3c 7fce 38bb 6647 083d
00000270: 7538 c0bb 74ef 913a e7ee c83b c1ef 053c
00000280: 0584 c0bb daea dd3b dbc4 3eba 75bb 453c
00000290: eea4 f6b9 33f9 a23c e86e 8dbb e143 053c
000002a0: 3d43 edbc d865 d53a 91eb 17bb 9bb6 71bc
000002b0: 4e81 28bc a0ca 90bb 9ba4 7abb e750 153c
000002c0: d450 34bc 8498 293c 0fb2 dcbc 8c0d 20bd
000002d0: 5736 f33b f191 0a3c a5f0 ebbb 9c7e 22bc
000002e0: b01b c93c 8f25 ca3c e28a 93bc b416 91bc
000002f0: 7d6c 5dbc 5a00 dd3b 3433 d6bc f6d1 77bb
00000300: 9d6a 4b3c ce5c 05bd e001 d8bb b3c7 fb3c
00000310: 0627 9bbb 3dbe 503b eed0 353b 3ce8 363b
00000320: 36bc 993c 81c6 71bc 325e c9bc 517d 10bc
00000330: b4e3 873c a2e4 12bb dd8a eabb c4e4 333c
00000340: 3270 82bc 02d1 d33c 4f6e 3fbd 2a74 b83c
00000350: e63e 4dbc 7cd3 2f3c 805e 023c 8e2b 76bb
00000360: a3ba d5ba 4968 e9bb 8139 32bc 04e5 0abc
00000370: 41f2 5c3c c52b 85bb dc81 a33c 4ae7 cd3b
00000380: 01d1 9f3b ea11 2a3b 59e7 8bbc e333 06bc
00000390: c26f c43c a07a dfbc 95e1 e73b 97e5 68bb
000003a0: 8bb7 f0ba f981 aaba 80a3 13bc 6e8f 053d
000003b0: 881b 28bc a9d6 b13c 5be2 803c cf6c 3539
000003c0: 5b8d 4a3c 740e b1ba a025 153c cb78 2ebd
000003d0: 08a7 8ebc 294c 99bb 4013 98bc 2810 c6bc
000003e0: dcd6 a23c 47ac 063c b7a6 473c e3db 0bbb
000003f0: a8e7 263b 6c95 ec3a 546a 6cbc 0a3f 1c3c

action_model._continuous_distribution.mu.bias f4 [3]
-4.9441833e-06 -0.00021769153 6.225789e-05
00000000: 36e6 a5b6 2044 64b9 7390 8238

exp_avg f4 [128, 14]
0.00047202237 0.0005068825 -0.00047418842 0.0 -3.4095685e-06 4.4893186e-05 -0.0006479833 0.0004681996
0.00051520375 -0.00047066182 0.0 -3.032351e-06 3.9926035e-05 -0.0006361361 0.0076492513 2.4930304e-07
-0.0027972744 0.0 -0.0002592397 0.0034133263 -0.011386299 0.007658057 -9.785762e-07 -0.0028097732
0.0 -0.00025924182 0.0034133538 -0.011398801 -0.009065033 -0.00045956523 0.0036997416 0.0
0.00029876875 -0.0039337873 0.013574821 -0.0090705585 -0.00047661984 0.0037045449 0.0 0.00029819732
-0.0039262655 0.013567304 -3.1939497e-05 6.201436e-05 1.3840144e-05 0.0 5.5483256e-06 -7.3053016e-05
0.000116583 -3.326073e-05 5.9564813e-05 1.55234e-05 0.0 5.5480955e-06 -7.304995e-05 0.000116853946
-0.00014762505 -5.0824616e-05 5.2551353e-05 0.0 3.7383472e-06 -4.9221537e-05 0.0002071545 -0.00014774782
-5.0948038e-05 5.264987e-05 0.0 3.7383509e-06 -4.922157e-05 0.00020733452 -1.8297543e-06 4.1917588e-07
1.4843054e-07 0.0 9.653698e-08 -1.2710673e-06 2.9590947e-06 -1.8508008e-06 3.9970217e-07 1.4818859e-07
0.0 9.653695e-08 -1.2710669e-06 2.9756238e-06 0.000413189 -0.0001073445 0.00022660515 0.0
-4.9147534e-06 6.4711414e-05 -0.00026446118 0.00041501236 -0.00011968846 0.00022566985 0.0 -4.8808415e-06
6.4265514e-05 -0.00027071987 -0.00014576018 0.001012948 -0.0005397419 0.0 3.8184447e-05 -0.00050276116
0.00038125852 -0.0001598551 0.00097537617 -0.0005343146 0.0 3.610619e-05 -0.00047539634 0.00034876907
2.8335595e-18 -8.624392e-16 -1.7609687e-18 0.0 -4.8885577e-17 6.436601e-16 -1.0648829e-15 -4.2263085e-18
-2.7287133e-14 1.0674273e-17 0.0 -1.6167502e-15 2.1287192e-14 -3.4186965e-14 -4.2586794e-14 -3.7171394e-11
-1.8523234e-13 0.0 -2.1154487e-12 2.7853409e-11 -4.5897803e-11 2.1995176e-13 -3.656168e-11 -2.384371e-13
0.0 -2.1069353e-12 2.7741316e-11 -4.5486358e-11 -1.4735831e-15 1.9013991e-13 6.9593683e-16 0.0
1.0774074e-14 -1.4185865e-13 2.355528e-13 -2.472669e-15 -2.4344373e-09 -6.2032546e-13 0.0 -1.2959078e-10
1.7062778e-09 -2.9400957e-09 0.0017528855 0.0012386363 -0.0013871546 0.0 1.0623848e-05 -0.00013988091
-0.0019606794 0.0017338593 0.0012156849 -0.001382498 0.0 1.0623848e-05 -0.00013988091 -0.0019522203
-0.0003422451 3.1175732e-05 0.00022804615 0.0 1.701186e-05 -0.00022398875 0.0007306738 -0.00033509196
-1.1338177e-05 0.0002292607 0.0 1.5387159e-05 -0.00020259731 0.00068148493 -7.5524013e-06 0.00012658245
4.7898275e-06 0.0 7.73691e-06 -0.000101869344 0.00016675571 -8.508378e-06 0.00014703198 5.6848353e-06
0.0 9.1491975e-06 -0.00012046451 0.00019494431 -1.0098089e-27 3.4305254e-27 7.8118935e-28 0.0
2.5878345e-28 -3.40732e-27 5.7380868e-27 -1.0345651e-27 -4.8138222e-17 -3.2757658e-20 0.0 -2.3761828e-18
3.128637e-17 -5.673636e-17 0.0020965831 0.00011916689 -0.0009957189 0.0 -4.6905614e-05 0.0006175904
-0.0028478154 0.0020965212 0.00010235498 -0.0009948523 0.0 -4.724149e-05 0.0006220123 -0.0028592043
0.00041073037 -0.0012602395 0.00043586697 0.0 -7.6898614e-05 0.0010124979 -0.0011351964 0.00043918978
-0.0012512819 0.0004272398 0.0 -7.6898614e-05 0.0010124979 -0.0011613853 0.005617937 -0.00076507113
-0.0021264341 0.0 -0.00027907125 0.0036744385 -0.009623756 0.0056606345 -0.0007323736 -0.0021456815
0.0 -0.00027907125 0.0036744385 -0.009660961 -5.0754085e-17 4.4554697e-17 2.4397075e-17 0.0
00000000: c579 f739 4fe0 043a 7e9c f8b9 0000 0000
00000010: f1cf 64b6 b14b 3c38 6cdd 29ba b078 f539
00000020: bd0e 073a 29c3 f6b9 0000 0000 657f 4bb6
00000030: 4176 2738 5fc2 26ba 92a6 fa3b f3d7 8534
00000040: 7a52 37bb 0000 0000 90ea 87b9 1db2 5f3b
00000050: 998d 3abc 70f0 fa3b 9f57 83b5 2c24 38bb
00000060: 0000 0000 d9ea 87b9 93b2 5f3b 09c2 3abc
00000070: 8185 14bc cdf1 f0b9 5d77 723b 0000 0000
00000080: 10a4 9c39 00e7 80bb ed68 5e3c ae9c 14bc
00000090: d5e2 f9b9 f3c7 723b 0000 0000 5e57 9c39
000000a0: e7a7 80bb 6649 5e3c c6f6 05b8 b50d 8238
000000b0: f732 6837 0000 0000 c12b ba36 0a34 99b8
000000c0: 067e f438 7081 0bb8 3bd5 7938 3f38 8237
000000d0: 0000 0000 c729 ba36 6532 99b8 7c0f f538
000000e0: cccb 1ab9 842c 55b8 966a 5c38 0000 0000
000000f0: 51e0 7a36 3973 4eb8 9d37 5939 c1ec 1ab9
00000100: 0ab1 55b8 5ed4 5c38 0000 0000 61e0 7a36
00000110: 4273 4eb8 f067 5939 e195 f5b5 180b e134
00000120: 4760 1f34 0000 0000 c44f cf33 8a99 aab5
00000130: dc94 4636 0869 f8b5 a696 d634 c51d 1f34
00000140: 0000 0000 c04f cf33 8799 aab5 d4b0 4736
00000150: 4aa1 d839 241e e1b8 db9c 6d39 0000 0000
00000160: 69e9 a4b6 adb5 8738 61a7 8ab9 0496 d939
00000170: 4101 fbb8 caa1 6c39 0000 0000 1cc6 a3b6
00000180: 49c6 8638 68ef 8db9 33d7 18b9 e5c4 843a
00000190: 777d 0dba 0000 0000 3d28 2038 bbcb 03ba
000001a0: a7e3 c739 c79e 27b9 63b0 7f3a 3f11 0cba
000001b0: 0000 0000 ba70 1738 9e3e f9b9 feda b639
000001c0: 6d14 5122 c894 78a6 c2ef 01a2 0000 0000
000001d0: e771 61a4 bc85 3926 3f77 99a6 5bec 9ba2
000001e0: d8c7 f5a8 d4e7 4423 0000 0000 8eff e8a6
000001f0: ecbc bf28 e3f6 19a9 3bcb 3fa9 457b 23ae
00000200: 968d 50aa 0000 0000 89dc 14ac 4d00 f52d
00000210: 55dc 49ae c7a4 772a cbcc 20ae 683a 86aa
00000220: 0000 0000 2c43 14ac e403 f42d 160d 48ae
00000230: 9f5d d4a6 1914 562a 1397 4826 0000 0000
00000240: a516 4228 f9b7 1faa bc9a 842a b12c 32a7
00000250: 134b 27b1 299b 2eab 0000 0000 907c 0eaf
00000260: 5082 ea30 b60a 4ab1 14c1 e53a bd59 a23a
00000270: 2fd1 b5ba 0000 0000 143d 3237 ffac 12b9
00000280: be7e 00bb aa42 e33a 9e57 9f3a ef34 b5ba
00000290: 0000 0000 143d 3237 ffac 12b9 a5e1 ffba
000002a0: 5c6f b3b9 b0c2 0238 ac1f 6f39 0000 0000
000002b0: b1b4 8e37 86de 6ab9 b08a 3f3a 48af afb9
000002c0: 1939 3eb7 b365 7039 0000 0000 ac13 8137
000002d0: 4d70 54b9 aea5 323a a26a fdb6 38bb 0439
000002e0: 4eb8 a036 0000 0000 c7cd 0137 b0a2 d5b8
000002f0: 25db 2e39 35bf 0eb7 992c 1a39 5dc0 be36
00000300: 0000 0000 817f 1937 e4a1 fcb8 f769 4c39
00000310: b702 a092 a9e5 8713 9c91 7712 0000 0000
00000320: 0406 a411 54fa 8693 1d4f e313 f2ee a392
00000330: 95ff 5da4 94b1 1a9f 0000 0000 d354 2fa2
00000340: 6d48 1024 3cd3 82a4 d466 093b 3de9 f938
00000350: c882 82ba 0000 0000 85bc 44b8 cae5 213a
00000360: 6aa2 3abb ca65 093b 69a7 d638 b465 82ba
00000370: 0000 0000 2a25 46b8 8a0e 233a 7d61 3bbb
00000380: 4c57 d739 9f2e a5ba 1385 e439 0000 0000
00000390: a144 a1b8 cbb5 843a dfca 94ba 0e43 e639
000003a0: 0e02 a4ba 28ff df39 0000 0000 a144 a1b8
000003b0: cbb5 843a a039 98ba ac16 b83b 0e8f 48ba
000003c0: a55b 0bbb 0000 0000 4f50 92b9 d9ce 703b
000003d0: f5ac 1dbc d87c b93b c3fc 3fba 909e 0cbb
000003e0: 0000 0000 4f50 92b9 d9ce 703b 0249 1ebc
000003f0: d90f 6aa4 e778 4d24 f705 e123 0000 0000

exp_avg_sq f4 [128, 14]
1.4735824e-05 6.430263e-07 2.1672179e-06 0.0 3.9373163e-08 6.8257773e-06 4.4950804e-05 1.4987245e-05
6.5679376e-07 2.2003755e-06 0.0 3.937306e-08 6.82576e-06 4.5241886e-05 0.00017061822 1.7963266e-06
2.7863509e-05 0.0 2.8289372e-07 4.9042777e-05 0.00043784163 0.00017234478 1.7992875e-06 2.8139e-05
0.0 2.8289097e-07 4.9042283e-05 0.0004406692 6.2909356e-05 1.7321842e-06 1.213878e-05 0.0
6.945254e-08 1.2040368e-05 0.00014674732 6.303955e-05 1.60132e-06 1.2186243e-05 0.0 7.3982086e-08
1.2825616e-05 0.00015133496 1.6897383e-09 5.7281763e-08 1.7576929e-10 0.0 2.4864238e-10 4.3104922e-08
1.15282745e-07 1.9813626e-09 5.548236e-08 2.0476412e-10 0.0 2.486559e-10 4.310725e-08 1.15246245e-07
4.04301e-07 8.336163e-08 1.235171e-07 0.0 2.8210248e-10 4.8905598e-08 9.68926e-07 4.0501254e-07
8.3684675e-08 1.2389584e-07 0.0 2.8210126e-10 4.890538e-08 9.70681e-07 1.4698198e-11 1.4605128e-12
8.668997e-14 0.0 5.9538325e-14 1.0321633e-11 4.3203257e-11 1.5275252e-11 1.355484e-12 9.006526e-14
0.0 5.953832e-14 1.0321633e-11 4.4000716e-11 5.3432646e-05 3.7611926e-06 6.3276766e-06 0.0
1.7279972e-07 2.9956745e-05 0.00017352807 5.460484e-05 3.5205144e-06 6.4549295e-06 0.0 1.7280355e-07
2.9957424e-05 0.00017525489 4.4215813e-05 1.0574307e-06 6.72928e-06 0.0 1.0678436e-07 1.8512257e-05
0.00013063462 4.493432e-05 1.0569695e-06 6.8241184e-06 0.0 1.0516216e-07 1.8231027e-05 0.00013025013
9.7635615e-34 1.2365335e-30 1.4920884e-34 0.0 4.186723e-33 7.2581515e-31 1.9562677e-30 1.538258e-33
4.387654e-26 3.1295136e-34 0.0 1.3637751e-28 2.3642551e-26 6.601704e-26 8.740161e-25 4.0982346e-22
6.0307436e-26 0.0 1.4058394e-24 2.4371786e-22 6.6358444e-22 1.1598269e-24 4.0677157e-22 8.7027264e-26
0.0 1.4361758e-24 2.48977e-22 6.7095006e-22 1.3298268e-30 1.2841399e-26 1.4658955e-31 0.0
4.126986e-29 7.154589e-27 1.9675413e-26 2.5791386e-30 1.208693e-16 2.2815023e-25 0.0 3.7629214e-19
6.523444e-17 1.8196659e-16 3.574102e-05 9.861429e-07 6.877066e-06 0.0 6.789773e-08 1.1770826e-05
9.850617e-05 3.61611e-05 9.682336e-07 6.9471016e-06 0.0 6.789773e-08 1.1770826e-05 9.915855e-05
3.5673667e-05 2.229764e-06 4.3912087e-06 0.0 1.1622015e-07 2.014806e-05 0.00011724778 3.64914e-05
2.208187e-06 4.4822045e-06 0.0 1.17402806e-07 2.0353073e-05 0.00011923307 3.3938294e-10 9.5135935e-09
5.013761e-11 0.0 4.1661403e-11 7.222468e-09 1.9566997e-08 3.8892994e-10 1.2277572e-07 5.6618675e-11
0.0 3.959891e-10 6.86491e-08 1.9047073e-07 0.0 0.0 0.0 0.0
0.0 0.0 0.0 0.0 3.130982e-31 6.89728e-40 0.0 9.749238e-34
1.690139e-31 4.7139284e-31 3.0028676e-05 6.54136e-07 5.1113825e-06 0.0 6.010974e-08 1.0420694e-05
8.2839484e-05 3.0413968e-05 5.8260684e-07 5.1672814e-06 0.0 5.989655e-08 1.0383731e-05 8.341115e-05
6.4780834e-05 1.5106168e-06 1.0079006e-05 0.0 1.5071024e-07 2.6127293e-05 0.00019002413 6.5792236e-05
1.4360319e-06 1.0211777e-05 0.0 1.5071024e-07 2.6127293e-05 0.00019153937 7.78226e-05 1.4797442e-06
1.1652429e-05 0.0 1.8722437e-07 3.2457425e-05 0.00022659151 7.913675e-05 1.3734101e-06 1.1831746e-05
0.0 1.8722437e-07 3.2457425e-05 0.00022864247 4.08231e-33 3.947612e-32 7.3110427e-34 0.0
00000000: e239 7737 6e9c 2c35 8570 1136 0000 0000
00000010: 401b 2933 fb08 e536 8f89 3c38 ba71 7b37
00000020: 864e 3035 2aaa 1336 0000 0000 231b 2933
00000030: d508 e536 1bc2 3d38 fbe7 3239 5019 f135
00000040: 6ebc e937 0000 0000 9ee0 9734 48b3 4d38
00000050: 1c8e e539 73b7 3439 0c7f f135 0b0c ec37
00000060: 0000 0000 3de0 9734 c0b2 4d38 9e09 e739
00000070: 34ee 8338 657d e835 aaa7 4b37 0000 0000
00000080: f025 9533 fd00 4a37 2fe0 1939 1a34 8438
00000090: f0ec d635 8473 4c37 0000 0000 15e0 9e33
000000a0: 9a2d 5737 abaf 1e39 623c e830 f705 7633
000000b0: a842 412f 0000 0000 4eb1 882f 5d22 3933
000000c0: 5c91 f733 8028 0831 804b 6e33 fa23 612f
000000d0: 0000 0000 35b3 882f ec24 3933 4b7d f733
000000e0: b50e d934 8a04 b333 1fa0 0434 0000 0000
000000f0: 6516 9b2f 460c 5233 0b0c 8235 8070 d934
00000100: 23b6 b333 3b08 0534 0000 0000 3916 9b2f
00000110: 090c 5233 5848 8235 6649 812d 858c cd2b
00000120: 5e35 c329 0000 0000 8211 8629 8194 352d
00000130: 8b02 3e2e cf5c 862d 75c4 be2b 16cf ca29
00000140: 0000 0000 8111 8629 8194 352d 6784 412e
00000150: de1c 6038 cc68 7c36 5452 d436 0000 0000
00000160: d38a 3934 9f4b fb37 16f5 3539 8007 6538
00000170: fa41 6c36 6c97 d836 0000 0000 e18b 3934
00000180: 144d fb37 a0c4 3739 5e74 3938 0bed 8d35
00000190: 13cc e136 0000 0000 5351 e533 c54a 9b37
000001a0: f7fa 0839 dc77 3c38 32dd 8d35 bbfa e436
000001b0: 0000 0000 82d5 e133 d5ee 9837 c193 0839
000001c0: 9939 a208 98a3 c80d 2355 4607 0000 0000
000001d0: e0e8 ad09 5d8a 6b0d 17b6 1e0e 4296 ff08
000001e0: 1f44 5915 eafd cf07 0000 0000 08e1 2c11
000001f0: fd24 ea14 4573 a315 583f 8717 1cb9 f71b
00000200: 6150 9515 0000 0000 098b d917 8351 931b
00000210: 5c8e 481c 7a79 b317 dae0 f51b 1578 d715
00000220: 0000 0000 c93c de17 537f 961b 3fc8 4a1c
00000230: d8c6 d70d a159 7e14 bc48 3e0c 0000 0000
00000240: 5743 5110 13b6 0d14 19db c214 9d3e 510e
00000250: 525a 0b25 d937 8d16 0000 0000 a91f de20
00000260: 9e6b 9624 0fcb 5125 a1e8 1538 9d5b 8435
00000270: 8cc1 e636 0000 0000 2ccf 9133 507b 4537
00000280: 1995 ce38 afab 1738 41f4 8135 261b e936
00000290: 0000 0000 2ccf 9133 507b 4537 57f3 cf38
000002a0: 4fa0 1538 0ea3 1536 3258 9336 0000 0000
000002b0: b494 f933 a103 a937 ece2 f538 580e 1938
000002c0: 5d30 1436 d865 9636 0000 0000 e01e fc33
000002d0: e4bb aa37 c40c fa38 e793 ba2f 3a71 2332
000002e0: ee81 5c2e 0000 0000 923a 372e 8029 f831
000002f0: 4814 a832 06d1 d52f 55d4 0334 f602 792e
00000300: 0000 0000 83b2 d92f 3e6c 9333 3284 4c34
00000310: 0000 0000 0000 0000 0000 0000 0000 0000
00000320: 0000 0000 0000 0000 0000 0000 0000 0000
00000330: 5d36 cb0c ae82 0700 0000 0000 acfc a108
00000340: 8064 5b0c c9f9 180d 17e6 fb37 e297 2f35
00000350: 7182 ab36 0000 0000 ae15 8133 8ad4 2e37
00000360: 1cba ad38 8021 ff37 7064 1c35 9c62 ad36
00000370: 0000 0000 7aa0 8033 c935 2e37 05ed ae38
00000380: f2da 8738 66c0 ca35 0019 2937 0000 0000
00000390: ead2 2134 ef2b db37 3741 4739 f0f9 8938
000003a0: aebd c035 4053 2b37 0000 0000 ead2 2134
000003b0: ef2b db37 f5d7 4839 b134 a338 a09b c635
000003c0: cd7e 4337 0000 0000 d807 4934 e522 0838
000003d0: 3299 6d39 38f6 a538 0356 b835 f680 4637
000003e0: 0000 0000 d807 4934 e522 0838 bfbf 6f39
000003f0: 9192 a909 c4f8 4c0b 79f3 7208 0000 0000

exp_avg f4 [128]
-1.0107924e-06 -8.6414e-05 9.9399105e-05 1.8493648e-06 1.2461176e-06 3.2178967e-08 -1.6269559e-06 1.2035367e-05
-5.389169e-16 -7.0231164e-13 -4.3196936e-11 3.5413277e-06 5.1290526e-06 3.0497326e-06 -7.9206106e-19 -1.5747159e-05
-2.563287e-05 -9.302376e-05 -1.4689711e-11 4.0278173e-05 3.6462824e-10 -1.2162142e-06 7.0097994e-06 -2.6381347e-05
3.8860785e-06 2.6070597e-09 -7.1534385e-05 1.2815107e-10 1.8737186e-05 -2.2269312e-06 1.5685588e-05 -3.29317e-06
2.5068457e-05 7.2131593e-06 -8.183632e-06 -3.5914735e-07 5.9587074e-16 2.4727174e-07 -8.377325e-19 4.8958194e-05
2.2381178e-05 9.912021e-14 -9.241594e-05 -7.361519e-08 -1.3662047e-06 4.8622067e-05 8.7407e-05 2.666171e-06
1.5814734e-05 2.1299546e-07 -6.708601e-06 1.5312426e-05 5.4118947e-05 -6.3107866e-05 -8.150824e-27 -8.619579e-06
-2.156085e-06 -6.1184253e-09 2.0782777e-06 2.6244115e-06 4.7346057e-05 -2.9924835e-05 -1.0832302e-06 1.280067e-06
1.7791463e-06 -1.0657739e-05 1.1047297e-06 -3.5769423e-05 1.8670577e-06 -1.25883425e-05 0.00013894841 2.3013245e-05
-6.787209e-05 -3.6812613e-05 -1.2457817e-05 6.584032e-06 -9.1544484e-07 9.0892376e-05 -8.1055725e-05 1.2206469e-07
5.176479e-06 -8.580599e-07 4.2867134e-05 -6.598466e-05 -2.6496631e-05 -4.4107903e-05 4.7092243e-08 -2.2262428e-05
-3.078596e-06 8.918907e-05 -7.3466406e-05 -1.1007282e-05 -0.00012013123 -3.5755328e-28 -0.00013510839 2.592652e-18
-9.221733e-23 5.8077883e-05 2.681062e-06 -1.7577224e-05 3.3596575e-06 5.21261e-14 2.2256043e-05 1.400551e-07
-1.6596416e-10 1.565302e-08 3.3660324e-06 1.6796783e-05 3.192272e-10 2.3891985e-06 4.7411845e-08 -6.150481e-06
0.00014850301 2.8243549e-05 1.1459229e-08 8.471963e-05 -1.6388336e-05 1.548446e-07 2.5545218e-05 3.6267032e-08
3.5284768e-06 3.3958906e-05 -7.744525e-07 7.827778e-05 -1.8553545e-05 6.473244e-09 7.929389e-05 1.00646575e-05
00000000: 90aa 87b5 2a39 b5b8 7d74 d038 b137 f835
00000010: 4640 a735 2635 0a33 c75d dab5 82eb 4937
00000020: 0c55 1ba6 e3ae 45ab 6dfb 3dae 8ca7 6d36
00000030: 3a1a ac36 02aa 4c36 71c6 69a1 c418 84b7
00000040: 2b06 d7b7 c015 c3b8 4a36 81ad 5cf0 2838
00000050: dd74 c82f cd3c a3b5 b835 eb36 834d ddb7
00000060: 2965 8236 e127 3331 bb04 96b8 52e7 0c2f
00000070: cd2d 9d37 6372 15b6 8b94 8337 3b00 5db6
00000080: 1a4a d237 9108 f236 6f4c 09b7 d6d0 c0b4
00000090: 80bf 2b26 c5c0 8434 4741 77a1 7658 4d38
000000a0: 37bf bb37 e932 df29 6ecf c1b8 6116 9eb3
000000b0: 705e b7b5 8cef 4b38 474e b738 78ec 3236
000000c0: e2a9 8437 bfb3 6434 721a e1b6 2f73 8037
000000d0: c7fd 6238 c758 84b8 9671 2194 cf9c 10b7
000000e0: 42b1 10b6 3d3a d2b1 8a78 0b36 0c1f 3036
000000f0: 7195 4638 1807 fbb7 8263 91b5 c4ce ab35
00000100: 00cb ee35 a4ce 32b7 3946 9435 2007 16b8
00000110: 9d97 fa35 8532 53b7 aeb2 1139 910c c137
00000120: 8d56 8eb8 3e67 1ab8 eb01 51b7 67ec dc36
00000130: e4bc 75b5 799d be38 76fc a9b8 e310 0334
00000140: 9eb1 ad36 6d55 66b5 3ccc 3338 3f61 8ab8
00000150: 1545 deb7 8000 39b8 7842 4a33 33c0 bab7
00000160: e099 4eb6 040b bb38 fa11 9ab8 ebab 38b7
00000170: f7ee fbb8 56a0 e291 e2ab 0db9 d04d 3f22
00000180: c3f7 de9a a798 7338 4bec 3336 cd72 93b7
00000190: 7a76 6136 4dc1 6a29 7db2 ba37 0e62 1634
000001a0: c27a 36af 5b75 8632 ffe3 6136 d1e6 8c37
000001b0: 3c7f af2f 1e56 2036 e0a1 4b33 3b60 ceb6
000001c0: 79b7 1b39 8fec ec37 39de 4432 81ab b138
000001d0: af79 89b7 5c43 2634 f049 d637 06c4 1b33
000001e0: c5ca 6c36 196f 0e38 f8e3 4fb5 1029 a438
000001f0: 6fa3 9bb7 426b de31 954a a638 60db 2837

exp_avg_sq f4 [128]
4.3747854e-09 3.143232e-08 8.220229e-09 2.7628429e-11 3.134457e-11 6.615371e-15 1.92004e-08 1.1684686e-08
1.5153051e-29 1.5957505e-25 4.1810245e-20 7.544193e-09 1.3044754e-08 4.3998777e-11 1.083249e-34 6.655172e-09
1.6745586e-08 2.0802705e-08 2.5238193e-20 3.4628052e-09 4.0750606e-18 2.0303427e-11 9.358602e-10 1.8545682e-08
1.9234593e-10 1.7042743e-17 8.6023295e-09 2.76387e-19 1.115278e-09 6.961276e-10 8.645031e-08 2.3944146e-08
2.1059536e-09 1.6156654e-10 3.8827945e-09 6.926993e-09 2.7178185e-29 5.173738e-11 6.192263e-38 1.1652852e-08
1.5520197e-09 6.0672586e-26 1.442489e-08 3.9968015e-14 2.038162e-08 2.9663703e-09 2.3131165e-08 2.1292358e-10
7.1887346e-10 1.2285177e-13 2.526804e-10 3.4796976e-10 4.7523154e-09 3.6747394e-08 0.0 1.9629764e-10
1.0183161e-11 8.0493573e-16 9.2942485e-12 6.743646e-12 3.255845e-09 5.1131486e-09 6.191221e-11 2.047209e-11
4.0280052e-10 2.0682018e-09 2.9601273e-11 7.1351844e-09 3.4513177e-11 1.4788634e-08 2.5797878e-08 1.1278205e-09
3.3588545e-08 4.8631317e-09 5.301727e-09 4.5170108e-08 1.9921294e-11 2.1176147e-08 2.0607855e-08 9.0730874e-15
3.5374086e-08 1.8676423e-12 2.6117408e-09 1.8949851e-08 1.3534579e-08 4.5471918e-08 2.9008547e-14 1.1032491e-08
2.6281652e-09 7.675003e-09 3.4795946e-08 8.714699e-09 2.9678475e-08 0.0 2.4701855e-08 9.7804366e-36
1.15e-43 5.1492597e-09 1.1787857e-10 2.9804106e-10 2.5408409e-09 1.5391659e-24 2.8053163e-08 4.9177546e-13
1.2887793e-19 4.595336e-14 4.1072666e-11 5.090886e-09 1.3011612e-17 1.1539314e-09 3.5960733e-15 1.2955108e-09
2.2895028e-08 1.0896615e-08 1.137739e-15 1.869241e-08 4.3421555e-09 1.4109363e-13 3.096555e-08 2.1456393e-15
2.5659088e-09 1.1358837e-09 5.4338326e-11 2.147829e-08 2.6726646e-10 9.085519e-15 9.253066e-09 1.963436e-10
00000000: 0551 9631 3400 0733 f338 0d32 b105 f32d
00000010: d9da 092e 0758 ee27 20ee a432 cbbd 4832
00000020: 92ab 990f 5a8b 4516 7c71 451f b69b 0132
00000030: 6f1b 6032 3882 412e 0efd 0f07 83ab e431
00000040: efd7 8f32 a2b1 b232 355e ee1e 50f6 6d31
00000050: dc57 9622 4197 b22d a79f 8030 634e 9f32
00000060: 917c 532f 0a31 9d23 72c9 1332 6c26 a320
00000070: 5b48 9930 a059 3f30 8fa6 b933 bcad cd32
00000080: 54b8 1031 f0a4 312f 6c69 8531 7a02 ee31
00000090: 4dcf 0910 1c8b 632e c691 a801 c931 4832
000000a0: d74e d530 d237 9615 56d1 7732 fcff 3329
000000b0: a813 af32 f0d8 4b31 f8b1 c632 a91c 6a2f
000000c0: 399a 4530 9d51 0a2a 9be9 8a2f 644c bf2f
000000d0: cf49 a331 30d4 1d33 0000 0000 e0d4 572f
000000e0: e124 332d c601 6826 9381 232d 5d45 ed2c
000000f0: 6ebd 5f31 bbaf af31 7a25 882e 0c13 b42d
00000100: 2271 dd2f 3120 0e31 1230 022e bf29 f531
00000110: 62ca 172e 1a11 7e32 229a dd32 a801 9b30
00000120: ff42 1033 8f18 a731 7c2a b631 0f01 4233
00000130: c43a af2d d7e6 b532 2705 b132 3b72 2328
00000140: 38ee 1733 746c 032c 3b7a 3331 2ac7 a232
00000150: b585 6832 e74c 4333 94a4 0229 6989 3d32
00000160: 2c9b 3431 05db 0332 8c72 1533 a7b7 1532
00000170: a8ef fe32 0000 0000 f42f d432 c301 5005
00000180: 5200 0000 5eed b031 de9b 012f 8dd9 a32f
00000190: f29a 2e31 a52c ee17 8ff9 f032 286c 0a2b
000001a0: f726 1820 9ef4 4e29 b6a3 342e e8eb ae31
000001b0: 9a05 7023 5a98 9e30 ec8f 8127 bc0d b230
000001c0: b3aa c432 d233 3b32 29f7 a326 0b91 a032
000001d0: 0132 9531 78db 1e2a fbfe 0433 0f9c 1a27
000001e0: f253 3031 5b1d 9c30 84fb 6e2e 427f b832
000001f0: 69ee 922f 90ab 2328 6af7 1e32 cfe1 572f
