TWP_2/results/StaticDragDrop28/RobotArm.onnx (onnx, 77046 bytes, 9 tensors)

network_body.observation_encoder.processors.0.normalizer.running_mean f4 [7]
0	0xc0afbd2e	-5.491843
1	0x41f80905	31.004404
2	0xc07f559f	-3.989601
3	0x410abf3d	8.671689
4	0x403f0a3b	2.9849994
5	0xc1efebba	-29.9901
6	0x41fbec50	31.490387

network_body._body_endoder.seq_layers.0.weight f4 [128, 7]
0	0x3ec30237	0.38087627
1	0xbdc9bb4c	-0.09850177
2	0x3edcc923	0.43122205
3	0xbe00cbaf	-0.12577699
4	0xbf1c4551	-0.6104327
5	0x3945685e	0.00018826264
6	0xbdf87277	-0.121312074
7	0x3f612255	0.8794301
8	0x3ec85830	0.39129782
9	0xbe878180	-0.26465988
10	0x3e3dc891	0.18533541
11	0x3f380bf0	0.71893215
12	0x3e8c76c3	0.27434358
13	0x3e145cf1	0.1448858
14	0x3f136798	0.57579947
15	0xbdf9b8c3	-0.121934436
16	0x3edfc011	0.43701223
17	0x3f37808c	0.7168052
18	0x3cf60acb	0.030034443
19	0xbe921a3d	-0.28535643
20	0x3e959047	0.29211637
21	0xbecbb67c	-0.39787662
22	0xbf25abf8	-0.6471553
23	0xbdc94837	-0.09828227
24	0xbd22f0db	-0.03978048
25	0x3eb3c704	0.35112774
26	0xbf174f2d	-0.5910519
27	0x3e356ad3	0.17716531
28	0x3f734188	0.9502187
29	0xbe0733a6	-0.13203296
30	0xbe429c7f	-0.19005011
31	0x3dbd6c13	0.09249129
32	0xbf3bb1cb	-0.73318166
33	0x3ebdba11	0.3705602
34	0xbc65f28d	-0.014034879
35	0xbf0f7822	-0.56042683
36	0x3d51c27d	0.05121087
37	0x3f0056c8	0.5013242
38	0x3f251c19	0.64496
39	0xbddf2665	-0.10895995
40	0x3e1416e2	0.14461854
41	0x3de8cdf3	0.11367407
42	0x3bf4392a	0.0074531035
43	0x3ea0b72b	0.31389746
44	0xbeeba132	-0.4602142
45	0x3f0e76aa	0.55649817
46	0x3eb49698	0.35271144
47	0x3dca1738	0.0986771
48	0xbd582d28	-0.05277744
49	0xbe674ee2	-0.22588685
50	0xbe1825c3	-0.14858155
51	0x3ea80975	0.32819715
52	0xbe2a664b	-0.16640584
53	0xbe078167	-0.13232957
54	0x3d7d24ff	0.06180286
55	0x3eb6f74e	0.35735554
56	0x3e07599a	0.13217774
57	0xbe5617ba	-0.20907488
58	0xbf32f182	-0.6989976
59	0x3de4248e	0.11139785
60	0xbebbb836	-0.3666398
61	0x3cff62fb	0.031175127
62	0xbe5d23ea	-0.21595731
63	0xbdef50e8	-0.116853535
64	0x3e4c1c54	0.19932681
65	0x3d85796a	0.065172985
66	0x3e9ec34b	0.31008372
67	0xbe924ef8	-0.28575873
68	0x3e649398	0.22321928
69	0x3eb1ced9	0.34728125
70	0x3f1e36a9	0.61802155
71	0xbe8b3ce3	-0.2719489
72	0xbda1a3ed	-0.078925945
73	0x3ee2fc62	0.44333178
74	0xbe02e690	-0.12783265
75	0x3e4e98b2	0.20175436
76	0x3e400d3d	0.1875505
77	0xbf1423f5	-0.57867366
78	0xbef0bc0c	-0.47018468
79	0x3f279db3	0.65475005
80	0xbeae9bfc	-0.34103382
81	0x3ea4de3a	0.32200795
82	0x3f291b37	0.6605715
83	0x3e8a8de3	0.27061376
84	0xbe610c22	-0.21977285
85	0xbefa58d6	-0.488959
86	0x3e1fd452	0.15608338
87	0x3f247e83	0.6425554
88	0xbcc97e3f	-0.024596332
89	0xbe16e07c	-0.14734071
90	0x3edc458d	0.43021813
91	0xbf439c5c	-0.7641046
92	0xbdb05de0	-0.08611655
93	0xbea2fa55	-0.31831613
94	0xbe940566	-0.2891037
95	0xbeaa8120	-0.3330164
96	0x3ea875da	0.32902414
97	0x3e1b68d3	0.15176706
98	0x3eb1b103	0.34705362
99	0xbe7f441d	-0.24928327
100	0xbe1c86c0	-0.15285778
101	0x3e0b3157	0.1359304
102	0x3e2da517	0.16957508
103	0xbe7d25dc	-0.24721473
104	0x3e33a28f	0.1754248
105	0xbe878c2d	-0.26474133
106	0x3e321a2d	0.17392798
107	0x3e9c1f47	0.30492613
108	0xbe5aba93	-0.21360235
109	0x3d378263	0.04480208
110	0x3e81be77	0.25340626
111	0xbecb45fe	-0.39701837
112	0xbf0c1399	-0.54717404
113	0xbe405932	-0.18784025
114	0x3dd14e7f	0.1022005
115	0x3e86fc3a	0.2636431
116	0xbee43d9f	-0.44578263
117	0x3ee183b6	0.440458
118	0x3dfa1eae	0.12212883
119	0xbea13de9	-0.31492546
120	0xbe5c76d4	-0.21529704
121	0x3db07df4	0.08617774
122	0xbdcc0ee1	-0.099637754
123	0x3ef7b6b7	0.48381588
124	0xbf0e03a7	-0.55474323
125	0xbf039b48	-0.51408815
126	0xbeb66fd5	-0.35632196
127	0x3e8e15a4	0.27750885
128	0x3e0f27d8	0.13980043
129	0x3e85b6ea	0.26116115
130	0xbf15d303	-0.58525103
131	0xbeb27ef8	-0.34862494
132	0xbd861d38	-0.06548542
133	0xbe2b7d4e	-0.16747019
134	0x3e810a36	0.25203103
135	0x3e9d2e38	0.30699325
136	0xbf4a73e1	-0.7908307
137	0xbf0aed21	-0.5426808
138	0x3f1dcee5	0.6164382
139	0x3e78cc5e	0.2429671
140	0x3f1bfaed	0.6092976
141	0x3d268d6e	0.04066222
142	0x3f0c15ee	0.5472096
143	0xbf6bd568	-0.9212251
144	0x3e1d3e9b	0.15355913
145	0x3f39bd30	0.725543
146	0x3ea86cb2	0.32895428
147	0xbea5fba6	-0.32418555
148	0x3f3a44ab	0.7276103
149	0x3da5a04f	0.08087217
150	0xbeffc22d	-0.49952832
151	0xbdcf699c	-0.10127565
152	0x3e3bdb66	0.18345413
153	0x3e4e67f4	0.20156842
154	0x3ed57e49	0.4169791
155	0xbf2f78b9	-0.68543583
156	0x3e5688b6	0.20950589
157	0x3f28a296	0.65873086
158	0xbe1918ad	-0.1495082
159	0x3d0850aa	0.033280052
160	0x3f016f7d	0.5056074
161	0xbf07e188	-0.5307851
162	0x3f3431ef	0.7038869
163	0xbdb8ea5e	-0.09029077
164	0x3ee75a41	0.45186046
165	0x3eb5b58c	0.35490072
166	0xbe75622c	-0.23963231
167	0x3eb9be05	0.36277786
168	0xbeee2559	-0.4651287
169	0xbe92fda7	-0.28709146
170	0xbf36bb2c	-0.7137935
171	0x3dee24de	0.116281256
172	0x3dafed6a	0.08590205
173	0x3eb43d22	0.3520289
174	0x3e9ed123	0.31018934
175	0x3e787c64	0.24266201
176	0x3e5d0c66	0.21586761
177	0xbde29e3b	-0.11065336
178	0xbeb51825	-0.35369983
179	0x3e2f8e97	0.17144237
180	0x3d0e666c	0.034765646
181	0xbefac1ff	-0.48976132
182	0xbb17dbed	-0.0023171857
183	0x3f14a8bc	0.5806997
184	0xbe8c8275	-0.2744328
185	0x3d999e13	0.075008534
186	0xbd0c66d9	-0.03427777
187	0xbe59a60b	-0.21254747
188	0x3dfa553a	0.12223287
189	0xbf38161e	-0.7190875
190	0xbefcfffa	-0.49414045
191	0x3ed8b0c6	0.42322367
192	0x3dc5f29d	0.096654154
193	0xba09895f	-0.0005246605
194	0xbd8acd83	-0.067774795
195	0x3c848348	0.016175881
196	0x3e139ad5	0.14414532
197	0xbd9d8a5e	-0.07692407
198	0x3d238695	0.03992327
199	0x3ce8b737	0.028407676
200	0xbd45c99d	-0.048287977
201	0x3ea3c835	0.31988683
202	0xbe49e3a8	-0.1971575
203	0xbe7c0c3c	-0.24614042
204	0x3d65795b	0.056023937
205	0xbef87d45	-0.48533073
206	0x3e614ce4	0.22001988
207	0x3cfdc3ba	0.030977119
208	0xbe143f84	-0.14477354
209	0xbecbd062	-0.3980742
210	0x3ec224b2	0.3791862
211	0xbea61c51	-0.3244348
212	0xbe2697e0	-0.16268873
213	0xbf16406f	-0.5869207
214	0x3f1d9a0f	0.615632
215	0x3f0b57a8	0.5443063
216	0xbbeaf021	-0.007169739
217	0x3db8aee5	0.090177335
218	0xbd8ea926	-0.06965856
219	0xbf4e9211	-0.8069163
220	0x3ee15108	0.44007134
221	0x3dfdaf9b	0.1238701
222	0xbdb67e65	-0.089108266
223	0x3ea9d3ac	0.33169305
224	0x3e4a02de	0.19727656
225	0xbde93007	-0.113861136
226	0x3e246655	0.16054662
227	0x3d16d937	0.036828246
228	0x3e140bd7	0.14457642
229	0x3e4564ac	0.19276685
230	0x3dc25fab	0.094909035
231	0x3c4169ca	0.011805007
232	0xbeccaeec	-0.39977205
233	0x3f042873	0.5162422
234	0x3f3232c5	0.6960872
235	0x3edd7cbf	0.43259236
236	0xbe8ce2b3	-0.27516708
237	0xbd9724bd	-0.07380054
238	0x3def0162	0.116701856
239	0x3ec24091	0.37939885
240	0xbee438e4	-0.44574654
241	0x3e6037e6	0.21896324
242	0x3e58466b	0.21120612
243	0xbd0b5b90	-0.034022868
244	0xbe1e1404	-0.15437323
245	0xbed0866c	-0.40727556
246	0xbed5c525	-0.41751972
247	0xbe0eba60	-0.13938284
248	0x3d79dc3a	0.06100104
249	0xbdee162f	-0.11625325
250	0xbbac77b6	-0.005263294
251	0x3ebbb22b	0.3665937
252	0x3f039a9a	0.5140778
253	0x3dfeccf7	0.12441438
254	0x3d8713c5	0.065955676
255	0x3ea9c7fd	0.3316039

network_body._body_endoder.seq_layers.0.bias f4 [128]
0	0xbcd0fd98	-0.025511548
1	0x3d10a908	0.03531745
2	0xbc244c0b	-0.010027896
3	0xbd028e22	-0.03187383
4	0x3cb7ff72	0.022460673
5	0x3c3bbeaf	0.011459037
6	0x3c31644f	0.010827138
7	0x3aa57453	0.0012623168
8	0x3aa59645	0.0012633285
9	0xbd2b251d	-0.04178344
10	0xbc72b669	-0.014813998
11	0x3d31a1b4	0.043367103
12	0xbc80ed7e	-0.015738245
13	0xbd2ac95a	-0.04169593
14	0x3d3c905c	0.04603611
15	0xbd0c9232	-0.03431911
16	0x3d4a40c5	0.049378175
17	0xbd49377a	-0.049125172
18	0x3c0fba1b	0.008772398
19	0x3bfe6560	0.0077635497
20	0xbd9a3fc0	-0.075316906
21	0x3c2e2f81	0.010631443
22	0x3c8fb188	0.017540708
23	0xbb60b84b	-0.0034289535
24	0x3bd2d3b8	0.0064339302
25	0x3e14c571	0.14528443
26	0x3a84ea8c	0.0010140701
27	0x3d2532cb	0.040331643
28	0x3dc1fa39	0.09471554
29	0x3cc43b8c	0.023954175
30	0x3d101bdd	0.035182822
31	0x3d6a029f	0.057131406
32	0xbbcf2812	-0.0063219154
33	0x3d18a8d9	0.0372704
34	0xbb4103e8	-0.0029451791
35	0x3c552348	0.0130089
36	0x3d22e094	0.039764956
37	0xbce54d5c	-0.02799099
38	0x3cd09b3a	0.025464643
39	0xbe03f0a5	-0.12884767
40	0xbd8ba9d4	-0.068195015
41	0x3e2cbe1d	0.16869397
42	0xbdb7aea5	-0.08968858
43	0x3c752189	0.014961609
44	0xbe1ddd35	-0.15416415
45	0x3d1c5bf3	0.038173627
46	0x3d3c5cc3	0.045986902
47	0x3d4c2ea1	0.049849156
48	0xbc5a28e2	-0.013315411
49	0x3d73d644	0.05953051
50	0x3dd43b62	0.10362889
51	0x3dff5c4e	0.124687776
52	0x3d93a093	0.072083615
53	0xbc9b4480	-0.018953562
54	0xbb82c329	-0.00399055
55	0x3c9b910e	0.018990066
56	0xbd7b0065	-0.061279673
57	0x3cd8c932	0.026463125
58	0xbe145342	-0.14484885
59	0x3d388a72	0.045053907
60	0x3cd00c95	0.025396625
61	0x3bf33e21	0.007423178
62	0x3d069250	0.03285438
63	0xbd4bbb20	-0.049739003
64	0x3c1b6333	0.0094841
65	0xbc9b671c	-0.018970065
66	0xbd8f50cf	-0.06997835
67	0x3df0dca7	0.11760836
68	0xbcc56a01	-0.024098398
69	0x3d2b8cd8	0.041882366
70	0x3d99e9f8	0.07515329
71	0x3d4bcf90	0.049758494
72	0x3c48ed11	0.012263552
73	0xbdee3393	-0.11630931
74	0x3dbe8862	0.09303357
75	0x3c55fb03	0.013060334
76	0x3b9f1d4d	0.004855788
77	0x3cd4ec5c	0.025991611
78	0xbd1f9bf8	-0.038967103
79	0x3dc3faf7	0.09569352
80	0x3cdd922d	0.027047241
81	0xbdd2b6a3	-0.102887414
82	0x3d00dbd7	0.031459656
83	0xbdfcaaf1	-0.12337292
84	0x3daa2df7	0.08309548
85	0xbd47da07	-0.04879191
86	0x3da6d264	0.081455976
87	0x3cc3f167	0.02391882
88	0x3d14fd44	0.036374345
89	0xbd404c53	-0.04694779
90	0x3ce99ab0	0.028516144
91	0xbced8eab	-0.028998693
92	0x3c180df7	0.009280673
93	0xbd9c9520	-0.07645631
94	0x3c788687	0.015168793
95	0xbcab2f9e	-0.02089673
96	0x3d3426cd	0.043982316
97	0x3d4c188a	0.04982809
98	0xbe024913	-0.12723188
99	0x3cf0fbd4	0.029416956
100	0xbd8e957d	-0.069621064
101	0x3b4511ce	0.0030070427
102	0xbe14870f	-0.14504646
103	0xbcd67c76	-0.026182394
104	0x3d92e225	0.0717204
105	0xbc545a7a	-0.012961024
106	0x3ca49c4e	0.020094063
107	0x3d34a9b6	0.04410716
108	0x3db94c76	0.09047787
109	0x3b47d55e	0.0030492167
110	0x3d3a86d5	0.045538742
111	0x3d060b59	0.032725666
112	0x3d3020b6	0.042999946
113	0xbd26fb6f	-0.04076713
114	0x3bc8ed8c	0.0061318334
115	0x3d70f6bd	0.058829058
116	0xbd8dee38	-0.06930202
117	0xbdb9fe01	-0.090816505
118	0x3d29bb23	0.041438233
119	0x3cbb7fac	0.022888027
120	0x3e37403f	0.17895602
121	0xbd8d2a6f	-0.06892859
122	0x3d137f30	0.036009967
123	0x3cbd9448	0.023141995
124	0x3e1ca25f	0.15296315
125	0x3daa7e15	0.083248295
126	0xbcc6d109	-0.024269598
127	0x3c51138a	0.012761006

network_body._body_endoder.seq_layers.2.weight f4 [128, 128]
0	0xbdc9f267	-0.09860688
1	0xbbf650c4	-0.007516952
2	0xbdc26681	-0.09492207
3	0x3a8a2754	0.0010540285
4	0xbc4bff04	-0.012450937
5	0xbc8e83eb	-0.017396888
6	0x3d6e5a7d	0.058191765
7	0xbe288ed3	-0.16460733
8	0x3c08c1c6	0.00834698
9	0x3d493405	0.049121875
10	0xbb69ec0d	-0.0035693676
11	0xbd160da7	-0.036634114
12	0xbe030baf	-0.12797426
13	0x3e027405	0.1273957
14	0xbdebb018	-0.115081966
15	0xbd6b5712	-0.057456084
16	0xbda6d71d	-0.08146498
17	0x397e7b3e	0.00024269239
18	0xbd9c1c24	-0.07622555
19	0x3dba1930	0.090868354
20	0xbce945a6	-0.028475594
21	0x3d700dfa	0.05860708
22	0xbcd9fefe	-0.026610848
23	0x3e2a27d6	0.16616759
24	0x3e283092	0.16424778
25	0xbe20ec4a	-0.15715137
26	0xbe0e9d8b	-0.13927285
27	0xbbe3bf8a	-0.0069503235
28	0xbe578ec7	-0.21050559
29	0xbe922e05	-0.28550735
30	0xbbf0a6c4	-0.0073440988
31	0x3da03e1f	0.07824349
32	0xbd55351b	-0.0520526
33	0xbd8693ac	-0.06571135
34	0x3ca5dc3c	0.020246617
35	0xbc13f2b9	-0.009030038
36	0x3d42a448	0.047519952
37	0xbd096e6f	-0.033552583
38	0xbd9c19c0	-0.07622099
39	0x3c5a40ec	0.013321143
40	0x3c8740f3	0.016510462
41	0xbda088c3	-0.07838585
42	0x3dfa1987	0.122119
43	0x3ce4bc46	0.027921807
44	0xbe0e5a55	-0.13901646
45	0x3e27765b	0.16353743
46	0x3d744e01	0.059644703
47	0x3d6d8fac	0.057998344
48	0xbd2917c1	-0.04128242
49	0xbd84e7c4	-0.06489518
50	0xbdcef72d	-0.10105739
51	0xbcec10e4	-0.028816648
52	0xbe449192	-0.19196156
53	0xbcb15006	-0.021644603
54	0x3cfbc59c	0.030733876
55	0xb7c42020	-2.337998e-05
56	0x3d16678b	0.03671984
57	0x3a503f33	0.0007943988
58	0x3da28ace	0.07936631
59	0xbd9043ea	-0.070442036
60	0x3e3ba676	0.18325219
61	0xbd9c9dd4	-0.07647291
62	0x3d69cfdb	0.057082992
63	0xbdc6db28	-0.097097695
64	0x3d1408dc	0.03614126
65	0x3e3621a4	0.1778627
66	0xbe84b803	-0.2592164
67	0xbdac2053	-0.08404603
68	0xbdc4515a	-0.09585829
69	0xbda3db4e	-0.080008134
70	0xbd1d794c	-0.038445756
71	0xbda8c9e0	-0.082416296
72	0xbc3e9723	-0.0116327135
73	0xbcc66ae9	-0.0242209
74	0xbd9b4a40	-0.075825214
75	0xbd5141f9	-0.051088307
76	0x3d776be1	0.060405616
77	0xbdc3a07b	-0.095520936
78	0xbc88d85d	-0.016704733
79	0xbe06bf11	-0.13158824
80	0x3d74a723	0.059729706
81	0x3e00c4bf	0.12575053
82	0xbdc2464e	-0.09486066
83	0x3ca750fb	0.020424357
84	0x3de0eaf2	0.10982312
85	0x3d9cea57	0.07661884
86	0xbd9bfe61	-0.07616878
87	0x3d87a97b	0.06624123
88	0xbcee5ea6	-0.029097866
89	0x3d700502	0.058598526
90	0x3e04955c	0.12947601
91	0x3d8e6e32	0.06954612
92	0x3db0e2ad	0.08636985
93	0x3d1952d3	0.037432503
94	0xbcca61f3	-0.024704909
95	0xbdaed694	-0.08537021
96	0x3da17022	0.07882716
97	0xbc88b33c	-0.016687028
98	0xbc2e3812	-0.010633485
99	0xbcdfeb6e	-0.027333941
100	0x3dcd2f9e	0.10018848
101	0x3c42bed9	0.011886322
102	0x3d74b3f2	0.05974192
103	0x3d7cdc21	0.06173337
104	0x3dce554d	0.100748636
105	0xbdd183db	-0.102302276
106	0xbd8c4fd0	-0.068511605
107	0x3d796a85	0.0608926
108	0xbe16986c	-0.14706582
109	0x3e089389	0.1333753
110	0x3d0bb891	0.034111563
111	0xbd526e14	-0.05137451
112	0x3ccacb85	0.024755249
113	0xbd3c1293	-0.04591615
114	0xbe326a1d	-0.17423292
115	0xbd70c6b6	-0.058783256
116	0x3e00c333	0.12574463
117	0x3d298284	0.041384235
118	0x3dbb871b	0.09156629
119	0xbccfc74a	-0.025363583
120	0xbd5456ab	-0.051840466
121	0x3d5561d6	0.052095257
122	0x3b8d640f	0.0043149064
123	0xbd5c1559	-0.053731296
124	0xbc1f076e	-0.009706361
125	0x3a31a1fe	0.0006776153
126	0xbdab2a34	-0.08357659
127	0xbdd3ef6c	-0.103484005
128	0x3ce809e8	0.028325036
129	0x3d0d0d39	0.03443644
130	0x3d8cd27a	0.06876083
131	0xbe648a9b	-0.22318499
132	0x3dc3c7c5	0.095595874
133	0x3c78ddca	0.015189597
134	0xbd299d3f	-0.041409727
135	0xbd8d0bc7	-0.06887012
136	0xbd74ce62	-0.059767134
137	0xbde67af8	-0.11253923
138	0x3d1e056c	0.03857939
139	0xbe08f3bb	-0.13374226
140	0xbe04febb	-0.12987797
141	0xbdf1c27c	-0.11804673
142	0x3e28b454	0.1647504
143	0x3da47d38	0.08031696
144	0xbd585023	-0.0528108
145	0xbda44544	-0.08021024
146	0x3dec064e	0.1152464
147	0x3e1e2784	0.15444762
148	0xbe4d1d2b	-0.20030658
149	0x3e53f6d0	0.2069962
150	0x3bee2b0f	0.0072683166
151	0x3cf45787	0.029826893
152	0xbe38aece	-0.18035433
153	0xbc47b3ce	-0.012188865
154	0xbd0c19c7	-0.03420427
155	0xbd9d4929	-0.0767997
156	0x3c5170b1	0.012783215
157	0xbcb6015c	-0.022217445
158	0x3d9d8af9	0.076925226
159	0xbd588257	-0.052858677
160	0x3d6ba561	0.057530764
161	0x3c664ba5	0.014056121
162	0xbd1b1260	-0.03785932
163	0xbe21b48a	-0.15791526
164	0xbdc981e6	-0.09839229
165	0x3e5ac25f	0.21363209
166	0x3d48eb95	0.049052794
167	0xbba8ce32	-0.0051515335
168	0xbe0d93e2	-0.13825944
169	0xbd949699	-0.07255287
170	0x3db3363f	0.08750581
171	0xbdbd2d35	-0.09237138
172	0xbd6f71d3	-0.05845816
173	0xbdf2137e	-0.11820124
174	0xbd9532ed	-0.07285104
175	0x3d6a2863	0.057167422
176	0xbe1f87b1	-0.15579106
177	0x3d5de1ee	0.05417054
178	0x3d2b9fc3	0.041900408
179	0x3e4d6a18	0.20060003
180	0x3dfa481e	0.122207865
181	0x3e0029b5	0.1251591
182	0xbe2733d3	-0.16328363
183	0x3db9d881	0.09074498
184	0xbe210d18	-0.15727651
185	0x3d9b4160	0.07580829
186	0xbd963967	-0.073351674
187	0xbe85a4ce	-0.26102298
188	0xbe5b5194	-0.21417838
189	0x3e386fc6	0.18011388
190	0xbce857cd	-0.02836218
191	0xbe3f46cc	-0.1867935
192	0xbd4c1b1c	-0.04983054
193	0xbdfcd06a	-0.12344439
194	0xbde2510a	-0.11050613
195	0xbe4dde32	-0.20104292
196	0xbe18acdc	-0.1490969
197	0x3d2441f6	0.040101968
198	0x3dde7689	0.108624525
199	0x3e160c3a	0.14653102
200	0xbe776bd2	-0.24162224
201	0xbce0601d	-0.02738958
202	0x3e4323ad	0.19056578
203	0xbd84c96a	-0.06483729
204	0xbc8c5d3d	-0.017134303
205	0xbe1d08d7	-0.15335403
206	0xbc77ae19	-0.015117192
207	0xbcdcdeeb	-0.026961764
208	0x3d12543b	0.03572486
209	0xbbf12f54	-0.0073603783
210	0xbdec5365	-0.11539344
211	0xbdd8ac33	-0.105797194
212	0x3da84631	0.08216513
213	0x3d0abf0d	0.033873606
214	0xbd783f45	-0.060607214
215	0x3e0ffe7d	0.14061923
216	0x3e5e91ed	0.21735354
217	0xbd963937	-0.073351316
218	0xbe063d5f	-0.13109349
219	0xbe596f33	-0.21233825
220	0xbd8abe2a	-0.06774552
221	0x3d6e7251	0.05821449
222	0x3cb4d6f2	0.02207515
223	0x3d83d450	0.0643698
224	0x3e19267a	0.14956084
225	0xbe2f2187	-0.17102633
226	0xbe043022	-0.12908986
227	0x3c844a41	0.016148688
228	0xbe0d4ab6	-0.13798031
229	0xbcde9b59	-0.027173685
230	0xbdd14840	-0.10218859
231	0x3dec5244	0.115391284
232	0x3e1235d9	0.14278354
233	0x3d5ac5f8	0.053411454
234	0x3d85b52d	0.06528697
235	0x3de9294e	0.11384831
236	0x3d981cc6	0.07427363
237	0xbe73898a	-0.23782936
238	0x3e027bd6	0.12742552
239	0xbdd72d11	-0.105066426
240	0xbdc11ca0	-0.09429288
241	0xbdaf768f	-0.08567535
242	0x3cca904c	0.02472701
243	0xbdb54e64	-0.088528425
244	0xbd94e55b	-0.072703086
245	0xbd2d5927	-0.04232135
246	0xbd7bf0cb	-0.061508935
247	0x3d5c5351	0.053790394
248	0xbe0b8fd5	-0.13629086
249	0xbd86e821	-0.06587244
250	0x3d4618f7	0.048363652
251	0x3e777d48	0.24168885
252	0xbe10590e	-0.14096472
253	0xbd17cff4	-0.037063554
254	0xbde8ad55	-0.113611855
255	0x3d96d5e6	0.07365017

network_body._body_endoder.seq_layers.2.bias f4 [128]
0	0xbc931cda	-0.017958093
1	0x3da74e2c	0.08169207
2	0x3c34f6ef	0.011045202
3	0xbd16bc62	-0.03680075
4	0xbe43caed	-0.19120379
5	0x3cad42c8	0.021150008
6	0x3c5b6a8f	0.013392105
7	0xbd1550d5	-0.03645404
8	0xbc5b11b7	-0.013370923
9	0xbd1c4721	-0.03815377
10	0x3ce0fb1f	0.027463494
11	0x3d0dd40a	0.034626044
12	0x3d19ca99	0.037546728
13	0x3b79ad09	0.0038097522
14	0x3cce049a	0.025148679
15	0xbdeadf7e	-0.11468409
16	0x3c67def4	0.014152277
17	0x3cbd4656	0.023104828
18	0x3cab9ead	0.020949686
19	0xba31cf43	-0.00067828986
20	0xbc2aadc2	-0.010417404
21	0xbc1c1a5a	-0.009527767
22	0xbd95708a	-0.07296856
23	0xbe000cc4	-0.1250487
24	0x3cfe259e	0.031023797
25	0x3d8c0f6f	0.06838881
26	0xbd344b08	-0.044016868
27	0xbd712d40	-0.058881044
28	0x3c2953ca	0.010334918
29	0x3d277a90	0.04088837
30	0xba1da0eb	-0.00060130534
31	0xbd6bf706	-0.057608627
32	0xbe351520	-0.1768384
33	0x3b5bbb18	0.0033528265
34	0x3ddabd39	0.106806226
35	0xbd8d5c0a	-0.06902321
36	0xbd045dfb	-0.03231619
37	0x3d04b199	0.032395933
38	0x3cbe082d	0.023197258
39	0xbd21caa6	-0.0394999
40	0x3ce4ab34	0.027913667
41	0x3d750aa8	0.059824616
42	0x3d973fbd	0.07385204
43	0x3ce717bf	0.028209565
44	0xbdc0965d	-0.094036795
45	0xbce62ba2	-0.028096978
46	0xbd5c857d	-0.05383824
47	0x3a9cdbea	0.0011967395
48	0x3d0c1c36	0.03420659
49	0xbc28b8b7	-0.010297946
50	0x3c731480	0.014836431
51	0x3a95e16c	0.0011434979
52	0x3d5d9179	0.05409381
53	0x3cb7ba9d	0.022427851
54	0xbdeef409	-0.1166764
55	0xbc7f868d	-0.015596044
56	0xbd5b70d6	-0.053574406
57	0xbd8a947c	-0.067666024
58	0x3cc9cb27	0.024633003
59	0xbe0bfe7b	-0.13671295
60	0x3d057e35	0.032591064
61	0x3d6a6a4c	0.05723028
62	0xbd293079	-0.041305993
63	0xbd573ac6	-0.052546285
64	0xbbe01d29	-0.0068394137
65	0x3d05c936	0.032662593
66	0xbcc25805	-0.023723612
67	0x3c201c1f	0.00977233
68	0xbaf6164e	-0.0018774958
69	0xbce6459c	-0.028109364
70	0xbdfc23a2	-0.12311484
71	0xbde04d43	-0.109522365
72	0x3d767be6	0.060176753
73	0xbbe79dd8	-0.007068377
74	0xbcf3246c	-0.029680453
75	0xbe304b81	-0.17216302
76	0xbd32bf76	-0.043639623
77	0xbe43a5be	-0.19106194
78	0xbe59a57b	-0.21254532
79	0x3dd94e32	0.10610618
80	0x3d82b95f	0.06383013
81	0x3b88b6f1	0.004172199
82	0x3c0d7ece	0.00863619
83	0x3d2d00b4	0.042237
84	0x3c96baca	0.018399615
85	0x3d8b44d9	0.06800241
86	0xbc664ec3	-0.014056864
87	0xbd46c778	-0.048530072
88	0x3d13dcd7	0.03609928
89	0x3cbb2703	0.02284575
90	0xbdb41828	-0.0879367
91	0xbe008e97	-0.12554394
92	0xbd29acfa	-0.04142473
93	0xbcc0add4	-0.023520388
94	0xbddbbe00	-0.10729599
95	0xbad308ab	-0.0016100606
96	0x3ccfe55d	0.025377924
97	0xbc57d152	-0.013172464
98	0x3d3d45bb	0.04620908
99	0x3cb42350	0.021989495
100	0x3b35f5a7	0.0027764828
101	0xbc3d6f8d	-0.01156224
102	0x3d03dd3d	0.03219341
103	0x3c10f93d	0.008848486
104	0x3c7d3972	0.015455591
105	0x3d010bed	0.031505514
106	0x3b71743d	0.0036842965
107	0x3d943c07	0.07238012
108	0x3d752f40	0.059859514
109	0xbdba1141	-0.09085322
110	0xbcf4dcb7	-0.029890401
111	0x3c45c0d3	0.012069899
112	0x3c5917df	0.01325032
113	0x3d849381	0.06473447
114	0x3cde34e7	0.027124835
115	0xbdf376f2	-0.118879214
116	0x3d7bddd5	0.061490852
117	0xbc80357e	-0.015650507
118	0xbd5c7481	-0.053822044
119	0xbd33b5d8	-0.04387459
120	0x3d8f489e	0.069962725
121	0x3d097c5e	0.03356587
122	0xbc879121	-0.016548695
123	0xbcf6f700	-0.030147076
124	0x3cc65449	0.024210112
125	0x3b5fcf4c	0.0034150658
126	0xbcc52c9e	-0.024069127
127	0x3d22614d	0.039643575

action_model._continuous_distribution.log_sigma f4 [1, 3]
0	0xbde1911f	-0.11014008
1	0xbeb7423c	-0.3579272
2	0xbe0222d9	-0.12708606

action_model._continuous_distribution.mu.weight f4 [3, 128]
0	0x3cca93e7	0.024728728
1	0x39afd3fe	0.00033536548
2	0x3bdb914b	0.00670067
3	0xbc90a2ba	-0.01765572
4	0xbb4a5016	-0.003087049
5	0x3c8e7495	0.017389575
6	0x3b9f580a	0.00486279
7	0xbcd582da	-0.026063371
8	0xbcd324d7	-0.025774403
9	0xbd199259	-0.037493084
10	0xbacf5da0	-0.0015820749
11	0x3ba55988	0.0050460733
12	0xbcf8bbc4	-0.030362971
13	0x3c08863c	0.008332785
14	0x3c097879	0.008390539
15	0x3be77bdc	0.0070643257
16	0x3d048c3e	0.032360308
17	0x3cc4ccd2	0.024023447
18	0xbcabd981	-0.020977737
19	0x3ca89f85	0.020583877
20	0xbc4a2820	-0.012338668
21	0xbd0d7075	-0.034531076
22	0xbc0e4db9	-0.008685523
23	0xbc8e965b	-0.01740568
24	0x3be5d8c6	0.007014367
25	0x3cbd1baa	0.02308448
26	0x39a7f432	0.00032034662
27	0x3d08b0a2	0.033371575
28	0xbc3bbda4	-0.011458788
29	0x3ce9c51f	0.028536377
30	0x3c89c70c	0.016818546
31	0x3bc57815	0.006026278
32	0xbd512f48	-0.05107048
33	0x3d4c725d	0.049913753
34	0xbd225fb5	-0.039642055
35	0xbb457f64	-0.0030135745
36	0x3c84b826	0.01620109
37	0xbb37c924	-0.0028043473
38	0x3d409391	0.04701573
39	0x3c17c922	0.009264262
40	0xbd0913b5	-0.03346606
41	0xbcd5b4f9	-0.026087271
42	0x3af4f095	0.0018687422
43	0x3ba92588	0.005161945
44	0x3b114cfa	0.0022171126
45	0xbd19cfaa	-0.03755156
46	0xbcc1cbec	-0.023656808
47	0xbd0685cf	-0.032842454
48	0x3c267c2b	0.01016144
49	0x3c3b3454	0.01142605
50	0x3ca33e2d	0.019927109
51	0x3b20a860	0.0024514422
52	0xbe064fa3	-0.13116316
53	0x3bb17d27	0.0054165307
54	0xbc541631	-0.012944744
55	0xbcbcb3b4	-0.023034908
56	0x3c71e8dc	0.014764991
57	0xbcf7a322	-0.030229155
58	0x3bc47fe1	0.0059966897
59	0xbb73faab	-0.0037228267
60	0x3c238d9d	0.009982494
61	0x3bc2d256	0.005945484
62	0x3ce9a50a	0.02852108
63	0xbcc99549	-0.024607318
64	0xbd1878e9	-0.037224684
65	0x3b7f7012	0.0038976711
66	0x3d72e7de	0.059303157
67	0xbabbf942	-0.0014341252
68	0x3cb36006	0.021896373
69	0xbb80b4b4	-0.0039277915
70	0x3dd3bf32	0.10339202
71	0xbbceafc6	-0.006307575
72	0xbc67794c	-0.0141280405
73	0xbcd6781a	-0.026180316
74	0x3b733602	0.0037111049
75	0xbc7a6d1a	-0.015284801
76	0x3b4bbd5f	0.0031088216
77	0xbcf61a30	-0.030041784
78	0x3befa165	0.007312941
79	0x3c016672	0.00789796
80	0x3d8fb200	0.07016373
81	0x3d117ac3	0.035517465
82	0xbd49448a	-0.04913763
83	0xbc3f81fd	-0.011688706
84	0xbd1b3a96	-0.03789767
85	0xbcd3578d	-0.025798583
86	0x3d6bcaaa	0.057566322
87	0xbbc4b658	-0.0060031824
88	0x3c1c5ddd	0.009543863
89	0x3caa1d70	0.02076599
90	0xbc9bc41f	-0.019014416
91	0xbce64068	-0.028106883
92	0xbb68b86d	-0.0035510317
93	0xbd005d6c	-0.031339094
94	0xbd569ced	-0.05239575
95	0x3d01ddf4	0.03170581
96	0xba38418a	-0.0007028809
97	0xbcef234a	-0.029191632
98	0xbc4e8270	-0.012604341
99	0xbc6ffeef	-0.014648183
100	0x3bd5f92b	0.0065299473
101	0x3b9290eb	0.004472842
102	0x3d0988d5	0.03357776
103	0xbc7dd81e	-0.015493421
104	0x3c36eec7	0.011165327
105	0x3cab7b13	0.02093271
106	0xbd3bce8c	-0.045851275
107	0xbd01a4e0	-0.031651378
108	0xbba80b8c	-0.0051283296
109	0xbc1e076f	-0.009645327
110	0xb91cb39a	-0.00014944226
111	0xbaf5054e	-0.0018693598
112	0xbc999f89	-0.01875283
113	0xbd8ecd29	-0.06972725
114	0x3c8a2d0f	0.016867189
115	0xbc0825ba	-0.008309776
116	0xbdbb5c86	-0.09148507
117	0x3ce0e8e8	0.027454808
118	0xbbbc94dc	-0.00575505
119	0x3c7b25b2	0.0153288115
120	0x3bebdbc4	0.007197829
121	0x3c7f0e5a	0.0155673865
122	0x3c9d89a6	0.019230675
123	0xbb83d08f	-0.004022665
124	0x3cc5e225	0.024155686
125	0x3c7c548a	0.015401015
126	0xbe019111	-0.12652995
127	0x3c2041d0	0.009781316
128	0x3c0a9451	0.008458213
129	0xbd9c482e	-0.07630955
130	0xbc18583f	-0.009298383
131	0x3cd43775	0.02590535
132	0x3e0255ec	0.12728089
133	0xbbea1ea0	-0.007144764
134	0xbc2d3ba4	-0.010573301
135	0x3d09be00	0.033628464
136	0x3c61b961	0.013777108
137	0x3c971b9b	0.01844578
138	0x3c077739	0.008268171
139	0xbc78ddfe	-0.015189646
140	0xbca95ff6	-0.02067564
141	0xbc189a3f	-0.009314119
142	0xbcbbdc63	-0.022932237
143	0x3cb35e95	0.021895686
144	0x3bab1929	0.005221505
145	0xbc33a9e7	-0.010965801
146	0x3bac8a11	0.0052654822
147	0x3b4884b6	0.003059668
148	0xbbb9e57b	-0.005673108
149	0xbb43c127	-0.0029869766
150	0x3cee9e68	0.029128268
151	0x3dbcc5b9	0.092174
152	0xbbac691d	-0.005261554
153	0x3b6004a4	0.0034182454
154	0x3cf7c377	0.030244572
155	0x3d1d9261	0.038469676
156	0xbbee9206	-0.007280591
157	0xbd16cfa1	-0.036819104
158	0x3b20b255	0.0024520357
159	0x3d257671	0.040396158
160	0x3d69e24a	0.05710057
161	0x3cbd725c	0.02312582
162	0xbd2bf9aa	-0.041986145
163	0x3d0d2d51	0.034467045
164	0x3c9af075	0.018913487
165	0xbc140fee	-0.009037001
166	0x3bd14bbd	0.0063872025
167	0x3c209786	0.009801751
168	0xbceed3ca	-0.029153723
169	0xbd5f65dc	-0.0545405
170	0xbc0bd0b8	-0.008533649
171	0xbc7c8267	-0.01541195
172	0x3d04daf2	0.032435365
173	0x3c1cb960	0.009565681
174	0x3cbf5c23	0.023359364
175	0xbc18d701	-0.009328605
176	0xbcf1ab92	-0.029500756
177	0x3c34d4bb	0.011037047
178	0xbbe3b69d	-0.0069492594
179	0x3b5abf80	0.0033378303
180	0x3cadcae4	0.02121491
181	0xbb0e0b34	-0.0021674158
182	0x3c9e3c28	0.019315794
183	0xbaef4875	-0.0018255847
184	0x3c947529	0.018122273
185	0x3c8b22a9	0.0169843
186	0xbcf47bd9	-0.029844211
187	0x3c829cd2	0.015943918
188	0xba0536d6	-0.00050817186
189	0xbc3fd43b	-0.0117083145
190	0x3c490541	0.012269319
191	0x3c90cbf5	0.01767538
192	0xbcd06495	-0.025438586
193	0xbb491e98	-0.0030688401
194	0xbd748d54	-0.059705094
195	0x3aca65db	0.0015441732
196	0xbc1676f8	-0.009183638
197	0x3aadd46e	0.0013262162
198	0xbc1b64c8	-0.009484477
199	0x3c6f62b9	0.01461094
200	0xbc65befe	-0.014022587
201	0xbc3637cb	-0.0111217005
202	0x3c14e19e	0.009086994
203	0x3d82acda	0.06380625
204	0xbb0f08ae	-0.0021825242
205	0x3da756fe	0.08170889
206	0x3e0ee5b4	0.13954812
207	0xbc9b9a77	-0.018994553
208	0x3c42e1bb	0.011894639
209	0x3c15295c	0.009104099
210	0xbc7c23bf	-0.015389382
211	0xbc83bb78	-0.016080603
212	0xbd19a260	-0.03750837
213	0xbd51e7f2	-0.05124659
214	0x3d4c8b9a	0.049937822
215	0x3c85c12a	0.01632746
216	0x3bd61aac	0.0065339413
217	0xbc6e40e8	-0.014541842
218	0x3c5e04ee	0.01355098
219	0x3d22a012	0.039703436
220	0x3c42000f	0.011840834
221	0x3bd77473	0.006575161
222	0x3da96368	0.08270913
223	0x3c1ad67a	0.009450549
224	0x3b830a6e	0.003999046
225	0x3a1d3cb2	0.0005998119
226	0x3c951d7f	0.018202541
227	0xbc64b04d	-0.013958049
228	0x3baf84e6	0.005356419
229	0xbc09f058	-0.008419119
230	0xbc904d78	-0.017615065
231	0xbc11e513	-0.008904713
232	0xbb842b8a	-0.0040335106
233	0x3c02454b	0.007951091
234	0xbbc71028	-0.006074924
235	0xbd79c76e	-0.060981207
236	0xbc8c006f	-0.01709005
237	0x3cafc31c	0.02145534
238	0x3bd36009	0.0064506573
239	0xbb89d08b	-0.0042057685
240	0xbd0a682b	-0.03379075
241	0xbd3b8a06	-0.045785926
242	0xbbe4d193	-0.006982991
243	0x3ce9ee60	0.028556049
244	0xbca6db7f	-0.020368336
245	0x3ca6e857	0.02037446
246	0x3c78b27b	0.015179272
247	0x3cbd1a77	0.023083908
248	0xbce557cb	-0.027995965
249	0x3a44816d	0.00074960926
250	0x3c6ce389	0.0144585455
251	0x3bfe4cef	0.007760636
252	0xba62613c	-0.0008635705
253	0x397b7c6c	0.00023983576
254	0xbadc0188	-0.0016785124
255	0xbb99c3fc	-0.0046925526

action_model._continuous_distribution.mu.bias f4 [3]
0	0x3c8d5d32	0.017256353
1	0xbd4f0b29	-0.050547753
2	0xbbbdb5f8	-0.0057895146

onnx::Div_51 f4 [7]
0	0x418b14a5	17.38508
1	0x419c15c2	19.510624
2	0x41688758	14.533043
3	0x4283df82	65.93654
4	0x3e606124	0.21912056
5	0x42816002	64.687515
6	0x3f1e5193	0.6184322
